model/GRU-000628.pth (torch, 790039 bytes, 5 tensors)

weight_ih_l0 f4 [750, 10]
0.01234737 -0.033169806 -0.0033897513 0.04702746 0.008228137 0.017499335 0.014692995 0.0021384729
-0.09840764 -0.03141624 -0.059634767 -0.12498708 -0.097447045 -0.12811488 -0.039951917 0.12269401
0.16934551 -0.13118125 -0.19062354 0.14736985 -0.09757137 0.045434915 0.1743203 0.15014134
0.15986791 0.018444601 0.034943976 0.017037636 -0.02659476 -0.080360316 0.022482283 0.1214777
0.14110386 0.1433909 0.10299822 -0.0886179 0.0034412916 -0.009223029 0.044614173 0.036434937
-0.12631924 0.17382309 0.09887931 0.122491956 0.10743447 -0.09501424 -0.074861884 0.021617249
0.07542318 -0.061145976 0.0020107033 0.022694236 0.10373305 0.050959755 -0.007826728 -0.07693999
-0.09549081 -0.008062821 0.07349876 -0.1062526 -0.01846705 0.18517503 0.16794588 0.19145674
0.13797009 0.096546456 -0.035243224 0.040497232 0.07673589 -0.11589438 -0.21537259 0.15740709
0.171709 0.25703532 0.17164572 -0.17672758 -0.1641758 0.13507327 0.21050976 -0.18657336
0.13533303 0.5470377 0.5591812 0.5321061 0.51744074 -0.1471638 -0.11695522 0.24199088
0.31022874 -0.47104156 -0.05928607 0.091330536 0.08847572 0.13026989 0.1105251 0.04273887
-0.106090225 0.11392053 0.0750248 -0.13433465 0.086287215 0.13099983 0.17607813 0.19788302
0.21888997 0.0078037316 0.000499089 0.106742255 0.088922404 -0.12526593 0.026955683 0.01880362
-0.04573891 -0.017076762 -0.03990403 0.073933914 0.067153186 -0.08799124 -0.09624254 0.040926415
-0.036583632 0.058503743 0.14497301 0.09636606 0.17882697 -0.12195417 -0.050485022 0.10087346
0.03138808 -0.060103133 0.13906345 0.1141278 0.10830494 0.10705558 0.11276321 0.05608959
-0.14402866 0.10795431 0.031279866 -0.21684612 -0.045164857 0.09023838 0.11738195 0.06896898
0.06817648 -0.10478487 -0.04171586 0.0076142484 0.06054605 -0.024656588 -0.09511481 0.13738154
0.11123214 0.10921813 0.14630108 -0.30004355 -0.17160791 0.16281001 0.21141677 -0.07029434
0.20149852 -0.08678536 -0.08706779 -0.07725876 -0.08847759 0.15451379 0.17360903 -0.055540368
-0.112593725 0.123654366 -0.11967823 0.19514199 0.24284416 0.22760049 0.29529792 -0.1380333
-0.25361562 0.28783855 0.30360073 -0.31086937 -0.14866993 0.6216706 0.4905772 0.60497564
0.5826685 -0.22853534 -0.22766267 0.4110808 0.40573868 -0.24548103 -0.0017707996 0.14887443
0.1267525 0.1346317 0.059814647 -0.012407144 -0.10715781 0.08137229 0.09868227 -0.12970865
-0.002228529 0.28965777 0.29791963 0.28746235 0.2276069 0.030692168 -0.11870325 0.17617773
0.14682028 -0.28681538 0.18192798 0.040065754 -0.0612418 0.03150217 -0.029332368 0.017743254
-0.069298506 0.14919609 0.14547738 -0.20777178 0.096774146 0.108927704 0.10378211 0.07598466
0.15194671 -0.22289808 0.049121946 -0.09544702 -0.08586553 -0.022712206 0.021248294 0.004382892
-0.008427756 -0.0010799443 0.0070086652 0.06822267 0.05166161 -0.13398485 -0.105145276 0.0626695
-0.2305062 0.024333753 0.040332045 0.06102081 0.05223303 0.06288589 -0.1956497 0.11988584
0.10645468 -0.12241882 -0.053369634 0.1203138 0.107201025 0.098043986 0.06718022 -0.15099107
00000000: a04c 4a3c 10dd 07bd 9726 5ebb de9f 403d
00000010: 4fcf 063c c45a 8f3c e3ba 703c 9f25 0c3b
00000020: f289 c9bd 51ae 00bd 9643 74bd 3af9 ffbd
00000030: 5192 c7bd 8c30 03be 9fa4 23bd ff46 fb3d
00000040: e968 2d3e 6154 06be d132 43be 1fe8 163e
00000050: 80d3 c7bd f619 3a3d 0581 323e a7be 193e
00000060: 6ab4 233e 2219 973c 6a21 0f3d 8392 8b3c
00000070: 41dd d9bc f393 a4bd c42c b83c 4dc9 f83d
00000080: 887d 103e 10d5 123e bbf0 d23d 4d7d b5bd
00000090: 4b87 613b 301c 17bc 5abd 363d cd3c 153d
000000a0: d559 01be aefe 313e 3c81 ca3d 10dd fa3d
000000b0: 9a06 dc3d d396 c2bd 3051 99bd a816 b13c
000000c0: 7877 9a3d 3474 7abd 01c6 033b 43e9 b93c
000000d0: fe71 d43d 2dbb 503d ad3b 00bc b792 9dbd
000000e0: b090 c3bd ec19 04bc 8586 963d f79a d9bd
000000f0: 3648 97bc 869e 3d3e 01fa 2b3e 3c0d 443e
00000100: 0848 0d3e 26ba c53d 335b 10bd 6de0 253d
00000110: b527 9d3d 085a edbd a28a 5cbe 532f 213e
00000120: 7cd4 2f3e 229a 833e e5c3 2f3e 13f8 34be
00000130: b31d 28be a650 0a3e df8f 573e 160d 3fbe
00000140: be94 0a3e aa0a 0c3f 8026 0f3f 1b38 083f
00000150: ff76 043f 1bb2 16be 3886 efbd 75cc 773e
00000160: 4dd6 9e3e 5c2c f1be f3d5 72bd 810b bb3d
00000170: c232 b53d 7865 053e fc5a e23d f40e 2f3d
00000180: d545 d9bd 2b4f e93d 9aa6 993d 068f 09be
00000190: 5ab7 b03d d224 063e d34d 343e d9a1 4a3e
000001a0: b124 603e 72b6 ff3b 4cd5 023a af9b da3d
000001b0: f31c b63d b645 00be 2ad2 dc3c 0d0a 9a3c
000001c0: b958 3bbd 91e4 8bbc 6872 23bd aa6a 973d
000001d0: 9c87 893d c034 b4bd cf1a c5bd 75a2 273d
000001e0: b8d8 15bd 9fa1 6f3d ce73 143e 925b c53d
000001f0: 6b1e 373e 1cc3 f9bd 62c9 4ebd bf96 ce3d
00000200: ca90 003d b42e 76bd a666 0e3e d6bb e93d
00000210: fbce dd3d f53f db3d 66f0 e63d 33be 653d
00000220: 407c 13be 2617 dd3d 511f 003d e90c 5ebe
00000230: c9fe 38bd e6ce b83d f365 f03d 9c3f 8d3d
00000240: 1ca0 8b3d 7399 d6bd 40de 2abd f280 f93b
00000250: 23ff 773d 9dfc c9bc 8ecb c2bd bfad 0c3e
00000260: adcd e33d c1ad df3d f3cf 153e 4f9f 99be
00000270: fcb9 2fbe abb7 263e a37d 583e 7bf6 8fbd
00000280: a155 4e3e 86bc b1bd 9950 b2bd d739 9ebd
00000290: bd33 b5bd dd38 1e3e 91c6 313e 4c7e 63bd
000002a0: 8a97 e6bd 803e fd3d dc19 f5bd 4dd3 473e
000002b0: 24ac 783e 1a10 693e 4a31 973e 9a58 0dbe
000002c0: e8d9 81be 935f 933e 8e71 9b3e 452a 9fbe
000002d0: ee3c 18be ce25 1f3f ef2c fb3e afdf 1a3f
000002e0: c329 153f 2b05 6abe 6720 69be 2f79 d23e
000002f0: fbbc cf3e 615f 7bbe 2d1a e8ba 8a72 183e
00000300: 68cb 013e e4dc 093e 3400 753d 5547 4bbc
00000310: 8e75 dbbd 84a6 a63d ee19 ca3d 58d2 04be
00000320: 830c 12bb 064e 943e ec88 983e 442e 933e
00000330: c811 693e 246e fb3c b11a f3bd ef67 343e
00000340: 0e58 163e 77d9 92be 544b 3a3e fd1b 243d
00000350: afd8 7abd 6b08 013d 6f4a f0bc 4d5a 913c
00000360: 60ec 8dbd dcc6 183e 06f8 143e 20c2 54be
00000370: 8631 c63d 7d15 df3d b78b d43d d89d 9b3d
00000380: eb97 1b3e 653f 64be 1834 493d ba79 c3bd
00000390: 44da afbd f30e babc e710 ae3c 5d9e 8f3b
000003a0: 9214 0abc eb8c 8dba f2a8 e53b 54b8 8b3d
000003b0: 209b 533d 5333 09be 6856 d7bd de58 803d
000003c0: d109 6cbe 9457 c73c 3733 253d f5f0 793d
000003d0: 4df2 553d 51ca 803d 6558 48be b586 f53d
000003e0: e904 da3d b8b6 fabd 1e9a 5abd 1567 f63d
000003f0: 368c db3d 49cb c83d c895 893d 679d 1abe

weight_hh_l0 f4 [750, 250]
-0.14018244 0.017253855 0.005611647 0.06652169 -0.039991587 -0.0895226 -0.00069407385 -0.006170121
-0.064662956 -0.026516972 0.106501415 0.27633315 -0.09243321 0.015162355 0.105895944 -0.01353328
0.0041697305 0.033961035 0.1290675 0.118529074 0.14020075 0.06038212 -0.06927229 -0.026633048
0.07007051 0.1942806 -0.13507897 0.065685466 -0.023623262 0.1062087 -0.054922167 0.12229701
-0.023463685 0.23598586 -0.16072665 -0.14008912 0.08031588 0.044599947 0.025562815 0.21554163
-0.022653492 -0.08780468 0.07494074 0.17325205 -0.2586628 -0.03280523 0.040785406 0.055769913
0.0831056 -0.023292037 -0.15256573 0.05494258 0.08086751 -0.29170665 0.011029684 0.068621494
0.10490819 0.0730463 0.15127058 0.16704828 -0.078541555 0.23944151 -0.0154504925 0.048237838
-0.13719746 -0.05534487 -0.08944581 -0.008768165 -0.12453307 0.07496037 0.016878918 -0.035535626
-0.102207884 0.10202361 -0.07562743 -0.011552594 -0.049501996 -0.08874477 0.048575457 0.015576997
0.11569986 0.080808975 -0.066736765 -0.00013289531 0.041012548 0.08551598 -0.036328953 0.19384125
0.12991373 -0.012571332 -0.042816125 0.12253066 0.10828144 0.028048983 -0.16373926 -0.009818981
0.17453617 -0.021574227 0.029187506 -0.062060017 -0.1372011 0.05825916 0.06124262 -0.0064685936
-0.05702438 -0.063613676 0.17869319 -0.008467516 0.019370874 0.05232942 0.049098223 0.1179719
-0.08905382 -0.10290746 -0.09495506 0.009215171 0.11125301 0.0071895444 -0.12954472 -0.19747595
0.06618774 -0.05050856 0.04334764 0.09002656 0.1464236 -0.21082059 -0.060907293 -0.072090276
-0.20957643 -0.032780834 0.14872114 0.107852794 -0.014426927 -0.12545869 0.22787009 0.17452732
0.047721885 -0.09367031 -0.0391976 -0.2002993 -0.06992838 -0.11744582 -0.042159956 0.060201548
0.15762775 -0.18536773 0.072371595 0.20632221 0.17543504 -0.01636706 0.23570454 0.15121228
-0.1407643 -0.037931606 -0.11149105 0.07164159 0.09876947 0.05103856 -0.014884604 0.05601164
0.04397781 -0.11929193 0.049080312 0.09452461 0.12642206 -0.05410972 -0.0058561875 -0.18025449
-0.13768068 0.10713013 -0.012348104 -0.053811777 -0.097312205 -0.053538017 0.0032928763 0.059761167
0.06188266 0.03903768 0.047849424 0.115605 0.16150628 -0.11143294 -0.2198239 -0.0825789
-0.124846354 0.07067636 -0.14636375 -0.09199971 -0.244201 0.14902467 0.001527241 -0.11199149
-0.07607872 -0.21888517 -0.096662514 0.13807844 0.0025639273 0.12637897 -0.11512327 -0.016194537
0.022713784 -0.06490805 0.0034270778 -0.12821046 0.16869585 -0.048915602 -0.06425979 -0.070760414
0.18459228 -0.04705597 0.031742193 -0.043620426 0.1667528 -0.026218317 0.072671145 -0.07898542
0.13408235 0.12220828 0.18028285 -0.0064431336 -0.030104123 -0.06691653 -0.067603104 -0.029846095
0.02224574 -0.048258647 0.034635402 -0.11217649 0.09141601 -0.066234395 0.014547713 -0.12713286
-0.064496644 -0.03224374 0.12880407 0.032251783 0.15038331 -0.027022453 0.010376226 0.13756812
-0.018879423 -0.14920378 -0.008288412 -0.003552243 -0.086378016 -0.043963242 -0.086305924 0.074677914
-0.1297179 -0.08401859 -0.034211617 -0.07716407 0.15924925 -0.18983348 0.013627531 0.09933455
00000000: fc8b 0fbe f557 8d3c e8e1 b73b 863c 883d
00000010: 38ce 23bd a057 b7bd 82f2 35ba ba2e cabb
00000020: 036e 84bd 1f3a d9bc 6a1d da3d 8a7b 8d3e
00000030: 9f4d bdbd 876b 783c f9df d83d b1ba 5dbc
00000040: 3ca2 883b ba1a 0b3d 452a 043e 5fbf f23d
00000050: c990 0f3e 3e53 773d a1de 8dbd 8d2d dabc
00000060: 2181 8f3d 7ef1 463e 2452 0abe 1a86 863d
00000070: 9285 c1bc f283 d93d 11f6 60bd db76 fa3d
00000080: ea36 c0bc 47a6 713e 8795 24be 8673 0fbe
00000090: a77c a43d 6fae 363d 1c69 d13c f2b6 5c3e
000000a0: d193 b9bc f1d2 b3bd 887a 993d fc68 313e
000000b0: 736f 84be c75e 06bd 990e 273d fe6e 643d
000000c0: 4533 aa3d f1ce bebc 313a 1cbe 790b 613d
000000d0: dd9d a53d 935a 95be d9b5 343c 6d89 8c3d
000000e0: 1bda d63d 4c99 953d ade6 1a3e b40e 2b3e
000000f0: 65da a0bd 2830 753e 1024 7dbc 0a95 453d
00000100: 7e7d 0cbe 4db1 62bd 5d2f b7bd 59a8 0fbc
00000110: 320b ffbd d384 993d a845 8a3c ce8d 11bd
00000120: 5e52 d1bd c1f1 d03d 8ee2 9abd 1747 3dbc
00000130: 9bc2 4abd d1bf b5bd 0ff7 463d a936 7f3c
00000140: 0cf4 ec3d 2d7f a53d 49ad 88bd d059 0bb9
00000150: c6fc 273d 0123 af3d abcd 14bd 527e 463e
00000160: 1b08 053e fdf7 4dbc f65f 2fbd 5bf1 fa3d
00000170: a9c2 dd3d fbc6 e53c 44ab 27be cbdf 20bc
00000180: 9cb9 323e 6fbc b0bc a31a ef3c a532 7ebd
00000190: 727e 0cbe 28a1 6e3d 8bd9 7a3d 7ff6 d3bb
000001a0: 6592 69bd e347 82bd 59fb 363e 56bb 0abc
000001b0: abaf 9e3c 6057 563d 381b 493d 409b f13d
000001c0: d961 b6bd 25c1 d2bd cc77 c2bd 3bfb 163c
000001d0: 9ed8 e33d 4596 eb3b 5fa7 04be 2337 4abe
000001e0: 708d 873d 10e2 4ebd 4c8d 313d d85f b83d
000001f0: 11f0 153e 5ae1 57be ed79 79bd 11a4 93bd
00000200: 349b 56be 3245 06bd 5b4a 183e ede1 dc3d
00000210: eb5e 6cbc 3e78 00be c756 693e 4ab7 323e
00000220: 0678 433d 38d6 bfbd aa8d 20bd 421b 4dbe
00000230: 9c36 8fbd 6f87 f0bd ebaf 2cbd e695 763d
00000240: 2b69 213e 0ad1 3dbe 8f37 943d 2146 533e
00000250: 3ea5 333e 3614 86bc 885c 713e 64d7 1a3e
00000260: 8424 10be 2c5e 1bbd 6b55 e4bd d3b8 923d
00000270: a647 ca3d cf0d 513d 8ede 73bc 766c 653d
00000280: 1322 343d 544f f4bd 7008 493d 1e96 c13d
00000290: c974 013e 27a2 5dbd 43e5 bfbb a294 38be
000002a0: 2afc 0cbe 0b67 db3d b44f 4abc bd69 5cbd
000002b0: 9f4b c7bd ae4a 5bbd 4ccd 573b 20c8 743d
000002c0: ac78 7d3d f9e5 1f3d c2fd 433d 50c2 ec3d
000002d0: e761 253e f436 e4bd 8419 61be 201f a9bd
000002e0: 72af ffbd c4be 903d 61e0 15be 586a bcbd
000002f0: d40f 7abe ec99 183e b42d c83a cb5b e5bd
00000300: 29cf 9bbd 6f23 60be fff6 c5bd 6f64 0d3e
00000310: 9007 283b 7d69 013e c0c5 ebbd 68aa 84bc
00000320: 4212 ba3c 83ee 84bd d398 603b 9a49 03be
00000330: 9bbe 2c3e ba5b 48bd a39a 83bd d6ea 90bd
00000340: c205 3d3e c3bd 40bd 1a04 023d 55ab 32bd
00000350: 3fc1 2a3e ccc7 d6bc 9cd4 943d 1cc3 a1bd
00000360: e24c 093e 5648 fa3d 119c 383e ec20 d3bb
00000370: ec9c f6bc 890b 89bd 7f73 8abd cc7f f4bc
00000380: b33c b63c dcaa 45bd dadd 0d3d cabc e5bd
00000390: 5138 bb3d e6a5 87bd 8859 6e3c 1e2f 02be
000003a0: d116 84bd 0312 04bd 37e5 033e 721a 043d
000003b0: 15fe 193e 315e ddbc 0c01 2a3c a8de 0c3e
000003c0: 05a9 9abc e0c8 18be 1fcc 07bc c0cc 68bb
000003d0: f5e6 b0bd cd12 34bd 29c1 b0bd bcf0 983d
000003e0: c5d4 04be f011 acbd 7b21 0cbd 3208 9ebd
000003f0: 3c12 233e b563 42be 0246 5f3c ea6f cb3d

bias_ih_l0 f4 [750]
0.066742934 0.14282213 -0.06704272 0.045989733 -0.02435446 -0.008222418 -0.029140092 -0.12806422
-0.0350454 -0.13074696 -0.08714398 0.121217534 -0.06290558 -0.023891354 0.017757064 -0.13564678
0.09909293 -0.35248157 -0.26262128 -0.023368776 -0.18896714 -0.11202199 0.034374338 0.063226484
-0.17666176 0.08162959 -0.093367964 -0.08876719 -0.03452425 -0.1463286 0.062121533 0.07598673
-0.002011481 0.100353606 -0.014541863 -0.016639426 0.0022007881 0.14402698 0.15575747 0.12213429
-0.045876432 -0.02589981 0.055601846 -0.030526483 0.09921101 0.0877572 -0.048524547 -0.058934987
-0.048047327 0.14773093 0.0107087465 -0.18767317 0.097827144 -0.10966372 -0.06174437 -0.057372432
-0.018570043 -0.16357929 0.11273572 0.0054590353 0.037802596 0.3146236 -0.0033266882 -0.07176439
-0.091727644 -0.10011702 -0.16106714 -0.06572105 0.045407802 0.1519737 -0.14840594 0.08255484
-0.009774887 -0.10054495 -0.17292422 -0.08787557 -0.05343521 0.10424182 -0.1309049 -0.016423704
0.16392328 -0.07336535 0.14554071 -0.13694549 0.014920135 -0.018925682 0.022648882 0.048484765
-0.0673912 0.20811605 -0.0370807 0.1027114 -0.056680784 -0.035242796 0.026837833 0.18412481
-0.13500051 0.26909262 0.069020756 -0.04680558 0.15814017 0.13015284 -0.05717312 0.050726335
-0.30477348 -0.40897453 0.009671261 0.055927895 0.0017812467 -0.008692526 -0.1247405 -0.18029532
-0.016047232 -0.114458896 -0.069149174 -0.027602784 -0.07816783 0.07550999 -0.17647894 0.0137546165
-0.09522343 -0.0033594284 -0.19714272 -0.031199384 -0.124656595 0.05805043 -0.02787593 0.23778051
-0.036933575 0.25919697 -0.08132544 -0.089612745 -0.09233353 0.13681407 -0.044141516 -0.06261351
-0.17510858 0.055558763 -0.08602331 -0.042753655 0.010580756 -0.04676966 -0.04350606 -0.015651608
0.005092156 -0.2749669 0.031708773 -0.16440971 -0.09222749 0.18542635 0.02571413 0.21899463
0.277543 0.027597623 -0.0974753 -0.16143563 -0.08950643 -0.018080076 -0.06010513 -0.19480598
-0.09188166 0.06762188 -0.059824284 -0.071966216 0.05037438 0.0027804035 -0.04316503 -0.15968113
-0.024139993 0.059682027 0.11835368 0.02205531 -0.09471665 -0.043574736 -0.030539036 -0.019634873
-0.04645262 0.047400188 -0.04615948 0.10530647 0.06438578 -0.29319814 -0.26939613 -0.13507932
-0.058576077 -0.07800463 -0.14410259 -0.19437906 -0.011055542 0.029514916 -0.19593659 0.21951614
0.02183391 -0.054064173 -0.1214848 0.033002038 -0.06860203 0.099839866 0.41544795 -0.06569697
-0.033530302 0.07714137 -0.1348834 -0.014924058 -0.08395704 0.012783363 0.23825833 -0.081986815
0.2037576 0.04546327 -0.17166966 0.0043040896 0.111587465 0.13720667 -0.028168757 0.08116076
0.051357538 0.069888465 0.023991695 0.105541445 -0.03716394 -0.012408604 0.0452429 -0.058853995
0.19151933 -0.19702043 -0.006394284 -0.082779884 -0.2785224 0.08532862 -0.013066424 0.114852406
-0.043247823 -0.054640118 0.079647146 -0.16503862 0.1824469 -0.16244832 -0.11873349 0.08248626
-0.054890364 -0.048991673 0.011256963 -0.021282177 0.017783418 -0.12032037 -0.064633876 0.14200708
-0.26855466 0.17319655 -0.027545203 -0.2563278 0.11820609 -0.14116213 -0.070973955 0.011691531
00000000: 85b0 883d f73f 123e b24d 89bd bb5f 3c3d
00000010: 0183 c7bc 52b7 06bc 34b7 eebc 4423 03be
00000020: c48b 0fbd 88e2 05be 8b78 b2bd e640 f83d
00000030: a4d4 80bd cdb7 c3bc 4377 913c fde6 0abe
00000040: 3cf1 ca3d 7778 b4be 4c76 86be e06f bfbc
00000050: 9a80 41be c96b e5bd 1bcc 0c3d e37c 813d
00000060: d2e6 34be 6a2d a73d b437 bfbd 93cb b5bd
00000070: 4d69 0dbd 2ad7 15be 2673 7e3d ee9e 9b3d
00000080: 0dd3 03bb 3186 cd3d ff40 6ebc 684f 88bc
00000090: 193b 103b cf7b 133e e37e 1f3e 8b21 fa3d
000000a0: ede8 3bbd d72b d4bc c3be 633d ad12 fabc
000000b0: 242f cb3d 0cba b33d adc1 46bd d065 71bd
000000c0: 46cd 44bd c746 173e bd73 2f3c 652d 40be
000000d0: 9959 c83d 5f97 e0bd aae7 7cbd 5bff 6abd
000000e0: 3420 98bc 5481 27be fce1 e63d b5e1 b23b
000000f0: e5d6 1a3d 5816 a13e 9104 5abb 35f9 92bd
00000100: b4db bbbd 270a cdbd c9ee 24be c298 86bd
00000110: 88fd 393d fe9e 1b3e baf7 17be 8312 a93d
00000120: d926 20bc 83ea cdbd 0c13 31be 1bf8 b3bd
00000130: e1de 5abd bc7c d53d ef0b 06be 018b 86bc
00000140: 81db 273e 9340 96bd a008 153e 703b 0cbe
00000150: 9573 743c 080a 9bbc 268a b93c f697 463d
00000160: 6604 8abd 601c 553e efe1 17bd 5b5a d23d
00000170: 1c2a 68bd c05a 10bd 04db db3c 378b 3c3e
00000180: 933d 0abe 82c6 893e c15a 8d3d 35b7 3fbd
00000190: 7fef 213e c946 053e 5d2e 6abd 6bc6 4f3d
000001a0: 450b 9cbe 1c65 d1be 3574 1e3c a614 653d
000001b0: b978 e93a 196b 0ebc f277 ffbd 569f 38be
000001c0: 7c75 83bc 6d69 eabd 159e 8dbd 3c1f e2bc
000001d0: 7516 a0bd fba4 9a3d e5b6 34be 0b5b 613c
000001e0: 8004 c3bd db29 5cbb c8df 49be da95 ffbc
000001f0: f54b ffbd 4ac6 6d3d 105c e4bc bc7c 733e
00000200: a947 17bd 77b5 843e f48d a6bd e386 b7bd
00000210: 5d19 bdbd fd18 0c3e bccd 34bd 833b 80bd
00000220: aa4f 33be 9691 633d fd2c b0bd 751e 2fbd
00000230: e85a 2d3c 8b91 3fbd 6933 32bd cd37 80bc
00000240: 1adc a63b 76c8 8cbe 0fe1 013d 055b 28be
00000250: c4e1 bcbd 68e0 3d3e 70a6 d23c 2140 603e
00000260: 1e1a 8e3e 6914 e23c 21a1 c7bd 624f 25be
00000270: 264f b7bd ab1c 94bc cc30 76bd 387b 47be
00000280: 742c bcbd 577d 8a3d 4f0a 75bd 0663 93bd
00000290: 5e55 4e3d 6e37 363b d1cd 30bd 7383 23be
000002a0: 3cc1 c5bc 2475 743d 6a63 f23d 56ad b43c
000002b0: cefa c1bd 6c7b 32bd 002d fabc 50d9 a0bc
000002c0: 1a45 3ebd b326 423d b911 3dbd ebaa d73d
000002d0: b1dc 833d 111e 96be 4aee 89be 3c52 0abe
000002e0: 78ed 6fbd e4c0 9fbd a18f 13be 4e0b 47be
000002f0: 4e22 35bc 44c9 f13c 9aa3 48be d7c8 603e
00000300: 07dd b23c 6572 5dbd 06cd f8bd 252d 073d
00000310: 397f 8cbd d878 cc3d 98b5 d43e 228c 86bd
00000320: 1257 09bd 4bfc 9d3d e01e 0abe 0984 74bc
00000330: abf1 abbd 5071 513c fef9 733e b4e8 a7bd
00000340: d5a5 503e b237 3a3d 2cca 2fbe 5209 8d3b
00000350: f887 e43d e87f 0c3e 2ac2 e6bc 9d37 a63d
00000360: 485c 523d af21 8f3d 3b8a c43c 1d26 d83d
00000370: 3739 18bd 754d 4bbc 9e50 393d e310 71bd
00000380: a51d 443e b9bf 49be 2487 d1bb 8088 a9bd
00000390: 7d9a 8ebe c6c0 ae3d 8e14 56bc bd37 eb3d
000003a0: a124 31bd 51ce 5fbd 0b1e a33d e2ff 28be
000003b0: 5cd3 3a3e da58 26be 8b2a f3bd 8eee a83d
000003c0: b8d4 60bd 7eab 48bd 206f 383c f657 aebc
000003d0: 88ae 913c 876a f6bd c45e 84bd 4e6a 113e
000003e0: ff7f 89be 705a 313e 7aa6 e1bc 663d 83be
000003f0: 0916 f23d ce8c 10be cb5a 91bd d68d 3f3c

bias_hh_l0 f4 [750]
0.07864583 0.14662614 -0.04995529 -0.03769453 -0.03857473 -0.0109130945 0.0020848 -0.22213982
-0.09926937 -0.06602046 -0.007060935 0.13030833 -0.028589847 -0.08215688 -0.031333666 -0.16501065
0.058429275 -0.2613546 -0.19857965 -0.08454534 -0.12932631 -0.18630959 0.07084158 0.130615
-0.11510381 0.114793636 -0.043285806 -0.10248427 -0.027326189 -0.12836872 0.10324686 0.15863879
-0.08233911 0.04671985 -0.04511617 0.07398633 0.07837328 0.10970856 0.16785555 0.11409416
-0.10495585 -0.038331136 0.08340051 -0.014863098 0.0963725 -0.003263393 -0.006743759 -0.055010635
-0.05000595 0.061278045 -0.03073169 -0.17795958 0.09037887 -0.077210605 -0.037752904 -0.112052396
-0.0155826155 -0.08207469 0.07644472 0.0061033806 -0.028854499 0.3151529 0.006090645 -0.04569194
-0.14797954 -0.036920514 -0.14989561 0.014126465 0.07326366 0.0853778 -0.14234942 0.03758342
-0.03910353 -0.0048171976 -0.12310267 -0.15735073 0.0142059615 0.02081802 -0.1420356 -0.09892501
0.07745716 -0.03389945 0.21331505 -0.1848278 -0.004347305 -0.054060187 -0.010223235 -0.047112674
-0.06496848 0.15838908 -0.029928522 0.114721246 -0.088508695 -0.034672648 0.09071933 0.14125185
-0.17208907 0.17015332 0.14198272 0.023536116 0.12748715 0.08591385 0.009752734 -0.0069887782
-0.27308118 -0.34002715 -0.036345396 0.07550215 -0.008686797 0.07744823 -0.12489063 -0.19484553
-0.033747356 -0.14657004 -0.13532603 -0.049607962 -0.10417388 0.12956813 -0.19852866 -0.060642887
-0.058761887 0.054158352 -0.20883077 -0.04440319 -0.031455643 0.11572582 -0.07816619 0.24318618
-0.044618618 0.26646042 -0.05915223 -0.058999103 -0.055434715 0.13107665 -0.074992955 -0.046747994
-0.12466765 0.015061382 -0.10617369 -0.09613716 -0.050510675 0.027931374 -0.010876464 -0.09135146
-0.006961038 -0.16757704 0.059512015 -0.12688944 -0.111666545 0.19954288 0.042127945 0.17879738
0.28762594 0.018316654 -0.04234118 -0.16124465 -0.080775954 -0.09587853 -0.06587427 -0.25383016
-0.015794309 0.049959783 -0.04051659 -0.13009189 0.016006533 -0.057632934 -0.06816931 -0.14353807
-0.09691649 0.02642179 0.13169761 0.011381626 -0.06693602 -0.0077548884 -0.09894038 -0.059433173
0.050780784 0.016188558 -0.0033062384 0.10485255 0.021219837 -0.28185716 -0.2075534 -0.17209935
-0.062253423 -0.015467763 -0.15488648 -0.16438502 0.02733539 -0.0068425527 -0.20156708 0.20643725
-0.037857864 -0.04085268 -0.1130738 -0.051958285 -0.067065164 0.059243083 0.3352522 0.040590003
-0.0052411463 0.14648284 -0.07989031 -0.1261134 -0.14623341 0.0412393 0.26344624 -0.03314602
0.20735922 0.03614855 -0.118890814 -0.0639838 0.1100153 0.17768097 -0.030184073 0.10039861
0.014159186 0.09178755 -0.0065956833 0.073874734 -0.052397367 -0.08567655 -0.00015324727 -0.058229465
0.1663896 -0.19365025 -0.01869006 -0.005812722 -0.37302932 -0.016059747 0.039729685 0.17878592
0.0185185 0.027762517 0.021236906 -0.049224187 0.13952374 -0.124769226 -0.05981728 0.008874736
-0.05172207 -0.04565651 -0.0016564681 -0.08406171 0.0012845128 -0.08974954 -0.052604612 0.13372307
-0.20281532 0.20325242 0.027470473 -0.20191385 0.119237304 -0.11716003 -0.07446165 -0.068363495
00000000: 1111 a13d 2a25 163e eb9d 4cbd 9465 1abd
00000010: 8900 1ebd d6cc 32bc 24a1 083b 9f78 63be
00000020: bd4d cbbd bc35 87bd 6a5f e7bb 8c6f 053e
00000030: 4135 eabc de41 a8bd bb57 00bd 8df8 28be
00000040: 8953 6f3d 45d0 85be 7758 4bbe 1b26 adbd
00000050: 1e6e 04be f1c7 3ebe 6415 913d f0bf 053e
00000060: 8cbb ebbd ed18 eb3d 754c 31bd 46e3 d1bd
00000070: 2cdb dfbc 1773 03be 1773 d33d 3572 223e
00000080: 68a1 a8bd 505d 3f3d bccb 38bd 2586 973d
00000090: 2c82 a03d e2ae e03d 53e2 2b3e 33aa e93d
000000a0: 18f3 d6bd 1c01 1dbd e3cd aa3d 5a84 73bc
000000b0: f25e c53d a6de 55bb c0fa dcbb d552 61bd
000000c0: 0ad3 4cbd b0fe 7a3d 06c1 fbbc 093b 36be
000000d0: 8f18 b93d 9820 9ebd caa2 1abd ba7b e5bd
000000e0: 3a4e 7fbc c616 a8bd 0d8f 9c3d defe c73b
000000f0: 4560 ecbc b95b a13e 0994 c73b 7927 3bbd
00000100: f387 17be f739 17bd 3c7e 19be b072 673c
00000110: 420b 963d 8eda ae3d 0cc4 11be 12f1 193d
00000120: 062b 20bd 95d9 9dbb 411d fcbd 8d20 21be
00000130: 1fc0 683c 8d8a aa3c c871 11be 3299 cabd
00000140: dca1 9e3d 26da 0abd 436f 5a3e 8043 3dbe
00000150: d673 8ebb 376e 5dbd 5b7f 27bc 38f9 40bd
00000160: 320e 85bd bf30 223e a92c f5bc f9f2 ea3d
00000170: 0c44 b5bd e804 0ebd 0ecb b93d 53a4 103e
00000180: 1e38 30be ac3c 2e3e eb63 113e d0ce c03c
00000190: fe8b 023e 9af3 af3d eec9 1f3c 1f02 e5bb
000001a0: 4cd1 8bbe 0a18 aebe e9de 14bd dfa0 9a3d
000001b0: 1153 0ebc 2d9d 9e3d a9c6 ffbd 9685 47be
000001c0: ab3a 0abd 7516 16be e892 0abe b831 4bbd
000001d0: 1d59 d5bd 82ad 043e 194b 4bbe ad64 78bd
000001e0: 4eb0 70bd 26d5 5d3d bcd7 55be 1fe0 35bd
000001f0: a2d7 00bd a901 ed3d 9815 a0bd cc05 793e
00000200: 03c2 36bd 806d 883e 9c49 72bd 0ba9 71bd
00000210: 830f 63bd f538 063e e895 99bd d37a 3fbd
00000220: c151 ffbd 04c4 763c 9771 d9bd 8fe3 c4bd
00000230: 48e4 4ebd 56d0 e43c 3233 32bc 7916 bbbd
00000240: 6b19 e4bb 5199 2bbe dfc2 733d 4eef 01be
00000250: 6eb1 e4bd f854 4c3e 5a8e 2c3d a916 373e
00000260: b543 933e cf0c 963c f26d 2dbd 511d 25be
00000270: dd6d a5bd f65b c4bd 17e9 86bd 07f6 81be
00000280: 1163 81bc a1a2 4c3d b9f4 25bd cf36 05be
00000290: 2220 833c 8310 6cbd 5a9c 8bbd a5fb 12be
000002a0: 277c c6bd 8272 d83c bddb 063e 007a 3a3c
000002b0: c115 89bd b81c febb 41a1 cabd 3370 73bd
000002c0: 83ff 4f3d de9d 843c 7aad 58bb efbc d63d
000002d0: 39d5 ad3c 954f 90be e188 54be d03a 30be
000002e0: 72fd 7ebd 806c 7dbc 909a 1ebe 8c54 28be
000002f0: 78ee df3c 7e37 e0bb 9a67 4ebe 4964 533e
00000300: d910 1bbd 2455 27bd 3d93 e7bd 36d2 54bd
00000310: 7659 89bd e0a8 723d 2da6 ab3e b441 263d
00000320: ecbd abbb 99ff 153e 889d a3bd df23 01be
00000330: 36be 15be 8aea 283d 6de2 863e 1fc4 07bd
00000340: fa55 543e 8110 143d 077d f3bd f009 83bd
00000350: b44f e13d 00f2 353e 9744 f7bc c99d cd3d
00000360: eefb 673c 1cfb bb3d 9a20 d8bb a34b 973d
00000370: 9f9e 56bd 3077 afbd 00b1 20b9 0582 6ebd
00000380: 0962 2a3e 404c 46be e61b 99bc a578 bebb
00000390: b3fd bebe bb8f 83bc 98bb 223d a813 373e
000003a0: 1cb4 973c 386e e33c 05f9 ad3c 4d9f 49bd
000003b0: 50df 0e3e 0287 ffbd f702 75bd 5767 113c
000003c0: 85da 53bd 5202 3bbd d91d d9ba 8c28 acbd
000003d0: 195d a83a 9bce b7bd ef77 57bd b3ee 083e
000003e0: d2ae 4fbe 6721 503e c209 e13c 81c2 4ebe
000003f0: b032 f43d 99f1 efbd 597f 98bd 2902 8cbd

weight f4 [1, 250]
-0.057631537 -0.025360217 0.049452037 -0.0057419175 -0.08244056 -0.057980135 0.0928251 0.04497641
-0.19425726 -0.07304774 -0.029441606 0.019085003 -0.07477707 0.009816593 0.090074435 -0.29546055
-0.015739093 0.083974645 0.34102306 -0.0039755767 0.07279824 0.29882392 -0.02437136 -0.03888501
-0.056671783 -0.008264841 -0.012161113 0.03787836 0.025961926 -0.02776137 0.006410942 0.040519718
-0.044441927 0.039541535 0.061341617 0.06458383 0.074264176 -0.024819432 -0.008056932 -0.026094303
-0.05807678 0.0050013214 0.02866447 0.0803333 -0.36717832 0.039202563 0.003946736 0.030297462
0.037944727 0.39224216 0.0016115068 -0.032843906 0.019167228 -0.072851725 0.047193296 0.0061904034
0.03821619 -0.09010239 -0.041866783 -0.008217586 0.05235559 -0.014641775 0.20565863 0.002065134
-0.37106743 -0.05659947 -0.0785423 0.03452067 -0.023173606 -0.006236875 0.07867464 -0.01766333
0.0027468898 0.031601265 -0.0039962223 0.09050707 -0.03244775 -0.024291387 0.07818339 0.043541066
0.0719835 -0.007887923 -0.066251 0.36865792 -0.06004106 -0.085363835 -0.043958925 -0.0057250434
0.069181494 0.014417714 0.035425905 0.015721217 0.06353778 -0.053389896 -0.08126897 0.023845755
0.07062529 0.0006640741 0.0055810586 -0.08784786 0.03364693 0.025686061 0.3480947 -0.050470326
-0.37869734 0.30421528 -0.0011355688 0.06282018 -0.016660118 0.05330813 0.08758517 0.37648106
-0.040473897 -0.06975512 -0.07076428 -0.07830283 0.06049338 0.048323855 -0.35150278 -0.0749882
0.0775249 0.0076911086 -0.29828697 0.07465386 -0.17617686 0.015889226 -0.06661931 -0.012201147
-0.03927327 -0.04009631 0.0747644 0.065344274 0.06960274 0.016660947 0.027111607 0.08203918
0.088112205 -0.0937744 -0.07870819 -0.076817214 -0.23175374 -0.016541766 0.011355295 0.013968114
0.020893866 0.045949735 -0.004142416 0.0453057 0.031866774 0.0024683394 0.006660171 0.0025164827
-0.0826274 -0.0757685 -0.0712314 0.06199716 -0.04592129 0.060345452 0.014604487 0.059901915
0.048178036 -0.06300051 0.0062597496 0.056198306 -0.015501816 -0.064743325 -0.124052994 -0.08028192
-0.26057604 0.0526456 -0.0010098461 -0.08282266 0.09173749 0.029181194 0.062046334 0.37330517
0.022846181 0.027640462 0.00036090027 0.030584564 0.03416252 -0.09417648 -0.26811388 -0.029327665
-0.040209647 0.05199536 -0.06202938 -0.041617855 -0.0593754 0.013657555 0.059925295 0.0041809445
-0.085669816 -0.093592174 -0.0754728 -0.010504411 0.0055095847 0.040413536 0.05402498 0.059414398
-0.09100275 -0.0042013065 -0.026282048 0.077375226 0.039215814 -0.06798218 -0.020831462 -0.047235448
0.061509226 -0.23894432 0.031310372 -0.005217545 0.028490214 0.018595643 0.07543931 0.008264596
-0.012942611 0.015318299 0.08102231 0.040800698 -0.054314796 0.037907206 -0.046543263 -0.03774996
-0.0073147714 0.046830125 -0.085026614 -0.02182643 0.0087558115 -0.07171334 0.04600164 -0.026062788
-0.080009945 -0.09128071 0.0389865 0.014117185 0.007329902 0.052879516 0.016116261 0.0641857
0.03914468 0.026336068 -0.0040655877 -0.07634515 0.08400789 -0.045963965 -0.02196377 0.02102053
-0.07722871 0.0054084794
00000000: 0c0f 6cbd 3bc0 cfbc 388e 4a3d b226 bcbb
00000010: 99d6 a8bd 947c 6dbd 161b be3d 2f39 383d
00000020: 60eb 46be 0e9a 95bd 862f f1bc 2758 9c3c
00000030: b824 99bd c6d5 203c f278 b83d 9b46 97be
00000040: 45ef 80bc e6fa ab3d 939a ae3e 8e45 82bb
00000050: 3e17 953d 73ff 983e 72a6 c7bc e345 1fbd
00000060: ac20 68bd 4169 07bc 683f 47bc 5726 1b3d
00000070: 1bae d43c d06b e3bc e112 d23b 01f8 253d
00000080: bd08 36bd 4ef6 213d 5941 7b3d 8744 843d
00000090: d117 983d 1f52 cbbc 3901 04bc b8c3 d5bc
000000a0: ebe1 6dbd 20e2 a33b c0d1 ea3c c985 a43d
000000b0: ccfe bbbe de92 203d 9f53 813b 6232 f83c
000000c0: ee6b 1b3d f7d3 c83e 3239 d33a 5587 06bd
000000d0: 9704 9d3c 4933 95bd c24d 413d ded8 ca3b
000000e0: 9488 1c3d 9a87 b8bd 817c 2bbd 0ea3 06bc
000000f0: d172 563d 0ee4 6fbc 2d98 523e 3357 073b
00000100: 8dfc bdbe d9d4 67bd c9da a0bd 8c65 0d3d
00000110: 93d6 bdbc b35e ccbb 2b20 a13d b0b2 90bc
00000120: 2a05 343b 5470 013d bef2 82bb c55b b93d
00000130: efe7 04bd bbfe c6bc 9d1e a03d 1e58 323d
00000140: 166c 933d 593c 01bc 9bae 87bd bbc0 bc3e
00000150: 9ded 75bd 3cd3 aebd 460e 34bd 2599 bbbb
00000160: 07af 8d3d 4738 6c3c c11a 113d c8c9 803c
00000170: 1820 823d 5daf 5abd 5970 a6bd 2c58 c33c
00000180: fea3 903d 4215 2e3a 50e1 b63b 94e9 b3bd
00000190: 5dd1 093d 936b d23c 7839 b23e f9b9 4ebd
000001a0: 9ee4 c1be 1bc2 9b3e 5ed7 94ba dea7 803d
000001b0: cd7a 88bc a059 5a3d db5f b33d 20c2 c03e
000001c0: f5c7 25bd c6db 8ebd ddec 90bd 3c5d a0bd
000001d0: e8c7 773d 3cef 453d 2cf8 b3be 6a93 99bd
000001e0: 60c5 9e3d b205 fc3b 12b9 98be 1fe4 983d
000001f0: b567 34be 1f2a 823c b46f 88bd 52e7 47bc
00000200: 02dd 20bd 073c 24bd 141e 993d 38d3 853d
00000210: e28b 8e3d 8a7c 883c 2919 de3c 2804 a83d
00000220: 2c74 b43d cb0c c0bd c231 a1bd 5852 9dbd
00000230: da50 6dbe 9982 87bc 8f0b 3a3c 84da 643c
00000240: 9d29 ab3c ca35 3c3d 1bbd 87bb 7892 393d
00000250: bc86 023d ddc3 213b 903d da3b 93eb 243b
00000260: 8e38 a9bd 842c 9bbd c5e1 91bd bcf0 7d3d
00000270: f617 3cbd cb2c 773d a947 6f3c b65b 753d
00000280: 5556 453d 6906 81bd 961e cd3b 3230 663d
00000290: 54fb 7dbc 2698 84bd 7f0f febd d96a a4bd
000002a0: 396a 85be eaa2 573d d05c 84ba ed9e a9bd
000002b0: dde0 bb3d 660d ef3c 4c24 7e3d db21 bf3e
000002c0: ea27 bb3c 406e e23c 3737 bd39 7b8c fa3c
000002d0: 00ee 0b3d 99df c0bd 3946 89be 9240 f0bc
000002e0: dfb2 24bd 16f9 543d 8512 7ebd 7c77 2abd
000002f0: 9f33 73bd f0c3 5f3c 3a74 753d 4e00 893b
00000300: a873 afbd 41ad bfbd 7c91 9abd b11a 2cbc
00000310: bf89 b43b aa88 253d 4c49 5d3d 835c 733d
00000320: a65f babd 1dab 89bb 734d d7bc e776 9e3d
00000330: c3a0 203d 3e3a 8bbd bea6 aabc f579 41bd
00000340: 19f1 7b3d d2ad 74be 4e3f 003d f1f7 aabb
00000350: 4f64 e93c e455 983c ed7f 9a3d 3a68 073c
00000360: 3f0d 54bc 9af9 7a3c 06ef a53d a21e 273d
00000370: 3179 5ebd 9644 1b3d 26a4 3ebd b49f 1abd
00000380: c0b0 efbb f2d0 3f3d 6f22 aebd 57cd b2bc
00000390: 8974 0f3c 72de 92bd 376c 3c3d a181 d5bc
000003a0: 41dc a3bd 62f1 babd 4fb0 1f3d c44b 673c
000003b0: ad2f f03b 3198 583d 4006 843c cb73 833d
000003c0: 2c56 203d bdbe d73c 9f38 85bb d95a 9cbd
000003d0: 540c ac3d b644 3cbd 5ded b3bc 3f33 ac3c
000003e0: 162a 9ebd 9d39 b13b
