model/GRU-000680.pth (torch, 789667 bytes, 5 tensors)

weight_ih_l0 f4 [750, 10]
000000 56 52 2c 3e de 40 46 3c 12 c2 19 3d 46 e3 99 bc
       0.16828284 0.0121004265 0.037538595 -0.01878513
000010 f1 9d 0c b9 ee 3e ff 3d ab 2f 21 3e 4b a8 a4 3d
       -0.00013410278 0.12463175 0.1574084 0.08039912
000020 11 ba 10 3e d2 30 7d 3d 47 15 b4 3d 4e f4 80 3e
       0.14133479 0.061814137 0.08793121 0.2518639
000030 cc 4e 8d 3e f4 1a 7c 3e da 42 7e 3e b8 3a d1 be
       0.2759918 0.24619657 0.2483019 -0.4086511
000040 1d 15 c6 be 75 aa ca 3e 95 65 a6 3e e3 c7 b2 be
       -0.38687983 0.39583173 0.32499376 -0.34918126
000050 46 55 d1 be 72 b0 72 bd ab 1c 00 be a3 5d 84 bc
       -0.4088537 -0.059250303 -0.12510936 -0.01615793
000060 1c 3c c0 bd 44 4f 92 3d 1f 09 21 3e e0 38 68 3e
       -0.09386465 0.07144025 0.15726136 0.22677946
000070 af 74 47 3e dc 47 c2 be f9 4f 53 3e ce 22 20 be
       0.19478105 -0.3794545 0.20635976 -0.15638277
000080 7c c8 12 be 95 ea 21 be d0 1d 31 be 4e 02 46 3d
       -0.14334291 -0.15812142 -0.17296529 0.04834204
000090 e1 83 e4 3c 3f cd b5 bd f2 e7 02 be bc c1 e3 3d
       0.027894916 -0.08877038 -0.12783793 0.11120936
0000a0 a4 94 61 be ce 08 94 bd 3e d2 81 bc 61 b5 7e bd
       -0.22029358 -0.07228242 -0.015847322 -0.062184695
0000b0 61 cc 5e bd fc a0 97 3e 57 7c 9e 3e d3 ed 18 be
       -0.05439413 0.2961501 0.3095424 -0.14934473
0000c0 3f 5e 6d bd de 56 5e bd 6e 2e 13 bf 28 d6 72 3d
       -0.05795121 -0.05428206 -0.5749272 0.059286267
0000d0 2a 59 97 3d 13 6a ed 3d 78 31 0d 3d 8e cf 05 be
       0.073900536 0.11592498 0.034471005 -0.13067457
0000e0 c5 56 0f be 7c 09 f3 bd 40 99 55 bc aa cd 6b bc
       -0.13997944 -0.118670434 -0.013037026 -0.014392296
0000f0 77 ff 2c bf 15 88 0c 3e e0 0e 59 3e eb d8 2b 3e
       -0.6757731 0.13723786 0.2119708 0.16781966
000100 8e ba 50 3e 12 c9 18 3d 37 50 d3 3d 9f 97 bc bd
       0.20383665 0.03730113 0.10318034 -0.09208607
000110 5d a8 9f bc c8 5d 7d be b8 83 1a bf af ae 11 3f
       -0.019489462 -0.24742806 -0.60357237 0.5690717
000120 2a a0 14 3f 13 53 23 3f d3 cb 11 3f b4 66 f7 bc
       0.5805689 0.63798636 0.56951636 -0.03020034
000130 81 2d 1c bc 1a 0a 4b 3e ec 8a 50 3e cc 63 8d be
       -0.009532333 0.19828072 0.20365494 -0.276152
000140 71 c9 06 3e 57 3b 33 bc 46 dd 15 bc 5e c3 86 bd
       0.13162781 -0.010939441 -0.009146994 -0.06580232
000150 22 07 9d bd 4d e7 09 3e f8 79 3f 3e e2 af 15 3e
       -0.07667376 0.1346714 0.18698871 0.14617875
000160 26 1b cc 3d 09 1c 5b be b9 53 8a bd b0 14 b7 bd
       0.09966116 -0.21397413 -0.0675425 -0.08939493
000170 bc 33 d1 bd 4e 38 c2 bb 7a 34 da bd 51 47 47 be
       -0.10214946 -0.005927122 -0.1065454 -0.19460799
000180 2c de 37 be 8d fd 4b 3e aa a2 58 3e 6b 9e 58 be
       -0.17955846 0.1992094 0.21155801 -0.21154182
000190 03 a4 49 be 79 dd 9a 3e ef f5 4e 3e e7 3a 90 3e
       -0.19691472 0.30247095 0.20211004 0.2816994
0001a0 97 fc 93 3e c5 d5 3c be 85 37 5b be ea 2a f5 3c
       0.28903648 -0.18440922 -0.21407898 0.02992769
0001b0 60 d9 d9 3d f7 08 53 bd f7 1d 2d 3d 16 56 eb 3d
       0.10637164 -0.05152222 0.042264905 0.11491029
0001c0 86 ff 2a 3e 49 89 d4 3d 6f ea 8b 3d 4f 22 a2 bd
       0.16699037 0.103777476 0.06831824 -0.079167
0001d0 ee ec a7 bd 02 2c c7 3d 72 33 ce 3d 18 da 0f be
       -0.081994876 0.09725191 0.10068406 -0.1404804
0001e0 1c ca ae 3e 57 a3 fa 3c c5 44 06 3e f7 f9 80 3d
       0.34138572 0.030595465 0.13112171 0.06297677
0001f0 c6 72 80 3d 14 02 2f be 33 ff b5 bd 6b 76 6e 3e
       0.06271891 -0.17090636 -0.08886566 0.2328736
000200 15 fc 43 3e ea f2 96 be 16 54 10 be 25 df 44 be
       0.1913913 -0.29482204 -0.14094576 -0.19225748
000210 c0 46 29 be 8d 74 61 be 43 bb 26 be 20 8d 06 be
       -0.16530895 -0.22017117 -0.16282372 -0.13139772
000220 e1 91 94 bc 21 d0 24 be 59 36 85 be d2 95 4b 3d
       -0.018135967 -0.1609502 -0.26018026 0.049703427
000230 8f 5d 80 3d 39 60 98 3e ef 4a 49 3e 3e 0c 73 3e
       0.06267845 0.29760912 0.19657491 0.23735139
000240 9d b4 8c 3e 10 31 bd bd c6 e6 1f be 0b 38 9f 3e
       0.27481547 -0.092378736 -0.15615377 0.31097445
000250 f6 e2 9f 3e 21 f1 84 be 20 c4 54 bf 87 49 55 3c
       0.31227845 -0.25965217 -0.83111763 0.013018019
000260 3b 60 03 3c 36 2d 9e bb c8 67 76 3b 0d d0 38 3d
       0.008018549 -0.004827167 0.003759848 0.045120288
000270 6d 66 dd 3b 4e 66 2f be 29 19 2c be 65 2a 14 be
       0.006756595 -0.1712887 -0.16806473 -0.14469297
000280 dd 00 11 bf e3 56 89 3c e9 c2 29 3d 9d ba 05 3c
       -0.5664194 0.016765064 0.041445646 0.008162168
000290 54 d4 d7 3c 11 06 3f be 4d 8f 58 be a0 3c f4 3d
       0.026346363 -0.18654658 -0.21148415 0.11925626
0002a0 af 2e 74 3d 18 af 5d be 1a 40 8f be e4 d9 dd 3c
       0.059614833 -0.21648824 -0.27978593 0.027081437
0002b0 6d f8 3b 3d b1 26 0b 3d 06 cf e2 3c 49 b9 06 3d
       0.045891214 0.033972446 0.027686607 0.032891545
0002c0 9e b6 15 bd bc 81 21 bd 70 f8 04 3d ed 13 36 be
       -0.03655111 -0.039430365 0.03246349 -0.17781039
0002d0 33 1c 2e 3e aa 36 67 3d d1 62 51 3d 5b 9e 1e 3d
       0.17002945 0.056448616 0.05111963 0.03872524
0002e0 e7 e1 d0 3b ad 96 20 be e0 77 0a be 09 b7 75 3e
       0.006374586 -0.15682478 -0.13522291 0.23995604
0002f0 a2 75 85 3e 1f ad 1b be a0 c3 30 3e 31 bd ac 3b
       0.2606631 -0.15202759 0.17262125 0.005271577
000300 a7 1a ad bc 84 0e b7 bd 34 2d c7 3b 68 71 de bb
       -0.021130873 -0.089383155 0.0060783867 -0.0067884214
000310 e2 1c 93 bd bd ad 48 3e c3 77 bb 3d 19 08 3e be
       -0.07183243 0.19597526 0.09153702 -0.18557777
000320 d5 0f a4 be 9e 8b 75 bc b0 9b 0b 3d de a3 48 bd
       -0.3204333 -0.014986901 0.034084022 -0.0489844
000330 11 36 ef bc 50 e1 16 3e 54 f3 40 bd e1 0f f3 3d
       -0.029200586 0.14734387 -0.047107056 0.11868263
000340 74 58 05 3e 59 93 08 be 64 b1 5f 3e 50 18 a9 3e
       0.13022023 -0.13337459 0.21845013 0.3302636
000350 b1 de a6 3e 2d 5e e1 3e 43 53 c9 3e f7 b2 6e be
       0.32591775 0.44017163 0.39321336 -0.23310457
000360 92 ac 64 be b1 da 9f 3e fa 5d d7 3e 85 be b5 be
       -0.22331455 0.31221536 0.42063886 -0.35496917
000370 ac 94 aa 3c de aa 23 be 26 0a bf bd 0c cf bc bd
       0.020822845 -0.1598315 -0.093281075 -0.092191786
000380 5c 33 ac bd 24 5c d3 3d a9 7e a1 3d ee 2a d3 bc
       -0.084082335 0.10320309 0.07885487 -0.025777306
000390 95 8c b9 b7 87 25 46 3d b7 89 31 3e 9f 02 78 ba
       -2.2119182e-05 0.048375633 0.1733769 -0.000946084
0003a0 c8 94 86 bd 2a 3f 37 bd 5c 0e 9d bc f3 30 70 bd
       -0.065713465 -0.044737972 -0.019171886 -0.05864043
0003b0 d7 0a 13 be 7b d4 03 3e bc 8b 94 3d b6 f8 c7 bd
       -0.14359604 0.12874024 0.07253215 -0.09764235
0003c0 97 ff 04 3e 21 6f 08 3e 0d 42 24 3e cb 5b 2b 3e
       0.12988125 0.13323642 0.16040821 0.16734235
0003d0 3f b8 30 3e 35 27 7e bd db 3e 3c 3c 4b bf 2a 3e
       0.17257784 -0.06204911 0.011489595 0.16674535
0003e0 03 25 48 3d 17 15 23 bd 9e e9 2f bd c0 16 98 3d
       0.048863422 -0.039815035 -0.042947404 0.07426214
0003f0 a3 34 17 3e 28 a8 bf 3d cd 11 15 3e 46 4b 0f bd
       0.14766173 0.09358245 0.14557572 -0.034983896

weight_hh_l0 f4 [750, 250]
000000 42 68 a1 bd 63 d9 e6 3d 54 07 92 3e 09 88 07 be
       -0.07881214 0.11271932 0.28521216 -0.13235487
000010 0e 58 3a 3e 88 7d 44 bc a1 04 08 3d 85 c6 83 bd
       0.18197653 -0.01199282 0.03320754 -0.06434349
000020 04 f9 0d 3e 6c 2f 4a be e7 06 14 bd 25 90 e3 bc
       0.13864523 -0.19744653 -0.036139395 -0.027778694
000030 c7 54 62 3d a6 1f cf bc 49 8a 88 bd 94 90 b3 3d
       0.05525663 -0.025283646 -0.06667001 0.087678105
000040 f0 98 fa bd 03 61 68 3e 98 04 10 3e 2f ea 21 bd
       -0.12236202 0.22693257 0.14064252 -0.039529976
000050 f5 c2 d8 bd 5d 32 00 bb 45 8c 63 b8 5b 46 8a bd
       -0.1058406 -0.001956127 -5.4251654e-05 -0.067517005
000060 3a e6 86 3c 52 98 4c 3c 65 4c 28 3d 9e 2e b7 3d
       0.016467202 0.012487488 0.04108848 0.089444384
000070 63 71 b1 3d 97 7a 2b 3c 2f b9 17 3d e2 42 e5 bc
       0.08664205 0.010466239 0.03704184 -0.027985994
000080 08 b8 0b bd ce d9 d6 3d 3a 85 f3 3c f3 19 74 3b
       -0.034111053 0.10490762 0.029726613 0.0037246912
000090 7f f7 83 3d 8b 72 5e 3d 65 99 77 bd df 90 5a 3d
       0.064436905 0.054308455 -0.060449023 0.053360816
0000a0 2e ef 24 3d d3 c6 5e bd 1c 09 d8 bd 9c 80 34 3c
       0.040267162 -0.054388832 -0.105486125 0.011016991
0000b0 8b 9a ba bd 13 2f 3c 3e bc 7b 0a bd f0 18 b9 bd
       -0.09111508 0.18377332 -0.03380941 -0.090379596
0000c0 4d f2 7d 3e 5d bf da bd ad ba 25 bc 1b 97 0e be
       0.24799462 -0.10681031 -0.010115308 -0.1392483
0000d0 a0 62 00 3c 51 7a aa 3d 39 e8 18 3d 3d d8 7e be
       0.007836014 0.08324111 0.03733084 -0.24887176
0000e0 15 26 88 bb f8 8d 3c 3e 8a db 4c 3d 76 74 38 3d
       -0.0041549304 0.18413532 0.050014056 0.04503294
0000f0 17 0d 30 bd 08 01 4a 3d b3 78 40 bc e4 4b a2 be
       -0.042981233 0.04931739 -0.011747527 -0.31698525
000100 ec 1c 88 3e 2e 0d bd bd 4d 9a 66 3e ae 49 06 be
       0.26584566 -0.092310295 0.22519799 -0.13114044
000110 06 0b cf 3c 71 73 cc bd d3 16 98 be ab 12 1c bd
       0.025273811 -0.09982956 -0.29704913 -0.03810374
000120 e8 24 f9 3d ef da 4d bd fc 83 4a bd 5a 51 01 3d
       0.121652424 -0.05025762 -0.049442276 0.031571724
000130 71 aa 69 3e b8 6b 95 3d 1d 8e aa bc 90 c2 00 bd
       0.22818924 0.07295936 -0.020819718 -0.03143555
000140 43 14 8b 3d 76 98 e3 3d c1 24 a7 bd d7 41 66 3d
       0.06790974 0.11113064 -0.08161307 0.056215134
000150 df ed 03 3e 34 c3 9c 3d fe 75 f6 3c 59 64 f2 3d
       0.1288371 0.076544195 0.03008556 0.11835546
000160 e1 37 7f be d3 74 0a be 33 df 96 3d 8b 89 a2 be
       -0.2492366 -0.13521127 0.073667906 -0.31745562
000170 af 94 72 be eb c8 7e 3d aa e7 49 be 5d ae 41 be
       -0.23689531 0.06220333 -0.19717279 -0.1891417
000180 b3 e9 90 3d a7 a3 4c bd 2f d3 c6 bc bb d4 9b 3d
       0.070758246 -0.04996076 -0.024270622 0.076089345
000190 d7 ba 09 be 95 e5 d1 3c e8 22 e8 3c 82 3b b9 3d
       -0.1345018 0.025622169 0.028336957 0.09044553
0001a0 d1 77 63 bb bd 35 07 bd ee 79 2a be 42 1d 3c bd
       -0.0034708867 -0.033010233 -0.16648075 -0.04592634
0001b0 ee 28 d2 3d d5 d0 2e bd 9c 51 9e 3e 14 ee 15 be
       0.10261713 -0.042679626 0.30921638 -0.14641601
0001c0 9d 13 00 be 3b 97 1b bd 52 c0 59 bd 86 b2 d4 bd
       -0.12507482 -0.03798602 -0.053161927 -0.10385613
0001d0 ab ae 9a 3d 2b 66 92 bc fe 1c 3a 3c d9 38 79 be
       0.075528465 -0.017870983 0.011359451 -0.24338092
0001e0 af 49 e6 3d 0d cb cb bb 7b 20 50 bc 65 f1 1d be
       0.11244523 -0.006219274 -0.012703056 -0.15424116
0001f0 c9 46 d9 3d a6 c5 fc bd 58 a3 26 3e b6 ca 0c 3e
       0.10609204 -0.12342386 0.16273248 0.13749203
000200 7e 41 82 bd e7 3f b0 3e 4b c8 90 bb 3a 19 16 bd
       -0.06360148 0.34423754 -0.004418408 -0.03664515
000210 4c a5 03 bd 43 4a 5e 3d 6e 47 8d 3e c3 66 e6 3d
       -0.03214006 0.05427004 0.2759356 0.11250069
000220 66 bc 6a 3e 67 6f 1c bc 45 1b b1 bd df 69 26 3c
       0.22923431 -0.009548045 -0.086477794 0.010157078
000230 72 cb 10 3e ca 2d c0 3c a1 79 bb 3e 31 c6 92 be
       0.14140108 0.023459334 0.36616233 -0.28666833
000240 ea ba b9 3d 22 6f 84 bd 0b 6c 40 3d dd 16 3b 3c
       0.09068854 -0.064665094 0.046978038 0.011419025
000250 86 cb cf bd 41 77 d0 bc 4c 4b cb 3d 68 85 15 3b
       -0.10146241 -0.02544749 0.09926471 0.0022815112
000260 5c 13 89 bd 95 b0 8b bd c2 c6 74 bc e4 d7 86 bd
       -0.06693146 -0.0682079 -0.014939966 -0.065841466
000270 df 78 c1 bd af af cf 3c db 4d 1e 3e 78 3d b4 3d
       -0.094468825 0.025352327 0.15459387 0.08800787
000280 6c a7 79 3e c9 be 99 3d 35 a0 d2 3d a0 f0 0c be
       0.24380273 0.075070925 0.10284463 -0.13763666
000290 97 4d 4c 3e b0 cc 6e bb 1c 64 18 3e 66 af ce bc
       0.19951473 -0.0036437921 0.14881939 -0.02523012
0002a0 2f 66 ae bd 40 ed c5 bd 79 8d d7 3c 42 05 a9 3d
       -0.08515584 -0.096643925 0.026312577 0.08252956
0002b0 92 4d 79 be 33 16 c2 3d 33 da d3 3d 2c 04 2f 3d
       -0.24345997 0.094768904 0.103443526 0.042728588
0002c0 a3 a7 ac 3d 73 32 70 3e f7 7c c7 bd 2f 97 bc bd
       0.08430412 0.23456745 -0.09740632 -0.092085235
0002d0 96 bb 1e be 20 29 0f 3e bf b5 01 3e 7f 51 88 bc
       -0.15501246 0.13980532 0.12666987 -0.016640423
0002e0 c2 97 9e bd e7 31 10 be 10 14 fd 3c 7f 5e a7 bb
       -0.07743789 -0.14081536 0.030893356 -0.0051077004
0002f0 54 5a d1 3b 28 7a 41 ba 24 f3 3f 3b 7b 78 e2 bd
       0.006388942 -0.00073805684 0.002928921 -0.11058136
000300 69 f5 f3 bd fa 95 4f bc 04 bb a7 3d ea 9d 2b 3e
       -0.11912043 -0.012670035 0.08189967 0.16759458
000310 42 76 57 bd 2e 4d 20 be 38 f7 06 3e d3 58 ff 3c
       -0.052603014 -0.15654442 0.13180244 0.031170284
000320 d5 9e f8 3d b1 ec 82 bd ba 8c da 3d d8 50 ba 3d
       0.1213967 -0.063928016 0.10671373 0.09097451
000330 44 67 af 3e 8b e0 2b be 4f fd 0c 3e db 50 f0 3b
       0.34258473 -0.16784875 0.13768505 0.0073338575
000340 a4 d3 32 3e 97 77 7e bd 8c e1 ca 3d 2a a8 21 be
       0.17463547 -0.06212577 0.09906301 -0.15786806
000350 54 8e ce bd cd 03 a9 bd ad 2a 0b 3d a8 d6 c5 bd
       -0.10085741 -0.08252678 0.033976246 -0.09660083
000360 9f 83 10 3e 18 30 63 3d 93 87 85 3d ae ea 70 bc
       0.1411271 0.055465788 0.06519999 -0.0147043895
000370 36 6d a7 3e f5 76 03 3e c0 51 5a be ef 04 5b be
       0.3270051 0.12838347 -0.21320248 -0.21388601
000380 be 4e 0d be bd 4a 22 3d 2d 4f 53 be fd 8a 73 bd
       -0.13799569 0.039622057 -0.20635672 -0.05945872
000390 2e f9 96 3d 05 76 a7 bd 66 e2 ab bb f3 d1 35 be
       0.07371746 -0.08176807 -0.0052454947 -0.1775587
0003a0 81 64 0d 3e d8 0e a9 bd d3 8a 70 3b 5c 5e ec bc
       0.1380787 -0.08254784 0.003670384 -0.028853588
0003b0 67 24 7b be cc 07 0d be f7 a7 8d 3c 0c 96 8e be
       -0.24525605 -0.13772506 0.017292006 -0.27848852
0003c0 8e cd 8c bd a9 d1 77 3e da 5f 2c 3e 50 1a dc 3d
       -0.06875144 0.24201073 0.1683344 0.10747206
0003d0 7c 0c 68 bc 1d d6 e6 bd 5b 30 29 bd 0a 97 2c be
       -0.014163133 -0.112713076 -0.04130588 -0.16854492
0003e0 6f 30 c3 bd 5b 4e 46 be 9c 6f b6 bd a2 09 65 3a
       -0.09530722 -0.19365828 -0.089080065 0.0008737092
0003f0 fa 09 c8 3d c3 51 43 3e 1a d5 08 bd 52 58 df bd
       0.09767528 0.19074158 -0.033406354 -0.10905518

bias_ih_l0 f4 [750]
000000 9b f2 9c bd 2f 1d ae be 73 f3 15 3e ea 9f f2 3d
       -0.07663461 -0.3400664 0.1464365 0.118469074
000010 98 99 26 3e 77 a0 a3 b9 b3 31 32 3e 81 44 b5 bd
       0.16269529 -0.00031209338 0.17401771 -0.08850957
000020 62 5e 2e bd 6d 66 74 be 5f 9d 27 bc 65 5d ed bd
       -0.04257048 -0.23867197 -0.010230391 -0.11590079
000030 90 26 26 be 94 92 92 bc 92 cd 8e be d6 d2 6a 3e
       -0.16225648 -0.01789216 -0.27891213 0.2293199
000040 83 4f 4d be b1 6d 90 3d 0d 18 3f be 77 12 bf bd
       -0.20049863 0.07052172 -0.18661518 -0.09329694
000050 b8 01 67 be 80 b4 bc be d2 b5 b1 3d 02 61 89 bd
       -0.2255925 -0.3685646 0.086772576 -0.06707956
000060 2d 33 7c bc 9b c8 ce bc 63 b1 0c be cb be 06 be
       -0.015393061 -0.02524214 -0.13739543 -0.13158719
000070 9b 16 10 3e 75 95 4b 3d 08 93 db 3c 88 a9 0a be
       0.14071123 0.04970308 0.026803508 -0.13541234
000080 3f 7b a5 3d 0b 0c ae bd 8d 3c b0 bd 44 1a 0d be
       0.08080148 -0.08498391 -0.08605299 -0.13779551
000090 61 18 8e 3c a7 8b 42 3e b1 2d 25 be 4c 24 0d be
       0.01734561 0.18998586 -0.16130711 -0.13783377
0000a0 16 32 86 be 4d a1 8e be 13 a8 15 3e 08 f8 18 be
       -0.26210088 -0.27857438 0.14614896 -0.14938366
0000b0 92 89 23 bc 11 5f 92 be 7f 37 78 bd 61 22 c4 3b
       -0.00998153 -0.28588155 -0.0605998 0.0059855436
0000c0 22 ba 3f bd 1c ed 8c be 26 93 c0 bc 4a a9 11 be
       -0.04680837 -0.2752465 -0.023507666 -0.14224735
0000d0 b7 c2 a2 bd b6 bd 98 3d 52 bb 3d bd c5 82 b6 bd
       -0.07947295 0.074580595 -0.04632122 -0.08911661
0000e0 bd bd 55 3c 99 23 88 bd dc bf 9a bd dc 80 b0 3d
       0.013045725 -0.06647415 -0.075561255 0.08618328
0000f0 bd e0 62 3d 95 e0 be bd 87 9c 90 bd 16 15 29 3e
       0.05539011 -0.093201794 -0.07061105 0.1651195
000100 e7 1d 14 be 2a b3 b8 bd 2f 5f 2d bc 24 c6 86 bc
       -0.14464532 -0.09018548 -0.010581776 -0.016451903
000110 c4 53 43 be b1 2d b0 3d c1 4d bf 3c c2 c8 0f be
       -0.19074923 0.08602465 0.023352506 -0.14041427
000120 8d 97 73 3d d6 28 81 bd dd 3b 60 3e b5 f2 ed bd
       0.059470702 -0.06306617 0.21897836 -0.11618558
000130 b1 fb e2 bd 98 71 a4 be 44 eb 17 be 8e 4e 14 bc
       -0.110831626 -0.32117915 -0.1483584 -0.009051932
000140 66 cd 2a bc 53 67 82 3c 8c 85 a4 be 28 3b 5c bd
       -0.010424947 0.01591841 -0.32133138 -0.053767353
000150 ef aa 4d bd 24 25 47 bd 08 3c 39 bc fd dc 0a be
       -0.050211843 -0.048619404 -0.0113058165 -0.13560863
000160 3c fe 02 3e e7 22 69 bd 89 64 ec bb 5f f3 8b be
       0.12792295 -0.05691805 -0.007214133 -0.27334115
000170 3b f8 0a bd bf 58 a4 be a9 14 33 3c 08 31 81 be
       -0.033928137 -0.32098958 0.010930219 -0.2523272
000180 d1 85 70 3d 31 ea 1f be 39 77 6f 3e 0c a7 46 be
       0.058721367 -0.1561668 0.23385324 -0.19399661
000190 77 73 3b 3e c8 62 3b 3e ca e4 7c bd 4c 6f 50 be
       0.18305765 0.18299401 -0.061741628 -0.20354956
0001a0 d5 1b 28 3e 8b af 19 3d e5 19 ec bd f7 fc a5 bc
       0.16416867 0.037520926 -0.115283765 -0.020262225
0001b0 70 9f 85 3c 43 5f 21 bd 1a 41 d5 be 85 d1 1e 3a
       0.016311377 -0.03939749 -0.4165123 0.00060584425
0001c0 55 68 8b be af 3b ff bd 0c 28 0b bd 7b 6c da bd
       -0.27228037 -0.124625556 -0.03397374 -0.10665222
0001d0 cd 25 8e 3d 03 50 f4 bd 43 4f 27 be 2f 6b d6 3c
       0.06940804 -0.119293235 -0.1633883 0.026174156
0001e0 69 07 6e 3d bd b8 d4 bc 3e 94 e2 bd bb e1 54 3d
       0.058112536 -0.025966996 -0.11063431 0.051973086
0001f0 64 b9 98 3d 12 bb d5 bd f4 d0 49 be e7 bb 48 be
       0.074572355 -0.104360715 -0.19708616 -0.19602929
000200 65 d8 24 be 50 bf c3 bd 22 87 15 3d db 70 8f bd
       -0.16098173 -0.09557974 0.036505826 -0.07003947
000210 3e 2a 75 be 04 4f 63 be 6e c9 01 be a7 dc 48 3a
       -0.23941895 -0.22198111 -0.12674496 0.00076622743
000220 d2 76 d8 bd ab 44 7c be a9 f5 a1 3c 19 52 6d bd
       -0.10569538 -0.2463557 0.01977046 -0.057939623
000230 68 fb a7 bb dc ac 94 bd 68 7d 6e bd 63 a4 60 3d
       -0.0051264055 -0.07259533 -0.058225065 0.05484427
000240 9b 1a d3 3b 9d a8 f0 3d 69 aa 90 3e 40 cc 8a bc
       0.0064423806 0.117509104 0.28255013 -0.016943097
000250 b8 28 36 be 74 3b 6d be 28 11 a2 bd 10 28 7b 3e
       -0.1778897 -0.23167211 -0.079134285 0.24527001
000260 3a 78 ff bd 25 df 38 be 4c 9d 7d be 7d 39 17 be
       -0.12474103 -0.18053873 -0.24767035 -0.14768024
000270 fb 8b 18 be fa 46 a1 bd d7 f2 84 3e a7 f3 f5 3b
       -0.14897148 -0.07874866 0.25966522 0.0075058523
000280 f5 7a 37 3d 83 26 fd bd 9a f1 08 3e 10 e0 b9 3d
       0.044794995 -0.12360861 0.13373414 0.0907594
000290 f5 df 56 3c 90 8d 00 bc 9d 8e b5 bd 81 3e 33 be
       0.013114919 -0.007846251 -0.08865092 -0.17504312
0002a0 d2 cf 3d be 49 2b df bd 09 13 f9 bd f8 ac 7e 3d
       -0.18536308 -0.10896928 -0.12161834 0.062176675
0002b0 15 37 00 be ec a2 87 bd 76 94 8d 3c 91 23 29 bd
       -0.12521012 -0.06622872 0.017282706 -0.041293684
0002c0 fb f8 62 be 28 97 df bd 3e 2c 36 be 24 0e 98 bd
       -0.22165291 -0.10917503 -0.17790315 -0.07424572
0002d0 95 ae 0c 3e 8c 1b 82 3b 44 bc e6 be c9 5c 78 be
       0.13738473 0.003970569 -0.4506551 -0.24254145
0002e0 2d df 41 be 14 4e 32 be 9d 95 db 3d ae b5 16 be
       -0.18932791 -0.17412597 0.10721896 -0.14717743
0002f0 9e 57 c9 bc 6a fe 44 be 37 c3 10 be c6 52 00 be
       -0.024577912 -0.19237676 -0.14136969 -0.12531576
000300 94 37 35 3e 4d b8 03 be fa 00 94 bd 9b 6f 59 be
       0.17696983 -0.12863274 -0.07226749 -0.2123398
000310 a2 ab b1 bd 5d 55 50 be 26 05 e5 3c 63 26 cc 3d
       -0.086753145 -0.20345064 0.027956557 0.09968259
000320 ac 6d b7 bd a7 cc 08 be 9e 2d aa be 45 da fa bc
       -0.08956465 -0.13359319 -0.33237928 -0.030621657
000330 65 35 41 be 05 80 18 be 0e e7 92 bd cf 89 ad bd
       -0.18868025 -0.14892586 -0.071729764 -0.084735505
000340 36 d1 a1 bc b3 a2 8f be 66 02 a7 bd d7 76 af bd
       -0.01975308 -0.28053817 -0.08154754 -0.08567589
000350 19 4b 3e 3d 0b 39 0a 3e 60 5a a7 3b 4d 2e 56 be
       0.046458337 0.13498323 0.005107209 -0.209161
000360 99 8d 33 bb e6 22 83 be 98 af 36 be 2e 6a 8a bd
       -0.0027397631 -0.25612563 -0.17840421 -0.067585334
000370 30 66 d5 be ba ec a0 be b4 da 48 be 95 41 17 be
       -0.41679525 -0.31430608 -0.19614679 -0.14771111
000380 79 09 88 3b 4c 0f c5 bd 7d 6c 95 bd 0d 19 bd bd
       0.00415152 -0.09622058 -0.07296083 -0.09233294
000390 27 e9 57 bd a9 13 93 3c 1d 1a c5 bd 81 ec 2a 3d
       -0.052712586 0.01795371 -0.09624121 0.041729454
0003a0 c3 24 0f be e6 58 58 3d e4 cf 3a be 76 58 e7 bd
       -0.13978867 0.052819155 -0.18243366 -0.112961695
0003b0 58 a6 8a bd 0a 48 1b be e8 52 fd bd b6 4f e3 bd
       -0.06770009 -0.151642 -0.12369329 -0.11099188
0003c0 b1 9e c8 bd 7c 29 40 be 00 33 cd bd b1 ef 43 be
       -0.09795893 -0.18765825 -0.10019493 -0.19134404
0003d0 d2 1b 95 3d 91 64 85 bd b5 80 c7 3c 67 34 53 be
       0.07280697 -0.06513322 0.024353364 -0.20625459
0003e0 79 c8 1b bd 11 77 1b be 13 97 59 be 48 98 46 be
       -0.038032982 -0.15182139 -0.21249036 -0.19394028
0003f0 49 8f e0 3d eb 39 17 bd a5 97 22 3e ed 6c a7 3d
       0.109648295 -0.03692047 0.1587816 0.08175073

bias_hh_l0 f4 [750]
000000 74 02 18 be a2 27 9c be 66 4a 4a 3e c9 4f 3e 3e
       -0.14844686 -0.30498987 0.19754943 0.18585123
000010 cf dd 62 3e 4e fb 2d 3d 07 7d be 3d d8 42 e5 bd
       0.22154926 0.04247599 0.09301191 -0.1119439
000020 ac 6f 2a 3c 19 22 7f be 54 5d 8e 3c 74 d1 1a be
       0.010402601 -0.24915351 0.017378487 -0.15118963
000030 6a 23 76 be 54 4d e2 3c 3a ca a3 be 57 ca 46 3e
       -0.24036947 0.027624764 -0.31990224 0.19413124
000040 a6 4a 19 be 94 5f bc 3d 7d 75 34 be 0a 97 39 be
       -0.14969882 0.091979176 -0.17622943 -0.18124023
000050 95 de 35 be 6d d1 c3 be 72 eb b0 bb 1e 3c 05 be
       -0.1776069 -0.38245717 -0.005399161 -0.13011214
000060 5d c3 00 bd 37 f2 83 3b 43 0a e5 bd ad 66 c1 bd
       -0.031436313 0.004026677 -0.11183598 -0.09443412
000070 b6 8c 49 3e 6f aa 2b bc 24 af 7b 3c ae 8d fe bd
       0.19682583 -0.010477646 0.015361581 -0.12429367
000080 f3 45 bb 3d 31 79 bd bd 08 42 13 bd 6a 1f 07 be
       0.09144201 -0.09251631 -0.035951644 -0.13195577
000090 8b f8 ec bc 5b bf 39 3e be d8 47 be 11 06 a9 bd
       -0.028927108 0.18139403 -0.19516274 -0.0825311
0000a0 ae 01 5a be fd 43 70 be f0 a3 5f 3e 08 b2 d5 bd
       -0.21289703 -0.23463435 0.21839881 -0.104343474
0000b0 c0 33 af bc af 78 3e be bc a1 e7 bd a8 9d 99 bd
       -0.021386981 -0.18600725 -0.11310145 -0.07500774
0000c0 c3 5d 96 bd 3e 21 81 be 6c 35 bc bc 37 f8 ad bd
       -0.073421024 -0.25220674 -0.022974692 -0.08494609
0000d0 46 09 c1 bd 30 74 3a 3e ee 4f 9e bd 68 b7 0a bd
       -0.09425597 0.18208385 -0.07730089 -0.033866316
0000e0 8c 47 71 bd 65 29 7e bc df 17 e7 bd 9e d8 67 3d
       -0.058906123 -0.015512799 -0.1128385 0.056603067
0000f0 77 6d 6c 3c 6c f1 ec bd 24 68 98 bc 91 a4 23 3e
       0.014430395 -0.11569485 -0.018604346 0.15980746
000100 08 ec 1e be 6e 22 07 bc 50 2d 65 bd 24 fc 13 bc
       -0.15519726 -0.008247955 -0.055951416 -0.009032283
000110 a4 08 f4 bd 7c 40 ec 3c 0f 00 cb 3d 4e 4d 82 be
       -0.119157106 0.028839342 0.099121206 -0.25449604
000120 c3 f6 59 3d 84 94 fb bc b8 32 3a 3e 4f c4 c9 bd
       0.053213846 -0.030710466 0.1818341 -0.09851896
000130 a5 1b f1 bd 39 67 d4 be 36 c8 05 be 04 6e b3 bb
       -0.11772851 -0.41485003 -0.13064656 -0.0054757614
000140 b1 58 86 bd f0 0f 7a 3b f7 f7 93 be b6 83 69 bd
       -0.06559885 0.0038156472 -0.2890012 -0.057010375
000150 4b 5c 7e bd 9d 46 02 bd 7a 70 71 bd ce 3f 54 bd
       -0.062099736 -0.031805623 -0.058945157 -0.05181866
000160 fe b2 46 3e 8b 63 57 bd 6e 06 f4 3c de 60 bd be
       0.19404218 -0.052585166 0.029788222 -0.36987966
000170 af d0 d0 bd f1 68 9f be 99 ca 6b bc 8b 2d 30 be
       -0.10196053 -0.3113475 -0.014391565 -0.17204873
000180 7f 70 b4 3d c1 85 e0 bd 86 5c 98 3e 99 19 68 be
       0.088105194 -0.109630115 0.2975809 -0.22666015
000190 62 ee 58 3e fe 96 ec 3d 06 99 9c bd 5f c2 51 be
       0.21184686 0.11552237 -0.076463744 -0.20484303
0001a0 65 96 0d 3e 59 c6 98 bc 7c 89 6c be 54 5e 89 bb
       0.13826902 -0.018649267 -0.23099321 -0.004192153
0001b0 89 fc 69 3d ef 33 c4 bd 47 ba b8 be 82 a4 99 3d
       0.057125602 -0.09580218 -0.36079618 0.075020805
0001c0 b7 f3 43 be 69 c1 47 be bc c3 ac bc ec c0 dd bd
       -0.19135939 -0.19507374 -0.021089427 -0.108278126
0001d0 c0 54 8a 3d 5d 77 ca bd d7 8d 56 be ae b7 11 3d
       0.06754446 -0.09886048 -0.20952545 0.03557556
0001e0 d4 aa 25 3d a1 91 96 bd 99 ba 21 bd 64 f1 24 bd
       0.040446118 -0.07351995 -0.039484594 -0.04026927
0001f0 ff e7 83 3d 09 8d 15 be b3 9e 91 be 66 ff 59 be
       0.06440734 -0.14604582 -0.2844139 -0.21288833
000200 88 b6 34 be 82 bb 5b bd 79 05 d0 3d 98 97 fa bd
       -0.17647755 -0.05364562 0.10157294 -0.122359455
000210 c6 59 2e be 4b 24 a0 be a4 a0 18 be 5f d6 b2 bc
       -0.17026433 -0.3127769 -0.1490503 -0.021830736
000220 4f c6 02 be f5 5c 7d be 47 bc c9 3d cd 08 1f 3d
       -0.12770961 -0.24742492 0.09850364 0.038826752
000230 f7 d5 29 bd cf 36 ad bd 14 5d 67 bd b0 1e 10 3d
       -0.04146382 -0.084577195 -0.05648525 0.035185516
000240 86 90 81 3d 6f c0 ec 3d ed 0b b2 3e 18 22 a1 bd
       0.06326394 0.11560141 0.34774724 -0.07867831
000250 95 6e 1a be b9 92 43 be e1 49 86 bd 24 6c 28 3e
       -0.15081246 -0.19098939 -0.0655706 0.16447502
000260 d6 20 3b be 25 db 7c be 2d bd 6f be a1 6d 00 be
       -0.18274245 -0.24692972 -0.23412009 -0.1254182
000270 b6 b0 d5 bd f9 3a ae bd 82 b6 6a 3e db fe c2 bc
       -0.104340956 -0.08507342 0.22921184 -0.023803165
000280 45 53 0f 3d 72 bb c1 bc 8e f6 2b 3d 9f 1e 5f 3d
       0.03499152 -0.023648951 0.04198318 0.054472562
000290 b9 66 4a 3c 53 7c fb bc 75 77 14 be 78 70 e3 bd
       0.012353593 -0.03069893 -0.14498694 -0.11105436
0002a0 87 d2 21 be de de db bd b2 df 66 bd 15 50 87 3d
       -0.15802966 -0.10735868 -0.056365676 0.06607071
0002b0 27 cf 23 bd 74 e9 3c bd ff 85 10 3d 94 52 04 bd
       -0.039992478 -0.046121076 0.03528404 -0.032305315
0002c0 43 7c 30 be ef 55 16 be 84 a6 0b be d6 83 a4 bd
       -0.17234902 -0.14681219 -0.1363774 -0.08032958
0002d0 22 99 02 3e e5 2c 18 3c 09 a4 cf be 01 a4 51 be
       0.12753728 0.009288047 -0.40554836 -0.20472719
0002e0 bc ec 41 be 07 f8 f1 bd 15 31 ac 3d 84 37 37 be
       -0.18937963 -0.118148856 0.08407799 -0.17892271
0002f0 23 8c 9b bd d6 60 51 be 38 5d a1 bd 48 ff 11 be
       -0.07595088 -0.20447096 -0.07879108 -0.14257538
000300 d6 01 e9 3d ff fd 17 be eb 29 30 be eb 43 6f be
       0.11377303 -0.14842986 -0.1720349 -0.23365752
000310 ca 2b c6 bd 54 a6 57 be b2 f4 6e 3b 17 87 d1 3d
       -0.09676321 -0.21059543 0.0036461768 0.102308445
000320 43 f8 f7 bc 94 e3 a0 bd 36 4e da be 29 9d d3 bd
       -0.030269748 -0.07855907 -0.42637795 -0.1033271
000330 32 9a 46 be e3 3e 09 be 72 87 8f bd 1d a6 18 be
       -0.19394758 -0.13402896 -0.07008256 -0.14907117
000340 74 1f ae 3c d2 84 b4 be 24 16 d2 3c 5a df 5a bd
       0.021255232 -0.35257584 0.025645323 -0.05343566
000350 83 49 6c 3c 7f c5 b6 3d 95 89 de 3c 9e 5f a0 be
       0.014421823 0.08924388 0.027165214 -0.3132295
000360 92 a5 f8 bc 23 1d a4 be ef 73 99 bd 22 36 40 bd
       -0.030352388 -0.3205348 -0.07492816 -0.046926625
000370 75 c8 dc be 82 22 b7 be 60 d6 6b be 89 4e 63 be
       -0.43121687 -0.35768515 -0.23030996 -0.22197928
000380 33 65 08 3c 6f 48 1c bd 30 bd 41 bd 44 06 0b be
       0.008324909 -0.038155016 -0.047299564 -0.13576609
000390 1d 3b 0c be 17 37 f4 3d 9b 5d fb bd 4b f4 89 bc
       -0.13694425 0.1192457 -0.12273713 -0.01684012
0003a0 be 3d 56 bd d8 ea 59 bc 42 cd 39 be 3c e1 d7 bd
       -0.052304976 -0.01330062 -0.18144706 -0.10541007
0003b0 03 a9 d1 bd 5f 0c ac bd 9a b6 2b be b0 9c b7 bd
       -0.102373146 -0.08400797 -0.16768876 -0.08965433
0003c0 23 06 ea bd 36 66 03 be a1 08 3b be 32 f2 39 be
       -0.11426952 -0.12831959 -0.1826501 -0.18158796
0003d0 fd 4e ef 3d c8 7b ca bd 8e 75 1a 3d 44 79 50 be
       0.11684988 -0.09886891 0.037709765 -0.20358759
0003e0 d3 d6 18 be 3a 7a 10 be ab 78 13 be 98 5a 5b be
       -0.14925699 -0.14109126 -0.144015 -0.21421278
0003f0 16 82 07 3e 47 56 9d bd 94 8a 35 3e 34 1d d0 3c
       0.13233218 -0.07682472 0.17728645 0.02540455

weight f4 [1, 250]
000000 60 9b 6f bd c3 7b 17 be 10 41 cd 3d 9b 77 02 3d
       -0.058497787 -0.14793305 0.10022175 0.031852346
000010 17 69 29 bd 0c 85 a5 3d ec 04 85 3d 9c fa c9 bd
       -0.041359987 0.08082017 0.064950794 -0.09862253
000020 ce a3 55 bd 42 b5 f5 bd f9 a9 8a 3d 56 69 b4 3d
       -0.05215817 -0.11997463 0.06770701 0.08809154
000030 61 de 53 be f7 b9 d4 bd 4a 8f b1 bc 54 1f a2 3d
       -0.206903 -0.103870325 -0.02167477 0.079161316
000040 ad 32 e1 3d e6 63 64 3d e9 7c 9e 3d a3 59 ef bc
       0.10995994 0.055759333 0.077386685 -0.029217547
000050 71 8d b2 3d b7 ff 09 be 63 62 e6 bb b4 ae 93 bc
       0.08718384 -0.13476454 -0.0070307716 -0.01802764
000060 87 19 a5 3d df 52 0c bc f3 4d 4b be 37 f2 c9 3d
       0.080615096 -0.00856468 -0.19853954 0.09860652
000070 a7 41 be 3d 30 68 95 bd cd c2 cd bd 45 2d 2c bc
       0.09289866 -0.07295263 -0.10046921 -0.01050884
000080 61 33 f0 bc c3 e1 80 3d ea 61 12 3e c1 fb bb bd
       -0.029321374 0.06293061 0.14295164 -0.091788776
000090 f7 b3 e2 bc fe ee c1 bc ba cc 41 3d 09 dc 00 3e
       -0.027673705 -0.02367353 0.047314383 0.12583937
0000a0 2c cf 2f 3e c7 4f 20 3e a6 e7 20 be 6c c8 ab bd
       0.17168874 0.15655433 -0.15713367 -0.08387837
0000b0 88 a1 3d 3d ca e2 d9 3d d1 f5 7c 3b f6 ef c3 3d
       0.046296626 0.1063896 0.0038598666 0.09567253
0000c0 06 22 97 3d 48 d7 ca 3c 98 17 84 3d 5a a6 6a bc
       0.07379536 0.024760857 0.06449813 -0.014321888
0000d0 a4 5a 07 bc 98 97 d7 bb d6 f6 07 be b8 b4 13 bc
       -0.0082613565 -0.0065793507 -0.13277754 -0.009015255
0000e0 47 72 a0 3d cb 18 04 be 9b 10 94 3d a2 c6 1a 3c
       0.07834297 -0.12900083 0.0722973 0.009446772
0000f0 95 c6 99 3d ad 05 2c be 2d 90 d3 bd 27 b8 ac bd
       0.0750858 -0.1679904 -0.10330234 -0.08433562
000100 36 2b 9a 3c cf f5 70 bd 50 e7 b4 3d c2 f8 01 3b
       0.018819433 -0.05882817 0.08833182 0.001983211
000110 88 e8 b6 bd 55 89 3e be 0b 51 03 3e 2d a3 9d 3c
       -0.089310706 -0.18607076 0.12823884 0.019242847
000120 ac 9b 17 3a da 28 ac bd 43 93 ac 3d cb e2 4a bb
       0.000578339 -0.08406229 0.084265254 -0.0030957933
000130 6a d3 0a 3b f2 71 33 be ac 83 b7 3d dd 0b c2 bd
       0.0021183142 -0.17523935 0.08960661 -0.09474919
000140 3a e1 c8 bd 87 5d d8 3d 3c 8a f5 bd fc fa 9d 3d
       -0.098085836 0.10564714 -0.11989257 0.07713887
000150 8d a3 a8 bc 5d db 06 bc 41 28 2f bb 39 18 8d 3d
       -0.0205858 -0.008231011 -0.0026726874 0.06889386
000160 28 fb 2c bc 7e b7 02 be ac 04 4f 3c 31 15 22 be
       -0.010557927 -0.12765309 0.012635391 -0.15828396
000170 64 f8 41 be 0c 7d fd 3d 17 96 76 bc 4d 58 63 bd
       -0.1894241 0.123773664 -0.015050433 -0.055504132
000180 7c f3 0b be 4a be f9 bc 6b e8 a4 bd 50 c5 79 3d
       -0.136671 -0.030486245 -0.08052143 0.060979187
000190 e3 4a ee 3b 70 b1 9b 3d 03 3f 61 bc 23 5e 56 3d
       0.007272111 0.07602203 -0.013747933 0.05233587
0001a0 b5 a0 a9 bd e5 1c d6 3d 08 90 64 bd 62 ea 05 3b
       -0.082826056 0.1045473 -0.05580142 0.0020433892
0001b0 62 c7 d4 bb 86 a2 a4 3d 81 42 1e be 2c 91 12 3e
       -0.006493495 0.080388114 -0.15455057 0.14313191
0001c0 e4 5c c2 bd 59 d8 a5 bd 0c f4 e6 bd ce 24 6d 3d
       -0.09490374 -0.08097906 -0.11277017 0.057896428
0001d0 49 12 7a 3d fd 7b bb 3d cd db e4 3d 5d 0c 40 bd
       0.061052594 0.09154508 0.11174736 -0.04688679
0001e0 ae 07 a0 bd d0 62 40 3d 7c 84 d4 3d 33 6c 81 bd
       -0.07813965 0.046969235 0.10376832 -0.063194655
0001f0 61 09 78 3d 29 16 cb 3d 65 bc be bd 15 2b 35 be
       0.06055582 0.09916336 -0.09313277 -0.17692216
000200 51 63 af bd 32 c2 4c 3e 1a 22 c6 bd 45 5f f7 bd
       -0.08563865 0.19995955 -0.09674473 -0.12078718
000210 d1 6e 34 be d3 a0 1e 3e 49 fa 74 3d 95 a5 10 be
       -0.17620398 0.15491037 0.059809003 -0.14125665
000220 8a 76 9b 3d a8 9c c4 bc 54 ae 86 be 32 8a bb 3d
       0.07590969 -0.02400048 -0.26304877 0.09157218
000230 b5 b2 48 bc 72 ae 5a 3d a9 1b 90 bc 57 6c 2f 3d
       -0.012249638 0.05338902 -0.017591314 0.04282793
000240 cc bf b7 3d 68 8f bc bc e5 fb 13 be 91 12 ce 3c
       0.08972129 -0.0230176 -0.14451559 0.025155338
000250 f1 8e 51 3d e7 40 a2 3d f5 0d a0 3d e5 71 b6 3b
       0.05116171 0.079225354 0.07815162 0.0055677765
000260 2e 73 e2 bd 4a 85 9b bd 3a 8a 05 be 4f 6e 32 3b
       -0.11057125 -0.07593782 -0.1304101 0.0027226394
000270 bc ee cc bd 36 b0 9f 3d 12 64 b0 3d 15 9f 8d 3d
       -0.100064725 0.077972814 0.08612837 0.06915108
000280 3e 4f 95 3c 3f 53 dd 3d eb 7b 99 3d fc c8 d6 3d
       0.018226262 0.108068936 0.074943386 0.104875535
000290 e4 e7 72 bc 1e 72 f3 bd 36 bf 06 bd 2b 44 23 be
       -0.014825795 -0.118870005 -0.032897197 -0.15943973
0002a0 36 90 62 bd 8f 67 af bd cf 37 24 3b 86 f7 60 bc
       -0.05531331 -0.08564674 0.0025057679 -0.013730889
0002b0 dd 04 bc bd 7c be 91 3d f4 54 9c 3d 99 25 0a be
       -0.09180615 0.0711641 0.07633391 -0.13490905
0002c0 55 a7 9b bd f1 fa 01 3e b8 ee 75 bd 9a 50 7b 3d
       -0.076002754 0.12693383 -0.060042113 0.061356165
0002d0 a6 f4 af bd ee a6 12 3d 9d 42 23 3e 9b e8 62 be
       -0.08591585 0.035803728 0.1594338 -0.22159044
0002e0 8b c5 f5 3a a3 f5 a6 bd dd b1 4e 3d eb be e0 3d
       0.0018750889 -0.0815232 0.050462592 0.10973915
0002f0 57 19 94 3d 60 83 52 3d b4 ff 82 bd 3d 3f d1 bd
       0.07231396 0.05139482 -0.06396428 -0.1021714
000300 13 f6 47 3d 88 3a f9 bb c4 00 52 3e fd b5 bb 3d
       0.04881866 -0.0076058544 0.20508105 0.09165571
000310 5a 88 76 3d 59 97 40 bd 01 9b d4 3d 39 27 b8 bd
       0.06018863 -0.047019336 0.10381127 -0.08991856
000320 a0 a8 20 bd 45 e2 44 bc 37 95 11 be 84 2e cc bc
       -0.039223313 -0.0120168375 -0.14217077 -0.024924524
000330 f0 fb cd bc f3 60 0c be 85 3c 9a bc ea 65 a2 bd
       -0.025144547 -0.13708858 -0.018827686 -0.07929595
000340 28 3d 87 3a 3e 2b 67 be 37 02 25 be a7 1d 76 bd
       0.0010317909 -0.2257509 -0.16114126 -0.060086872
000350 13 38 39 3d 92 0e a5 bd 4e df 38 3c d5 42 a8 bd
       0.045219492 -0.0805942 0.011283709 -0.08215872
000360 20 8f bb bc 3f 1a 24 be a0 55 53 be de 2d 63 3d
       -0.022895396 -0.16025637 -0.20638132 0.055463664
000370 0c 2c d7 3d 2c 00 5b 3e 69 ab 7e 3d a1 78 a7 bd
       0.10506448 0.21386784 0.06217519 -0.08177305
000380 f6 8f b1 bd f9 f3 e9 bd cb 95 80 bd 9b f7 87 bd
       -0.086700365 -0.11423487 -0.06278571 -0.06639024
000390 6f a4 86 3d c4 e4 94 3b b3 dc 83 bd 9c 33 b9 3d
       0.06574332 0.0045438726 -0.064385794 0.09043047
0003a0 8c 9d 2f 3e aa 32 97 3c 33 17 31 bd 8f 97 2e bd
       0.17149943 0.018456776 -0.043235015 -0.042625006
0003b0 dc 53 12 be 03 e0 05 be 6f b3 6d 3d db ba 84 be
       -0.14289802 -0.13073735 0.05803245 -0.2592381
0003c0 36 1c a1 bd 9e a6 a7 bd e9 f7 c1 bb bd 3b a8 3d
       -0.07866709 -0.081860766 -0.005919446 0.08214519
0003d0 db a9 f8 bb 21 24 ef bb 14 5f 00 3b 8e e7 dd bd
       -0.0075886077 -0.007298008 0.001958792 -0.10835181
0003e0 92 4e 45 bd 5c 0d 34 be
       -0.048170634 -0.17583221
