model/GRU-000629.pth (torch, 790039 bytes, 5 tensors)

weight_ih_l0 f4 [750, 10]
000000 d0 ff be 3c 16 7c 75 be 84 68 9e be 3f c8 b6 be
       0.02331534 -0.23973116 -0.30939114 -0.3569965
000010 72 a0 ad be 17 58 ae 3d 8c fa e1 3d 99 c2 67 3d
       -0.33911473 0.085128956 0.11034116 0.056582067
000020 ab 09 80 3d 20 df 03 3e 64 b3 f1 bc 14 89 18 3f
       0.06251844 0.12878084 -0.029504485 0.59584165
000030 e1 75 1c 3f 9a 0f 26 3f b0 8c 26 3f f2 a9 c7 bd
       0.6111737 0.64867556 0.6505842 -0.09749211
000040 2d 56 7a be 75 7f a4 3c 71 72 a5 bc d9 7f bb bd
       -0.24446936 0.020080307 -0.020196171 -0.091552444
000050 b5 53 e9 3d 0b 3b df bc 46 c5 95 bd 38 d1 9b bd
       0.11392919 -0.027249834 -0.073130175 -0.07608265
000060 26 95 8a bd ba 03 c1 bd 88 e4 0d be 26 0a aa 3d
       -0.06766729 -0.09424539 -0.13856709 0.08302717
000070 97 07 b8 3d 8e 7c 88 bd a0 c8 0d 3e 2f 0e 0d 3e
       0.08985823 -0.06664382 0.13846064 0.13774942
000080 10 05 78 3d 97 3d 6e 3d 13 20 0e 3e cc 8c 0f be
       0.060551703 0.058164205 0.13879423 -0.14018553
000090 dd 52 f8 bd 73 cf 18 3e 41 99 47 3e b8 24 54 be
       -0.1212518 0.14922886 0.19492055 -0.20717132
0000a0 13 6e e3 be 1c 69 37 be 69 66 f1 bd b9 93 e9 bd
       -0.44419917 -0.1791119 -0.11787111 -0.11405129
0000b0 79 49 df bd a4 2d 0a 3e 43 8b ca 3d 27 91 aa 3c
       -0.10902686 0.13493973 0.09889843 0.020821167
0000c0 a5 29 2a 3c ab 99 ed be f4 69 86 3c d8 10 10 be
       0.010385905 -0.46406302 0.016407944 -0.14068925
0000d0 08 87 2e be 8f ea d7 bd 99 df 12 be dc a0 87 3e
       -0.17043698 -0.105427854 -0.14343108 0.26489913
0000e0 6c 2c 88 3e 50 d0 28 be d1 8f f1 bd 5f 27 e2 3d
       0.2659639 -0.16485715 -0.11795009 0.11042666
0000f0 c0 fe ed bc 32 00 47 3e ed e1 4b 3e 4d ae 2d 3e
       -0.029052138 0.19433668 0.19910403 0.16961022
000100 f3 25 15 3e d9 80 20 bd b4 93 b9 bb 28 99 e4 3c
       0.14565258 -0.03918538 -0.0056633595 0.027905062
000110 bc 16 9f 3d fb 37 0a bd 6e 8e 8e bd 11 7d 47 3e
       0.07768008 -0.033744793 -0.0696076 0.19481303
000120 37 cc 45 3e 23 4f 02 3e 09 ad fd 3d 2e 96 e3 bc
       0.19316183 0.12725501 0.123865195 -0.027781572
000130 43 44 90 bc 46 17 a0 3d a1 e2 11 3e 9c a8 19 be
       -0.017610675 0.07816939 0.14246608 -0.15005726
000140 a0 1f 19 bd e1 8e 45 be 14 3b 1c be 17 28 fe bd
       -0.037383676 -0.19292785 -0.15256912 -0.1240999
000150 0f 2d 5e be 63 43 ca bd 1b 4a 01 be 7a 19 c9 bc
       -0.21696876 -0.09876134 -0.12625925 -0.024548281
000160 1b 0a 44 bd c9 ca 06 be 8b 4b b6 bd 0d 08 c3 3c
       -0.0478612 -0.13163294 -0.089011274 0.02380755
000170 2b 76 4d 3d 85 e8 71 3d 24 41 16 bd ab 40 a8 3d
       0.050161522 0.05905964 -0.036683217 0.082154594
000180 38 cc b9 3d 42 c1 5a 3d 01 ce 31 bd 67 4b 9c ba
       0.09072155 0.05340696 -0.04340935 -0.0011924327
000190 51 e1 06 3d ea 28 6a be f1 f1 4a be a6 fb 4e be
       0.032929722 -0.2286717 -0.19818856 -0.20213184
0001a0 42 8e 8b be 05 99 0c be 8f 96 51 be 3d 67 36 3d
       -0.27256972 -0.13730247 -0.2046759 0.04453205
0001b0 af 8b aa 3a 32 0e 07 bd 3e 32 d0 bc 7c 8b b1 be
       0.00130116 -0.032972522 -0.025414582 -0.3467673
0001c0 4b 33 9c be 2a 39 c5 be 49 97 b9 be f3 8e a9 3d
       -0.30507883 -0.38520175 -0.36248234 0.082792185
0001d0 ae db 13 bd 80 6a ae bd 41 77 e3 bd 4f bf 98 3d
       -0.036098175 -0.08516407 -0.1110673 0.07458364
0001e0 a0 56 61 3e a3 b2 d7 3c e3 73 96 bd c1 b0 8a bd
       0.22005701 0.026330298 -0.073463224 -0.067719944
0001f0 88 73 98 bd 4a 72 7b be 22 7c ff bd 62 66 da 3d
       -0.07443911 -0.24555317 -0.12474848 0.10664059
000200 63 c1 28 3e 30 1c a4 bd aa a9 30 3e 22 1c cb 3e
       0.16480021 -0.08013189 0.17252222 0.396699
000210 ab 35 cb 3e 03 3d cb 3e c0 9d c4 3e 52 b7 d0 bd
       0.39689383 0.39694986 0.38401604 -0.101912156
000220 d8 e5 c0 bd c9 82 66 3e c1 b4 2b 3e d9 40 1c be
       -0.09418839 0.22510828 0.16768171 -0.15259112
000230 82 73 c4 be 6a b1 f3 3c e0 50 3d bd 4f 29 5f 3c
       -0.38369375 0.029747684 -0.046219707 0.013620689
000240 66 b1 06 3d 8d 20 21 be 86 44 59 be f1 14 ea 3c
       0.032884024 -0.15735073 -0.21217546 0.028574439
000250 94 23 ab 3d da a0 31 bd b8 bf e8 bc 71 46 82 3d
       0.08356395 -0.04336629 -0.028411731 0.06361092
000260 80 55 12 3e 61 c6 2a 3e e9 7f 17 3e 78 0d ac 3d
       0.14290428 0.16677238 0.14794888 0.084010065
000270 da 79 a5 3d 5a 1d 54 bd 86 c6 8d bd 61 7b c2 3d
       0.08079882 -0.051785804 -0.06922631 0.09496189
000280 70 e9 96 bd 9c 3a 7b 3e dc 03 80 3e 7d 50 2a 3e
       -0.073687434 0.24534076 0.25002944 0.16632266
000290 a2 52 33 3e e1 9f 07 be 61 58 30 be 0b 11 3e bd
       0.1751199 -0.13244583 -0.17221214 -0.046402972
0002a0 25 55 25 bd 10 66 cf bd 5e 8b 56 3e 48 2f 15 3d
       -0.040364403 -0.10126889 0.20951602 0.036422044
0002b0 ec b2 2e 3d d5 e0 fd ba 76 cf 83 bd fd cf 24 be
       0.042651102 -0.0019369373 -0.064360544 -0.16094966
0002c0 f1 2c 35 be 91 96 85 3e 1a b4 a2 3e f4 4d 78 be
       -0.17692925 0.26091436 0.31778032 -0.24248487
0002d0 f6 9e 65 3d 72 72 1c be 05 6d 4d be e4 c8 47 be
       0.0560598 -0.15278032 -0.20061119 -0.19510227
0002e0 8b 7c 33 be 04 70 41 be f7 59 e1 bd 19 57 36 3e
       -0.17527978 -0.18890387 -0.110034876 0.17806663
0002f0 4e 34 30 3e 9f 7e b6 bd c4 c4 17 3e d4 7e b9 3c
       0.17207453 -0.0891087 0.14821154 0.022643484
000300 d0 78 ae bc 4f d4 3b 3d 3b e9 57 3d 97 69 15 be
       -0.021297842 0.04585677 0.05271266 -0.1459106
000310 f8 3a 1c be 4a 67 21 3e e9 09 74 3e 27 84 f7 bd
       -0.1525687 0.15762058 0.23831905 -0.12085753
000320 5f ec ce 3d 12 dd d4 be 18 c3 d7 be 63 b7 d0 be
       0.10103678 -0.41574913 -0.42141032 -0.40764913
000330 7b 1f ec be 61 bc 3c 3d 43 58 d5 bc c0 01 bd 3d
       -0.46117768 0.04607809 -0.026043063 0.092288494
000340 e8 6c 01 3e 41 c9 9d 3c 75 1d ad bd 1e 81 76 be
       0.126392 0.019261004 -0.08452884 -0.24072692
000350 b7 e3 83 be be bc 49 be 26 90 61 be 22 a9 0b be
       -0.2575967 -0.19700906 -0.22027645 -0.13638738
000360 36 24 6e bd cb 7a 3f 3d 7b 84 0e 3e fd cd b7 bd
       -0.058140002 0.046747964 0.13917725 -0.08974836
000370 82 51 11 be 41 58 01 bd 84 f7 91 bc a9 7e 3b bb
       -0.14191249 -0.031578306 -0.01781822 -0.002860943
000380 41 cd 0a 3c e5 f8 a8 3d e6 01 44 3e 5c 66 69 3d
       0.008471788 0.08250598 0.19141349 0.056982383
000390 0c 06 a2 3c 31 12 42 3d ab c7 6a 3e a2 a5 90 bd
       0.019778274 0.04738063 0.2292773 -0.07062842
0003a0 8d b8 a8 bd 8f f4 65 bc 1f 9a ec bd 54 34 d9 bd
       -0.08238325 -0.014035358 -0.11552834 -0.10605684
0003b0 ca 78 ee 3c 69 fb 78 3d 9a 3d ce 3c ed d5 98 3d
       0.029110331 0.06078664 0.025175858 0.07462678
0003c0 52 76 d8 3d e7 23 e4 bd 44 5f d1 bd a0 bc 8a bd
       0.10569443 -0.1113966 -0.102232486 -0.067742586
0003d0 11 e7 fa bd f0 c7 5c 3c e5 6e bb 3d d1 12 60 ba
       -0.12251104 0.013475403 0.09152011 -0.0008547726
0003e0 da c4 91 3d de 24 92 bc 97 d9 a9 3c 1c 2c 78 be
       0.071176246 -0.017839845 0.020733638 -0.24235576
0003f0 d9 60 7c be 99 5f 46 be e9 72 61 be 3f 4f a7 bb
       -0.2464632 -0.19372405 -0.22016491 -0.0051058824

weight_hh_l0 f4 [750, 250]
000000 51 be aa 3d 4f d7 25 bd a4 b3 e4 3e 92 d2 d5 3c
       0.08337081 -0.040488537 0.44668305 0.026101384
000010 5b d6 18 be b0 32 6d be e2 53 5b bd d4 73 02 3e
       -0.1492552 -0.23163867 -0.053546794 0.12739497
000020 3d 4f 93 be bb b1 91 bd a5 95 5d bd bd cb 56 be
       -0.28771392 -0.071139775 -0.05409779 -0.20976157
000030 42 0a b3 bd 33 50 89 3c c5 39 c2 bd 65 01 c5 3c
       -0.08742191 0.016761875 -0.09483675 0.024048517
000040 12 8a b6 bd a3 cf fa 3d c6 cf 72 3c 18 ae 0c bf
       -0.089130536 0.12246635 0.014820045 -0.54953146
000050 d6 3a 07 be 68 1b c4 3d 18 c7 32 3e 8b 11 98 3c
       -0.13206038 0.0957554 0.1745876 0.018563053
000060 60 6d 96 bc ed 89 d6 bc 93 74 9f 3e 04 7f 02 3e
       -0.018362701 -0.026188815 0.31143627 0.12743765
000070 ae 38 a3 bd 4b 23 55 bd ee 04 7d 3d f0 d8 30 be
       -0.07969795 -0.05203561 0.06177228 -0.17270255
000080 5c fe 05 be 7f 78 1e 3e 4e c4 b2 bd cd 5a 16 3e
       -0.13085312 0.15475653 -0.087288484 0.14683075
000090 26 2e 55 be 6e 30 30 bd b6 53 60 bd 4f 62 79 bd
       -0.20818385 -0.043014936 -0.054767333 -0.06088477
0000a0 71 81 d4 be 5f 9a f2 bd 08 59 8e be 09 d4 85 bd
       -0.41505006 -0.1184585 -0.278023 -0.06534583
0000b0 94 05 07 3e 42 bd c6 bc 4d 93 67 3e 13 2e 3c 3d
       0.13185722 -0.024260167 0.22614785 0.045942377
0000c0 19 e0 89 3b e9 38 ec bd 92 33 00 3e a8 86 51 3e
       0.0042076227 -0.11534292 0.12519673 0.20461524
0000d0 75 b2 ad be 43 e0 f9 3d fd aa 9f bc 43 de a4 bc
       -0.33925214 0.12200978 -0.019490713 -0.020125514
0000e0 b1 e4 30 3d 8b 87 57 bd 30 23 68 be d8 d4 dd 3d
       0.043186847 -0.0526195 -0.22669673 0.10831612
0000f0 b1 4b 21 3c 40 51 7e be 9e 6a 82 be 68 fe be 3c
       0.009844706 -0.24835682 -0.25471967 0.02331467
000100 d6 aa 09 3e 64 73 cd 3e 61 2e a3 3d cc 34 d0 3c
       0.13444075 0.401271 0.079678304 0.0254158
000110 48 0a 4a be ee 76 a6 3d b1 4b 55 3e 0f e9 54 3e
       -0.19730484 0.08128153 0.20829655 0.2079203
000120 0a d8 06 3e 08 95 cc bd 43 7e 02 be 3d 12 6d bc
       0.1316835 -0.09989363 -0.12743478 -0.01446968
000130 66 db f8 3d 6a 3b 01 be d1 ec 81 bc 04 a7 47 3e
       0.12151222 -0.12620321 -0.015859993 0.19497305
000140 60 db fa 3d 9e 98 2c bd b0 4d ef 3d af fc 83 bd
       0.12248874 -0.042137735 0.116847396 -0.0644468
000150 19 2e d5 bc 17 de 90 3c be e6 e1 3d b6 53 67 bd
       -0.026022958 0.017684026 0.11030339 -0.056476317
000160 6e 2c a9 3d bc 7d b5 3d 9c eb 7b 3e 78 64 33 3e
       0.082604274 0.088618726 0.24601597 0.17518795
000170 2a fe 74 be a6 0f 75 3c 5b 15 6e 3e ba d1 27 be
       -0.23925081 0.014957344 0.23250334 -0.16388598
000180 c3 46 04 3d 17 e5 fe bc 06 a1 0f bd ac 13 3d be
       0.032294046 -0.031115098 -0.035065673 -0.18464535
000190 d9 3f c9 3d 9c 82 8c bd 46 25 90 bd 88 00 14 3e
       0.09826631 -0.06860849 -0.07038359 0.14453328
0001a0 ff cf 66 be ad 9c f7 3d 66 99 f8 3c 5a c4 e2 3c
       -0.22540282 0.120904304 0.030346584 0.027681518
0001b0 68 2c a7 bd ed d8 a1 bd 1c ab 4b 3e 60 c9 1e bd
       -0.08162767 -0.079027034 0.19889492 -0.038766265
0001c0 02 be 0f 3d 9e 82 3c be 39 2b 45 be 46 d2 ed bd
       0.035093315 -0.18409202 -0.1925477 -0.11612372
0001d0 dc 9e 9c 3d d2 8d 8a 3d 11 fe d7 bd 3b cc 6d 3d
       0.076474875 0.06765331 -0.10546506 0.058056097
0001e0 74 39 e9 be b1 2f ab bd e5 57 c7 3d 22 0d a4 bc
       -0.45551646 -0.08358706 0.097335614 -0.020025793
0001f0 e6 31 c0 3d 81 65 30 3e 84 58 8e 3d 86 70 07 be
       0.09384517 0.1722622 0.06950477 -0.13226518
000200 90 47 a7 3d 0d 07 31 be d7 9a 37 bd fe 84 d0 bd
       0.08167946 -0.17287846 -0.0448254 -0.10181616
000210 ae d3 2d 3e a6 0d 18 3c e5 d2 73 3d 70 bf b6 3d
       0.1697528 0.009280598 0.059527297 0.089232326
000220 82 d3 27 be a4 f8 c5 be 2e 3c 15 3c c4 ee 38 be
       -0.16389278 -0.3866626 0.009108586 -0.18059832
000230 61 ef 2a be 8e f7 d8 bd 33 64 11 be 6f c0 97 3d
       -0.16692878 -0.10594092 -0.14198379 0.07409751
000240 5d 11 0f be 6a 13 a2 bd 6b 86 34 3e 8a 62 1c be
       -0.13971467 -0.07913859 0.17629401 -0.15271965
000250 3c a9 cb bc 5f e1 c4 bd 5e f6 02 3e 02 dc f9 3d
       -0.02486097 -0.096132986 0.12789294 0.12200166
000260 09 d3 7c 3d e5 a9 c8 3d 31 e4 43 bd 1b 85 55 bd
       0.061724696 0.0979803 -0.047825042 -0.052128892
000270 c3 70 f8 3c 8b cd 1e be bd c8 3b be 12 24 55 3e
       0.030327206 -0.15508096 -0.18338294 0.20814541
000280 ce 3b 94 bc d4 6a 40 3e 14 8f 48 bd 93 04 79 bd
       -0.018094923 0.18790752 -0.048964575 -0.060795378
000290 03 d9 33 be 5f b8 26 be 75 b5 84 3d 41 bd 2d be
       -0.17563252 -0.1628127 0.06479923 -0.16966726
0002a0 f1 b4 aa 3c 34 0d 41 bc a0 52 05 be aa 10 ad be
       0.020838233 -0.011782933 -0.130198 -0.33801776
0002b0 d2 89 72 be ac b4 99 bd 5d 1d 1e be a6 ea 2a bd
       -0.23685387 -0.075051636 -0.15440889 -0.041727684
0002c0 c5 70 18 be 4d 60 16 b8 cf ba 01 be 1c 15 d7 bb
       -0.14886768 -3.5852474e-05 -0.12668918 -0.0065637957
0002d0 1d 13 de bc 05 7a a3 bd db 50 09 be 35 24 e1 3e
       -0.027108723 -0.07982258 -0.1340975 0.43972936
0002e0 1c f5 a3 be e3 70 8a 3e 4f 4f d2 3d 6d 31 b0 3d
       -0.3202294 0.2703925 0.10269033 0.08603177
0002f0 fd b6 3a 3e 0a 39 83 bc 98 a0 1f bc ad f3 a9 be
       0.18233867 -0.01601841 -0.009742878 -0.33193722
000300 40 28 3f be f8 d7 61 3e 84 c2 9b 3d 6e c0 23 be
       -0.18667698 0.22055042 0.0760546 -0.15991375
000310 d9 67 6e bd 90 0b 39 be 90 0b 57 bd 19 29 8d be
       -0.058204506 -0.18070817 -0.05250126 -0.27570418
000320 e1 f4 bd 3d 35 61 82 bc e7 f2 26 3b e5 0e ff 3d
       0.092752226 -0.015915493 0.002547437 0.12454013
000330 16 d2 79 3d 76 ac ee 3d 97 52 4f be f5 68 86 bd
       0.06099137 0.11653988 -0.2024635 -0.06562988
000340 d1 ae 21 3e 1d c8 c8 bd 48 fd 95 bc 74 9e 98 bc
       0.15789343 -0.098037936 -0.01830925 -0.018630244
000350 14 e1 b0 be b5 86 9b 3e ff a8 63 be f2 07 ea 3c
       -0.3454672 0.3037621 -0.22232436 0.028568242
000360 6b 9a 5f 3c 6e 20 9f 3d 24 bb ac bd 51 85 d6 3d
       0.013647656 0.07769857 -0.08434132 0.10474647
000370 28 f2 c8 be 05 18 55 3e d6 68 6b 3e bb 7c 5a bd
       -0.3924725 0.20809944 0.2298921 -0.05334161
000380 e5 9f bf bd 06 e9 73 3e eb 53 cb bd f6 ca 1e 3d
       -0.09356669 0.2381936 -0.099281155 0.038767777
000390 f5 36 12 be 58 5d 79 3e d1 06 b0 3d a5 fb 37 3e
       -0.14278777 0.24352014 0.0859505 0.17967089
0003a0 4d 05 3b 3e d5 cb 16 3e 7c d8 5f be 67 c2 d3 bd
       0.18263741 0.14726193 -0.21859926 -0.10339814
0003b0 d2 6a 15 3e 5f 48 56 be c8 af 44 3d 7c fe 64 be
       0.1459153 -0.20926045 0.0480192 -0.22362703
0003c0 97 0f b6 bd 40 20 77 bd 88 80 b5 bc 33 43 2e 3e
       -0.08889692 -0.06033349 -0.022156015 0.17017822
0003d0 00 d2 93 3d 43 8d 1a 3d 35 76 49 bd f4 da 41 be
       0.07217789 0.037732374 -0.049184997 -0.1893118
0003e0 00 63 05 be 56 8a eb bc 99 c2 1d 3e d8 e2 94 3e
       -0.13026047 -0.028752487 0.15406264 0.29079318
0003f0 78 0e 78 3e a1 bb 2b 3e f4 71 e6 3d 6e 33 a8 3d
       0.2422427 0.16770793 0.112522036 0.082129344

bias_ih_l0 f4 [750]
000000 28 e3 48 bd f4 33 b2 bd e4 0f 89 bc 1f d7 3b be
       -0.049044758 -0.087013155 -0.01673121 -0.18343781
000010 6d 3c 83 bc 1b 09 1f 3e 7d 88 00 be e0 13 f3 bd
       -0.016020024 0.15530817 -0.12552066 -0.11869025
000020 fd fe 1f 3d 0b c7 1b bc 92 9d ac bd 1d 49 85 3c
       0.039061535 -0.009507905 -0.08428492 0.016270215
000030 45 4d ea bd 9a d2 ca bd 9f 8f cd bd eb 74 57 3d
       -0.11440519 -0.0990345 -0.10037159 0.052601736
000040 c9 e6 08 3c 8f d3 a2 be d3 58 10 be b8 d3 4d be
       0.008355805 -0.3180203 -0.14096384 -0.20100296
000050 5f ea 2b be f9 44 12 be be 1c 82 bd 8f 10 c6 bd
       -0.16788624 -0.14284123 -0.063531384 -0.09671127
000060 00 6b 39 bc b7 92 ec bd 3e 0c be 3d fa 06 23 bd
       -0.011317015 -0.11551421 0.09279679 -0.039801575
000070 c0 c9 34 bd 72 bf d9 bc ab 5e 03 be 76 7d 9c be
       -0.044137716 -0.026580546 -0.12829082 -0.3056447
000080 03 70 23 be 76 a8 36 bc 29 63 0a be b6 f0 65 bc
       -0.15960698 -0.011148563 -0.13514389 -0.014034441
000090 af 5d 47 be 82 7b 7d be e7 40 d5 bd ad 52 69 3c
       -0.19469331 -0.24754146 -0.1041277 0.014240903
0000a0 6c 05 1d be cc 0d 87 3d c3 20 16 bc e3 19 af bd
       -0.153341 0.065944284 -0.009163084 -0.085498594
0000b0 55 b0 28 3d 79 5b b2 bd f9 50 26 be 9e 30 0d 3e
       0.04118379 -0.08708853 -0.16241826 0.13788077
0000c0 9b 8a 6d be b7 c9 e2 bd 83 24 2a bd ea 4d 77 be
       -0.23197405 -0.1107363 -0.041538727 -0.24150816
0000d0 43 55 53 be 68 9b 72 be af b6 99 be c7 4f b9 bd
       -0.20637994 -0.23692095 -0.3002219 -0.090484194
0000e0 40 ed 78 3c ce b2 96 3c de 40 a4 bd c4 e1 28 be
       0.015193284 0.018395808 -0.08020185 -0.16492373
0000f0 26 7c d3 3d 19 10 12 3e 4f 5b 37 bd 73 d3 99 bd
       0.10326414 0.14263953 -0.044764813 -0.07511034
000100 63 46 dd bd 70 3c a3 3c 42 e9 12 be 65 c3 b6 bd
       -0.10804441 0.01992628 -0.14346793 -0.08923987
000110 3f b8 48 be 43 05 b1 3d 84 e1 f5 bd 92 46 3b be
       -0.19601534 0.08643582 -0.12005904 -0.18288639
000120 7f 23 f7 bb ba 86 c1 bd 1a 7c 7c 3d 68 3a 38 be
       -0.0075420733 -0.09449525 0.06164179 -0.1799103
000130 f4 9c a5 bd 2e 66 96 be 61 1c 83 be c7 ca 1b 3c
       -0.08086577 -0.29374832 -0.2560759 0.009508795
000140 2c 1e 64 be b4 68 b8 3d e6 40 81 be df 87 0b be
       -0.22277135 0.090043455 -0.25244826 -0.1362605
000150 0b f4 f4 bc 9e 13 2f be a9 8f ff bd 58 c2 35 be
       -0.029901525 -0.17097327 -0.12478573 -0.17749918
000160 bc 06 5c bb fa 4b f6 bc c2 6e 17 be a4 31 20 be
       -0.003357335 -0.030065525 -0.14788345 -0.15643936
000170 3d 0d 25 bb ef 77 01 be 89 d6 02 bd 2b 6a cd 3d
       -0.0025184893 -0.12643407 -0.031942878 0.100300156
000180 d0 be 16 be 7a bf 61 bd 30 dd a1 3c 5f 5c 3e bd
       -0.14721227 -0.055114247 0.01975879 -0.04647481
000190 0a 67 cf bc f5 bc 0e 3e 66 e1 a3 bc 38 44 81 be
       -0.025317688 0.13939269 -0.02000494 -0.2524736
0001a0 75 a4 01 3e d2 e4 1a be 08 b3 0c bd 6c 44 3d 3c
       0.12660392 -0.1512635 -0.034350425 0.011551958
0001b0 f3 98 b9 bd 67 9e b5 3a a9 37 97 bd e4 7e 82 bd
       -0.09062376 0.0013856412 -0.07383663 -0.06371859
0001c0 1f e6 ab bd f1 97 e4 bd 12 48 a4 bd c5 ad 07 be
       -0.083935015 -0.11161793 -0.08021559 -0.13249882
0001d0 db 2c 07 be c0 c4 1a bd b4 33 55 be df d2 fd bd
       -0.13200705 -0.03778529 -0.20820504 -0.12393736
0001e0 4c af a1 be 29 fc 43 3d 9b f7 08 3c 6a d2 52 be
       -0.31579053 0.0478479 0.008359815 -0.20588079
0001f0 3c cc 49 be a5 be 54 bd b8 7a 60 be a8 b0 66 be
       -0.19706815 -0.051939625 -0.21921813 -0.22528327
000200 89 1a 01 bc b7 32 97 bd e2 7e 39 be 2c 67 1d 3e
       -0.007879862 -0.0738272 -0.18114808 0.15371388
000210 0a da 4d 3d f9 0d 4b bc e3 4a 35 be 01 8f d8 bd
       0.050256766 -0.012393468 -0.17704348 -0.10574151
000220 7d e6 c2 bd f6 70 0b 3d 1d f1 56 be cd 65 c9 bd
       -0.095166184 0.034043275 -0.20990415 -0.0983387
000230 31 d4 20 be 8c 74 ee ba de 96 93 3d 97 12 03 be
       -0.15705945 -0.0018192693 0.0720651 -0.1280006
000240 dd bb 3f 3d 70 1a ec bd e9 0d f9 bd 58 0e 16 bd
       0.04681002 -0.1152848 -0.12160856 -0.036634773
000250 b2 b9 e2 3c 80 38 8c 3d 29 7c 21 be 2d 94 88 bd
       0.027676437 0.06846714 -0.1577002 -0.06668887
000260 70 ca 4f bc f6 39 dc bd 99 e3 ba bd 79 e0 3e bd
       -0.012682542 -0.10753243 -0.09125442 -0.046600793
000270 c5 64 1c 3d 40 b8 b8 bd 9f a1 ca bc 6e a1 36 be
       0.03818204 -0.09019518 -0.02473527 -0.17835018
000280 fa 91 8e 3d 8d 10 d8 bd 45 a8 c0 bd cb 02 28 bd
       0.069614366 -0.10550032 -0.09407095 -0.04101829
000290 d4 fc 26 3d 19 fb e1 3c bb fd 24 be 98 65 3a bd
       0.04076846 0.027585553 -0.16112415 -0.045507044
0002a0 8c 51 3a be bf 17 0b 3e f1 2f e9 bd 0e c5 e6 bd
       -0.1819517 0.13583277 -0.11386097 -0.11268054
0002b0 12 a0 e4 3d ca bf fb bd 17 fe 4d bd 79 05 88 be
       0.111633435 -0.1229244 -0.050291147 -0.26566675
0002c0 21 dc 39 3d 42 bf 1f 3c bc 35 63 be 86 f5 79 be
       0.045375947 0.009750189 -0.22188467 -0.24410066
0002d0 bb e8 90 bd 58 f1 08 3d b1 22 4f be d1 a4 06 be
       -0.0707564 0.03343329 -0.20228077 -0.1314881
0002e0 2e 89 bf bc 2a 1d 7c be 2d d1 1f be cd e1 34 be
       -0.023380842 -0.246205 -0.15607138 -0.17664261
0002f0 8e 60 3f bd e4 3e db bd 70 8a 3d be 01 12 a3 bd
       -0.04672294 -0.10705355 -0.18509841 -0.07962418
000300 2c d9 10 be 48 01 3b be 9d c0 84 3d 8f a9 01 be
       -0.14145344 -0.18262208 0.064820506 -0.12662338
000310 2d b6 31 bd 7c 69 9c bd e9 d7 51 3d 75 87 0d bc
       -0.043386627 -0.07637307 0.0512313 -0.0086382525
000320 02 e5 f0 bc 56 f5 b1 bd a2 9d 30 be a6 59 42 3a
       -0.029406074 -0.08689372 -0.17247632 0.00074138714
000330 46 6e 90 3d 5c 10 74 bd 6c 6f 80 bd 91 75 16 bc
       0.07052283 -0.059585914 -0.06271252 -0.009183303
000340 40 0d 6e bd dc 46 08 3d 25 2d 50 bc fe 62 e7 bd
       -0.058118105 0.0332707 -0.012706076 -0.11298178
000350 15 c1 7f be 23 14 9c be 58 d6 e9 bd b8 33 71 be
       -0.24975999 -0.30484113 -0.11417836 -0.23554885
000360 cc 2a 9c bc 87 7d ab bd 7e 75 32 bd fb 4e aa 3d
       -0.019063376 -0.08373552 -0.04356908 0.083158456
000370 e1 21 d9 bd 9e 4c b1 bd 67 1e cb 3d a1 02 e3 bd
       -0.10602165 -0.08657192 0.09917908 -0.11084486
000380 c8 74 41 be 62 75 3b be 57 99 2a be 8d 31 36 bd
       -0.18892205 -0.18306497 -0.16660057 -0.04448085
000390 8f 3c 24 be 40 5d 31 be 75 fd bd 3d 0f e6 7a be
       -0.16038726 -0.17320728 0.09276859 -0.24501823
0003a0 a5 5f d7 bc 4d 9f 02 3e f6 35 42 be 39 b4 b9 3d
       -0.026290724 0.12756081 -0.18965897 0.09067578
0003b0 e7 e9 1a bd 43 a6 e6 bd a4 2c 04 3e e4 61 48 be
       -0.037820723 -0.11262181 0.12907654 -0.19568592
0003c0 ce bd 06 be d2 d9 26 bd e5 b7 03 bc 1f c8 23 be
       -0.13158342 -0.040735073 -0.008039449 -0.15994309
0003d0 2e ba 11 be 5d f3 90 3d 8f ae a5 bd e3 32 88 be
       -0.14231178 0.07077668 -0.08089935 -0.26601323
0003e0 8d d0 44 be 71 68 7d be db 97 97 3d 55 12 47 be
       -0.19220181 -0.24746872 0.07402011 -0.19440587
0003f0 6f 78 5b 3e 14 78 f8 bb 07 17 76 3d ac 3a 8c 3d
       0.2143266 -0.007582674 0.060080554 0.06847128

bias_hh_l0 f4 [750]
000000 78 67 07 3d 9e 6b ec 3c a9 5d 5e bc 14 ab 12 be
       0.03305766 0.02885991 -0.013572135 -0.14323074
000010 82 ee 5b bd 17 3e cf 3d 79 4c 04 be 95 e2 47 be
       -0.053694256 0.101192646 -0.12919797 -0.19520028
000020 fd a1 55 3d bc 8a af bd c1 94 fd 3b 3d 80 f8 3d
       0.052156437 -0.08571383 0.00773868 0.121338345
000030 f5 02 3a be f7 d5 2c be ac 3e 0a be cd 0a 61 3d
       -0.1816519 -0.16878496 -0.1350047 0.05494194
000040 65 a9 83 bd 68 b4 8f be d4 43 33 be 2e 9c 81 be
       -0.06428794 -0.28067327 -0.17506343 -0.25314468
000050 92 c7 51 be 84 1b 38 be 32 0a 28 be 1d 59 91 bd
       -0.20486286 -0.17979246 -0.16410139 -0.07097075
000060 3d 72 24 bd 8c 26 07 be eb a8 b4 3d c8 6d 2a bd
       -0.04014801 -0.13198298 0.08821281 -0.0416086
000070 40 ac 89 bd c9 d4 e6 3c ac 73 02 be 06 f8 7a be
       -0.06722307 0.028177636 -0.12739438 -0.24508676
000080 ef 66 cf bd 4c cc 73 bc 15 31 10 be e4 7a d1 bd
       -0.10127055 -0.014880251 -0.14081223 -0.10228518
000090 ac 0d 66 be 49 c7 2a be e5 e5 1f bc 7b cb 4f 3c
       -0.22466153 -0.16677584 -0.009759401 0.012682791
0000a0 b9 37 2f be 10 11 25 3d 9f 16 e7 bb 0e f8 0e be
       -0.171111 0.040299475 -0.007052257 -0.13961813
0000b0 1d ee 3d 3c 1f a0 a3 bd a5 47 4b be 56 6c 21 3e
       0.011592415 -0.07989525 -0.19851549 0.15763983
0000c0 65 b8 20 be 61 59 04 be d8 34 d2 bc bc 97 77 be
       -0.15695341 -0.1292472 -0.025659963 -0.24178976
0000d0 5a 80 32 be e0 2f 4d be bf ee b9 be 9d 2f e0 bd
       -0.17431775 -0.20037794 -0.3631496 -0.109465815
0000e0 c2 2e 40 bc 23 66 85 3d 0f 60 9d bd 40 ba 0d be
       -0.011729898 0.06513622 -0.07684337 -0.1384058
0000f0 95 68 e2 3d 44 cf 11 3e c1 97 3d bd 39 d9 85 bd
       0.11055104 0.14239222 -0.046287302 -0.065355726
000100 e6 c0 25 be 79 93 cc 3c 43 85 36 be 60 b8 0e be
       -0.16186866 0.024972664 -0.17824273 -0.13937521
000110 72 dd 0b be fe f5 03 3e e4 68 18 be 5f eb d1 bd
       -0.13658693 0.12886807 -0.14883763 -0.102499716
000120 23 b7 48 bd 46 d0 eb bd 8f 68 26 3d 94 a4 12 be
       -0.049002778 -0.115143344 0.04062706 -0.14320594
000130 78 7a 0a bd c2 90 76 be 4f d5 79 be af 8b 70 3d
       -0.0338082 -0.24078658 -0.24397777 0.058726963
000140 10 87 a0 be 05 f0 c4 3d 43 6b 7c be 15 61 00 be
       -0.31353045 0.096160926 -0.24650292 -0.12537034
000150 1d 1b ea bc b6 f3 71 be b5 59 65 be a7 43 69 be
       -0.028577382 -0.23628125 -0.22397502 -0.22779714
000160 e1 db 21 bd 75 89 94 bd b4 58 eb bd 0a f9 60 be
       -0.039516333 -0.0725278 -0.11491528 -0.21970001
000170 38 1b fc 3b d2 d0 bd bd e6 ec 53 bc 41 34 df 3d
       0.0076936744 -0.09268345 -0.012934899 0.108986385
000180 1e 98 de bd 41 74 1d bd de d0 15 3d 1b 49 d9 bd
       -0.10868858 -0.038440946 0.036576144 -0.10609647
000190 25 05 6e 3d 3b 66 8f 3d 7b 1c 98 3a 54 25 92 be
       0.058110375 0.07001921 0.0011605168 -0.28544104
0001a0 53 63 1b 3e 83 34 3e be 2a cd db bd d8 a8 29 3d
       0.15174608 -0.18574719 -0.10732491 0.041420788
0001b0 aa 2a be bd 5f fb 09 3c be e0 58 bd 39 fd 93 bd
       -0.09285481 0.008421748 -0.052948706 -0.07226033
0001c0 3d 04 37 be d9 da 92 bd 7e 93 5e bd 3c 8c bc bd
       -0.1787271 -0.07170648 -0.05433988 -0.09206435
0001d0 76 ff 51 be fd b8 f7 bc ea 37 93 be 22 07 cd bd
       -0.20507607 -0.030239576 -0.28753597 -0.10011126
0001e0 05 fe ab be 5c ba c2 3d aa 00 99 bc 63 d3 46 be
       -0.3359224 0.095082015 -0.018677074 -0.19416575
0001f0 36 f4 0c be ae 0c 0e 3c 0f d4 8a be 1d 94 51 be
       -0.13765034 0.008670015 -0.27114913 -0.20466657
000200 fb a4 db bb 55 ab 72 bd 46 a8 60 be b6 d4 0b 3e
       -0.006703017 -0.059245426 -0.21939191 0.13655362
000210 fa 39 e3 3d 84 ba f5 3c 93 a0 52 be 9b 38 a0 bd
       0.110950425 0.029996164 -0.20569067 -0.07823297
000220 7e aa bb bd d0 de f2 3d 54 9f 3b be 80 93 32 bd
       -0.09163378 0.11858904 -0.18322498 -0.0435977
000230 d1 23 3f be 27 26 1c bd d2 43 b7 3d 1d 9b 66 bd
       -0.18666007 -0.038122322 0.089484826 -0.05630027
000240 42 dc f8 38 b1 ec 49 bd a9 a9 d8 bd 25 3b 56 bc
       0.00011866588 -0.049297992 -0.10579235 -0.013075625
000250 07 46 94 bd f6 42 f5 3c cd 6e 61 be ec 4a f3 bd
       -0.07239919 0.029939156 -0.22014923 -0.118795246
000260 29 c4 00 3d af 13 02 be 18 33 17 be 6a 00 db bd
       0.031437073 -0.12702821 -0.14765584 -0.10693438
000270 a1 fd af 3d c5 89 4a be 27 3f ec bd 46 93 1f be
       0.08593298 -0.19779117 -0.11535483 -0.15583524
000280 fb 43 02 bc 18 c8 06 be 16 77 ca bd 6c bd 0a 3d
       -0.007950778 -0.13162267 -0.09885995 0.033872053
000290 f7 78 b6 3d e8 07 ae bd e5 f7 6a be 90 b3 91 bd
       0.08909791 -0.08497602 -0.22946127 -0.07114327
0002a0 c7 8f 42 be 2c 04 16 3e eb 9b bc bd 2f 12 f3 bc
       -0.19000159 0.14650029 -0.092094265 -0.029671757
0002b0 ce 5b b4 3d 53 e3 e8 bd 4d 56 bb bc bd 05 54 be
       0.08806573 -0.11371484 -0.0228683 -0.20705314
0002c0 f2 27 8e 3d 24 0a 72 3c 03 2d 83 be c3 15 49 be
       0.06941213 0.0147729255 -0.2562028 -0.19637208
0002d0 bc 12 29 bc 03 c8 30 3c d5 4b 67 be 2e 8d 12 be
       -0.010319408 0.010789874 -0.22587521 -0.14311668
0002e0 20 66 35 bd a9 53 83 be 17 4d f0 bd 1b 33 36 be
       -0.044286847 -0.25649765 -0.11733454 -0.17792933
0002f0 d2 3c 9a bb e4 72 ab bd 46 6e 47 be 2c 39 1a be
       -0.0047069574 -0.08371523 -0.1947566 -0.15060872
000300 b2 89 12 be 49 45 2d be db fa d5 3b 2c d4 84 bd
       -0.14310339 -0.16920961 0.0065301484 -0.06485781
000310 e1 ef 69 bd d4 e6 32 be 06 9e 94 ba 89 e5 a6 bc
       -0.057113532 -0.17470866 -0.0011338599 -0.020373123
000320 29 d6 d7 bd 93 ff a7 bd 54 a5 24 be 29 58 8f 3b
       -0.10538895 -0.08203044 -0.16078693 0.004374523
000330 e9 d5 19 3e 65 e6 45 3b d7 ad b6 bc 1f 6b bb 3d
       0.15023006 0.003019714 -0.02229969 0.09151291
000340 d5 79 82 3c 71 23 ba 3d 70 f9 b9 bd e5 33 0d be
       0.015927235 0.09088791 -0.090807796 -0.13789327
000350 3a c2 77 be af cb 85 be 82 05 1d be 56 b8 47 be
       -0.24195185 -0.2613196 -0.15334132 -0.19503912
000360 70 82 87 bc 1f 75 82 bd 52 27 8e bd fc 76 ef 3c
       -0.01654169 -0.06369995 -0.069410935 0.02923154
000370 49 e2 f2 bc 54 02 40 3b 3f 12 84 3d 0a 96 e6 bd
       -0.029648917 0.0029298263 0.06448793 -0.112590864
000380 57 ea d1 bd 92 00 4d be 6b 92 5b be 55 12 b4 bd
       -0.10249775 -0.20019749 -0.21442573 -0.08792559
000390 79 f7 d0 bd a5 18 55 be a1 4d a1 3d 4e fb 33 be
       -0.10203452 -0.20810182 0.07876135 -0.17576334
0003a0 f6 9b af bd 9f 82 ad 3d 22 cb 4e be d2 3e dc 3b
       -0.08574669 0.084721796 -0.20194677 0.006721356
0003b0 7d 82 07 3d 7c c0 77 bd bf 1a 84 3d 81 46 08 be
       0.033083428 -0.0604863 0.06450414 -0.13308145
0003c0 3a 87 0e be 3d a7 8f bd 50 1e 7f bd 15 a4 02 be
       -0.13918772 -0.0701432 -0.062284768 -0.12757905
0003d0 56 be 19 be 08 5c d7 ba db e2 16 be c9 74 91 be
       -0.15014014 -0.0016430626 -0.14734976 -0.28409413
0003e0 51 15 15 be 0e c8 3b be 83 26 7f 3b d9 f9 76 be
       -0.14558913 -0.18338034 0.0038932867 -0.24118747
0003f0 08 9e 0c 3e ba 82 6e bd c1 80 af bc a7 2d fa 3d
       0.13732159 -0.05823014 -0.0214237 0.12215739

weight f4 [1, 250]
000000 34 90 5d bb b4 60 66 bd 8f 40 a7 bc 58 86 9b bb
       -0.0033807876 -0.056244567 -0.020416526 -0.0047462396
000010 f7 7d 9b bd 78 d3 50 b9 6d 21 e6 3a 47 c7 99 bb
       -0.07592385 -0.00019915204 0.0017557569 -0.004692945
000020 69 c3 21 bc 2e 09 0f bc 77 a7 32 3b 3e fd a8 bb
       -0.00987325 -0.008730216 0.0027260461 -0.005157142
000030 76 f7 de ba c2 cf 10 3b b6 f1 15 be b8 3d 87 3d
       -0.0017011005 0.002209649 -0.14642987 0.06603569
000040 cb 10 00 be c3 a1 f1 3a 2e 23 6b 39 a9 54 dc bd
       -0.12506406 0.001843505 0.00022424452 -0.10758335
000050 b1 4a bb bd 29 fd 4a 3e b0 74 38 3e e4 b3 cd 3b
       -0.09145106 0.19823135 0.18013263 0.006277548
000060 f8 b6 9f 3a 05 d9 0b be 26 c2 68 3d d4 20 ec 3d
       0.0012185266 -0.13657005 0.05682578 0.11529699
000070 fb 2f a1 bd bd 3b 96 bb d2 9a 64 bb cd c6 7f bc
       -0.0787048 -0.004584758 -0.003488232 -0.015611363
000080 78 5d 44 3c 8c 84 28 3d bf c2 cf bd 13 bb 6c 3c
       0.011985175 0.04114203 -0.10144567 0.014448899
000090 89 28 5f be 12 73 61 3c ff 62 50 bb a8 32 e3 3a
       -0.21792807 0.013760345 -0.0031797288 0.0017333822
0000a0 9f 76 76 bd 98 f0 cd b9 16 76 2f 3c 6f 00 e3 bb
       -0.06017172 -0.00039279903 0.010709306 -0.006927542
0000b0 3e 9c 49 3b 2e ea f2 bd b7 af 64 3e 2d 13 da 3d
       0.0030763294 -0.118610725 0.22332655 0.10648189
0000c0 b5 d6 91 bc 0d a4 3c 3c 9f 5c 70 3d 0c 37 9e 3c
       -0.017802576 0.011513722 0.05868208 0.019313358
0000d0 55 c8 19 be da 97 72 3e a9 cc ae bd 0d ef 10 bb
       -0.15017827 0.2369074 -0.085351296 -0.0022115142
0000e0 b2 e5 05 3e 20 d6 0f 3c eb 98 9e 3b a4 49 a3 39
       0.13075903 0.008779079 0.0048400066 0.0003114465
0000f0 80 02 33 bb 06 e2 d9 3b 82 d8 d6 3a 7c 11 0a 3d
       -0.0027314723 0.0066492585 0.0016391429 0.03370808
000100 38 46 82 bc c4 bb 7c bb 14 aa 1b 3e 47 91 62 bd
       -0.015902624 -0.0038564065 0.15201598 -0.05531433
000110 de b3 d2 bd 01 ce 8d 3b d6 85 0f 3d da 2d ad 3d
       -0.10288213 0.004327536 0.035039745 0.08456011
000120 b0 6e 10 bc 6b 9f 46 be f7 e1 ce 3a 55 b5 21 3c
       -0.008815452 -0.1939675 0.0015783896 0.009869893
000130 cf e8 ce ba 66 23 66 39 4e 65 53 3d fc f2 8a 3d
       -0.0015785935 0.00021947696 0.051610284 0.06784627
000140 9d 04 35 3e 34 f1 ac bd 05 be a7 3d 51 c3 12 be
       0.17677541 -0.08444443 0.0819054 -0.1433232
000150 9e bc ad 39 61 11 0f 3b 98 3c 37 3e 90 da bb 3b
       0.00033137662 0.0021830427 0.17894208 0.005732842
000160 37 2d 04 bc d4 60 0e bd 62 ce 22 3e 02 0f f1 3b
       -0.008067421 -0.03476031 0.15899041 0.0073565254
000170 b1 ca e9 ba 18 88 51 bc e5 eb 85 bb 15 95 5d bb
       -0.0017836896 -0.012788795 -0.0040869587 -0.0033810784
000180 25 5a e4 3d 8a d1 9a bd cd 8a f6 bb 4c da f1 3b
       0.11150006 -0.07559498 -0.0075238706 0.0073807593
000190 4b 19 54 bd 3e 55 90 bc e1 7b 7d 3c 94 b3 dd 3d
       -0.051781934 -0.017618772 0.01547143 0.108252674
0001a0 72 52 11 bd 4c d8 82 3b 10 db 99 bb 80 b5 91 bb
       -0.035479017 0.0039930698 -0.0046953037 -0.0044466853
0001b0 a1 cd 5a bc 82 11 99 bb 08 e1 3b 3b 75 fc 25 3d
       -0.01335469 -0.0046712765 0.0028668065 0.040523965
0001c0 8a 43 b5 bc 0c cd 21 bd 54 33 83 3b e3 37 57 be
       -0.022126932 -0.03950219 0.0040039215 -0.21017413
0001d0 f0 7a 4c bc 24 e1 b5 3b 02 00 52 be 73 f2 e6 3d
       -0.012480482 0.0055505205 -0.20507815 0.11276712
0001e0 ba ee bf bd 55 76 8d bd ec 1d 16 3e c3 c4 83 bd
       -0.09371705 -0.06907336 0.14659852 -0.06434014
0001f0 13 93 84 3d 82 99 a8 3d 89 08 05 3c 5d 91 19 3c
       0.06473365 0.08232404 0.008119711 0.009373036
000200 c9 03 13 bc e4 47 a0 bd f0 d8 13 3d 09 d6 9f bd
       -0.00897307 -0.07826212 0.03609556 -0.07804496
000210 93 6a 35 3c 46 59 b6 3d ef 5b ba bc b1 22 81 3a
       0.011072773 0.08903746 -0.022748915 0.0009852258
000220 9e b7 a9 3c 26 6d 59 3b 83 3e dc bd d6 bb 8d be
       0.020717438 0.003317663 -0.10754111 -0.2768237
000230 87 53 e4 3c 76 04 09 bc e2 47 de 3a 9a 0f d3 3b
       0.02787186 -0.00836288 0.0016958679 0.006441069
000240 ad 55 54 bc c5 f1 aa 3a 55 89 c2 3d 2e c3 01 bb
       -0.01295988 0.0013042024 0.0949885 -0.0019800174
000250 5d 4f b5 bd 40 75 8c 3c 51 47 f4 bb f1 9d 36 3c
       -0.08853028 0.017145753 -0.0074547906 0.011146055
000260 01 8e 11 3b 3a 40 d3 3b 63 b7 b0 bc 45 54 d4 bb
       0.0022209885 0.0064468654 -0.02157182 -0.0064797723
000270 ec e5 03 3e c2 79 70 bc b1 4f 50 bb f8 10 41 ba
       0.12880677 -0.014677467 -0.003178578 -0.0007364894
000280 93 a8 c5 bd f1 94 cf 3d e1 5f c4 bc f1 01 0e be
       -0.096512936 0.1013583 -0.0239715 -0.13867928
000290 e9 c6 42 bc 88 eb 43 ba 0c 48 14 3e d5 c9 57 be
       -0.011888244 -0.00074737566 0.14480609 -0.21073087
0002a0 8b 8a a6 3a ea 79 99 bd f2 4b 37 be 4f 1b 0b 3c
       0.0012706084 -0.074939564 -0.17900065 0.008490398
0002b0 15 a1 3e 3c 02 a4 43 bd e3 e1 b8 b9 2e a9 98 3c
       0.011635085 -0.047763832 -0.00035263514 0.018635359
0002c0 c8 85 21 ba 4e 84 0b 3e c8 3d 8e 3b d7 28 81 3b
       -0.00061615976 0.13624689 0.004340861 0.003941636
0002d0 27 b0 c0 ba 53 c4 57 39 6c 82 23 be 0a ce a5 3d
       -0.0014700935 0.00020577134 -0.15967721 0.080959395
0002e0 c4 7f 80 bd 04 bd 57 3e fc a3 48 3e fd 5e cc 3c
       -0.06274369 0.21068197 0.19593805 0.024947638
0002f0 bf 5b f4 bc 4e 20 09 be 2e b9 01 3e 02 8a dc bd
       -0.029828904 -0.1339123 0.12668297 -0.107685104
000300 ca 7f 34 bc 51 27 84 bb 03 88 85 3d ff d1 cf bd
       -0.011016795 -0.004033007 0.06520083 -0.101474755
000310 13 42 22 bb c6 51 18 3c 45 7e bf 3b 35 dd c6 bc
       -0.0024758622 0.00929684 0.00584391 -0.024275402
000320 bb b7 d7 bb 2d 60 91 ba 99 fc 0b 3c 4b db 49 bc
       -0.0065831817 -0.0011091285 0.008544111 -0.01232035
000330 be bd 9c bb ac 63 20 bd 7e 60 22 ba 38 0c 13 be
       -0.004783361 -0.039157555 -0.0006194188 -0.1436013
000340 61 10 9e bb 47 2f 13 3c 21 b5 9f 3c fc e3 c5 3b
       -0.00482373 0.00898344 0.019495549 0.0060391407
000350 44 17 01 bc 74 3e 26 3e 5b c9 56 bd 97 eb 9c 3d
       -0.007879082 0.16234761 -0.05243812 0.07662123
000360 60 ad f2 3d a6 15 ac 3b fc d7 cc bd 1d 59 e6 bc
       0.11849475 0.005251604 -0.10002133 -0.028118664
000370 9e 8e 7d 3c 7e a4 42 3c 8e b4 83 3b 95 84 ea bc
       0.015475897 0.011880038 0.0040193265 -0.028627673
000380 a2 d3 e2 bb 1d 49 96 3b a1 7b 26 bb 9e 92 61 3b
       -0.0069222013 0.0045863525 -0.0025403278 0.0034419666
000390 0f b0 37 3c de d2 57 3e 0f da 71 bb 85 91 5c 3e
       0.011211409 0.21076533 -0.0036903655 0.21539886
0003a0 4e 55 31 3c f8 52 64 3c d7 af 12 3b ee 2d cb 3c
       0.010823561 0.013935797 0.002238264 0.024802174
0003b0 a5 b7 51 bb da ea 12 3a d0 34 d7 bd f6 6b 4c be
       -0.003200033 0.00056044536 -0.1050812 -0.19963059
0003c0 8b 44 ce bd 9e c2 6c bc 2d 1e 02 be 22 8a 5f 3e
       -0.10071667 -0.014450697 -0.12706824 0.21830037
0003d0 cc 63 e5 bb b6 bb 79 ba 80 56 39 3d 0a af 5c bd
       -0.007000422 -0.00095265673 0.04524851 -0.053877868
0003e0 ba ba 3c be ff 55 8a 3b
       -0.18430606 0.0042216773
