model/GRU-000663.pth (torch, 790039 bytes, 5 tensors)

weight_ih_l0 f4 [750, 10]
0	0x3de6e9af	0.1127504
1	0x3e059be6	0.13047752
2	0x3e104028	0.14086974
3	0x3e495494	0.1966117
4	0x3df668f0	0.12031734
5	0x3cffa486	0.03120638
6	0xbdef883e	-0.11695908
7	0x3db7c1f9	0.08972544
8	0x3d4f1bcd	0.050563622
9	0xbe0e9b39	-0.139264
10	0x3edfbf14	0.4370047
11	0x3e1164c4	0.14198595
12	0x3e3c2387	0.18372928
13	0x3dcf0565	0.10108451
14	0x3e557789	0.2084638
15	0xbd77aa48	-0.060465127
16	0xbe124df0	-0.14287543
17	0x3e919325	0.28432575
18	0x3e43a9e0	0.19107771
19	0xbedfa990	-0.43684053
20	0x3ea612eb	0.32436308
21	0xbc2d3656	-0.010572037
22	0x3d5ff5df	0.05467784
23	0x3dc01118	0.093782604
24	0x3d8ab71f	0.06773209
25	0xbe7727a2	-0.24136212
26	0xbe6da90b	-0.23209016
27	0x3e136037	0.14392172
28	0x3e01cc9b	0.12675707
29	0xbe912663	-0.283496
30	0x3d670062	0.05639685
31	0x3da679cc	0.081287
32	0x3dbb49f8	0.09144968
33	0x3d761bc0	0.06008506
34	0x3d9f91cc	0.077914804
35	0x3cfe1847	0.031017436
36	0xbd8a8ec0	-0.06765509
37	0x3d68f3dd	0.05687319
38	0x3ca8ed7e	0.020621058
39	0x3d15228c	0.0364099
40	0xbd89420b	-0.0670205
41	0x3d5f5260	0.05452192
42	0x3d8c202d	0.068420745
43	0x3d9545f6	0.072887346
44	0x3e1a791c	0.15085262
45	0xbe088c91	-0.13334872
46	0x3cf84181	0.030304672
47	0x3cb44a39	0.022008048
48	0xbd22d97a	-0.039758183
49	0xbc844c0c	-0.016149543
50	0x3d42f6fa	0.047598816
51	0x3e313ff9	0.1730956
52	0x3e7571f7	0.23969255
53	0x3e7d8d97	0.24761043
54	0x3e643058	0.22284067
55	0xbdf004f0	-0.11719692
56	0xbda1abed	-0.0789412
57	0x3db56225	0.0885661
58	0x3c8e2517	0.01735167
59	0xbca43589	-0.020045059
60	0xbb696504	-0.0035613189
61	0x3ddebece	0.10876237
62	0x3d3ba749	0.045813832
63	0x3dcf44d7	0.10120552
64	0x3dcf652b	0.10126718
65	0xbd883295	-0.06650273
66	0xbcf7fbbe	-0.030271407
67	0x3b2d2992	0.0026422483
68	0xbc6b8612	-0.014375227
69	0x3ba62447	0.0050702426
70	0xbdeaaf23	-0.11459186
71	0x3d73701e	0.059433095
72	0x3e1834a7	0.14863835
73	0x3e24c32e	0.1609008
74	0x3e20b88f	0.15695404
75	0x3daa1e51	0.08306564
76	0x3db809a9	0.089862175
77	0xbbf4a8a7	-0.007466394
78	0x3cad917b	0.021187535
79	0x3a9cbf2d	0.001195883
80	0xbd9550a3	-0.07290771
81	0xbd5c69ad	-0.053811718
82	0xbd3c8aa0	-0.04603064
83	0xbdb844e5	-0.089975156
84	0xbd67b2ea	-0.05656711
85	0x3de27530	0.11057508
86	0xbc1ae575	-0.009454121
87	0x3d7a19cb	0.061059754
88	0xbd3cc032	-0.04608173
89	0xbdfab213	-0.12240996
90	0xbde88d32	-0.11355056
91	0x3dc71ca8	0.097222626
92	0xbc38217f	-0.011238455
93	0x3d1f6e4a	0.03892354
94	0x3c09d47a	0.008412475
95	0x3cebc090	0.028778344
96	0xbc3e847c	-0.011628266
97	0x3dba0275	0.090825
98	0x3d9907b1	0.0747217
99	0xbd4da57c	-0.050206646
100	0xbdff3abe	-0.12462376
101	0x3dd908ea	0.10597403
102	0x3d9c5887	0.07634073
103	0x3c346e9c	0.011012699
104	0x3d935290	0.07193482
105	0x3d9f6b31	0.07784117
106	0x3b9b0a75	0.004731471
107	0x3c61ff5d	0.0137937935
108	0x3a05b29e	0.00051001634
109	0xbd04d288	-0.03242734
110	0xbc98a9e5	-0.0186357
111	0x3e05b684	0.13057905
112	0x3d59cad1	0.053171936
113	0x3dd841ee	0.1055945
114	0x3d97cdbb	0.07412287
115	0x3e1b6419	0.15174903
116	0x3d4f350f	0.05058771
117	0xbca1c2c4	-0.019746192
118	0xbd5c2471	-0.05374569
119	0xbc94a1c2	-0.018143538
120	0x3dd8a6f4	0.10578719
121	0x3ed835f9	0.42228678
122	0x3f065d52	0.52486145
123	0x3ee4f1da	0.44715768
124	0x3ef8ad3c	0.48569667
125	0xbe8853cf	-0.2662644
126	0xbdd4dd2b	-0.10393747
127	0x3e80fa27	0.2519085
128	0x3e13ac7c	0.14421266
129	0xbe9f8744	-0.31157887
130	0x3d02f260	0.031969428
131	0xbc5b2471	-0.0133753875
132	0xbc835a63	-0.01603431
133	0xbd07b230	-0.033128917
134	0xbda2f108	-0.07956129
135	0x3d086310	0.0332976
136	0x3de03d01	0.109491356
137	0xbe27cf18	-0.16387594
138	0xbdc32c27	-0.09529906
139	0x3de6e1a6	0.11273508
140	0xbb58c46a	-0.0033076056
141	0x3e072d36	0.1320084
142	0x3e056186	0.13025483
143	0x3d8bef19	0.06832714
144	0x3dcf5474	0.1012353
145	0x3dc50780	0.09620571
146	0x3c208b4b	0.009798835
147	0xbd94b03b	-0.07260176
148	0xbd4a3d5d	-0.049374927
149	0x3d44eb3c	0.0480759
150	0x3bbd66de	0.005780085
151	0xbe9102f1	-0.28322557
152	0xbe7591d5	-0.23981412
153	0xbe92dc3d	-0.28683653
154	0xbe942b0b	-0.2893909
155	0x3e5c6d1d	0.21525998
156	0x3e9b82f7	0.30373356
157	0xbe8e0f01	-0.27745822
158	0xbe64fdc6	-0.22362432
159	0x3e744973	0.23856144
160	0xbd3ec6e4	-0.046576396
161	0xbc0323b5	-0.008004119
162	0xbdb3ac26	-0.08773069
163	0xbd8301ca	-0.063968256
164	0xbd2a1f4d	-0.041533757
165	0x3cf2992b	0.029614052
166	0x3dadadba	0.08480401
167	0xbe05526a	-0.1301972
168	0xbdc711e5	-0.0972021
169	0x3e0b4ef7	0.13604341
170	0x3e9e2781	0.30889514
171	0xbe202903	-0.15640645
172	0xbe0b1253	-0.13581209
173	0xbe32245a	-0.1739668
174	0xbe1a133d	-0.15046401
175	0x3dc6ac78	0.097008646
176	0x3db8286e	0.08992086
177	0x3e1ae669	0.15126957
178	0x3d3a97bf	0.045554873
179	0xbee8f8db	-0.45502362
180	0x3d0a7459	0.033802364
181	0x3e8b7b72	0.2724262
182	0x3e89da41	0.26924327
183	0x3e7da709	0.2477075
184	0x3e29ffc1	0.16601469
185	0xbc7bf8d6	-0.015379151
186	0xbdc62f72	-0.09677018
187	0x3e511637	0.2041863
188	0x3e3834c3	0.17988877
189	0xbe4f3d61	-0.20238258
190	0x3d2dc9a6	0.042428635
191	0x3dcde001	0.10052491
192	0x3e3f7b5d	0.18699403
193	0x3e1fbbe8	0.15599024
194	0x3e36e3a6	0.17860278
195	0x3c6c0ff7	0.014408103
196	0xbe203856	-0.1564649
197	0x3e285d70	0.16441894
198	0x3e162a1e	0.14664504
199	0xbe2a22ae	-0.16614792
200	0xbde898a3	-0.11357238
201	0x3d4b5ea4	0.049650803
202	0x3e00b0f5	0.12567504
203	0x3da0d077	0.078522615
204	0x3dcb1a85	0.099171676
205	0xbd27cafd	-0.04096507
206	0x3d829cdb	0.06377574
207	0xbd854bf9	-0.06508631
208	0xbe0babe6	-0.13639793
209	0x3bb7ddf5	0.005611176
210	0x3d8bdd86	0.068293616
211	0x3dd582e2	0.104253545
212	0x3d8cbcc9	0.068719454
213	0x3c65e76a	0.014032224
214	0x3d920132	0.07129134
215	0x3e78b865	0.24289091
216	0x3bdabf2d	0.006675622
217	0x3c7571a0	0.014980704
218	0xbd99b52e	-0.075052604
219	0xbd4cb067	-0.049972918
220	0x3c9e7095	0.019340793
221	0x3db39574	0.0876874
222	0x3d09cf92	0.03364522
223	0x3cc893c8	0.02448453
224	0x3c2aa58b	0.010415445
225	0x3d66698b	0.056252997
226	0x3dd12924	0.10212925
227	0xbd75dd62	-0.06002558
228	0xbd9f4384	-0.077765495
229	0xbc91b065	-0.017784307
230	0xbd2146cc	-0.039374158
231	0x3c802935	0.015644649
232	0x3dc32b41	0.095297344
233	0xbb35ef5a	-0.0027761073
234	0x3d6f3dd4	0.058408573
235	0x3e2d120d	0.16901417
236	0x3cf52d73	0.029928898
237	0xbc580d56	-0.013186773
238	0x3ce2c864	0.027683444
239	0xbd6af44a	-0.05736188
240	0xbd55ae95	-0.052168448
241	0x3e308727	0.17239057
242	0x3e044a86	0.12919053
243	0x3e10bdc2	0.14134887
244	0x3d6233fe	0.055225365
245	0x3d11818c	0.035523936
246	0x3d0d589c	0.034508333
247	0x3c08ef6b	0.008357863
248	0xbc70d460	-0.014699072
249	0x3b941d46	0.004520091
250	0xbdd3f346	-0.10349135
251	0x3cc546d0	0.024081618
252	0x3d35f7c6	0.04442575
253	0x3dd0873c	0.10182044
254	0x3d68cff5	0.05683895
255	0x3ddc39ad	0.10753188

weight_hh_l0 f4 [750, 250]
0	0xbc0d16e9	-0.008611419
1	0xbddca547	-0.10773712
2	0xbb6cfb7f	-0.0036160646
3	0xbcd4b953	-0.025967276
4	0x3e453398	0.19257963
5	0xbb4173d0	-0.0029518493
6	0x3d2dd267	0.042436983
7	0x3e28b1ac	0.16474026
8	0xbdefd83b	-0.117111646
9	0x3d83b898	0.06431693
10	0x3e4d2c36	0.20036396
11	0x3c5cd4ee	0.013478501
12	0x3c554889	0.013017782
13	0x3e55fdd5	0.2089761
14	0x3e3113de	0.17292735
15	0xbd256024	-0.04037489
16	0xbbdef24c	-0.0068037864
17	0xbe402d0b	-0.18767183
18	0x3ceda1db	0.029007843
19	0xbdddd6a0	-0.10831952
20	0x3e188501	0.14894487
21	0xbdcda982	-0.10042097
22	0xbd2f3f9c	-0.042785272
23	0xbd55ffa9	-0.05224577
24	0x3d32e87c	0.043678746
25	0xbe1b0d44	-0.15141779
26	0xbd405013	-0.046951365
27	0xbccd686e	-0.02507421
28	0x3c8dba81	0.017300846
29	0xbce03ac7	-0.027371777
30	0x3d3e1d50	0.046414673
31	0xbd543377	-0.051806893
32	0xbe39287d	-0.18081851
33	0xbd35a6ca	-0.044348516
34	0x3df9c68d	0.12196074
35	0x3dde209c	0.108460635
36	0xbdfcc53f	-0.12342309
37	0xbdeb9a36	-0.11504023
38	0x3d99455b	0.07483932
39	0xbe69ba06	-0.22824869
40	0xbd5acce5	-0.05341806
41	0xbe06b066	-0.13153228
42	0xbd762159	-0.060090397
43	0x3d1edfc3	0.038787615
44	0xbd1e5335	-0.03865357
45	0xbb1e56d3	-0.0024160638
46	0x3c93090b	0.017948648
47	0x3c8a2e54	0.016867794
48	0x3ded3fd6	0.11584441
49	0x3e20e44c	0.15712088
50	0x3d109032	0.035293765
51	0x3d92e058	0.071716964
52	0x3e33b7f0	0.17550635
53	0x3dbc713b	0.092012845
54	0xbc132c33	-0.008982706
55	0x3eab7231	0.3348556
56	0x3d82f237	0.06393855
57	0xbe154431	-0.14576794
58	0xbe10cfdb	-0.1414179
59	0xbe8eef10	-0.27916765
60	0xbe83c589	-0.25736645
61	0x3d12e736	0.03586503
62	0xbd56ef99	-0.052474592
63	0xbd91ddd9	-0.07122392
64	0x3d684486	0.056705974
65	0x3e198e27	0.14995633
66	0xbe16059e	-0.1465058
67	0x3e57f7e9	0.21090664
68	0xbbf22d9c	-0.007390691
69	0xbe77143a	-0.2412881
70	0x3aea1eb2	0.0017861931
71	0x3e1e5f88	0.1546613
72	0x3dbd7de7	0.092525296
73	0xbd8f4aab	-0.06996664
74	0xbb15b9bd	-0.0022846304
75	0xbda39b29	-0.07988579
76	0xbe1b808b	-0.15185754
77	0x3d3db914	0.046319082
78	0xbe02f285	-0.12787826
79	0x3df405d3	0.119151734
80	0xbab8fb72	-0.0014113022
81	0xbc9e30c5	-0.019310364
82	0x3e299335	0.16560061
83	0x3ca004e7	0.019533588
84	0xbe038b39	-0.12846078
85	0xbdc34de1	-0.095363386
86	0xbdc7123d	-0.097202756
87	0xba95f1b1	-0.0011439828
88	0x3cd36312	0.025804076
89	0x3c8adb7f	0.016950367
90	0xbe4a40dd	-0.19751306
91	0xbc053555	-0.008130391
92	0x3e1eb546	0.15498838
93	0xbe13f4e0	-0.14448881
94	0x3dc31f41	0.095274456
95	0x3e087b75	0.13328345
96	0xbc938b65	-0.018010804
97	0x3e6d8f18	0.23199117
98	0xbe87f8ba	-0.2655695
99	0x3d9825d3	0.074290894
100	0xbe06b241	-0.13153936
101	0x3d6746e3	0.056464087
102	0x3ddf15cd	0.1089283
103	0x3e1c80aa	0.15283456
104	0xbcd0b14d	-0.025475169
105	0x3e1480a0	0.14502192
106	0x3ce15ab2	0.027509067
107	0xbd68eca9	-0.05686632
108	0xbdf55089	-0.119782515
109	0xbc08f7fc	-0.008359905
110	0x3d46120c	0.048357055
111	0x3c769fb7	0.015052727
112	0xbe1470de	-0.1449618
113	0x3cefe6b1	0.029284807
114	0x3dd0322c	0.101658195
115	0xbd458b19	-0.048228357
116	0xbc07b2e8	-0.008282401
117	0x3e455cd7	0.19273697
118	0x3dc1bf9c	0.09460375
119	0x3dba5c7d	0.09099672
120	0x3c811f7b	0.015762081
121	0xbe01fe43	-0.1269465
122	0xbd6f5c3c	-0.05843757
123	0x3e38ab2c	0.18034047
124	0xbdb0eb85	-0.08638672
125	0x3dbbb6e5	0.09165744
126	0xbe81a525	-0.25321308
127	0xbca025a6	-0.019549202
128	0xbd8a7f1f	-0.06762528
129	0xbe00b083	-0.12567334
130	0xbe640410	-0.22267175
131	0xbe1eb8ca	-0.15500179
132	0x3df9593c	0.12175223
133	0xbd1900c1	-0.037354235
134	0xbe2537e8	-0.16134608
135	0x3dc5082a	0.09620698
136	0xbe18cb85	-0.14921387
137	0x3e1f12f0	0.15534568
138	0xbbe643d7	-0.00702713
139	0x3e2fe618	0.17177618
140	0xbe196b46	-0.14982328
141	0xbb268823	-0.0025410734
142	0xbd1a1615	-0.037618715
143	0x3cb70dbb	0.022345414
144	0xbd83cfe5	-0.06436137
145	0xbdf6154e	-0.12015782
146	0xbd3fe9db	-0.04685388
147	0xbcc4178e	-0.023937013
148	0xbd98683e	-0.074417576
149	0xbd959de6	-0.07305507
150	0x3d9c119f	0.076205485
151	0x3d14d28b	0.036333602
152	0x3e2bca56	0.16776404
153	0x3e367418	0.17817724
154	0x3e168908	0.14700711
155	0xbc6a6272	-0.014305698
156	0xbd61c303	-0.05511762
157	0x3d6145e6	0.0549983
158	0x3de239dd	0.11046193
159	0xbc68df1c	-0.01421335
160	0x3c893ba6	0.016752075
161	0x3d5b6d2b	0.053570908
162	0x3e2cef90	0.16888261
163	0x3d247402	0.040149696
164	0x3d3c87cf	0.046027955
165	0x3d3a78da	0.04552541
166	0x3da5b909	0.08091933
167	0x3e195991	0.14975573
168	0xbe3d0ce9	-0.18461956
169	0xbe08d2b1	-0.13361622
170	0xbe5ea188	-0.21741307
171	0x3dfa8281	0.12231923
172	0x3e1af53f	0.15132616
173	0x3c8dec1d	0.017324502
174	0xbe173aac	-0.14768475
175	0x3dcd357a	0.100199655
176	0x3db9d881	0.09074498
177	0xbd5d5f7e	-0.054046147
178	0xbdf78016	-0.12084977
179	0x3dc66d2a	0.0968879
180	0xbc1d9ed3	-0.009620386
181	0xbd58d0f4	-0.05293365
182	0x3c3cb259	0.011517131
183	0x3e0e8dd6	0.13921294
184	0xbe5a76e9	-0.21334423
185	0xbd1f924a	-0.03895787
186	0xbd8c27fd	-0.06843565
187	0xbcfd94cd	-0.030954743
188	0x3e0ab620	0.13546038
189	0xbd363f61	-0.044494037
190	0x3d3c6a29	0.04599968
191	0xbe82f182	-0.2557488
192	0x3e043362	0.12910226
193	0x3d15797e	0.036492817
194	0x3e98a939	0.29816607
195	0xbe94887c	-0.2901038
196	0x3dc2f41c	0.095192164
197	0xbe7ad7a3	-0.24496321
198	0x3e9d3a1c	0.30708396
199	0xbdc60fd2	-0.09670986
200	0x3daa0051	0.083008416
201	0x3d91e8ba	0.07124467
202	0xbe29943a	-0.1656045
203	0x3d73de36	0.05953809
204	0x3d96cbea	0.07363112
205	0x3d81ffac	0.06347594
206	0x3e8072fa	0.2508772
207	0x3da8aa49	0.08235604
208	0x3d6ab2c9	0.05729941
209	0xbd36ada9	-0.04459921
210	0xbe3ae642	-0.18251899
211	0x3d4bbdce	0.04974156
212	0x3bcc2ce0	0.0062309355
213	0xbde6af88	-0.11263949
214	0x3e4a0582	0.19728664
215	0xbe0be11b	-0.1366009
216	0x3dc99011	0.098419316
217	0xbe6733ba	-0.22578326
218	0x3e1a4617	0.150658
219	0xbe458748	-0.19289887
220	0x3d90eb28	0.070761025
221	0xbd38edc3	-0.045148622
222	0x3d252b13	0.040324282
223	0xbc447057	-0.0119896745
224	0xbd27c646	-0.040960573
225	0x3e2789de	0.16361186
226	0xbe39dbf4	-0.18150312
227	0xbdf60e56	-0.12014453
228	0x3e47991a	0.19491997
229	0xbda6f53d	-0.08152244
230	0xbe458123	-0.19287543
231	0xbd95a865	-0.07307509
232	0xbd438a40	-0.047739267
233	0xbe1fcb6f	-0.15604948
234	0xbd5fdfc1	-0.054656748
235	0x3cdf6882	0.027271513
236	0x3d0c69da	0.034280635
237	0x3d028909	0.03186897
238	0x3d1c95d0	0.03822881
239	0xbd0130ea	-0.03154079
240	0xbdb30435	-0.08741037
241	0x3da2c3f4	0.07947531
242	0xbccf8327	-0.025331093
243	0x3dbef653	0.09324326
244	0xbdbacd7a	-0.09121223
245	0x3cbb0678	0.022830233
246	0xbaf59c31	-0.0018738565
247	0x3ba47004	0.005018236
248	0xbbd42849	-0.006474529
249	0x3cdd683f	0.027027247
250	0x3dc2b9c3	0.095080875
251	0xbe046f41	-0.12933065
252	0xbd5918d2	-0.053002186
253	0xbe4698b2	-0.19394186
254	0xbdb26153	-0.08709969
255	0xbdc4bb78	-0.09606069

bias_ih_l0 f4 [750]
0	0xbe0ee7dc	-0.13955635
1	0xbd937a36	-0.07201044
2	0xbe30c0e8	-0.17261088
3	0xbd8bb83c	-0.06822249
4	0xbcca37b3	-0.024684763
5	0xbdd38717	-0.10328501
6	0x3d4cdf4d	0.050017644
7	0xbc6a97dc	-0.014318433
8	0xbbd97b60	-0.006637022
9	0xbcdbab61	-0.026815118
10	0x3b485594	0.0030568587
11	0x3dc4e564	0.09614065
12	0x3cc69de7	0.024245216
13	0x3dcd7626	0.10032301
14	0x3d633e58	0.055479378
15	0x3e61b9ba	0.22043505
16	0x3dc8beb9	0.098020025
17	0x3e213530	0.15742946
18	0xbe38e23d	-0.18055053
19	0xbe5eecc4	-0.21770006
20	0x3ddc4215	0.10754792
21	0xbad2b2bf	-0.0016074999
22	0x3ddc9c39	0.107719846
23	0x3d3b6697	0.045752134
24	0xbd016732	-0.031592555
25	0xbd789ff4	-0.06069942
26	0x3dbb9664	0.09159544
27	0x3dea85c3	0.11451294
28	0xbd89be25	-0.0672572
29	0x3dc18b72	0.09450425
30	0x3d666061	0.056244258
31	0x3e3743c7	0.17896949
32	0x3d7fb169	0.06242505
33	0x3d208a06	0.03919413
34	0xbdb8d74e	-0.09025441
35	0x398b528e	0.00026573654
36	0x3d518119	0.051148508
37	0xbc530910	-0.012880579
38	0x3cfb2fd5	0.030662457
39	0x3e34d9c9	0.17661203
40	0x3dcad5ff	0.09904098
41	0x3e25dc31	0.16197278
42	0x3d9ac771	0.07557572
43	0xbe01b408	-0.12666333
44	0x3e23971e	0.15975615
45	0xbe42390c	-0.18967074
46	0x3e1197f7	0.14218126
47	0xbdf8ed67	-0.12154656
48	0xbe387c09	-0.18016066
49	0x3dbd5b5e	0.092459425
50	0xbd48edc3	-0.049054872
51	0xbdb260c0	-0.0870986
52	0xbdb50492	-0.08838762
53	0x3d1c4593	0.03815229
54	0xbe1efbbb	-0.15525715
55	0xbc836513	-0.016039407
56	0xbcbfd408	-0.023416534
57	0x3e3a1227	0.18170987
58	0xbd470c3c	-0.048595652
59	0x3d034944	0.032052293
60	0xbc80db08	-0.015729442
61	0xbdb53260	-0.08847499
62	0xbddb7cf2	-0.10717191
63	0xbda0678c	-0.0783225
64	0x3d5ff696	0.054678522
65	0x3c92d019	0.017921494
66	0x3e653450	0.22383237
67	0x3e9296e6	0.2863075
68	0xbe04cc46	-0.12968549
69	0x3cc1b7fa	0.023647297
70	0x3e072345	0.13197048
71	0x3dc39622	0.0955012
72	0xbd398603	-0.04529382
73	0xbe30c5d0	-0.1726296
74	0x3d91d509	0.07120711
75	0x3e7f3361	0.24921943
76	0xbcdcd361	-0.026956262
77	0x3e41dd27	0.18932019
78	0xbd9e4a83	-0.07729056
79	0xbe3b9369	-0.18317951
80	0xbddaf0be	-0.10690449
81	0x3d63d455	0.055622417
82	0xbe0e36aa	-0.1388804
83	0xbd891997	-0.06694334
84	0xbdcf404f	-0.10119688
85	0x3d64fe45	0.055906553
86	0xbd8654d5	-0.06559149
87	0x3c4bb878	0.0124341175
88	0xbd388807	-0.0450516
89	0xbda5c32f	-0.08093869
90	0xbd0b4c86	-0.034008525
91	0x3e20d18e	0.15704939
92	0x3de764d8	0.11298531
93	0x3cf81bf4	0.030286767
94	0xbd95e7e5	-0.07319621
95	0xbdeaf43d	-0.11472366
96	0xbd200f55	-0.03907712
97	0x3d36ea0a	0.04465679
98	0x3d6b9087	0.05751088
99	0x3e235a08	0.15952313
100	0xbe2332b9	-0.15937318
101	0xbe0954d7	-0.1341127
102	0x3b3c673c	0.0028748056
103	0x3dc64564	0.09681204
104	0xbd7cd32d	-0.06172483
105	0xbb8d1101	-0.0043050055
106	0x3c552d66	0.013011312
107	0x3c71b67a	0.014752978
108	0xbb24e8c9	-0.0025163165
109	0x3d478406	0.04870989
110	0x3da21270	0.07913673
111	0xbe2f4384	-0.17115599
112	0x3db185b3	0.08668079
113	0xbd18feaf	-0.03735226
114	0xbdbcbd4a	-0.092157915
115	0xbd15bda3	-0.036557805
116	0xbc0f0e0a	-0.0087313745
117	0xbd664882	-0.056221493
118	0xbe843a88	-0.25825906
119	0x3e2de2a8	0.16980994
120	0x3b7f8c11	0.0038993398
121	0xbe290439	-0.16505517
122	0x3e8676e2	0.26262575
123	0x3d8b8b3e	0.06813668
124	0x3d85c973	0.06532564
125	0x3ddd4146	0.108034655
126	0x3e4db510	0.20088601
127	0x3c805fae	0.015670624
128	0xba867a33	-0.0010259807
129	0x3eab6929	0.33478668
130	0x3cdacbac	0.026708446
131	0x3d1e0b41	0.03858495
132	0x3d8671b8	0.06564659
133	0xbdc0a590	-0.094065785
134	0x3da7446c	0.08167347
135	0x3de21b60	0.110403776
136	0xbd17d499	-0.037067983
137	0x3daca700	0.0843029
138	0xbc302376	-0.010750642
139	0xbe9a5540	-0.30143166
140	0x3e33ba01	0.17551424
141	0x3be65efc	0.007030366
142	0xbe625594	-0.22102958
143	0xbdd8f66e	-0.10593878
144	0xbe02a629	-0.12758698
145	0xbdacec5d	-0.0844352
146	0x3d60bab4	0.054865554
147	0xbcba1d8c	-0.022719167
148	0x3d79a726	0.06095042
149	0xbd6ee90f	-0.05832773
150	0xbcbf4da2	-0.023352448
151	0x3cd859df	0.026410041
152	0x39958871	0.0002852115
153	0xbd8aed75	-0.067835726
154	0x3c02ae63	0.007976147
155	0xbe1b48f6	-0.15164551
156	0xbdbb4992	-0.09144892
157	0xbde77829	-0.113022156
158	0xbe147254	-0.14496738
159	0x3d780ca5	0.060558934
160	0x3bf85fc3	0.007579775
161	0x3c9222ea	0.017838914
162	0x3dae97a6	0.085250184
163	0x3d2dc28a	0.042421855
164	0xbda4b235	-0.08041803
165	0x3b90f80b	0.0044241003
166	0x3de1f298	0.11032599
167	0xbdef6df9	-0.116908975
168	0xbc1dcf2d	-0.009631914
169	0x3d27e74f	0.040992077
170	0xbc63211e	-0.013862876
171	0x3d22ee0a	0.039777793
172	0x3d56bdfa	0.05242727
173	0xbc8c45e8	-0.017123178
174	0x3e19662e	0.14980385
175	0x3e126493	0.14296179
176	0xbda20a65	-0.07912139
177	0xbd736dc0	-0.059430838
178	0xbc01f210	-0.007931247
179	0x3caf18e9	0.021374183
180	0x3dee9c31	0.11650885
181	0x3dc07d41	0.0939889
182	0xbde035ab	-0.10947736
183	0xbd0ea866	-0.034828566
184	0x3d97b81c	0.07408163
185	0x3d9e398d	0.07725821
186	0x3d3675a9	0.044545803
187	0x3e851ea5	0.25999942
188	0x3bed6b23	0.0072454377
189	0x3ce389f0	0.027775735
190	0xbdd1bc51	-0.10240997
191	0xbd0aef26	-0.033919476
192	0x3d1aaa23	0.03775991
193	0xbc38bcfd	-0.011275527
194	0x3da7d171	0.08194245
195	0x3d7b7cdb	0.06139837
196	0x3c9b9d0b	0.018995782
197	0x3c98bbf8	0.018644318
198	0x3e2198b7	0.15780912
199	0x3df79619	0.12089176
200	0xbd5b4315	-0.05353077
201	0x3e09fdc8	0.13475716
202	0xbc3f6837	-0.011682562
203	0xbdde4220	-0.10852456
204	0x3a098bf5	0.00052469905
205	0x3de48464	0.11158064
206	0xbca48d6a	-0.020086963
207	0xbd0d44ff	-0.034489628
208	0x3d1eb99c	0.03875123
209	0xbd0ecd42	-0.034863718
210	0x3ca4e08b	0.020126602
211	0xbc70006e	-0.01464854
212	0x3e5a6907	0.21329127
213	0x3dfd1563	0.12357595
214	0xbcb055a5	-0.021525213
215	0x3e6c592f	0.23080896
216	0xbe2c2425	-0.16810663
217	0x3d376973	0.0447783
218	0x3e9a01db	0.3007954
219	0x3d750a21	0.059824113
220	0xbdf33dc1	-0.11877013
221	0x3d09a698	0.03360614
222	0x3e39e63a	0.1815423
223	0xbb6d1b5e	-0.0036179642
224	0x3db067c5	0.086135425
225	0xbd18a238	-0.03726408
226	0x3d0d1500	0.034443855
227	0xbd83e350	-0.06439841
228	0xbde8e8a5	-0.113724984
229	0xbd97e00e	-0.07415782
230	0x3d10edcb	0.035383027
231	0x3cdba569	0.026812272
232	0xbceddc1d	-0.029035622
233	0x3d7b28a5	0.06131806
234	0xbd70b6be	-0.058768027
235	0xbd40a098	-0.047028154
236	0xbe5447d6	-0.20730528
237	0x39d0ce2a	0.00039826456
238	0x3e02cbd8	0.12773073
239	0xbe243869	-0.16037144
240	0x3db74550	0.08948767
241	0xbddf4e42	-0.10903598
242	0x3d29e334	0.041476443
243	0x3cda69c2	0.026661757
244	0x3c618f81	0.013767124
245	0x3e30e3c9	0.17274393
246	0xbe53871f	-0.20657013
247	0xbe218576	-0.15773568
248	0x3c8ecdf4	0.01743219
249	0xbe0867ad	-0.13320799
250	0xbe34f0cb	-0.1766998
251	0xbdb6b79e	-0.08921741
252	0xbda52a13	-0.08064666
253	0x3e4053d4	0.18781978
254	0xbe150e15	-0.14556153
255	0xbda3c92c	-0.07997355

bias_hh_l0 f4 [750]
0	0xbe18710b	-0.14886872
1	0xbdb749fd	-0.08949659
2	0xbdb94ad4	-0.090474755
3	0xbd83baf1	-0.064321406
4	0xbbdc906a	-0.0067310827
5	0xbdb767f3	-0.089553736
6	0x3cc9d3df	0.02463716
7	0x3d02d966	0.03194561
8	0xbd39f1e1	-0.04539669
9	0xbdb102a6	-0.08643083
10	0xbce53205	-0.027977953
11	0x3e0f0bc6	0.13969335
12	0xbd284897	-0.041084852
13	0x3daab5d7	0.083354644
14	0xbc3a1d08	-0.011359461
15	0x3e7f2c04	0.24919134
16	0x3e08b857	0.1335157
17	0x3defaf3e	0.11703347
18	0xbdf91a34	-0.12163201
19	0xbe75c5ed	-0.24001284
20	0x3e087800	0.13327026
21	0xbc7c419c	-0.015396502
22	0x3e064f7e	0.13116261
23	0xbd5863cb	-0.052829545
24	0xbd45b212	-0.048265524
25	0xbda9a0fb	-0.08282658
26	0x3c9602e7	0.01831193
27	0x3d713fba	0.058898665
28	0xbdd68095	-0.10473744
29	0x3dd0e52b	0.1019996
30	0xbcdc3210	-0.02687934
31	0x3e44855f	0.19191502
32	0x3d9e8a8b	0.07741269
33	0xbb8ce68e	-0.004299945
34	0xbd444cdd	-0.047924865
35	0x3c83ecdb	0.016104152
36	0x3d979f39	0.07403416
37	0xbc241574	-0.01001488
38	0x3d5991db	0.053117614
39	0x3e04bca8	0.12962592
40	0x3de93968	0.113879025
41	0x3de1b42a	0.11020692
42	0x3ccfc32e	0.025361624
43	0xbe07876a	-0.1323525
44	0x3da04fbc	0.07827708
45	0xbe202c75	-0.15641959
46	0x3d8693b1	0.06571139
47	0xbe37f000	-0.17962646
48	0xbe200ec3	-0.15630631
49	0x3dfbc984	0.122942954
50	0xbd4b4a6c	-0.04963152
51	0xbdd5e1e3	-0.10443475
52	0xbc6a787a	-0.01431095
53	0x3daca00c	0.08428964
54	0xbe2a385a	-0.16623059
55	0xbb8470f6	-0.0040417863
56	0x3d57d268	0.052690893
57	0x3da99cc9	0.082818575
58	0xbc9da711	-0.019244703
59	0x3df6ada4	0.12044838
60	0x3d040a3a	0.032236315
61	0xbd3c1570	-0.045918882
62	0xbca52d61	-0.02016324
63	0x3c2cfba4	0.010558043
64	0x3d9a5f78	0.075377405
65	0x3d3756e9	0.04476062
66	0x3e8bf026	0.27331656
67	0x3e9f94a5	0.31168094
68	0xbe1aaf25	-0.15105875
69	0xbba9a954	-0.005177656
70	0x3dc7110c	0.09720048
71	0x3d8d2298	0.06891364
72	0xbccc5e82	-0.024947409
73	0xbe1ff1ce	-0.15619585
74	0x3d83f967	0.06444054
75	0x3e6ae433	0.22938614
76	0x3d97f14f	0.07419073
77	0x3e161f2d	0.1466033
78	0xbde564d2	-0.112008706
79	0xbdae6776	-0.08515827
80	0xbe0ede47	-0.1395198
81	0x3c4afd54	0.0123895
82	0xbe09f243	-0.13471322
83	0x3d23f14b	0.040025037
84	0xbd31f482	-0.04344607
85	0x3cac8af8	0.02106236
86	0xbc8edac0	-0.017438293
87	0xbcb2269b	-0.021746924
88	0x3b13ebc5	0.002257095
89	0xbdc99f94	-0.0984489
90	0x3b9b43d8	0.004738312
91	0x3e569c70	0.20958114
92	0x3df27bdd	0.11840031
93	0xbc43d473	-0.011952507
94	0xbd9911f6	-0.07474129
95	0xbe1e348d	-0.15449734
96	0xbb0739c4	-0.0020633796
97	0x3d29721d	0.041368593
98	0x3c8f3e4d	0.017485762
99	0x3e02527e	0.12726781
100	0xbe1d4e5b	-0.15361921
101	0xbccd55bc	-0.025065295
102	0xbcc8b418	-0.024499938
103	0x3cb2b5c7	0.021815194
104	0xbd8011de	-0.06253408
105	0x3c500a52	0.012697773
106	0x3db52592	0.088450566
107	0x3ce5cab9	0.028050767
108	0x3d362b7b	0.04447506
109	0x3d475843	0.048668157
110	0x3d6b5990	0.05745846
111	0xbe479a4b	-0.19492452
112	0x3deeea54	0.11665788
113	0xbd6877a3	-0.05675472
114	0xbe1852dd	-0.1487536
115	0xbd02b8a0	-0.031914353
116	0xbc195368	-0.0093582645
117	0xbd537355	-0.05162366
118	0xbe4572fd	-0.19282146
119	0x3de9a77f	0.114089005
120	0xbd4d9901	-0.050194744
121	0xbe2ae892	-0.16690281
122	0x3e6ed8bb	0.23324864
123	0x3d49137c	0.049090847
124	0x3d6c6ee0	0.057722926
125	0x3d936db0	0.071986556
126	0x3e0bf51f	0.13667725
127	0x3c335cc2	0.010947408
128	0x3beb2c93	0.0071769445
129	0x3ea2491c	0.31696403
130	0x3d3800a0	0.04492247
131	0xbd17f6f6	-0.037100755
132	0x3dc92a69	0.09822542
133	0xbd9a82d5	-0.075444855
134	0xbc8b73c8	-0.017022982
135	0x3e608cbe	0.21928689
136	0xbc1799e9	-0.009253004
137	0x3dbf1d30	0.09331739
138	0xbab39240	-0.0013700202
139	0xbe9226de	-0.28545278
140	0x3e1d3b99	0.15354766
141	0x3bfacfb2	0.0076541537
142	0xbe5d5e43	-0.21617989
143	0xbd517c80	-0.051144123
144	0xbdf69a7e	-0.12041186
145	0xbdb79b01	-0.089651115
146	0x3da3a654	0.07990709
147	0xbd84b957	-0.06480663
148	0xbba27fb2	-0.00495907
149	0xbd288ee7	-0.041151907
150	0xbd5c7af3	-0.05382819
151	0x3b9fcf9e	0.004877045
152	0x3db272d4	0.08713308
153	0xbd976c8d	-0.07393751
154	0xbcc20db3	-0.023688173
155	0xbe184808	-0.14871228
156	0xbd25212d	-0.040314842
157	0xbdcfac28	-0.10140258
158	0xbd8400a3	-0.06445434
159	0x3c2c362e	0.010510964
160	0x3bd997be	0.0066404035
161	0x3d8a29e9	0.06746275
162	0x3daa1d30	0.08306348
163	0xbd69e561	-0.05710352
164	0xbd6d5ebc	-0.057951674
165	0x3b585cb8	0.003301425
166	0x3e299b52	0.16563156
167	0xbcca3349	-0.024682658
168	0x3da09e3e	0.07842682
169	0x3cb7225f	0.022355257
170	0xbd0b4d8c	-0.0340095
171	0xbcbe36b0	-0.023219436
172	0x3d3c77c8	0.04601267
173	0xbd759780	-0.059958935
174	0x3e4a62e0	0.1976428
175	0x3e006a4b	0.12540548
176	0xbc5988d2	-0.013277249
177	0x3d752188	0.05984643
178	0xbb7753d8	-0.0037739184
179	0x3dd2462e	0.10267292
180	0x3e2eb5ad	0.17061491
181	0x3c0097a1	0.007848651
182	0xbdb3c494	-0.08777729
183	0xbd334668	-0.043768317
184	0x3d479b30	0.048731983
185	0x3d865575	0.065592684
186	0x3e0e2e0c	0.13884753
187	0x3e920010	0.28515673
188	0x3c72e9cc	0.014826249
189	0x3d10cda3	0.03535236
190	0xbde67206	-0.11252217
191	0xbddae910	-0.106889844
192	0xbd504248	-0.05084446
193	0x3c61dc7f	0.0137854805
194	0x3db3f906	0.08787732
195	0xbd170fcf	-0.03688031
196	0xbd557893	-0.05211694
197	0x3da44f35	0.0802292
198	0x3e31bc66	0.17357025
199	0x3e531fb8	0.20617568
200	0xbde4d42f	-0.11173283
201	0x3deffdbc	0.11718318
202	0x3ca33588	0.019922987
203	0xbddedb44	-0.10881665
204	0x3d1253d5	0.03572448
205	0x3da05ad9	0.07829828
206	0xbd5a7fa0	-0.05334437
207	0xbd974592	-0.07386316
208	0xbd45bcc4	-0.048275724
209	0xbd63f23c	-0.055650935
210	0x3dab5d7f	0.08367442
211	0x3d83f87a	0.064438775
212	0x3e1ed1fe	0.15509793
213	0x3e05ffc5	0.1308585
214	0xbbc3656d	-0.0059630186
215	0x3e2ed075	0.17071708
216	0xbe7f2c02	-0.24919131
217	0x3cfa3edc	0.030547552
218	0x3eb6d428	0.35708737
219	0x3dc9f56c	0.09861264
220	0xbde8fe9b	-0.11376687
221	0xbd6ab338	-0.057299823
222	0x3de8f664	0.1137512
223	0x3d147fcb	0.036254685
224	0x3df9b833	0.12193336
225	0xbca9b492	-0.020715985
226	0x3d0440bc	0.032288298
227	0xbd220fb6	-0.039565764
228	0xbca1a12c	-0.019730173
229	0xbd3bae46	-0.045820497
230	0x3da1cda8	0.07900554
231	0x3dc87acd	0.097890474
232	0x3d111e03	0.035429012
233	0x3d758d0d	0.05994897
234	0xbd81a0dd	-0.0632951
235	0xbc4f1d4e	-0.012641264
236	0xbe19580b	-0.14974992
237	0x3c14f68e	0.009091986
238	0x3ddc1234	0.107456595
239	0xbe4a21c5	-0.19739445
240	0x3d1e9eed	0.038725782
241	0xbdb63d2f	-0.088983886
242	0x3cd56d3e	0.026053067
243	0x3ddfe246	0.1093183
244	0x3cf69a9e	0.030103024
245	0x3e66d1a8	0.22540915
246	0xbe5ac634	-0.21364671
247	0xbdc4b4d3	-0.09604802
248	0xbd19a9bb	-0.037515383
249	0xbdd1b608	-0.10239798
250	0xbe30322f	-0.17206644
251	0xbe36fcc4	-0.1786986
252	0xbd1747bb	-0.036933642
253	0x3e74dafb	0.2391166
254	0xbde6328c	-0.1124011
255	0xbd28f2fd	-0.041247357

weight f4 [1, 250]
0	0x3e8e8367	0.27834627
1	0xbe6dadb1	-0.2321079
2	0x3d87e8d2	0.06636204
3	0x3c6f9573	0.014623034
4	0x3b6d0fc9	0.0036172739
5	0x3e8c2749	0.27373722
6	0xbd9bcb02	-0.0760708
7	0xbd74fea0	-0.05981314
8	0x3d0d3601	0.03447533
9	0xbdae9872	-0.085251704
10	0xbd8387fc	-0.06422421
11	0x3d6c7677	0.057730164
12	0x3e96ca89	0.29451397
13	0xbd24dec3	-0.040251505
14	0xbd9b7dde	-0.07592367
15	0xbc16cb06	-0.009203678
16	0x3cd52ea7	0.026023222
17	0x3dc2ca75	0.09511272
18	0xbe8e3ef0	-0.27782393
19	0xbc5c7472	-0.013455497
20	0xbd6bafee	-0.057540826
21	0xbb786711	-0.003790323
22	0x3cca5640	0.02469933
23	0xbd350984	-0.044198528
24	0xbd81ee53	-0.06344285
25	0x3d4cad7f	0.049970146
26	0xbd00579e	-0.03133356
27	0xbce00110	-0.027344257
28	0x3e3ce5fd	0.18447109
29	0x3d7f7a32	0.062372394
30	0xbdaabc56	-0.083367035
31	0xbc1ca703	-0.009561303
32	0x3d044451	0.032291714
33	0x3b9173db	0.00443886
34	0x3afbcad0	0.0019210223
35	0x3db1bbe4	0.086784154
36	0x3c2548cb	0.010088156
37	0xbb5ae5f1	-0.0033401216
38	0x3d02ffac	0.03198211
39	0x3c71ebd6	0.0147657
40	0x3d587cbe	0.05285334
41	0xbcc69c0b	-0.024244329
42	0x3d388899	0.045052145
43	0xbcbf916f	-0.023384778
44	0x3d223117	0.039597597
45	0x3d736857	0.059425678
46	0xbcf7b3f5	-0.030237177
47	0xbdc9e662	-0.09858395
48	0x3a819421	0.0009886065
49	0xbcae33c9	-0.021264927
50	0xbda2c4b2	-0.07947673
51	0xbda26af7	-0.07930558
52	0x3ba6ca86	0.0050900606
53	0x3cec6e8c	0.028861307
54	0xbabb68c1	-0.0014298187
55	0xbcc3f6ba	-0.02392136
56	0x3d50eb50	0.05100566
57	0xbbc316e8	-0.0059536584
58	0x3cf44510	0.029818088
59	0x3da2aa92	0.0794269
60	0x3cee07e0	0.02905649
61	0xbd6f4259	-0.058412883
62	0x3e2e081d	0.16995282
63	0x3cb7d3aa	0.022439796
64	0xbd9dc954	-0.07704416
65	0xbd41f86a	-0.047356047
66	0x3bdc4579	0.006722149
67	0x3ce5c518	0.028048083
68	0xbd89c80e	-0.067276105
69	0x3d173909	0.036919627
70	0xbd75029e	-0.05981695
71	0xbd744c25	-0.05964293
72	0xbd2a1143	-0.04152037
73	0xbe8b28ee	-0.27179664
74	0x3b6ef062	0.0036459197
75	0xbcf3172b	-0.029674133
76	0x3d30e7b6	0.043189727
77	0x3c48248f	0.0122157475
78	0xbbaf718c	-0.005354112
79	0xbddcc8b0	-0.107804656
80	0xbda80952	-0.08204903
81	0xbc2a0fbc	-0.010379728
82	0xbd73d8c3	-0.059532892
83	0x3d91909a	0.07107659
84	0x3db1f15f	0.08688616
85	0x3d76487f	0.06012773
86	0x3d8866ba	0.066602185
87	0x3d96600d	0.07342539
88	0xbd51ef29	-0.05125347
89	0x3c69fef2	0.014281975
90	0x3d15b13a	0.03654597
91	0x3d119c77	0.035549607
92	0xbcd591bc	-0.026070468
93	0x3a5c762e	0.0008409944
94	0xbd30206d	-0.042999674
95	0xbd4cc161	-0.049989108
96	0x3c08f9b5	0.008360316
97	0xbd334111	-0.043763224
98	0x3d199135	0.037491996
99	0x3c1a4c4f	0.009417607
100	0x3ea2bc8c	0.31784475
101	0x3ea06e3e	0.31334108
102	0xbdbbb609	-0.0916558
103	0xbc90c4ab	-0.017671904
104	0x3d3d3f43	0.04620291
105	0xbd3a2bed	-0.045452047
106	0x3d758c52	0.059948273
107	0x3a2d0d11	0.00066013733
108	0xba4f05e8	-0.00078973034
109	0xbd40010e	-0.046876006
110	0xbd477638	-0.048696727
111	0xbca5b2a9	-0.020226793
112	0x3d6434d2	0.055714436
113	0x3d8c6a1c	0.06856176
114	0x3c92ce41	0.017920615
115	0xbd5c2d41	-0.053754095
116	0x3d002029	0.03128067
117	0xbd4c25f6	-0.04984089
118	0xbe84c7b6	-0.25933617
119	0xbd7e9eaa	-0.062163033
120	0x3da5b33a	0.080908254
121	0x3dd7552d	0.10514293
122	0xbc53cb51	-0.012926892
123	0xbdad7a06	-0.0847054
124	0xbc62eae2	-0.013849946
125	0xbcda8baf	-0.026677934
126	0x3cb0a38d	0.021562362
127	0xbd101964	-0.035180464
128	0x3d887d8f	0.066645734
129	0xbc665e2f	-0.014060541
130	0x3d03166c	0.032003805
131	0x3ccab4b1	0.024744364
132	0xbd1357a4	-0.035972252
133	0x3ae0ca9f	0.001715023
134	0x3d3f5f8f	0.04672199
135	0x3a8fb5e4	0.0010964242
136	0x3e06fbcc	0.1318199
137	0xbccc783a	-0.024959672
138	0xbd2e42cd	-0.042544175
139	0xbdee71fc	-0.116428345
140	0x3d9c5572	0.07633485
141	0x3bfd4109	0.0077287
142	0xbe8ee7f7	-0.2791135
143	0xbd867880	-0.06565952
144	0xbd3dcd9a	-0.046338655
145	0x3da0a5ec	0.07844147
146	0x3dcef8b0	0.10106027
147	0x3d1b12fd	0.037859906
148	0x3da45394	0.08023754
149	0x3c884117	0.0166326
150	0x3d5db3bd	0.05412649
151	0x3db54d83	0.08852675
152	0xbd88e8ee	-0.06685053
153	0xbd7c463f	-0.06159043
154	0xbd502fc3	-0.0508268
155	0xbdaf0fe3	-0.08547952
156	0x3d8e16eb	0.06937965
157	0xbd225133	-0.03962822
158	0x3d09e566	0.033666037
159	0xbdc0dfad	-0.09417663
160	0xbcf40b41	-0.029790523
161	0x3d93e9d0	0.072223306
162	0xbd58cc33	-0.052929115
163	0x3cc711ce	0.024300482
164	0x3d43357e	0.047658436
165	0xbda8c971	-0.08241547
166	0xbbaaab44	-0.0052084047
167	0x3c888b5a	0.01666801
168	0x3dcbcb53	0.099508904
169	0x3d6401af	0.055665668
170	0x3d8e4ae6	0.069478795
171	0xbd16971e	-0.03676521
172	0xbd39a716	-0.04532536
173	0x3e8f8d66	0.28037566
174	0xbc59b760	-0.013288349
175	0x3c4d26ca	0.012521455
176	0xbd61f9c4	-0.055169836
177	0xbec95f0b	-0.39330325
178	0x3d9a3b64	0.07530859
179	0xbe003afd	-0.12522502
180	0x3c7cd6a5	0.015432035
181	0xbea14464	-0.3149749
182	0xbba82677	-0.0051315385
183	0xbda371db	-0.079807006
184	0x3caea148	0.02131714
185	0x3cf867bd	0.030322904
186	0xbc1a5524	-0.009419713
187	0x3d6a7038	0.057235926
188	0xbd12f80f	-0.0358811
189	0xba9e81a2	-0.0012093077
190	0xbeac0db5	-0.33604208
191	0x3d855aa5	0.0651143
192	0xbd2f0f4d	-0.0427392
193	0xbe755dd6	-0.23961577
194	0xbd613a18	-0.054987043
195	0x3d974fc0	0.07388258
196	0x3d87aec9	0.066251345
197	0x3d993c17	0.07482164
198	0xbd1acb00	-0.037791252
199	0xbbf39d87	-0.00743455
200	0xbcbc6478	-0.022997126
201	0xbd397ec9	-0.045286927
202	0x3d423c99	0.04742107
203	0xbcf0150c	-0.029306911
204	0x3cffd6ec	0.031230412
205	0x3d5372e6	0.051623248
206	0xbbaeaa8c	-0.0053303894
207	0xbd5c7795	-0.05382498
208	0xbd926f45	-0.07150129
209	0x3d90db8f	0.070731275
210	0x3d488bab	0.048961323
211	0xbd4511cb	-0.04811267
212	0x3ceeaf5c	0.029136352
213	0xbc2500fc	-0.0100710355
214	0xbcb9766f	-0.022639481
215	0xbcfa3b16	-0.030545752
216	0xbd03a302	-0.03213788
217	0x3db14587	0.086558394
218	0xbb4c0029	-0.0031128025
219	0x3d7d6255	0.061861355
220	0x3ab614a9	0.0013891655
221	0x3cc4cc32	0.02402315
222	0x3c349f47	0.011024303
223	0x3d525e43	0.051359426
224	0x3c3148e8	0.010820605
225	0xbeaeed74	-0.34165537
226	0x3db0d6ac	0.086346954
227	0xbc507edb	-0.012725557
228	0xbcde2260	-0.027116
229	0x3d9c114d	0.07620487
230	0x3d8f2a04	0.06990436
231	0x3d8979bc	0.06712672
232	0x3da8fba2	0.0825112
233	0x3d28c77d	0.04120587
234	0x3d06faaa	0.032953896
235	0x3d9d5b09	0.07683379
236	0xbc8314aa	-0.016001064
237	0x3b31f782	0.0027155583
238	0x3d8915b5	0.066935934
239	0x3e805c1f	0.25070283
240	0x3c98d3a7	0.018655611
241	0xbd754460	-0.05987966
242	0xbdab6aa5	-0.0836995
243	0x3c70cbea	0.014697054
244	0xbe6e3435	-0.23262103
245	0xbd442ec6	-0.04789617
246	0xbe1a3919	-0.15060844
247	0x3aed79a5	0.0018117918
248	0xbd520502	-0.051274307
249	0xbdf59c75	-0.119927324
