model/GRU-000635.pth (torch, 790039 bytes, 5 tensors)

weight_ih_l0 f4 [750, 10]
0	0xbdd32147	-0.103090815
1	0x3dc57c2c	0.096428245
2	0x3deebd84	0.11657241
3	0x3d552985	0.05204155
4	0x3d46b866	0.0485157
5	0xbd9c527f	-0.076329224
6	0xbe32677d	-0.1742229
7	0x3d1c7e87	0.038206603
8	0x3d17483a	0.036934115
9	0xbce11451	-0.027475508
10	0xbd863592	-0.065531865
11	0xbcce9a56	-0.025220077
12	0x3ccb1f61	0.024795236
13	0xbd41e1da	-0.04733453
14	0x3cd6c206	0.026215564
15	0x3d9bd68a	0.076092795
16	0x3c4845ab	0.012223641
17	0xbdd73030	-0.10507238
18	0xbe00b60a	-0.12569442
19	0x3c8d8c22	0.017278735
20	0xbdfbb3bb	-0.1229014
21	0xbcd2d797	-0.025737567
22	0x3cda7829	0.026668625
23	0x3d6f42b4	0.058413222
24	0xbc554449	-0.013016769
25	0xbd4d6fc8	-0.05015543
26	0xbd43a78b	-0.047767203
27	0x3d0bc33f	0.034121748
28	0xbba5bc61	-0.005057857
29	0x3d351aab	0.044214886
30	0xbdb1cc90	-0.08681595
31	0xbe9eaa17	-0.30989143
32	0xbe88ae4a	-0.26695472
33	0xbe5a9b4f	-0.21348308
34	0xbe538fb2	-0.20660284
35	0x3c8dd181	0.017311813
36	0x3d1fa8c3	0.038979303
37	0x3d6545b3	0.055974673
38	0x3cd3d443	0.02585805
39	0xbdb1fdd8	-0.08690995
40	0xbdc8e96b	-0.09810146
41	0x3d7d626c	0.06186144
42	0x3e2d0677	0.16896997
43	0x3e020a82	0.12699321
44	0x3e1eb04d	0.15496941
45	0xbe0367fd	-0.12832637
46	0xbdf9b877	-0.12193387
47	0x3cca0fb7	0.024665697
48	0xbd9de429	-0.07709534
49	0xbe4778ab	-0.19479625
50	0xbdbfdbf6	-0.09368126
51	0x3d99581d	0.074875094
52	0x3dc9208f	0.09820663
53	0x3dc95751	0.098311074
54	0x3ce09b3d	0.027417773
55	0x3cd7fea0	0.026366532
56	0xbe271359	-0.16315974
57	0x3e0894cd	0.13338013
58	0x3e01ad26	0.12663707
59	0xbe99cd44	-0.30039418
60	0xbf3e07bd	-0.7423056
61	0xbd363df3	-0.044492673
62	0xbd9e656b	-0.07734188
63	0xbd2b7468	-0.04185906
64	0xbd311e58	-0.04324183
65	0xbd6ea996	-0.0582672
66	0xbdf5c2e2	-0.120000616
67	0x3d26c5b3	0.040715884
68	0xbc478887	-0.012178547
69	0xbe967de0	-0.2939291
70	0xbe966975	-0.29377332
71	0xbe537591	-0.20650317
72	0xbdd361a8	-0.10321361
73	0xbe3f4ec3	-0.18682389
74	0xbe403815	-0.18771394
75	0x3938c5a7	0.00017621239
76	0xbd2718f4	-0.04079528
77	0xbe34181d	-0.17587323
78	0xbe91b99c	-0.2846192
79	0xbd6b2c67	-0.057415392
80	0xbbc930d1	-0.0061398526
81	0xbe19da4f	-0.15024684
82	0xbdc0d5f5	-0.09415809
83	0xbe26da7d	-0.16294284
84	0xbe1d1d81	-0.15343286
85	0x3d11ac08	0.035564452
86	0xbe6461a6	-0.22302875
87	0x3d521105	0.051285762
88	0xbce33f2d	-0.027740085
89	0xbe166cb4	-0.14689904
90	0xbd9e3a78	-0.07725996
91	0xbe5011af	-0.20319246
92	0xbdd7962f	-0.10526692
93	0xbe27618a	-0.16345802
94	0xbdfdd3cf	-0.12393915
95	0x3d95d84b	0.07316645
96	0xbdea02c8	-0.11426312
97	0x3c58784c	0.013212275
98	0x3d58484e	0.05280333
99	0xbdb29965	-0.08720664
100	0xbd8585c4	-0.065196544
101	0x3d8d5919	0.0690176
102	0x3d654b6c	0.05598013
103	0x3e053b53	0.13010912
104	0x3db7ec1a	0.0898058
105	0x3de80199	0.1132843
106	0x3d839c85	0.06426338
107	0xbccd8e96	-0.025092404
108	0x3d1c11d6	0.038102947
109	0x3d0c6d5d	0.034283984
110	0xbd14b288	-0.036303073
111	0xbe353a56	-0.17698035
112	0xbe2a7c4f	-0.16648982
113	0xbe03a4b1	-0.12855794
114	0xbe1ba1b4	-0.15198404
115	0x3eab9ac3	0.3351651
116	0x3e3bddce	0.1834633
117	0xbe249a9b	-0.16074602
118	0xbe0b9d70	-0.13634276
119	0x3dc2b44f	0.095070474
120	0xbc5740f6	-0.0131380465
121	0x3d1a6f7a	0.03770397
122	0xbd4cf4bf	-0.050038096
123	0xbd145fb1	-0.03622407
124	0x3d2ba5cb	0.04190616
125	0xbc929ba2	-0.017896477
126	0xbd720011	-0.059082095
127	0x3e261bc2	0.16221526
128	0x3e05261f	0.13002823
129	0xbde76b28	-0.11299735
130	0xbda9e579	-0.082957216
131	0xbdaf6838	-0.085648
132	0xbd946790	-0.072463155
133	0xbd9548c3	-0.07289269
134	0xbca539da	-0.020169187
135	0xbc9ead48	-0.019369736
136	0xbd770a8d	-0.060312796
137	0x3d32c2b3	0.04364271
138	0xbd6a9e17	-0.057279672
139	0xbd9c3c70	-0.07628715
140	0xbecd5994	-0.40107405
141	0xbd0e7985	-0.03478386
142	0xbcfda4ed	-0.030962432
143	0xbd524d66	-0.051343344
144	0xbdcc7612	-0.099834576
145	0xbc90dcef	-0.017683474
146	0xbda3c75a	-0.07997008
147	0x3e00c423	0.1257482
148	0xbc5d107c	-0.0134927
149	0xbe6b6717	-0.22988544
150	0x3df5c8f1	0.12001217
151	0x3dc3efcc	0.09567222
152	0x3d04b105	0.03239538
153	0x3df46b28	0.11934501
154	0x3d384f34	0.04499741
155	0xbe2e58e5	-0.17026098
156	0xbe1affea	-0.15136686
157	0x3e10cd17	0.14140736
158	0x3e4c5639	0.19954766
159	0xbe57bad8	-0.21067369
160	0xbe21933b	-0.1577882
161	0xbbc04dec	-0.005868664
162	0x3d030dd2	0.031995602
163	0xbc916390	-0.01774767
164	0xbd062e30	-0.03275889
165	0x3e87268b	0.26396593
166	0x3e8e4241	0.27784923
167	0xbea1296e	-0.3147692
168	0xbea7ad66	-0.3274948
169	0x3e3552f3	0.17707424
170	0xbdc4df77	-0.09612935
171	0x3df28590	0.11841881
172	0x3d6f9016	0.05848702
173	0x3dc42b3e	0.0957856
174	0x3e03b7e3	0.12863116
175	0x3e02882e	0.12747261
176	0x3dca59f9	0.09880442
177	0xbd9df2a0	-0.07712293
178	0xbbbd4ab3	-0.005776727
179	0x3d8650d2	0.06558384
180	0xbe67c73f	-0.226346
181	0xbdde6be0	-0.10860419
182	0xbd2a4282	-0.041567333
183	0xbd1d0b31	-0.03834075
184	0xbd0ef003	-0.03489686
185	0xbe175f85	-0.14782532
186	0xbd63c344	-0.05560614
187	0xbe328f95	-0.17437585
188	0xbe9226e5	-0.285453
189	0x3bc98564	0.0061499346
190	0x3e161931	0.14658047
191	0xbbec9d6b	-0.007220914
192	0xbd8270bc	-0.063691586
193	0x3b90e046	0.0044212667
194	0xbd54a4c8	-0.05191496
195	0x3dd6e950	0.104937196
196	0xbc8d2d2a	-0.01723345
197	0x3e54250a	0.20717254
198	0x3e156172	0.14587954
199	0xbe696227	-0.22791348
200	0x3e295dac	0.16539639
201	0x3d3aeb55	0.045634586
202	0x3e22628f	0.1585791
203	0x3d90a475	0.07062618
204	0x3e0283c7	0.12745582
205	0x3ead4a43	0.3384572
206	0x3ea80ab1	0.32820657
207	0xbe694fbc	-0.22784323
208	0xbde12077	-0.1099252
209	0x3e1e6a04	0.15470129
210	0xbe878dbe	-0.26475328
211	0x3c9d3456	0.019189995
212	0x3cbe31de	0.023217138
213	0x3d1cc62c	0.03827493
214	0x3cee16c1	0.029063584
215	0xbe67dc6f	-0.22642682
216	0xbe13afe4	-0.14422566
217	0x3adb6349	0.0016737963
218	0xbd87623b	-0.06610533
219	0xbd38af6f	-0.04508918
220	0xbf01418c	-0.5049064
221	0xbd91cf0a	-0.07119568
222	0xbda595d7	-0.0808522
223	0xbded1364	-0.11575964
224	0xbdc74a27	-0.0973094
225	0xbe9494f8	-0.29019904
226	0xbde90169	-0.11377222
227	0xbe97331c	-0.2953118
228	0xbed015e1	-0.40641692
229	0xbc2d2924	-0.010568891
230	0xbde391e2	-0.11111809
231	0x3c8bad27	0.017050339
232	0xbbad5916	-0.005290161
233	0x3d1107f0	0.03540796
234	0xbd43c25b	-0.047792774
235	0x3d88282d	0.06648288
236	0x3dca92f6	0.09891312
237	0xbd6a3699	-0.057180975
238	0xbe044b69	-0.12919392
239	0x3dd52b17	0.10408609
240	0xbec920e7	-0.39282915
241	0xbe4e2ffb	-0.2013549
242	0xbe3234f1	-0.17403008
243	0xbe597772	-0.21236971
244	0xbe51b4fd	-0.20479198
245	0xbdc4dc0e	-0.096122846
246	0xbce12a43	-0.027485972
247	0x3d5f14c7	0.054463174
248	0x3d0d9c5d	0.034572948
249	0xbd87f33e	-0.06638192
250	0xbdd37bd2	-0.10326351
251	0x3bbf702e	0.0058422303
252	0x3d30179e	0.042991273
253	0x3d2b70d8	0.041855663
254	0x3d8047e8	0.06263715
255	0xbd8c82aa	-0.0686086

weight_hh_l0 f4 [750, 250]
0	0xbe37857a	-0.17922011
1	0xbd09f2d2	-0.033678837
2	0x3e0d8a67	0.13822328
3	0xbe29374d	-0.16525002
4	0x3cc7e422	0.024400774
5	0x3d68873e	0.056769602
6	0x3dc879cb	0.09788855
7	0xbda483de	-0.08032964
8	0xbe166a84	-0.1468907
9	0x3dc430b8	0.09579605
10	0xbd2fc0fa	-0.042908646
11	0x3e212620	0.157372
12	0xbca5c6b2	-0.020236347
13	0x3e10a3b0	0.14124942
14	0x3e332e81	0.17498209
15	0xbcd783c7	-0.026307954
16	0xbdf06923	-0.11738803
17	0x3de57505	0.1120396
18	0x3d33986f	0.043846544
19	0xbd0f32ca	-0.034960546
20	0xbd16101e	-0.036636464
21	0xbbb7d05b	-0.0056095547
22	0x3debabe5	0.11507396
23	0xbccb2644	-0.02479852
24	0x3ce5ba87	0.028043045
25	0x3da0b5b7	0.07847159
26	0x3e6fa636	0.23403248
27	0xbb8896d9	-0.004168373
28	0xbe921c63	-0.28537282
29	0x3dadb3e9	0.08481581
30	0xbcff8f00	-0.031196117
31	0x3d750566	0.0598196
32	0xbc9468ab	-0.018116316
33	0x3d2b4930	0.041817844
34	0xbd90eebe	-0.070767865
35	0x3ce81dca	0.028334517
36	0x3d3e1dab	0.046415012
37	0xbcc31c2b	-0.023817142
38	0xbc5d9688	-0.013524659
39	0x3d403209	0.046922717
40	0x3dae6647	0.085156016
41	0xbcc82c4c	-0.024435185
42	0xbba75ae5	-0.005107271
43	0x3d800f27	0.0625289
44	0x3cb06196	0.021530908
45	0xbdb1ee0e	-0.086879835
46	0x3b8ec60c	0.004357105
47	0x3d8f8fac	0.07009825
48	0xbdcff3de	-0.10153936
49	0x3d599a3b	0.0531256
50	0xbb645420	-0.0034840181
51	0xbd3379fe	-0.043817513
52	0x3d812a79	0.06306929
53	0xbdb55e25	-0.08855847
54	0xbd244192	-0.040101595
55	0xbcc31666	-0.023814391
56	0x3e3bc301	0.18336107
57	0xbd9456da	-0.07243128
58	0xbe4e7e45	-0.20165356
59	0xbd28e5a7	-0.04123464
60	0x3b013661	0.001971625
61	0x3db2d2c1	0.08731604
62	0x3c89a356	0.016801517
63	0x3d472b60	0.04862535
64	0x3d307576	0.04308077
65	0xbe7a90a4	-0.24469239
66	0x3e84ae5d	0.2591428
67	0x3c6404ea	0.013917187
68	0xbd24af27	-0.0402061
69	0x3d8db2a8	0.069188416
70	0x3d4156b2	0.04720182
71	0x3e2dad44	0.16960627
72	0xbc8e87f3	-0.01739881
73	0x3d7813e9	0.060565863
74	0x3bac1741	0.0052517955
75	0xbdc9949e	-0.098427996
76	0xbd03f908	-0.032219917
77	0xbd6ee355	-0.05832227
78	0x3dbb6502	0.09150125
79	0x3cb15b05	0.021649847
80	0xbd2f9f14	-0.042876318
81	0xbd2fe89e	-0.04294645
82	0xbc89ddc6	-0.016829383
83	0xbc5fc99d	-0.013658908
84	0x3d6cba83	0.05779506
85	0xbdbdc914	-0.09266868
86	0x3e0a7a62	0.13523248
87	0xbe8cfcf8	-0.2753675
88	0xbdb3df12	-0.08782782
89	0x3cbe21a6	0.023209404
90	0xbd99e118	-0.07513636
91	0x3d641dc8	0.055692464
92	0xbdde0102	-0.10840036
93	0xbcbd4a57	-0.023106737
94	0x3dbc7d79	0.092036195
95	0x3ca801d4	0.020508684
96	0xbdbece07	-0.0931664
97	0xbcb83043	-0.02248395
98	0xbe46729a	-0.19379655
99	0x3d65a739	0.05606768
100	0xbd7a0493	-0.06103952
101	0x3e02d914	0.12778121
102	0x3e0bf817	0.13668858
103	0x3dc1c989	0.09462268
104	0x3d80ae9e	0.062833056
105	0x3dfc96f6	0.12333481
106	0xbe7dda88	-0.24790394
107	0xbd3cd1a9	-0.046098385
108	0x3e1a1010	0.1504519
109	0xbd3ddbf8	-0.046352357
110	0xbc5e190e	-0.013555778
111	0xbd12be0e	-0.03582578
112	0xbe095c8f	-0.13414215
113	0x3cdfc365	0.027314851
114	0xbd44c4b0	-0.04803914
115	0xbcd7c3c9	-0.026338475
116	0x3da7c586	0.081919715
117	0xbd2c9d33	-0.042142104
118	0xbccde83d	-0.025135154
119	0x3ce68e54	0.02814404
120	0xbc397f96	-0.011321923
121	0xbd88da66	-0.06682281
122	0x3d1fa452	0.038975067
123	0x3dc48842	0.095963016
124	0x3d5048f1	0.050850812
125	0xbc3f601a	-0.011680627
126	0xbe64ecc1	-0.2235594
127	0x3e25b3ba	0.16181841
128	0x3cc65b3b	0.024213424
129	0x3e8d5225	0.27601734
130	0xbdeadc46	-0.11467795
131	0xbe27f73e	-0.16402909
132	0xbd85f2c0	-0.065404415
133	0xbe5099f7	-0.20371233
134	0xbd949a6b	-0.072560154
135	0x3d1fd069	0.039017115
136	0xbe00653f	-0.12538622
137	0x3d06c459	0.032902095
138	0x3e16065c	0.14650863
139	0xbd8d98dd	-0.06913922
140	0x3d2df613	0.042471003
141	0x3d236ba6	0.039897583
142	0xbda931eb	-0.08261474
143	0xbe07d455	-0.13264592
144	0xbd85e1b1	-0.06537188
145	0x3d79271c	0.060828313
146	0xbdca7ab6	-0.098866865
147	0xbd8d2313	-0.068914555
148	0xbd00f1da	-0.031480648
149	0x3dbe2cf0	0.09285915
150	0x3e30e97a	0.17276564
151	0x3d100271	0.03515858
152	0xbb316dec	-0.0027073575
153	0xbc3cfbd4	-0.01153465
154	0x3daca789	0.08430392
155	0xbd4854ab	-0.04890887
156	0xbde8ed3f	-0.11373376
157	0xbd8fb479	-0.07016844
158	0xbd080d68	-0.03321591
159	0x3c17a16a	0.009254793
160	0xbe3a3f24	-0.18188149
161	0xbe05a9bd	-0.13053031
162	0xbb818616	-0.003952752
163	0x3dad8d0f	0.084741704
164	0xbe35640c	-0.17713946
165	0x3c89a3ed	0.016801799
166	0x3dce8c7d	0.1008539
167	0xbc1e6027	-0.009666479
168	0xbcb4e71f	-0.022082863
169	0xbe0dc9a5	-0.13846453
170	0xbe2a7f10	-0.16650033
171	0x3d5986f3	0.053107213
172	0xbc284d27	-0.010272301
173	0xbe32d852	-0.17465332
174	0x3d090ab9	0.03345749
175	0xbdeb2eb2	-0.11483516
176	0xbda10696	-0.07862584
177	0x3b321264	0.0027171606
178	0xbb4e7883	-0.0031504936
179	0xbca23d5d	-0.01980465
180	0x3e2cd33e	0.16877457
181	0xbd6e7172	-0.05821366
182	0xbc760873	-0.015016663
183	0xbcfff266	-0.031243514
184	0x3dc11dfa	0.09429546
185	0x3cc48d04	0.023993023
186	0x3bec3a85	0.0072091245
187	0x3bfc238e	0.007694668
188	0x3dbbffe0	0.09179664
189	0x3c30006b	0.010742287
190	0x3e550c11	0.20805384
191	0xbd93b2da	-0.072118476
192	0x3ded27dd	0.11579869
193	0x3df3c9f6	0.11903755
194	0xbdd0d540	-0.10196924
195	0x3c72b57b	0.014813776
196	0xbd868098	-0.06567496
197	0x3d86b148	0.065767825
198	0x3b8829c0	0.0041553676
199	0xbd5995c2	-0.053121336
200	0xbc1ca88d	-0.00956167
201	0xbe6237ef	-0.2209165
202	0xbe6bc896	-0.23025736
203	0x3c83732d	0.016046131
204	0x3c02e773	0.007989752
205	0xbd7af6ce	-0.061270528
206	0x3b9f4f39	0.004861739
207	0xbe5706aa	-0.20998636
208	0x3ca3b6a4	0.01998455
209	0x3dc2e846	0.09516959
210	0x3bd915d3	0.006624916
211	0x3df064be	0.11737965
212	0xbe3165ef	-0.17324041
213	0xbdb9beb8	-0.0906958
214	0x3bd19548	0.0063959695
215	0xbd3df6f4	-0.04637809
216	0xbd93d1dc	-0.07217762
217	0x3c6cde45	0.01445729
218	0x3da9903e	0.08279465
219	0x3e019d4e	0.12657663
220	0xbcb8b6b7	-0.022548063
221	0xbd62e1db	-0.055391174
222	0xbdc5be2a	-0.096554115
223	0x3d2dc388	0.0424228
224	0xbdbaaf8b	-0.091155134
225	0xbd172411	-0.03689963
226	0xbd2cb27a	-0.042162396
227	0xbe0138e8	-0.12619364
228	0xbca69378	-0.02033399
229	0xbd322fd7	-0.043502655
230	0xbd929737	-0.07157748
231	0xbda3d19d	-0.07998965
232	0xbdf14b57	-0.11781948
233	0xbe06252f	-0.13100122
234	0x3d8dd091	0.069245465
235	0xbdcdfdab	-0.10058149
236	0xbd356cb7	-0.04429313
237	0xbda078b9	-0.07835526
238	0xbd3f2913	-0.04667003
239	0x3e2c7e73	0.16845112
240	0xbe0d4519	-0.1379589
241	0xbddf8413	-0.10913863
242	0x3e235ea9	0.15954079
243	0x3d5517f8	0.05202481
244	0x3d304082	0.04303027
245	0x3d7200fe	0.059082977
246	0x3d8a6fdd	0.067596175
247	0x3e578bd7	0.21049438
248	0xbcc0ed95	-0.023550788
249	0x3dee17c0	0.11625624
250	0x3dad0f18	0.084501445
251	0xbd986493	-0.07441058
252	0xbd27b95b	-0.040948253
253	0xbe679a4d	-0.22617455
254	0x3bd90d3c	0.006623892
255	0xbd634584	-0.055486217

bias_ih_l0 f4 [750]
0	0xbce7f507	-0.02831508
1	0x3c43c62a	0.011949101
2	0x3c868446	0.016420495
3	0xbc6902d0	-0.014221862
4	0xbd9e71ba	-0.07736535
5	0xbe25c987	-0.16190158
6	0xbcdfbba1	-0.027311148
7	0xbcde7ddf	-0.02715963
8	0xbe1b06f8	-0.15139377
9	0xbc2f8c2f	-0.010714575
10	0x3cc0f782	0.02355552
11	0x3e47f7e0	0.1952815
12	0xbd4270da	-0.047470905
13	0xbc65cc2e	-0.014025731
14	0xbd69c4c5	-0.05707242
15	0xbdf2671f	-0.11836075
16	0x3eaa06dc	0.33208358
17	0x3d14a6bb	0.03629182
18	0xbd1b0713	-0.037848543
19	0xbd7ef356	-0.062243782
20	0x3e8d2e71	0.27574494
21	0xbe3e88fa	-0.1860694
22	0xbdf89901	-0.12138558
23	0x3e03217d	0.12805744
24	0x3b4b765c	0.003104589
25	0x3d614557	0.05499777
26	0x3bb4707a	0.0055065723
27	0xbdd6f9cf	-0.10496866
28	0xbe3ef339	-0.1864747
29	0xbd92058c	-0.07129964
30	0xbe4d4e31	-0.20049359
31	0x3df230a7	0.11825686
32	0xbd943030	-0.072357535
33	0x3e0b1996	0.13583979
34	0xbe127593	-0.14302664
35	0xbd90e71e	-0.07075332
36	0xbe04c87b	-0.12967102
37	0x3cf5af1f	0.02999073
38	0xbdc2925b	-0.09500571
39	0x3e0c8285	0.13721664
40	0xbd98ca87	-0.07460504
41	0xbe347e02	-0.17626193
42	0x3d0b8500	0.034062386
43	0xbcb23125	-0.02175195
44	0x3c811b96	0.015760224
45	0xbc8e4bfd	-0.017370218
46	0x3cbfcdf8	0.023413643
47	0xbdfe0316	-0.12402932
48	0xbe2bfb91	-0.16795184
49	0xbea0b199	-0.31385496
50	0x3e0368d4	0.12832958
51	0xbcd22e96	-0.02565698
52	0x3bc4519b	0.0059911734
53	0xbe2814d2	-0.16414192
54	0xbd0c5dac	-0.03426902
55	0x3c264ecd	0.0101506235
56	0x3e166376	0.14686379
57	0xbde5f6d2	-0.11228718
58	0xbd9a860a	-0.07545097
59	0xbd738a11	-0.059457842
60	0x3c3e65b1	0.011620925
61	0x3ebbc03d	0.36670104
62	0xbcd84c96	-0.026403707
63	0x3ddba469	0.10724718
64	0xbd6fb754	-0.058524445
65	0xbd644091	-0.055725638
66	0x3e9bfdea	0.3046716
67	0xbe1ae512	-0.15126446
68	0xbe2343b4	-0.15943795
69	0x3dcdae9d	0.100430705
70	0x3e2fa3c6	0.17152318
71	0xbeb36d0c	-0.35044134
72	0xbdc5e483	-0.09662726
73	0x3d27b662	0.04094542
74	0xbe001978	-0.12509716
75	0xbc18573f	-0.009298145
76	0x3e6aaf5a	0.22918454
77	0xbcf3a0cf	-0.029739765
78	0xbdf43ce0	-0.119256735
79	0x3d2592f2	0.04042334
80	0xbd29313f	-0.04130673
81	0x3e5c2ca9	0.21501411
82	0xbe08f276	-0.13373742
83	0x3c11b57d	0.008893368
84	0xbd8fe7f8	-0.070266664
85	0xbd75b778	-0.059989423
86	0x3bb80dd9	0.005616885
87	0xbe464005	-0.19360359
88	0xbda364d1	-0.079782136
89	0xbd769d2a	-0.060208477
90	0x3d683ecb	0.05670051
91	0xbda53e89	-0.08068568
92	0xbd0270ab	-0.03184573
93	0x3e6693ad	0.22517271
94	0xbb5811ad	-0.003296952
95	0x3cc9dff0	0.024642915
96	0x3c2a1628	0.010381259
97	0xbe0177b5	-0.12643321
98	0xbc9a8324	-0.01886136
99	0xbe3417a4	-0.17587143
100	0xbdbd70d1	-0.09250034
101	0xbe036611	-0.12831904
102	0xbe79bbac	-0.24387997
103	0xbc55a2ae	-0.013039274
104	0xbd954740	-0.072889805
105	0x3d9ce07c	0.076600045
106	0x3e06f4a4	0.1317926
107	0xbe005cb7	-0.12535368
108	0x3cd437d8	0.025905535
109	0x3a7aab2d	0.00095622503
110	0xbe326b94	-0.1742385
111	0xbd9b5d7f	-0.07586192
112	0xbe280a0d	-0.16410084
113	0xbb671e4b	-0.0035265859
114	0xbd9aa52a	-0.07551034
115	0x3d85a0d3	0.065248154
116	0x3b2181c6	0.0024644001
117	0xbd736d0f	-0.05943018
118	0x3be6796d	0.007033518
119	0xbdb39493	-0.08768573
120	0x3d2e7e55	0.04260095
121	0xbdb34906	-0.087541625
122	0x3d071af5	0.032984693
123	0xbe40152e	-0.1875808
124	0xbe37c9b7	-0.17948042
125	0xbd7b5a1b	-0.06136523
126	0x3d417bf3	0.047237348
127	0xbdbcf5d8	-0.092265785
128	0x3e3e9cf4	0.1861456
129	0xbdc98c3b	-0.098412
130	0x3e86acc3	0.26303682
131	0xbe83e59c	-0.25761116
132	0x3c5dee14	0.013545532
133	0x3db50512	0.08838858
134	0x3d68a193	0.056794714
135	0xbd3741b1	-0.044740383
136	0xbc2221ea	-0.009895781
137	0x3e15e5c8	0.14638436
138	0xbe162786	-0.14663514
139	0xbd17c91d	-0.03705703
140	0xbdea42f0	-0.114385486
141	0xbe272ec0	-0.16326427
142	0xbd0a077c	-0.033698544
143	0xbdfbb71b	-0.12290784
144	0xbe08e31e	-0.13367888
145	0xbe5d6f1a	-0.21624413
146	0xbd9f59fc	-0.07780835
147	0xbd960990	-0.07326043
148	0xbd9842ec	-0.07434639
149	0x3d8b8e89	0.06814296
150	0xbd034965	-0.032052416
151	0x3cc75fcd	0.024337674
152	0xbe1f2ba1	-0.15543987
153	0xbd349e38	-0.0440962
154	0x3e7af0db	0.24505942
155	0xbce0175c	-0.027354889
156	0xbd991f6d	-0.07476697
157	0xba559646	-0.00081476977
158	0xbdccda27	-0.10002547
159	0x3be3e3d9	0.006954652
160	0xbc672a01	-0.014109136
161	0x3d2857da	0.041099407
162	0x3caa6779	0.020801293
163	0x3c4f838f	0.012665643
164	0xbcdc2cc0	-0.026876807
165	0x3c8e6848	0.01738371
166	0xbdd03588	-0.1016646
167	0x3d59afd4	0.0531462
168	0x3c5065c0	0.012719572
169	0xbe29d08c	-0.1658346
170	0xbe00e1bd	-0.12586112
171	0xbe534115	-0.20630296
172	0x3c9a1c34	0.018812276
173	0xbe03e86f	-0.12881635
174	0xbe2d5934	-0.1692856
175	0x3e030b05	0.12797172
176	0xbdb87a52	-0.09007706
177	0x3d07302f	0.033004936
178	0xbde725b5	-0.11286489
179	0xbe7be384	-0.24598509
180	0xbcae70b5	-0.021293977
181	0xbdd62f3e	-0.104582295
182	0x3c4f5338	0.012654118
183	0xbe5a1a1e	-0.21299025
184	0xbd981bcb	-0.07427176
185	0x3e4454b9	0.19172944
186	0xbc41a866	-0.0118199345
187	0xbe0294c1	-0.12752058
188	0xbe0d31f9	-0.13788594
189	0xbdd32fce	-0.103118524
190	0xbd4317fd	-0.0476303
191	0x3c9f5e47	0.019454135
192	0xbd17aaf2	-0.03702826
193	0xbacf0fc3	-0.0015797544
194	0xbce5dee0	-0.028060377
195	0xbe18e513	-0.14931135
196	0xbde0fe4d	-0.10986004
197	0x3d625925	0.055260796
198	0x3c27c8f5	0.010240783
199	0x3dbd3456	0.09238498
200	0x3e3bbefd	0.18334575
201	0x3d95103f	0.07278489
202	0x3bdb519c	0.006693078
203	0x3cb0adf8	0.02156733
204	0xbc4f091d	-0.01263645
205	0x3d3dc1e0	0.04632747
206	0xbd8e091f	-0.069353335
207	0xbe1478c7	-0.14499198
208	0x3e4667b1	0.19375493
209	0xbdc3ec78	-0.09566587
210	0x3deaef37	0.11471408
211	0x3d5d7c00	0.054073334
212	0x3da47eca	0.080319956
213	0x3ddc02c6	0.107427165
214	0x3e095071	0.13409592
215	0x3dd5eaca	0.10445173
216	0x3e6cbac4	0.2311812
217	0x3d76befc	0.06024073
218	0xbe16f012	-0.14740017
219	0x3e89d779	0.26922205
220	0xbbe8ec10	-0.007108219
221	0xbd6ab6c6	-0.057303213
222	0xbc7c2ed6	-0.015392026
223	0xbd1afd52	-0.03783924
224	0xbd51a74b	-0.051184934
225	0xbc59b4c4	-0.013287727
226	0xbda10cf0	-0.07863796
227	0xbd5e1683	-0.054220688
228	0x3d4fa3d1	0.050693337
229	0xbca89f3c	-0.020583741
230	0x3c9e30a9	0.019310312
231	0x3d9a9a17	0.075489216
232	0xbe34bc35	-0.1764992
233	0x3df51bfb	0.119682275
234	0xbe5c9f3c	-0.21545118
235	0xbd3813b0	-0.04494065
236	0x3db6e216	0.08929841
237	0xbde11790	-0.10990822
238	0xbdd7f6b2	-0.105451
239	0x3e0e12e2	0.1387439
240	0xbe1b0bb6	-0.15141186
241	0xbcbb516b	-0.022865972
242	0xbdb666c1	-0.089063175
243	0xbd4b6999	-0.049661253
244	0xbcaf8d70	-0.021429747
245	0x3c06ba53	0.008223134
246	0xbe355dec	-0.1771161
247	0x3b7353d6	0.0037128828
248	0xbd1eeb30	-0.03879851
249	0xbe006846	-0.12539777
250	0x3d8c7721	0.068586595
251	0xbd1a1111	-0.037613932
252	0xbeaa0733	-0.33208618
253	0x3d841e23	0.064510606
254	0xbd11f38d	-0.03563266
255	0xbdf408c2	-0.11915733

bias_hh_l0 f4 [750]
0	0xbdf9da3e	-0.121998295
1	0xbc271b34	-0.010199357
2	0xbd2cdb2a	-0.0422012
3	0xbce3a249	-0.027787345
4	0xbdbd3a25	-0.09239606
5	0xbe0528d6	-0.13003859
6	0xbdb5db10	-0.088796735
7	0xbaf91770	-0.0019004177
8	0xbdf938f2	-0.121690646
9	0xbdd81015	-0.105499424
10	0x3ca57842	0.020198945
11	0x3e7f635c	0.24940246
12	0xbcd7a5d5	-0.026324192
13	0x3d38d72e	0.045127086
14	0xbe0d0071	-0.137697
15	0xbe1962b0	-0.14979053
16	0x3e9a6d6d	0.3016161
17	0x3e0dfe0e	0.13866445
18	0xbdc9fa87	-0.098622374
19	0xbde6ccff	-0.11269569
20	0x3eae5e7c	0.3405646
21	0xbe42c1c5	-0.1901923
22	0xbdba88c5	-0.09108118
23	0x3d63e179	0.05563495
24	0x3d38a7d6	0.045081936
25	0xbcbca604	-0.023028381
26	0x3db49aae	0.08818565
27	0xbdbead13	-0.09310355
28	0xbe1ea342	-0.15491965
29	0xbca8e955	-0.020619074
30	0xbe467652	-0.19381073
31	0x3e183cb0	0.148669
32	0xbdd7df2a	-0.10540612
33	0x3e00fccd	0.12596436
34	0xbe0d5767	-0.13802873
35	0xbd05c692	-0.032660075
36	0xbe210cc6	-0.15727529
37	0x3d3d38ec	0.046196863
38	0xbde2c572	-0.11072816
39	0x3da8bd07	0.08239179
40	0xbe03f08f	-0.12884735
41	0xbe4c7f10	-0.19970345
42	0x3c91bf4f	0.017791418
43	0xbd4e39cd	-0.050348092
44	0x3d673a6e	0.056452207
45	0xbd81ae28	-0.06332046
46	0xbceda9b8	-0.029011592
47	0xbe0f0160	-0.13965368
48	0xbe000711	-0.12502696
49	0xbea0417f	-0.3129997
50	0x3e14b504	0.14522177
51	0xbd341b80	-0.04397154
52	0x3c966a1f	0.01836115
53	0xbe2069be	-0.15665337
54	0xbd281bf3	-0.04104228
55	0x3ceb18b2	0.0286983
56	0x3e16c5f9	0.14723958
57	0xbd2cbef3	-0.04217429
58	0xbd978407	-0.07398229
59	0xbc84a87e	-0.016193625
60	0xbd8be136	-0.06830065
61	0x3eaed79d	0.34148875
62	0xbd40963a	-0.047018267
63	0x3e1e3eea	0.15453687
64	0xbd483921	-0.048882607
65	0xbe0120b2	-0.12610129
66	0x3e93ded9	0.28880957
67	0xbe5d5fc0	-0.21618557
68	0xbe381647	-0.17977248
69	0x3dc1b0f5	0.0945758
70	0x3dbb5ef5	0.09148971
71	0xbe98969b	-0.29802403
72	0xbe161f99	-0.14660491
73	0x3d443f2e	0.047911815
74	0xbe00da60	-0.12583303
75	0xbca04151	-0.019562395
76	0x3e80689a	0.25079805
77	0x3d182958	0.037148803
78	0xbe47c3bc	-0.1950826
79	0x3c6acefb	0.014331575
80	0xbd3c6ed4	-0.04600413
81	0x3e6a4ed4	0.22881633
82	0xbe2d352d	-0.16914816
83	0x3d807e4a	0.06274088
84	0xbd566883	-0.052345764
85	0xbddd45ea	-0.10804351
86	0xbd88f985	-0.06688217
87	0xbe8006c7	-0.2500517
88	0xbdcac26f	-0.099003665
89	0xbd798bd4	-0.060924366
90	0xbbeca580	-0.0072218776
91	0xbddbd341	-0.10733653
92	0xbcac45d4	-0.02102939
93	0x3e28b8e0	0.16476774
94	0xbd83ba3b	-0.06432005
95	0xbd6d87de	-0.0579909
96	0x3c437006	0.011928564
97	0xbd6893fc	-0.056781754
98	0xbd0d810d	-0.0345469
99	0xbdf738da	-0.120713905
100	0xbdb29d1c	-0.087213725
101	0xbe0132ce	-0.12617037
102	0xbe64c9e2	-0.22342637
103	0xbd9720b4	-0.073792845
104	0xbd039d7c	-0.03213261
105	0x3d3556bf	0.04427218
106	0x3db16eb7	0.08663695
107	0xbda8f8a1	-0.08250547
108	0x3cc951ae	0.02457508
109	0x3ab2bb82	0.0013636204
110	0xbe1e82a3	-0.15479521
111	0xbb5ed4ab	-0.0034001272
112	0xbe00d51e	-0.12581298
113	0xbc8b0b12	-0.016973052
114	0xbdb2e2d1	-0.08734668
115	0xbb8bb419	-0.0042634127
116	0x3c3bb15c	0.01145586
117	0xbd9dc6c9	-0.07703931
118	0xbd9a292e	-0.07527386
119	0xbdab6d23	-0.083704256
120	0x3dc7098e	0.09718619
121	0xbd3a28ee	-0.04544919
122	0x3cba75a5	0.022761175
123	0xbe4a541e	-0.1975865
124	0xbe62b97a	-0.22141066
125	0xbdefc6e6	-0.11707859
126	0x3d283689	0.041067634
127	0xbbc9bbe9	-0.006156434
128	0x3e51e24d	0.20496483
129	0xbdc8ae96	-0.097989246
130	0x3e82e04e	0.25561756
131	0xbe8d533b	-0.27602562
132	0xbc9e771a	-0.019343901
133	0x3dceb9d1	0.100940354
134	0x3da7e259	0.08197469
135	0x3bade7cd	0.005307174
136	0xbd92da5f	-0.07170557
137	0x3d8348e1	0.06410385
138	0xbd826a4a	-0.06367929
139	0xbd4c2b6c	-0.049846098
140	0xbdf4dded	-0.119563915
141	0xbde7dab9	-0.11321015
142	0xbd4d7e1d	-0.0501691
143	0xbd010ed1	-0.03150827
144	0xbdac4ece	-0.08413468
145	0xbe1463d4	-0.14491206
146	0xbe067ea6	-0.1313425
147	0xbe0cb9a7	-0.13742696
148	0xbd0a445f	-0.03375661
149	0x3a108c8e	0.00055141083
150	0xbc93407e	-0.017975088
151	0xbd2516d4	-0.040304974
152	0xbd328478	-0.043583363
153	0xbd5420e2	-0.051789172
154	0x3e83876d	0.2568926
155	0xbe0d62da	-0.1380724
156	0xbdf9ed4b	-0.12203463
157	0x3aa04759	0.0012228295
158	0xbd0f0b2f	-0.034922775
159	0x3cd0a917	0.025471253
160	0xbd24489a	-0.0401083
161	0xbd249424	-0.04018034
162	0x3c90c4b6	0.017671924
163	0x3db6461e	0.089000925
164	0x3d80c0ab	0.062867485
165	0xbcf5eaea	-0.030019242
166	0xbd4abbee	-0.04949563
167	0x3bb313a1	0.0054649864
168	0x3cefb72d	0.02926215
169	0xbe21f1c5	-0.15814884
170	0xbd081a6d	-0.033228327
171	0xbe6ea078	-0.23303401
172	0x3c890114	0.016724147
173	0xbdbe7d8a	-0.093012884
174	0xbe1f882a	-0.15579286
175	0x3e32873c	0.174344
176	0xbdb931aa	-0.09042676
177	0xbbeac238	-0.007164266
178	0xbe11828c	-0.14209956
179	0xbe28cb63	-0.16483836
180	0x3d80ec84	0.06295112
181	0xbe40acf6	-0.1881598
182	0x3cb7f3f3	0.022455191
183	0xbe332553	-0.17494707
184	0xbd74bec0	-0.059752226
185	0x3e397588	0.18111241
186	0x3d9d9d46	0.07696013
187	0xbe213a66	-0.15744933
188	0xbdf8db48	-0.121511996
189	0xbae68367	-0.0017586768
190	0xbd19a329	-0.037509117
191	0xbd7dac1f	-0.061931726
192	0xbc47f634	-0.0122046955
193	0xbc3db6b4	-0.011579204
194	0x3ce2cb5a	0.027684856
195	0xbe07fe9e	-0.13280722
196	0xbe0f4b25	-0.13993509
197	0x3d24e7d4	0.04026015
198	0x3ce10e7f	0.027472733
199	0x3d245f3c	0.040129885
200	0x3e5d062c	0.21584386
201	0x3cc6f0a8	0.024284676
202	0x3c3878d7	0.011259279
203	0x3cd18f6d	0.025581086
204	0xbbb8e483	-0.005642475
205	0x3d930e1f	0.07180428
206	0xbd65af40	-0.056075335
207	0xbe47d0da	-0.19513264
208	0x3e4f1869	0.20224155
209	0xbdc5b52d	-0.09653697
210	0x3dd7db49	0.10539872
211	0x3e147671	0.14498307
212	0x3da1d5c7	0.07902103
213	0x3e29a81d	0.16568036
214	0x3d926235	0.07147638
215	0x3e09ee8c	0.13469905
216	0x3e8846c5	0.26616493
217	0x3e24664e	0.16054651
218	0xbde52046	-0.11187796
219	0x3e5fb802	0.21847537
220	0x3d8b96a1	0.068158396
221	0xbda7457e	-0.081675515
222	0x3d2c2641	0.04202867
223	0x3be121aa	0.006870468
224	0xbce4189c	-0.027843766
225	0x3d0fb83b	0.035087805
226	0xbda1fa38	-0.079090536
227	0x3c85839c	0.016298108
228	0x3d04b471	0.032398645
229	0xbc0f1b98	-0.008734606
230	0x3d7a27e8	0.061073214
231	0x3ca67da9	0.020323591
232	0xbe2c6c32	-0.16838148
233	0x3d03c7ae	0.03217285
234	0xbe11ec8b	-0.1425039
235	0xbd2d23fb	-0.04227064
236	0x3cb3be3d	0.021941299
237	0xbd157e42	-0.036497362
238	0xbde66885	-0.11250404
239	0x3dc91156	0.0981776
240	0xbe0828fb	-0.13296883
241	0x3d0a394f	0.03374606
242	0xbd72e774	-0.059302762
243	0x3b60cb3d	0.0034300827
244	0xbcf974f9	-0.030451285
245	0x3d4bf281	0.049791817
246	0xbe0a8a59	-0.13529338
247	0x3d1317f1	0.035911504
248	0xbda4b196	-0.08041684
249	0xbe473afb	-0.19456093
250	0x3d5cc0a4	0.053894654
251	0xbdaf44a6	-0.085580155
252	0xbea7234b	-0.32644114
253	0x3da27a5f	0.07933497
254	0xbd687cfa	-0.056759812
255	0xbd820526	-0.06348638

weight f4 [1, 250]
0	0xbd061df8	-0.032743424
1	0xbdcf4cf4	-0.101220995
2	0xbdb07fc5	-0.0861812
3	0xbd99538c	-0.074866384
4	0xbdb8412a	-0.08996804
5	0x3ddf02ce	0.10889207
6	0xbe06c4d4	-0.13161021
7	0x3da1fff6	0.07910149
8	0xbd426caa	-0.04746691
9	0x3dacf7f4	0.08445731
10	0xbdb52f05	-0.08846859
11	0xbd90e10e	-0.07074176
12	0xbd8240d8	-0.06360024
13	0xbdb1ef76	-0.08688252
14	0xbd8e31b5	-0.069430746
15	0x3d070815	0.032966692
16	0x3d90da0b	0.070728384
17	0xbdd12790	-0.10212624
18	0xbdd7210e	-0.105043516
19	0xbdd1f901	-0.10252572
20	0x3c4b9a2f	0.012426897
21	0xbd668017	-0.0562745
22	0x3dc08bd1	0.09401668
23	0x3d8890db	0.06668254
24	0x3d3435f9	0.043996785
25	0x3d86b9fc	0.065784425
26	0x3d793dca	0.060849942
27	0x3ddedcef	0.108819835
28	0x3c887827	0.016658856
29	0x3d866fdc	0.06564304
30	0x3d8ae344	0.06781629
31	0x3d5afc7f	0.053463455
32	0xbd879006	-0.06619267
33	0xbb0d60ee	-0.0021572667
34	0x3d299604	0.04140283
35	0x3daf889f	0.0857098
36	0xbdab5c49	-0.08367211
37	0xbb23423f	-0.0024911312
38	0xbddca8a1	-0.10774351
39	0x3d69cfd9	0.057082985
40	0xbc8b3b15	-0.016995946
41	0xbdbb88b6	-0.09156935
42	0x3d95f9d3	0.07323041
43	0x3d9bc0d9	0.07605142
44	0xbd79d9df	-0.060998794
45	0x3d84d660	0.06486201
46	0xbdc09528	-0.09403449
47	0xbdd189cd	-0.102313615
48	0xbd0edbea	-0.034877695
49	0x3e25ca3a	0.16190425
50	0xbd25555e	-0.040364616
51	0xbd66aadc	-0.056315288
52	0x3ddeb104	0.10873607
53	0xbd53d483	-0.05171634
54	0xbdaa0ac5	-0.083028354
55	0xbd8946fa	-0.06702991
56	0xbf7ecd16	-0.99531686
57	0xbd93baf5	-0.072133936
58	0xbd6b88d5	-0.05750354
59	0xbbe9824a	-0.0071261274
60	0x3d803c67	0.06261521
61	0xbd802feb	-0.062591396
62	0x3dcdd804	0.10050967
63	0x3dd90dfe	0.10598372
64	0x3d8b2a4f	0.06795179
65	0xbdb90ec9	-0.09036023
66	0x3c5ca412	0.013466852
67	0xbd1e36ba	-0.03862641
68	0xbd2aa297	-0.041658964
69	0xbda0cf36	-0.07852022
70	0x3c268502	0.0101635475
71	0x3f687df9	0.9081722
72	0x3aa0fd08	0.001228244
73	0xbf6ebf18	-0.93260336
74	0x3dcbcd19	0.09951229
75	0xbd9e543c	-0.0773091
76	0x3d29b34e	0.041430764
77	0xbd6134fa	-0.054982163
78	0x3d92662e	0.071483955
79	0x3d8a6644	0.06757787
80	0xbd3e67f1	-0.046485845
81	0x3f3185b3	0.69344634
82	0x3d82f1a6	0.06393747
83	0xbd686a00	-0.056741714
84	0xbdf9452a	-0.12171395
85	0xbce64d5c	-0.02811306
86	0xbd6949df	-0.056955215
87	0xbd3beea1	-0.04588187
88	0x3da1a338	0.0789246
89	0x3da02a5a	0.07820578
90	0xbcdb4b4b	-0.0267693
91	0x3daed880	0.08537388
92	0xbda8f881	-0.08250523
93	0xbd87b4a7	-0.066262536
94	0x3d92b624	0.07163647
95	0x3dbf4302	0.093389526
96	0xbd9eedde	-0.07760213
97	0xbd9ac2bc	-0.07556674
98	0xbd76ea15	-0.06028183
99	0x3dee4c9b	0.11635705
100	0xbdad0538	-0.08448261
101	0x3da6ad3a	0.08138509
102	0x3db7a7ae	0.08967529
103	0x3da37db3	0.079829596
104	0xbd2ab474	-0.041676
105	0x3dd5bc3e	0.10436295
106	0xbd35200a	-0.044220008
107	0xbdabfc31	-0.08397711
108	0xbbfbb371	-0.007681303
109	0x3d928f00	0.07156181
110	0xbd77fe99	-0.060545538
111	0xbdecad6f	-0.11556517
112	0x3db61bbf	0.08892011
113	0xbdbfd48b	-0.09366711
114	0xbcac15fe	-0.02100658
115	0xbd71b1a8	-0.059007317
116	0xbd7e561b	-0.062093835
117	0x3d984b74	0.074362665
118	0xbde363fe	-0.11103056
119	0xbda81242	-0.082066074
120	0x3d8dcd21	0.06923891
121	0xbde5477d	-0.11195276
122	0x3dc5a78b	0.09651097
123	0x3ce35eda	0.02775519
124	0x3d88aa11	0.066730626
125	0x3dcda13d	0.100405194
126	0xbd5feddb	-0.054670196
127	0x3d50eafa	0.05100534
128	0x3cda8950	0.026676804
129	0x3d85bd32	0.06530227
130	0xbc2a0d1f	-0.010379105
131	0x3db2ff66	0.0874012
132	0xbdccba7e	-0.09996508
133	0xbb48e4c5	-0.0030653935
134	0xbd4cc88a	-0.049995936
135	0x3d5f4ae5	0.054514784
136	0x3dedacd3	0.11605229
137	0x3de8bec4	0.11364511
138	0x3d92fd5d	0.071772315
139	0xbb9ad486	-0.004725042
140	0x3df02bf2	0.11727132
141	0x3d53ba87	0.05169156
142	0x3e2f32b7	0.1710919
143	0x3de7a606	0.11310963
144	0xbde3555c	-0.111002654
145	0xbd5460a8	-0.05184999
146	0xbdcf2cfc	-0.10116002
147	0xbd569bbc	-0.052394614
148	0xbd08caf1	-0.033396665
149	0xbda2c3ac	-0.07947478
150	0x3dbe9f6b	0.0930775
151	0x3daa19f5	0.08305732
152	0x3dad64a2	0.0846646
153	0x3d938556	0.07203166
154	0x3d397a32	0.04528255
155	0x3d3400c5	0.043946046
156	0xbd744722	-0.05963815
157	0xbddd79ad	-0.108142234
158	0xbde6c831	-0.11268652
159	0xbd9879c1	-0.07445098
160	0xbd8256c9	-0.06364209
161	0xbd46a52c	-0.048497364
162	0xbdb19981	-0.08671857
163	0xbde58346	-0.11206679
164	0x3d1398de	0.036034457
165	0x3d79ddc5	0.06100251
166	0x3d9a7014	0.075409085
167	0x3c97f234	0.018548109
168	0xbda99b70	-0.082816005
169	0xbd311066	-0.04322853
170	0xbcb9703d	-0.022636527
171	0x3da4393b	0.08018728
172	0xbdda86a9	-0.10670216
173	0xbdbb146a	-0.09134753
174	0x3db88d27	0.09011298
175	0xbd58d691	-0.052939
176	0xbd4bff3c	-0.049803957
177	0x3d7a846c	0.061161444
178	0xbd8c45e1	-0.06849266
179	0x3d6ca484	0.05777408
180	0x3d840219	0.064457126
181	0xbd33115b	-0.043717723
182	0x3d4ccbcd	0.049999047
183	0xbf36e46a	-0.7144228
184	0x3c62933c	0.013829049
185	0xbda64bbe	-0.081199154
186	0xbd9d7068	-0.076874554
187	0xbdcd2a67	-0.10017853
188	0x3e13b8ab	0.14425914
189	0xbd58aef4	-0.052901223
190	0xbd43f7be	-0.047843687
191	0xbd49c0d4	-0.04925616
192	0x3cf5c1e7	0.029999686
193	0x3c82bea7	0.01596005
194	0xbdf1f7dd	-0.11814854
195	0xbd9a8824	-0.07545498
196	0xbd85e950	-0.065386415
197	0xbd5b8a51	-0.053598706
198	0x3c2813de	0.010258643
199	0xbd42b11c	-0.047532186
200	0x3ec67dcc	0.3876785
201	0xbd7e7ce6	-0.06213083
202	0x3f686f79	0.90795094
203	0xbd303a53	-0.043024372
204	0x3de0f296	0.109837696
205	0x3bec0778	0.007203039
206	0x3dab0bec	0.08351883
207	0xbdc26ba5	-0.09493188
208	0xbf25e9c1	-0.64809805
209	0x3d8d8deb	0.06911834
210	0x3de93ba1	0.113883264
211	0xbd964843	-0.073380016
212	0xbd90c6b7	-0.07069152
213	0x3d35638d	0.044284392
214	0xbd9f5d48	-0.07781464
215	0x3dabcca6	0.08388643
216	0xbf17d558	-0.5930991
217	0xbcc0a0d3	-0.023514187
218	0xbd95fbc6	-0.073234126
219	0x3f856276	1.0420673
220	0x3d443966	0.047906302
221	0x3d7ad7ae	0.061240844
222	0xbd8b58ad	-0.06804023
223	0x3d63f76e	0.05565589
224	0x3dd0b441	0.10190631
225	0xbd86bfc4	-0.06579545
226	0xbd8600a2	-0.065430894
227	0xbdd6c638	-0.10487026
228	0xbda105ca	-0.07862432
229	0x3da0a496	0.07843892
230	0x3dc9a826	0.09846525
231	0xbd8a87e9	-0.06764204
232	0xbcbab933	-0.022793388
233	0xbd8df5d7	-0.06931656
234	0x3d1b3f9f	0.03790247
235	0xbca0e9ac	-0.019642673
236	0x3dab52f0	0.083654284
237	0x3cddab31	0.02705917
238	0xbd7d417d	-0.061830033
239	0x3d81a60b	0.06330498
240	0xbd3c79ff	-0.046014782
241	0x3c07a456	0.008278927
242	0xbd21559b	-0.03938828
243	0xbde61b80	-0.11235714
244	0xbd4eaa77	-0.050455537
245	0xbd5c2d8c	-0.053754374
246	0x3d7497a3	0.059714925
247	0x3db9bd54	0.090693146
248	0xbc87ed37	-0.016592605
249	0xbe312185	-0.17297943
