model/GRU-000666.pth (torch, 790039 bytes, 5 tensors)

weight_ih_l0 f4 [750, 10]
000000 fc 47 27 be b9 45 76 3c 09 4f 80 3c 16 c0 cc 3d
       -0.16336054 0.015031272 0.015662687 0.09997575
000010 e8 74 08 bc 4b 4b 35 bd 59 38 d9 bd e4 55 3f 3d
       -0.008328654 -0.044261258 -0.106064506 0.04671277
000020 dc 2f 84 3d cd ba 46 be 21 b2 fb 3d a5 0c ea bc
       0.06454441 -0.19407196 0.12289835 -0.028570483
000030 d1 c6 b0 bb 7c 72 e6 3c 57 cf 03 bc d2 46 86 be
       -0.0053947945 0.028130762 -0.008045039 -0.26225907
000040 3a 09 85 be 74 0e 24 3e e4 71 65 3e d4 13 db bd
       -0.25983602 0.16021138 0.22406727 -0.10697141
000050 0a 99 0e be d3 0f 97 bd 9a c5 b2 bd 8e ec fb 3b
       -0.13925567 -0.07376065 -0.08729096 0.0076881116
000060 40 60 a3 bc c1 d5 0d bd 51 0e 69 bd 2b e1 a4 3d
       -0.019943357 -0.03462768 -0.05689842 0.0805076
000070 d0 5b a7 3c 1a 0c 13 3c 6d d2 cf bc e0 45 a2 bd
       0.020429522 0.008975053 -0.025368894 -0.07923484
000080 44 f6 a6 bd da 2e c7 bd 2f 96 bb bd 94 c6 ed 3d
       -0.0815244 -0.09725733 -0.091595046 0.116101414
000090 62 b5 d2 3c 53 08 67 bd 01 59 ce bd 9c 46 79 3d
       0.025721256 -0.056404423 -0.1007557 0.060858354
0000a0 39 c7 6e bd e0 8b 6b 3d c0 9b ac bc 09 0b 90 3d
       -0.058295462 0.057506442 -0.021070361 0.07033355
0000b0 27 66 96 3d ec 0e 80 be 55 8f 27 be 13 bb 32 3e
       0.07343703 -0.25011384 -0.1636327 0.17454176
0000c0 0b c4 50 3e 49 c4 83 bd 6a 97 4c 3d 12 02 fe 3d
       0.20387284 -0.06433923 0.049949087 0.12402739
0000d0 09 48 34 3e 0f b8 1f 3e 18 09 2e 3e f0 88 97 bd
       0.17605604 0.15597557 0.16995656 -0.07399166
0000e0 23 30 db bd 7b 8e 5e 3e 51 1d 43 3e dd 10 44 be
       -0.10702541 0.2173404 0.19054152 -0.19147058
0000f0 c1 56 b2 be c0 65 7e bc 93 5d 94 bd 9e 33 8a bd
       -0.34831813 -0.015527189 -0.0724441 -0.067481264
000100 d6 ef cc bd de 88 33 3c 30 a5 c2 bd b9 f9 02 3e
       -0.100066826 0.010957925 -0.09504163 0.12790574
000110 8c 38 69 3e 4e 8d 5c bd 32 ba e0 bd b9 47 cc 3d
       0.22775477 -0.053845696 -0.10973014 0.099746175
000120 4d ff e0 3d d3 93 c5 3d fb 9f fd 3d fc 17 2c be
       0.10986195 0.09647336 0.123840295 -0.16806024
000130 85 be 05 be 03 2b 8d 3d 9e 73 09 bb 07 76 24 be
       -0.13060959 0.068929695 -0.0020973454 -0.16060649
000140 e1 7c 0c 3d 19 fc 94 bd 5b ff aa bd 81 38 cd bd
       0.03429878 -0.07274646 -0.083494864 -0.10020543
000150 f0 a6 98 bd b5 f3 c3 3d c8 0c 92 3c 73 15 30 bd
       -0.07453716 0.09567968 0.01782836 -0.042989206
000160 44 3f fa bc 53 13 1f 3d f2 fc 69 3e 63 56 c5 3e
       -0.030547746 0.03883679 0.22850397 0.3854247
000170 fe c0 be 3e a0 1f a5 3e bb fe 8f 3e 30 9b 6a 39
       0.37256616 0.3225069 0.2812403 0.00022373791
000180 e7 63 17 bb 26 df 88 bc fc c8 85 3d b6 f1 3d be
       -0.0023100318 -0.016707968 0.06532475 -0.18549237
000190 8b 01 25 3c 97 4f 50 3d dc ff be 3a a9 fd 9a 3d
       0.010071169 0.050857153 0.0014572102 0.07567913
0001a0 9a ab 92 3d 99 2a 04 be 03 fd 21 be 32 d4 35 3e
       0.07161637 -0.12906875 -0.15819173 0.17756727
0001b0 9d 69 4c 3e b1 3d 81 ba 1b af e4 3c 13 6e 94 3c
       0.19962163 -0.0009860304 0.027915528 0.018118894
0001c0 cb 49 5f 3d 1b 7b 98 3d 51 c5 3a 3d 74 71 b8 3d
       0.054513734 0.074453555 0.04559833 0.090060145
0001d0 17 45 39 3e 49 82 8f bc f6 0b 07 3d 52 f3 0a 3c
       0.18092762 -0.01751818 0.03297039 0.008480864
0001e0 b1 d7 68 3d 76 df 17 bd 44 16 a0 bd 6c 8f 8c bd
       0.056846324 -0.037078343 -0.07816747 -0.06863293
0001f0 f4 cd 07 bd ba 09 09 3e 64 3a f2 3c 46 cc de bc
       -0.033155397 0.13382617 0.029568858 -0.027197015
000200 3b 59 04 39 a7 7b b2 bd ba f8 d2 bd 9f af c5 bd
       0.00012621742 -0.08714991 -0.10301347 -0.09652638
000210 e4 f5 50 be 9d e7 0a be d4 4e 41 be cf f4 c3 bd
       -0.204063 -0.13564916 -0.18877727 -0.09568178
000220 1c 72 33 be 78 7e be 3d e4 76 0f 3d 7b 7c 1e be
       -0.17523998 0.09301466 0.035025492 -0.15477173
000230 5f 0a c7 bc 2e 54 9d 3d 93 19 84 3d 21 fc da 3c
       -0.024296938 0.076820716 0.064501904 0.026731553
000240 c9 ad 8c 3d 90 b5 b5 3d db 44 f2 3c 9a ea dd bd
       0.068690844 0.08872521 0.029573848 -0.10835762
000250 13 59 32 bd 4b 7b 2a 3d 6a e8 86 be 82 a5 76 bc
       -0.04354198 0.041621488 -0.26349193 -0.015054109
000260 28 cb 5b bc d1 e2 b4 bc b3 84 4b 3d 1a f2 2e be
       -0.013415135 -0.02208081 0.0496871 -0.17084542
000270 53 2d 38 be 12 d7 37 3e 4e 08 83 3e 78 c5 4d be
       -0.1798604 0.17953137 0.25592273 -0.2009486
000280 a3 df 04 3d e3 74 18 bd e2 90 8b bd 57 ec 67 bd
       0.03243984 -0.037220847 -0.068147436 -0.056621876
000290 5d a1 35 3d bf de 94 3d f1 9d 95 bd 32 da a3 3d
       0.04434334 0.07269048 -0.073055156 0.08000602
0002a0 d3 eb a3 3d db 33 99 bd 39 6f 97 bd 6e 4f 00 3c
       0.08003964 -0.07480594 -0.07394261 0.0078314375
0002b0 96 f9 a2 3d 56 34 aa 3d 1c 7e 9d 3d 86 06 1a 3d
       0.07957761 0.083107635 0.07690069 0.037603877
0002c0 99 0b eb 3d 32 d1 99 bc 9e 14 08 be dc 3d 9a be
       0.114768215 -0.01877651 -0.13289115 -0.3012532
0002d0 72 a6 20 be fd 01 06 3d 62 a9 50 bc 2e b3 5e 3d
       -0.15688494 0.03271674 -0.0127356965 0.054370098
0002e0 d5 4c f0 bb 4d fb 85 3c b2 a9 ab bd 4a d6 50 3d
       -0.007333378 0.016355181 -0.08381976 0.050985612
0002f0 57 ee 97 bc 09 1b 66 bd f1 9a f0 bd 51 22 c1 bd
       -0.018546266 -0.056178126 -0.11748303 -0.094303735
000300 96 af fa bc 07 d9 32 bd 78 0c 08 bd 67 b8 0c 3c
       -0.030601304 -0.043664005 -0.033215016 0.008588887
000310 53 6e 27 3d 2c d6 08 3d e8 fd e6 ba 52 1b c9 3b
       0.040876698 0.033407375 -0.0017623277 0.00613729
000320 73 8b af 3d ea 26 8e 3d 88 a3 1c 3e f3 9a 01 3e
       0.0857152 0.06941016 0.15296757 0.12656765
000330 60 61 ae 3d e0 e2 61 bc 4d 0a 1b 3d 01 52 9c bc
       0.085146666 -0.013787001 0.03785162 -0.019082071
000340 97 78 e4 bc ab 90 dd 3c 80 9b 6f 3e 23 47 a1 bb
       -0.027889533 0.027046522 0.23399162 -0.0049218102
000350 64 2b d4 3c 65 81 1e 3d bc 81 2a 3d d3 f8 91 3d
       0.025899597 0.03869762 0.04162763 0.071275376
000360 ff b1 8d bd 27 b8 3e bd b8 57 a8 bc 60 c5 6b 3b
       -0.06918716 -0.04656234 -0.02054964 0.00359758
000370 e9 82 91 3d 1e 42 04 be 33 f6 57 be 63 3c 4f be
       0.07105047 -0.12915847 -0.21090011 -0.2023788
000380 8e cf 20 be 84 47 28 3d 60 01 c9 3d 7c d7 de bd
       -0.15704176 0.041083828 0.098147154 -0.10880944
000390 8c b3 9b bd 60 90 89 bc 53 56 84 3d c0 95 cf 3c
       -0.07602605 -0.016792476 0.064617775 0.025339961
0003a0 79 56 7c bd 85 6d 13 3d 35 30 1a 3d 7f 58 d5 bd
       -0.061605904 0.035993118 0.03764363 -0.1041727
0003b0 b9 05 03 be e0 1a 11 3e 51 79 10 3e af 34 5c bd
       -0.12795152 0.14170408 0.14108779 -0.05376118
0003c0 b6 5d 55 bc d9 95 1b 3e b4 ac 49 3e cb 28 45 3e
       -0.013022831 0.15193881 0.19694787 0.19253843
0003d0 6f 9f dd 3d 61 8b 64 be 1e 1c e0 bd d8 df 51 bd
       0.10821425 -0.22318794 -0.10942863 -0.051238865
0003e0 b3 6c 77 3d 04 5d 81 bd 9b 67 4b be a0 88 49 3d
       0.060406398 -0.063165694 -0.19863741 0.04920256
0003f0 b5 af 0f 3d 14 e3 6d bb 1c 6d cc 3d bb 70 57 be
       0.035079677 -0.003629868 0.099817485 -0.21039097

weight_hh_l0 f4 [750, 250]
000000 04 98 14 bd fc aa 4d 3c aa 77 3d be 7a 66 35 bd
       -0.036277786 0.012552973 -0.1850268 -0.044287182
000010 64 5d 90 3a f5 25 00 bb 0b 4c 5e 3d 7a 29 d8 3d
       0.0011014161 -0.0019553874 0.05427174 0.10554786
000020 f6 f6 e7 3d 9d 94 71 bd f4 b4 2e 3b b5 b6 34 bd
       0.11326401 -0.05897962 0.002665815 -0.044119556
000030 23 79 4d 3d 37 e8 f0 bd 0b 4b 84 3d 86 ae 6f bc
       0.050164353 -0.117630415 0.06459626 -0.014629012
000040 a7 7d bd bd da 55 71 bd 81 5c 0d 3e 61 dd 52 3d
       -0.09252482 -0.058919765 0.13804819 0.051480655
000050 71 bc 25 bd 10 68 da bc cb dd 37 bd ef d5 87 bd
       -0.040462915 -0.026660949 -0.044889253 -0.066326015
000060 9a 92 38 3d 7c f0 51 bd 68 30 a7 bc 89 3a 93 bd
       0.045061685 -0.051254734 -0.020408824 -0.07188899
000070 43 3e 7f 3e 5d 8a 15 be fe ae 3d be e0 0a cc bd
       0.24926095 -0.14603563 -0.18523785 -0.09963012
000080 87 43 8c 3d 4b 22 6f bd 7b 74 c5 bd 5b 2f b9 bc
       0.06848817 -0.058382314 -0.096413575 -0.022605589
000090 4a c0 e4 3d cd 42 f1 bc ca 0a 0e be 8a 7a bc bd
       0.11169489 -0.029450798 -0.13871303 -0.0920306
0000a0 a3 a4 1c bd 12 0b 02 3e 7c 0f 88 be 9d 73 75 bc
       -0.038242947 0.12699535 -0.26574314 -0.014981178
0000b0 c3 ac 95 3d 07 68 ee 3d ca 15 f6 3d 97 57 4a bc
       0.07308342 0.116409354 0.12015875 -0.012349985
0000c0 cf 8d 0d be 0e b5 51 be cc 33 01 bd ea c7 7a bd
       -0.13823627 -0.20479223 -0.031543538 -0.06122581
0000d0 76 33 76 3c 97 11 90 bd c8 d9 25 be 74 22 84 bc
       0.015026918 -0.07034605 -0.16196358 -0.01612971
0000e0 7b 70 17 be 14 fd 60 3e 01 5c da bc fd 1c f4 bc
       -0.14789002 0.21971542 -0.026655199 -0.029798979
0000f0 c5 fd 47 bd b0 23 61 3d d8 e7 19 be 99 2d c9 3d
       -0.048825998 0.054965675 -0.15029848 0.0982315
000100 96 c0 60 3e 78 bb b7 3d 10 57 61 bc 78 36 45 be
       0.21948466 0.08971304 -0.0137536675 -0.1925906
000110 d5 47 2b bd f9 cf e7 3d b5 5b 3a 3d a2 82 98 3c
       -0.04181655 0.113189645 0.045497615 0.018616978
000120 25 80 f5 3d d7 d9 13 bd cf c0 a0 3c 0e f3 30 bd
       0.11987332 -0.03609642 0.019623188 -0.043200545
000130 48 74 77 bd 77 83 31 3c 96 a7 6f bd fc 4d 84 bd
       -0.06041363 0.010834566 -0.05850943 -0.06460187
000140 0a 3a 9b bd 6f 46 43 be 76 14 72 3d fe 70 6a be
       -0.075794294 -0.19069837 0.059101544 -0.22894666
000150 6b d7 a8 3d 05 77 d3 3d 39 b3 fc 3c ce dd 8f be
       0.08244213 0.103254355 0.030847179 -0.2809891
000160 23 af fd 3c 2d 71 40 be fc 5d fe bd 16 72 0d bd
       0.0309673 -0.18793173 -0.1242027 -0.03453263
000170 48 7e a0 3d 94 46 95 3d 02 31 16 3d f3 c1 fe bd
       0.07836586 0.07288852 0.03666783 -0.12439337
000180 5c 2a f0 bd e6 aa 51 bc 2d 2c ca bc 3f 3f 34 be
       -0.117268294 -0.012797093 -0.024679268 -0.17602251
000190 30 9e 2a 3c c0 37 a0 bd 50 33 ad 3b 58 cf c7 3d
       0.010413691 -0.078231335 0.005285658 0.097563446
0001a0 d9 89 74 3d 4b 88 a1 bd 78 d4 65 be 5d b4 69 bd
       0.059701774 -0.07887324 -0.22444332 -0.057056773
0001b0 e0 ee 88 bd 83 67 1b bd 3e db 44 3e 19 fe 1e 3b
       -0.06686187 -0.037940513 0.1922426 0.002426034
0001c0 75 49 23 3b 7c 11 04 be 3f 70 05 bd d1 9b b7 3d
       0.002491561 -0.12897295 -0.03257775 0.089652665
0001d0 9f 98 86 bd 55 53 48 bd a5 61 6d bc e6 92 1f bd
       -0.06572079 -0.048907597 -0.014488612 -0.038958453
0001e0 4b 85 c4 3c dc 1d d8 3b c7 b1 f9 bd bc 83 e1 3d
       0.02398934 0.0065953564 -0.121921115 0.110114545
0001f0 30 9d c4 bd 67 87 2d be 59 5f fb bb 5d ac f7 bd
       -0.09600294 -0.16946183 -0.0076712784 -0.120934226
000200 00 ce ea bb 77 c2 d2 bd d2 12 5d 3e da e8 f5 3d
       -0.0071656704 -0.102909975 0.2158921 0.120073035
000210 c9 6e f9 3d 19 c0 c0 bd ce 00 c0 bc c9 99 30 3d
       0.12179334 -0.0941164 -0.023437884 0.04311541
000220 3a fd 01 be 99 e9 0e be 09 b7 ce 3d 88 35 ce 3c
       -0.12694255 -0.13956298 0.10093505 0.02517201
000230 1d 27 c3 39 72 c9 9d bc 49 02 e7 3d 41 6a 4b bd
       0.0003722244 -0.019261096 0.11279733 -0.04966188
000240 3d ea 80 3b 92 8d 49 3d e3 59 ce bd 2a ca 68 3d
       0.0039341734 0.049207278 -0.10075738 0.056833424
000250 39 7c 54 3d 74 92 3a bc 47 93 b9 3d 30 ea 0d 3d
       0.05187628 -0.011387456 0.09061294 0.034647167
000260 e6 76 d8 b9 01 0b 03 be 3e e8 45 3e c1 fd 6a be
       -0.00041287317 -0.12797166 0.19326875 -0.22948362
000270 88 f9 96 3d 39 82 61 bd 3e 31 3e 3e 65 ca 43 3d
       0.07371813 -0.05505583 0.18573472 0.04780044
000280 07 f9 31 3d 54 c5 83 3d 62 8e 48 be a6 e1 d7 bd
       0.04345038 0.06434122 -0.19585565 -0.10541086
000290 69 52 dd 3b 33 91 6b 3d 4e 39 d1 3b 9e 87 06 3e
       0.006754209 0.05751152 0.006385005 0.13137671
0002a0 47 a7 61 3e e2 5f d4 bc 48 40 62 bc a5 fe 7b bc
       0.22036467 -0.025924627 -0.013809271 -0.015380536
0002b0 fa 73 55 bc d1 63 f9 bd f8 2e 33 3e 97 cd 56 3c
       -0.013028139 -0.121772416 0.17498386 0.01311054
0002c0 5b 00 9e bd 37 4d 4c be 9e 39 6c bd 00 ce 0f bc
       -0.077149116 -0.1995133 -0.057672136 -0.008777142
0002d0 64 75 e0 bc 33 63 20 3e e7 71 0e bd 8e 96 2a bd
       -0.027399726 0.15662841 -0.034776594 -0.041647486
0002e0 62 ab e3 3d c3 95 98 3d 61 63 d5 3d 13 09 89 3c
       0.11116673 0.0745044 0.10419346 0.01672796
0002f0 73 0b 4a be 25 8f 49 3e 06 16 14 bd 53 3c ea 3d
       -0.1973093 0.19683512 -0.036153816 0.11437287
000300 6c f7 5f bd 24 a4 3a be a4 72 e6 bd cb c9 c3 be
       -0.05467932 -0.18226677 -0.11252335 -0.38239893
000310 0f 38 0e 3e 72 2d 9e bc 47 e3 00 3e 62 fc 39 3b
       0.13888572 -0.01930878 0.125867 0.0028379192
000320 18 3e 56 3e 1c 89 21 bd 3b 3b 13 bd d4 2d 88 bd
       0.20922124 -0.0394374 -0.03594516 -0.06649366
000330 63 cf 8e 3d 40 6f 04 bd b9 84 a0 bd 49 a4 0b 3e
       0.069731496 -0.03233266 -0.07837815 0.13636889
000340 03 ef 20 be 01 25 cf bd 45 9d ed bc 06 a7 b8 3c
       -0.15716176 -0.1011448 -0.029005656 0.02254058
000350 84 cd d8 3d 23 4a 8b bd 25 75 91 3d 91 9d a8 bd
       0.10586074 -0.0680125 0.07102422 -0.082331784
000360 ad 3d 66 3d 10 eb 76 3c 9e 0d c3 bd 80 d2 30 3d
       0.056211162 0.015070692 -0.09524082 0.0431695
000370 6e 2a 99 3c 88 fd 80 3e 73 2a 59 3e 16 4d c4 3d
       0.01869699 0.2519343 0.212076 0.095850155
000380 30 e2 6d 3d 2d eb dc 3c fb df dd bc f6 84 cf 3c
       0.058077037 0.02696761 -0.027084341 0.025331955
000390 3f d6 a6 3d 2b e4 ec bb 56 97 cc 3d 6b fe 69 bc
       0.08146333 -0.007229348 0.099898025 -0.014281849
0003a0 63 d6 ac bd 1d 30 b2 3d 34 e4 2a 3c c4 9c 9e 3c
       -0.084393285 0.08700583 0.010430384 0.019361861
0003b0 bf 38 98 3b 61 80 26 3d 63 c4 ad 3d e5 b4 9a bd
       0.0046454365 0.040649775 0.084847234 -0.07554034
0003c0 d2 bc 4b 3e 88 5d 32 3e 26 c2 17 be c5 d4 2b be
       0.19896248 0.17418492 -0.14820156 -0.16780384
0003d0 34 ad 10 be 67 8a c0 bd e2 23 a0 3d 79 51 89 bd
       -0.14128572 -0.09401398 0.07819344 -0.06704993
0003e0 46 9c 55 be cd 7e 98 3c ac 83 7d 3d bb f1 11 3e
       -0.20860395 0.01861515 0.06189315 0.14252369
0003f0 f4 92 49 3e 34 77 04 bd e6 3c 59 3d dd 21 2d 3e
       0.19684964 -0.032340243 0.053036593 0.16907449

bias_ih_l0 f4 [750]
000000 ea 47 f7 bd e8 d8 73 be 66 31 30 ba d6 82 b8 3d
       -0.120742634 -0.23813212 -0.0006721228 0.0900933
000010 69 20 fc bd 6a 38 10 be 8c 9e ba bd cd 85 60 bd
       -0.12310869 -0.1408402 -0.09112272 -0.054815102
000020 cb c3 f5 3b 27 dd 2b bc 40 59 5c be 8c 3a b5 3d
       0.007500147 -0.010489739 -0.21518421 0.088490576
000030 8b 67 d1 3a 2f 5f b6 bd 1b ea b4 3d 6a 2f 7a be
       0.0015976293 -0.089048736 0.088337146 -0.2443215
000040 00 c8 a6 bd 58 d3 0a 3e bb e0 f2 bb ed 98 7f bd
       -0.08143616 0.13557184 -0.007412044 -0.0624017
000050 2b 9b 93 3b e2 88 4b bd ca a5 aa 3d da 86 89 bd
       0.0045045814 -0.04969109 0.08332403 -0.06715174
000060 a3 1a cd 3b 1f e0 ef bd 9a dc d8 3a 5d 2b 9b bd
       0.006259279 -0.117126696 0.0016545237 -0.0757663
000070 11 e8 c9 3d 7f 69 0a 3e 73 1d df 3d 10 1b 32 3d
       0.09858716 0.13516806 0.10894289 0.04348284
000080 d7 e1 85 bc ed a9 9d 3e d3 af 51 3d bb 64 eb 3e
       -0.01634304 0.30793706 0.05119307 0.4597529
000090 59 ea 08 3d e7 8e d2 3e a9 27 98 be c7 b3 04 be
       0.033426616 0.4112465 -0.29717758 -0.12959205
0000a0 cc f4 da 3b 81 99 0a be 3d c3 01 3e 21 f2 31 3e
       0.006682014 -0.1353512 0.12672134 0.17377521
0000b0 d7 b2 52 3c 75 19 43 be 1a 4b 59 3e 78 e7 0a be
       0.012860022 -0.1905268 0.21220055 -0.13564861
0000c0 5d 03 86 3d 23 ad a5 3d 25 13 de bd b0 50 90 3d
       0.0654361 0.08089664 -0.10843495 0.0704664
0000d0 44 20 ed bb 58 da 58 3c 44 4a 30 be dc 56 ad bd
       -0.0072365124 0.013235651 -0.1721583 -0.08463833
0000e0 81 4c 5c be 97 23 d6 3d 0c 8d 50 bd e4 d3 6c be
       -0.21513559 0.10456007 -0.050915763 -0.23127705
0000f0 05 9a 44 bd f7 41 3b bd 11 cb 69 bd 8b 5c cd 3b
       -0.047998447 -0.045717206 -0.057078425 0.0062671355
000100 61 26 78 bd ad 2f 8e 3e 03 4d a0 bd a8 16 fd bc
       -0.060583476 0.2777075 -0.07827189 -0.030894592
000110 7c 7e eb bd 4f 13 e3 3c fe 9a 2d 3e ed 6e 11 be
       -0.11498734 0.027719168 0.16953656 -0.14202471
000120 01 af 6e 3e 55 e3 b1 3d 13 3c b9 bd 3c 83 5c bd
       0.23308946 0.08685938 -0.090446614 -0.053836092
000130 ea e4 69 3d c4 93 7f be 70 bd 39 3b cc 87 96 3e
       0.057103075 -0.24958712 0.0028341673 0.2940048
000140 fc 54 0b be ff 92 32 bd 9c c8 e9 bc 1b 4a 01 be
       -0.13606638 -0.043597218 -0.02853804 -0.12625925
000150 8d a4 36 be a5 1d bd bd f9 a2 a5 3d 0a 10 d5 bd
       -0.17836209 -0.0923417 0.08087725 -0.1040345
000160 39 8f 9e bd d1 76 ea bd 61 c7 31 be 0a f7 ba 3e
       -0.07742161 -0.11448444 -0.17361213 0.365166
000170 98 c4 9e bd 61 d0 cd bd 20 21 38 3c 65 09 1b 3d
       -0.07752341 -0.10049511 0.011238366 0.037850756
000180 97 ad 7b be 2e 7b 96 3b b7 2e 62 3d 96 66 15 3e
       -0.24577938 0.004592321 0.055220332 0.14589915
000190 c5 82 ce bd 90 c6 8b be 03 68 6b 3d b6 da 90 3d
       -0.10083536 -0.2729993 0.05747224 0.07072966
0001a0 39 8b 99 bd 1d 68 32 bc cb 7c bb bc 9e 34 21 bd
       -0.07497258 -0.01088908 -0.022886654 -0.03935682
0001b0 cd dc 42 3e cb 9c 07 3d f9 ad 75 3c 1b f9 a4 bd
       0.19029541 0.033108514 0.014995092 -0.080553256
0001c0 e9 6a 3d 3c 74 e0 df bd 6c e7 a2 bd 63 d7 77 3e
       0.011561134 -0.10931483 -0.079542965 0.24203257
0001d0 52 b8 a4 3d 1b 0a d0 3d f2 66 98 3d 17 bf 22 be
       0.08042969 0.101581775 0.0744151 -0.15893207
0001e0 56 98 27 be ec 9f c1 3b 1d f1 20 3d 98 bb 85 3e
       -0.16366705 0.0059089568 0.039292444 0.26119685
0001f0 43 10 94 3d 31 5c 17 3d fd 81 7c bd cb e8 07 3e
       0.07229664 0.036953155 -0.061647404 0.13272397
000200 71 af 2e bd cc dc 27 3e 1f 24 3a bd db 0b 84 3e
       -0.042647783 0.16392821 -0.045444604 0.25790295
000210 18 57 c5 3b aa 46 d5 3d 76 57 14 be e1 4c 03 bd
       0.0060223453 0.10413869 -0.14486489 -0.03205574
000220 84 57 8f be b9 a0 3f 3c 28 34 d9 3d a6 a5 46 3c
       -0.27996457 0.011696034 0.10605651 0.012124455
000230 6e ac 40 bd 87 4f 91 be f0 a5 5e 3d d7 bd 35 3e
       -0.04703944 -0.28380987 0.05435747 0.177482
000240 b6 70 83 3d 5f c1 cb bd e9 86 f8 3d 7e ef de 3b
       0.06417982 -0.09948992 0.12135107 0.006803452
000250 c0 3c 7c be 95 ca 16 bd f9 79 ce 3a a5 2f fe 3d
       -0.2463255 -0.03681429 0.0015752903 0.12411431
000260 4f ac 2a 3d 7c f4 4e 3e 9a d0 af bd 8c 58 7d bd
       0.041668233 0.20210451 -0.085847095 -0.061852023
000270 62 0f 93 bd 6c 30 5d 3d cd f9 c8 3d 9f 1c 88 3e
       -0.071806684 0.054001257 0.09813271 0.26584336
000280 38 99 2e be 47 ca ca 3d 48 03 cb 3d c3 c2 9c bd
       -0.17050636 0.099018626 0.09912735 -0.07654335
000290 c7 2f 05 3d e8 fc 41 be 28 d9 55 3e 7f a3 1d 3d
       0.032516267 -0.18944132 0.2088362 0.038486
0002a0 eb 76 ec bc 72 15 39 bd 75 ff 23 bb f0 ba 0f be
       -0.028865298 -0.045186467 -0.002502409 -0.14036155
0002b0 14 75 1a be 83 56 ff bd 94 57 c0 bd e2 51 8c be
       -0.15083724 -0.12467673 -0.09391704 -0.27406222
0002c0 84 81 a6 3d 7b fe b0 3d cb 3e 63 be f5 2a ad 3e
       0.08130172 0.08642288 -0.22191922 0.33821836
0002d0 ec 6e 09 3e e0 b6 09 be ab 6c e7 bd eb 55 f9 3c
       0.1342122 -0.13448668 -0.11300024 0.030436477
0002e0 c4 7e ed 3b a9 38 6b 3d c4 d4 79 bd ee d3 e9 bc
       0.0072477777 0.057427082 -0.060993925 -0.028543439
0002f0 cc fa 7a 3a 03 46 58 3e b4 21 87 3d d8 a1 90 ba
       0.0009574115 0.21120457 0.06598225 -0.0011034561
000300 a6 cc 03 3e 45 8a bb 3c 39 8a 06 be fb c3 36 3d
       0.12871036 0.02289308 -0.13138665 0.044620495
000310 ea 24 77 bd b9 53 70 bd cd 19 0e 3e 46 ca 51 bd
       -0.06033794 -0.058673594 0.1387703 -0.051218294
000320 7e c5 40 bc 6e 5b 03 be 7e 2c ba 3d ef a0 2b bd
       -0.011765836 -0.12827846 0.090905175 -0.041901525
000330 10 3e f4 bd 8e 25 bf 39 29 a1 63 3d 36 63 5c bd
       -0.119259 0.0003645834 0.055573616 -0.053805552
000340 24 39 89 3d dd 21 9e bc 59 3f 0f 3e 5e 35 5a 3b
       0.06700352 -0.019303257 0.13989009 0.003329597
000350 54 15 66 bc 78 e5 42 bd c4 65 b8 bd 1a cb 88 3e
       -0.014043171 -0.04758212 -0.09003785 0.26717454
000360 28 a2 48 3e 27 45 df bd 92 09 3a be 9c b0 99 bd
       0.19593108 -0.10901862 -0.18167713 -0.07504389
000370 12 b6 96 bd 45 a8 65 3d 54 e9 40 bd 0d 58 2b be
       -0.07358946 0.056068677 -0.04709752 -0.16732807
000380 eb 15 95 3d 23 a3 0a 3e b2 90 02 bd 9b 1c bd 3d
       0.07279571 0.13538794 -0.031876273 0.09233972
000390 90 dc 74 bd 88 ce 8d 3d 66 d1 56 be 6e 84 7e bc
       -0.059780657 0.06924158 -0.20978317 -0.015534503
0003a0 72 34 f8 3d c7 5d 73 3e ca b1 05 be 8f a1 ed 3c
       0.12119378 0.23766242 -0.13056102 0.029007701
0003b0 2d c1 49 bc 36 5a 67 3e 46 5a b5 3b cf c3 94 be
       -0.012314123 0.22593006 0.005534443 -0.2905564
0003c0 4f eb 87 be 60 2a 38 3d 95 98 99 3d 51 53 68 be
       -0.26546714 0.044962287 0.07499806 -0.22688033
0003d0 3c 21 fd 3a 2f 81 f5 bd 29 71 4c 3c 24 62 bf bd
       0.0019312273 -0.119875304 0.012478151 -0.09344891
0003e0 0b 90 92 bc c7 bb 3b be c3 f9 28 be ca 8b 45 3d
       -0.01789095 -0.1833335 -0.16501527 0.048229016
0003f0 5c 85 14 3e bb 16 09 be ef 75 d6 bd fe 77 96 3d
       0.14503998 -0.13387577 -0.10471713 0.073471054

bias_hh_l0 f4 [750]
000000 3f 7b fa bd 4b 6e 1b be 52 c3 90 bb f6 af 8c 3d
       -0.122305386 -0.15178792 -0.0044178152 0.068694994
000010 34 cf 1d be a3 83 53 be 52 30 34 be b3 05 a5 bd
       -0.15411073 -0.20655684 -0.17596558 -0.08057728
000020 8d 4d f3 3d 60 bd 17 bd dd de 33 be 7f 5d f8 3d
       0.11880026 -0.037045836 -0.17565484 0.12127208
000030 ac 3f ee bc 62 f0 13 be e9 d8 f9 3c a1 18 8a be
       -0.029083095 -0.14447168 0.030498939 -0.26971915
000040 8c ad ae bd 9f 70 ae 3d c2 0f cb bd 8d b4 97 bd
       -0.08529195 0.085175745 -0.09915115 -0.07407484
000050 c3 ee 36 3d d5 87 29 3d 31 b8 89 3d cd 0d c0 bd
       0.044661295 0.041389305 0.06724585 -0.09377632
000060 71 07 96 bd ba 21 8f bd 98 6c 3e bd 2a 0d 22 be
       -0.07325638 -0.06988855 -0.04649028 -0.15825334
000070 f2 27 52 3d 10 ce 83 3d 46 01 01 3e b4 79 73 bc
       0.051307626 0.06435788 0.12598142 -0.014860559
000080 93 63 27 3d 36 ce 7a 3e 36 70 85 3d 41 61 d5 3e
       0.040866446 0.24492726 0.06515543 0.4167576
000090 05 15 37 3d f2 ec a3 3e af 52 92 be 1d 35 1f be
       0.04469778 0.32016712 -0.28578708 -0.15547605
0000a0 fb 08 79 bd e8 dc d8 bd 74 f9 dc 3d 66 44 f1 3d
       -0.06079958 -0.105890095 0.10789767 0.11780624
0000b0 06 44 ea bc 40 ef 44 be 29 3b 2d 3e 09 f7 e5 bd
       -0.02859689 -0.19231892 0.16917099 -0.11228759
0000c0 2c 38 4b 3d c5 26 07 3e 88 75 f5 bd 75 b5 84 3d
       0.049614117 0.13198383 -0.11985308 0.06479923
0000d0 7a 4e 60 3d 0d 50 4c bd 3d 74 55 be 73 73 db bc
       0.05476234 -0.04988103 -0.20845123 -0.026788449
0000e0 e2 ab 7e be 99 ea 18 3e 49 f3 bc bd 7a c0 11 be
       -0.24870256 0.14933242 -0.092260905 -0.1423358
0000f0 63 63 0b be 76 12 f9 bc f8 62 40 ba 1d 9f 92 bd
       -0.13612132 -0.03040431 -0.0007338966 -0.07159255
000100 f8 77 a0 bb 0a 7c 60 3e 24 52 97 bd fa 3a 5d 3c
       -0.004897114 0.21922317 -0.07388714 0.013502831
000110 2a 9b 04 be 2a 80 04 3a c1 f6 21 3e 3c b7 0c be
       -0.12949815 0.00050544983 0.15816785 -0.13741773
000120 a4 12 0f 3e 38 fe 59 3d de d7 b3 bd c9 ee f5 bd
       0.13971955 0.053220958 -0.08781408 -0.12008435
000130 e8 12 f9 3c 9d 4b 44 be 77 a7 91 3d e9 e2 9e 3e
       0.030404523 -0.19169469 0.071120195 0.31032494
000140 64 7f 11 be 71 e6 5a 3b ef 64 01 bc 54 74 26 be
       -0.14208752 0.0033401514 -0.0078976 -0.16255313
000150 92 91 21 be 59 98 92 bc 3d 02 d9 3d 80 73 3d bd
       -0.15778187 -0.01789491 0.1059613 -0.046252728
000160 ed cc 88 3b e3 09 2d be ac 9f 4f be d3 9b 9d 3e
       0.0041748197 -0.16898303 -0.20275754 0.30782947
000170 b1 6b 14 bd 34 e8 fe bd 26 9d 2c bc 34 08 32 3d
       -0.036235515 -0.12446633 -0.010535514 0.043464854
000180 3b 26 9a be f6 e3 bf bc 08 4d 3e bc 0e 3f 33 3e
       -0.30107293 -0.02342413 -0.011615045 0.17504522
000190 b5 a8 ac bd 69 f6 6f be 0a bb de 3d 63 e3 95 bc
       -0.08430616 -0.23433842 0.108755186 -0.018296903
0001a0 6a 46 c3 bd 04 f7 1b 3d 98 ab e6 3c cf 98 b7 bd
       -0.09534915 0.03807737 0.028157994 -0.08964693
0001b0 20 d7 1a 3e 9b d2 66 3c d1 8a d4 bb e1 a2 38 be
       0.15121126 0.014088298 -0.006486275 -0.18030883
0001c0 3e 60 18 bc f4 85 30 be e7 bc e7 bd 71 c1 7d 3e
       -0.00930029 -0.17238599 -0.11315327 0.24780823
0001d0 d6 d3 87 3d a6 c9 08 3d 17 f0 09 3e 95 78 65 be
       0.066322014 0.033395432 0.13470493 -0.2240928
0001e0 8c e4 9b bd b7 ae 20 bd d0 52 ff 3c e0 88 77 3e
       -0.07611951 -0.03922912 0.031167418 0.24173307
0001f0 93 25 9d bb 02 74 62 bb 59 db ee bc 24 a2 c4 3d
       -0.004795739 -0.003455401 -0.029157327 0.09601238
000200 20 50 1b 3d 93 7c 16 3e 4f 95 b3 bd 7c 9e 92 3e
       0.03791821 0.14695959 -0.08768713 0.2863654
000210 35 cd 87 bd 52 03 31 3e e2 a9 b7 bd aa c4 cf bc
       -0.06630937 0.17286423 -0.089679495 -0.025362331
000220 67 e1 35 be 47 99 fd bc d1 5b 0b 3e 63 00 3c 3d
       -0.17761765 -0.030956877 0.13609244 0.045898806
000230 75 9e cb bd 8d 6e ad be 85 9d 4c bb af 95 15 3e
       -0.09942333 -0.33873406 -0.0031221819 0.14607881
000240 b8 6b 13 3e 38 a7 20 bd be 27 67 3c bb d3 d2 3d
       0.1439656 -0.039221972 0.014108596 0.10294291
000250 8c 8c 56 be f4 88 ff bd ab 1b 8b bd 4d fa 16 3e
       -0.20952052 -0.124772936 -0.067923866 0.1474392
000260 d0 cb 6e b9 26 01 21 3e 18 59 0b be 0a 14 60 bd
       -0.00022773375 0.15723094 -0.13608205 -0.05470661
000270 8e 65 91 bc c4 64 2d bd cb 24 a7 3d 4a 5c b9 3e
       -0.01774862 -0.042332426 0.081613146 0.36203223
000280 4f aa 36 be 7b 66 00 3b 8e d2 6c 3d 98 45 9b bd
       -0.17838405 0.0019592333 0.057817988 -0.07581633
000290 b7 25 87 3d 1e 1d 00 be 5a 38 1e 3e 57 4a 1a 3d
       0.065989904 -0.12511107 0.15451184 0.037668552
0002a0 8e 31 3a bd 2c 87 7b bc 8e 66 97 bd 66 1b b5 bd
       -0.045457415 -0.015352052 -0.07392608 -0.088431165
0002b0 21 34 e1 bd 09 ca 4e be 77 95 e9 bd ed 0d 76 be
       -0.10996271 -0.20194258 -0.11405461 -0.2402875
0002c0 3a ab 5e 3d 0d 28 3b 3d 10 8f a4 be f6 7e 94 3e
       0.054362513 0.045692492 -0.32140398 0.29003114
0002d0 0d fb c0 3d ee 03 c4 bd 2a a9 1d be 22 92 f2 3c
       0.09422884 -0.09571062 -0.15396562 0.029610697
0002e0 a1 f3 ae bd 45 cd a1 3d 9e 65 7b bd c2 5c a9 39
       -0.08542562 0.0790048 -0.061376207 0.00032303302
0002f0 71 17 28 3c 69 d0 7f 3e e9 fc 7e 3d 03 b6 8c 3a
       0.010259495 0.24981846 0.062252913 0.0010735396
000300 f8 8f bd 3d 58 94 3a 3d ba 50 32 be 50 7a ad 3d
       0.092559755 0.045551628 -0.17413607 0.08470595
000310 10 ea 9d bd 02 e6 c2 bd a6 57 f6 3d 5a 3a 61 bd
       -0.077106595 -0.09516527 0.12028436 -0.05498729
000320 a8 0c a7 bd 06 04 ea bd 84 fa f7 3c 83 a5 11 bd
       -0.08156711 -0.11426549 0.030270822 -0.035558235
000330 10 e8 1a be 42 4a 16 3d 04 26 d3 3d e1 7a 48 bd
       -0.15127587 0.03669191 0.10309985 -0.04894531
000340 e5 aa c2 3d ed 47 f0 bc be 7e 35 3e c8 d8 d4 3c
       0.09505252 -0.029331172 0.1772413 0.025982276
000350 26 a5 31 bc a0 52 4e bb 7d c2 22 be 1b 70 92 3e
       -0.010842597 -0.0031482354 -0.15894504 0.28601155
000360 eb c7 57 3e 17 df 7c bd b5 2d e1 bd 7c 00 00 be
       0.21072356 -0.061736193 -0.10995046 -0.12500185
000370 3e dd cc bd ff b0 99 bc 76 9c 65 bd 84 3c 46 be
       -0.10003136 -0.018761156 -0.056057416 -0.19359022
000380 da b2 9f 3d 9a 97 fd 3d d6 c0 be 3b 98 59 a4 bb
       0.07797785 0.12382431 0.0058213277 -0.005015563
000390 d4 3d 8a bd e9 34 93 3d aa ca 54 be 55 14 a5 3d
       -0.06750074 0.07187826 -0.20780435 0.08060519
0003a0 ce 4d 1b 3e 51 dc 83 3e 65 b7 0a be 27 2d 5b bd
       0.15166399 0.25754026 -0.13546522 -0.053509858
0003b0 72 7c ad 3d 87 38 52 3e 01 a4 12 3d 05 d4 5d be
       0.08471002 0.20529376 0.035800938 -0.2166291
0003c0 27 ce 67 be c2 71 81 3d 4b ee 32 3d 53 23 2d be
       -0.22637235 0.06320526 0.043684285 -0.16908006
0003d0 c3 6e a3 bc b0 88 d8 bd 67 72 d3 bc 4b a7 48 bd
       -0.019950276 -0.10572946 -0.025811387 -0.048987668
0003e0 12 83 45 3d 58 95 ee bd 68 76 1a be f1 b5 8f 3c
       0.0482207 -0.11649579 -0.15084231 0.017542811
0003f0 75 ef 4e 3d 78 0e 43 be f1 d7 cc bd fe 20 02 bb
       0.050521333 -0.19048488 -0.10002125 -0.001985609

weight f4 [1, 250]
000000 f2 d3 f3 bd f0 e4 04 3e df 3c d5 bd eb 0f ae bc
       -0.1190566 0.12977958 -0.10412001 -0.021247825
000010 a9 27 e9 3d 9a 20 c9 bd 60 1b 04 3d 9e 9a b9 3d
       0.11384518 -0.098206714 0.03225267 0.09062694
000020 5a db c6 3c db 29 17 be 5d a3 a4 3d ab 18 28 bd
       0.024274517 -0.1476206 0.080389716 -0.04103915
000030 f8 28 49 bd 5f 6c 03 3e b2 3b af 3d ee 22 36 be
       -0.049111336 0.12834309 0.08556308 -0.17786762
000040 f2 18 90 3d 9c 0e 27 be 29 ca e6 3d e8 91 73 3d
       0.07036008 -0.16314167 0.11269028 0.05946532
000050 bc 6d ab 3c d2 66 86 3d 67 5b 9e 3c 81 d1 d4 bd
       0.020926349 0.0656258 0.019330693 -0.10391522
000060 8e a8 7b bc 83 52 c2 be 2e a7 82 3d 8a cd f0 bd
       -0.015360011 -0.37953576 0.06379543 -0.117579535
000070 d8 cf 95 bd 12 53 0b 3e da 8a 48 bc cf 73 ad 3d
       -0.07315034 0.13605908 -0.012240136 0.08469354
000080 93 67 06 3e ff 95 2a 3e 2e 31 02 3e 9c 36 62 be
       0.13125448 0.16658781 0.12714073 -0.22091144
000090 d7 48 5e 3d e2 35 4b bd 1f 2e 59 be 94 95 c7 bd
       0.054268684 -0.049611934 -0.21209 -0.09745327
0000a0 b4 12 bf bd e0 b8 53 3e 34 bf 08 3e 6b 6f c8 bc
       -0.09329739 0.20675993 0.13354188 -0.02446719
0000b0 71 3f b0 bd dd 43 f6 bc 0d 92 56 bd 2a c0 1d be
       -0.086058505 -0.030061657 -0.05238538 -0.15405336
0000c0 93 ec 1b 3d 3e 21 9c bd a7 46 94 bd 9a c1 83 bc
       0.03806741 -0.07623528 -0.07240038 -0.016083527
0000d0 d9 32 b2 bd 3f 0c fc bd dc 56 3d be c9 77 02 3e
       -0.08701105 -0.12307023 -0.18490165 0.12741007
0000e0 d1 61 38 be e8 c1 64 3b ad 9d f9 bd ef 0f 3c be
       -0.18006064 0.0034905616 -0.121882774 -0.18365453
0000f0 07 28 07 be 5e 43 e1 3d 6e ff ea bd c8 b5 08 3e
       -0.13198863 0.109991774 -0.114745006 0.13350594
000100 22 0c ed 3d 41 5a 2c bd 9e 17 c7 3d 63 4d 49 bd
       0.1157458 -0.04207826 0.097213015 -0.049146067
000110 78 dc 12 bd fe 02 c9 3d 27 68 cc 3c 04 57 bf 3d
       -0.035854787 0.09815024 0.024952007 0.09342769
000120 83 c5 d0 bb db 7d 1e be 04 f1 ca bd 88 7a 04 be
       -0.0063712015 -0.15477698 -0.09909251 -0.12937367
000130 63 cf a9 bd a6 f7 3e 3e fd cf 8c 3d a4 74 98 bc
       -0.08291509 0.18649158 0.06875608 -0.018610306
000140 19 1c e5 bd 45 89 a4 bd 5d b7 04 3e 0c 56 df bd
       -0.11187 -0.080339946 0.12960573 -0.10905084
000150 ab 05 ff 3d bf c7 cc 3d 24 99 0c be 68 d2 0b be
       0.12452253 0.09999036 -0.13730294 -0.13654482
000160 80 73 06 3e c4 57 1b be 08 22 22 be 76 1a 84 3d
       0.13129997 -0.15170199 -0.15833294 0.064503595
000170 55 7f fb bd 91 1b 04 3e 61 57 5d be b0 69 00 be
       -0.12280146 0.12901141 -0.21615364 -0.12540317
000180 b4 a5 31 3e 47 8b 08 be b3 9c e5 bd f0 08 05 bc
       0.17348367 -0.1333438 -0.11211529 -0.008119807
000190 79 cb 0c 3e 94 2c e9 bd 63 d2 0d 3d ab aa ae bc
       0.13749494 -0.11385456 0.03462447 -0.021321615
0001a0 c3 9d b7 3d ab 0a 20 be 0e 21 a1 3d e9 b6 be bd
       0.089656375 -0.1562907 0.07867633 -0.09312231
0001b0 85 ce 57 3d bc 02 b5 bd 5b ad 02 3e 3c f5 3f be
       0.052687187 -0.08838412 0.12761442 -0.18745893
0001c0 f9 aa 3c bd ee f2 4c be be eb 43 3d 36 f2 07 be
       -0.04606149 -0.20014545 0.047832243 -0.1327599
0001d0 ac 1a c4 3e 8c 92 c1 bd c2 a4 97 bd 49 89 89 3e
       0.383016 -0.0945178 -0.07404472 0.26862553
0001e0 14 fb 34 3e 02 05 f1 bd 11 b4 45 3d 71 a1 8e 3d
       0.17673904 -0.11768533 0.048267428 0.06964386
0001f0 cb 1b 93 bd a5 7a c4 bd 3d a9 75 be cd 35 b1 bd
       -0.071830355 -0.09593705 -0.2399034 -0.0865284
000200 e6 fc e7 3d f2 eb ec bd 48 41 da 3d 30 b6 fe bc
       0.113275334 -0.115684405 0.10656983 -0.031092733
000210 ca a8 98 bd 57 63 ee bd ce 9e ea bd 3e 31 fb bc
       -0.07454069 -0.11640041 -0.11456071 -0.030663129
000220 22 85 43 be 76 2b f2 3c 4c e1 1e bc 4b aa 33 bd
       -0.19093755 0.02956174 -0.00969727 -0.043863576
000230 e1 15 08 3e 1c ad 45 3e fa d5 0f 3e c9 5a 04 be
       0.13289596 0.19304317 0.1404647 -0.12925257
000240 cd 26 65 3d c9 63 e9 3d 27 54 87 3c bd 08 c9 3d
       0.055945206 0.11395986 0.01651962 0.0981612
000250 9b 25 0c 3e bc 27 8a 3e e1 d6 db 3d b4 b0 c4 b9
       0.1368622 0.2698344 0.10734344 -0.00037515687
000260 ab db 2a bc 24 63 42 bd d0 51 38 3e 8c 38 db 3d
       -0.0104283495 -0.04745783 0.17999959 0.10704145
000270 26 9a 48 bc 03 68 23 be db 10 87 3d 10 11 67 3e
       -0.012243783 -0.15957646 0.06595012 0.22565103
000280 cf e5 16 bf 38 20 50 3c 57 14 ad bd 4d 17 9b 3d
       -0.5894441 0.012702994 -0.08451145 0.07572804
000290 7d bc ed 3c 43 3c ee 3d b8 f9 29 be 57 73 c4 bd
       0.029020542 0.11632588 -0.16599166 -0.09592312
0002a0 6b 50 f0 3d 1c b3 dd 3d a6 28 3d 3d ef a0 1c bc
       0.117340885 0.10825178 0.046181343 -0.009559854
0002b0 21 72 55 be 60 d4 d2 bd a9 9b ff 3d 0e 2d 67 3e
       -0.20844318 -0.102944136 0.12480862 0.22575781
0002c0 c1 e7 81 bd 02 6a 1f bd 03 97 d8 be 58 74 02 bd
       -0.06343032 -0.038919456 -0.42302713 -0.031849235
0002d0 3e aa e4 bd d9 d6 d5 bd 4a cf ae bd 2f a6 1a bc
       -0.111652836 -0.104413696 -0.08535631 -0.009439035
0002e0 00 57 91 3d df e9 b9 3d c7 f3 c2 bc 8f fa dc bd
       0.07096672 0.090778105 -0.023797883 -0.10789978
0002f0 04 fd a2 3d 47 8f 06 bd f0 c6 db bd 70 fd 4d 3d
       0.07958415 -0.032851484 -0.10731304 0.050290525
000300 f1 62 3b bd 5b 38 0c be af c1 1f be b0 1b ea bd
       -0.045748655 -0.13693373 -0.15601228 -0.11431062
000310 20 66 0c 3e 84 2d da 3d 48 9e d5 3d 82 37 02 3e
       0.13710833 0.10653213 0.104305804 0.12716487
000320 ea a5 53 3e 54 9b 9c 3d ed b1 85 be 0c 45 0f 3d
       0.2066876 0.07646814 -0.2611231 0.034977958
000330 62 11 1e 3d 31 3e 0a be c9 34 ee bd b2 e2 ce bd
       0.038590796 -0.13500287 -0.11631162 -0.101018324
000340 8c 54 21 be 9b ad 14 3d 17 f2 fe bd 66 07 d4 3b
       -0.15754908 0.036298376 -0.12448519 0.0064706085
000350 c4 ff 45 3e eb a1 5c be d8 ed af bd 0a dc d1 3c
       0.19335848 -0.21546142 -0.08590287 0.025617618
000360 52 69 8c 3c 4f d7 b6 be 51 58 b0 bd 98 62 ae bd
       0.017140064 -0.35711142 -0.08610595 -0.08514899
000370 dc 23 10 3e e8 61 e9 3d 15 05 fb 3d ff d6 d4 bd
       0.1407618 0.11395627 0.12256829 -0.1039257
000380 76 7b b5 3d 0f d3 2d 3c 36 c5 0a 3e 17 42 80 bd
       0.08861439 0.010609402 0.13551793 -0.06262606
000390 5e 13 e2 3c a8 6a 94 bc a8 48 4a be 24 43 5d 3d
       0.027597126 -0.018117264 -0.19754279 0.05401911
0003a0 87 6f dd bc 05 fc 3d 3d fb 7a b5 be d3 94 e4 bd
       -0.02703072 0.046382923 -0.3544539 -0.111611985
0003b0 32 67 80 3d 2c 22 21 3d 03 21 98 3d 90 24 1a 3e
       0.06269683 0.03933923 0.074281715 0.1505301
0003c0 2a a8 49 3e 16 d4 7a 3d 6b 3e aa 3c 42 11 5a be
       0.19693056 0.061237417 0.020781716 -0.21295646
0003d0 f2 5a df bc a6 9e 50 be 85 0e 8e 3e e9 6a 64 3c
       -0.027265046 -0.2037302 0.27745453 0.013941505
0003e0 60 65 9e bd 51 19 e3 3c
       -0.077341795 0.027722033
