model/MLP-000635.pth (torch, 1959 bytes, 1 tensors)

weight f4 [1, 70]
000000 cf 14 3b be 40 e9 0a 3e bf d4 f2 bd 18 17 2b 3d
       -0.18269657 0.1356554 -0.11856984 0.04177007
000010 59 7e 98 bd d9 19 d4 bd a2 b6 91 3e e4 0b 74 bd
       -0.07445974 -0.103564925 0.2845965 -0.059581652
000020 b0 2e 4f bd 85 a2 23 3e 14 f5 34 bd d0 d2 29 bc
       -0.050581634 0.15979965 -0.044179037 -0.010365203
000030 83 e9 d9 bd 1a ef c8 3d e3 f7 b6 3d f3 0e e3 3c
       -0.10640242 0.0981123 0.089339994 0.02771709
000040 1b 91 33 3e e3 34 97 bd d8 fb e5 bc 33 cc 42 3e
       0.17535822 -0.07383134 -0.02807419 0.19023208
000050 8e 3c 2e be 50 ef cd 3d 6a a5 55 3d 9a d0 74 3d
       -0.17015287 0.10055411 0.052159704 0.05976925
000060 68 c8 fb 39 41 bd 7d bb b8 76 50 3e 10 bb 86 3c
       0.00048023765 -0.003871754 0.20357788 0.01644662
000070 85 cb 89 bd d8 a3 97 3d 39 62 f0 bd 5c d6 49 bd
       -0.067282714 0.074042976 -0.117374845 -0.049276695
000080 68 d6 ca bd a4 2b fc bd 4f ef 44 bd 4f 20 7e bd
       -0.09904176 -0.12313011 -0.048079785 -0.06204253
000090 4c b9 6d 3e ed 06 72 bc e0 a8 12 bd f9 5f 1b 3d
       0.23215216 -0.014772159 -0.035805583 0.037933324
0000a0 b3 41 d5 bd 5c 16 d7 3d f2 20 75 3d ab de 0e 3d
       -0.10412922 0.105023116 0.059845872 0.03488032
0000b0 4d 4a ae 3d 90 70 01 3d 32 5e db 3d 94 36 8a bd
       0.085102655 0.03160149 0.10711326 -0.06748691
0000c0 0a 60 71 3c a7 df 9d 3d ee 24 21 be a4 f0 be bd
       0.01473237 0.07708674 -0.15736744 -0.09323242
0000d0 39 57 00 be de 27 a9 bd 79 b6 78 3c fd 51 2a 3d
       -0.12533273 -0.08259557 0.015180224 0.041582096
0000e0 ca 37 0c 3e 45 80 7b bd b2 4b 2a bd 93 bd 47 3e
       0.13693157 -0.061401624 -0.041576095 0.1950591
0000f0 6b 56 2a be 65 83 d1 3c fa e8 f4 3c e4 40 08 be
       -0.16634528 0.02557535 0.029896248 -0.13306004
000100 0b cb 1b bc aa be 35 be ae 21 88 3e 73 93 0b be
       -0.009508858 -0.17748514 0.26588196 -0.13630466
000110 c0 74 94 bd b8 ad 3e 3e
       -0.07248831 0.18620956
