model/MLP-000680.pth (torch, 1959 bytes, 1 tensors)

weight f4 [1, 70]
00000000: bb9e 6cbd 1c0e 62bd 7b31 dabd ed15 6abd
00000010: 9cc4 883d 23f2 93bc 14b4 493d c25b ef3b
00000020: 32ae fd3b 5c00 773e 99fa 8b3d d8e1 25bd
00000030: 6b5e 333d 5f16 1dbc 5145 ce3d 5e03 cf3b
00000040: 9be0 a93c ca02 86bd 647f c43d e6be df3d
00000050: c3dd 66bd 34a3 86bd 983b 093d df70 7cbd
00000060: 4985 40bc 966f 433c 454a 093d 5c71 3cbd
00000070: b6e6 333d 47f8 fd3d 7254 19be fb7f 1f3c
00000080: dfa8 7a3d 9c95 923c 49bb 51bd 7ed8 05bd
00000090: b965 973d f2fc c4bc 5491 a63d 6afa fb3d
000000a0: 4f70 01bd 180a 663d f916 a0bb b9a6 c13d
000000b0: d26e e33d 2eae 923c eac3 5b3d 4356 e1bc
000000c0: 0ae7 aebc 0c99 fe3d a326 6b3d b18b cebc
000000d0: e02e 03be e36f b23b 31bc bbbc e859 c7bc
000000e0: a779 cc3d 72c0 153d 3c17 9a3d 5b1b 753d
000000f0: d1e9 21bd 2080 fcbb b7ab 43bd 0d61 93bd
00000100: ef26 c63d d414 d63b 5fa1 a83d 9ab5 33bd
00000110: 01ca a2bd 1fba 3f3e
-0.057768565 -0.055189237 -0.10653969 -0.057149816 0.06678125 -0.018059796 0.049244 0.0073046396
0.007741713 0.24121231 0.06834907 -0.040498585 0.043791216 -0.009587853 0.10071815 0.00631754
0.020736983 -0.06543501 0.0959461 0.10925083 -0.056363832 -0.06574097 0.0335041 -0.06163108
-0.011750528 0.01192846 0.033518095 -0.046006545 0.043921195 0.12400871 -0.1497362 0.009735103
0.061196204 0.017893605 -0.051204 -0.032677166 0.07392449 -0.024046395 0.08133188 0.12303622
-0.031601246 0.05616197 -0.004885551 0.09455628 0.11105122 0.017905321 0.053653635 -0.027506953
-0.021350402 0.12431535 0.057409894 -0.025213094 -0.1281085 0.005445467 -0.022916885 -0.024334863
0.09984141 0.036560483 0.07523963 0.05984054 -0.039529625 -0.0077057034 -0.047771182 -0.07196245
0.09675395 0.0065332446 0.08233904 -0.04387436 -0.079486854 0.18723343
