model/MLP-000665.pth (torch, 1959 bytes, 1 tensors)

weight f4 [1, 70]
-0.03738381 -0.023252854 0.038997848 -0.074798875 -0.013425419 -0.15043879 0.14006202 -0.01991224
-0.08200247 0.13104808 -0.00771988 -0.048878983 0.060608007 -0.016630227 -0.11249642 -0.00071043085
-0.044931915 -0.09140189 0.015458241 0.11957388 -0.12671973 0.030488603 -0.062266443 0.051372994
0.010952593 -0.06686663 0.015363997 0.05029881 0.093768716 0.06613674 -0.03609176 -0.08378675
-0.14097542 0.034981675 0.094638094 -0.044762507 -0.02237194 -0.06295516 -0.029932091 0.19252166
-0.076888 -0.031485565 -0.04512411 0.077335104 0.033810113 -0.15900981 0.031320307 -0.06644165
-0.0074443957 0.15343653 -0.12375046 -0.11958966 -0.082200445 -0.11710452 -0.008917738 -0.26963142
0.06270534 0.08876931 -0.048040256 0.11556427 -0.16223943 0.08837475 -0.08211877 -0.12505664
-0.11656314 -0.20933832 -0.041218087 -0.057542954 0.0298818 0.19380502
00000000: c41f 19bd c57c bebc 35bc 1f3d 2730 99bd
00000010: 4af6 5bbc a00c 1abe 6b6c 0f3e fe1e a3bc
00000020: e9f0 a7bd 7831 063e 0cf7 fcbb 5435 48bd
00000030: 1a40 783d 1d3c 88bc 8664 e6bd 353c 3aba
00000040: 870a 38bd ea30 bbbd 9044 7d3c 27e3 f43d
00000050: d1c2 01be 3cc3 f93c 190b 7fbd 7d6c 523d
00000060: 8172 333c 5ff1 88bd 46b9 7b3c 2006 4e3d
00000070: d009 c03d b372 873d f4d4 13bd 6398 abbd
00000080: dc5b 10be f248 0f3d 9ed1 c13d e458 37bd
00000090: 5c45 b7bc a3ee 80bd 2534 f5bc 6624 453e
000000a0: 7577 9dbd 02f7 00bd 0fd4 38bd de61 9e3d
000000b0: 797c 0a3d 78d3 22be b949 003d 8f12 88bd
000000c0: 1ef0 f3bb 771e 1d3e e270 fdbd 6ceb f4bd
000000d0: b558 a8bd 7fd4 efbd b41b 12bc 210d 8abe
000000e0: a86b 803d afcc b53d dcc5 44bd f6ac ec3d
000000f0: 1822 26be d2fd b43d e32d a8bd d90e 00be
00000100: a8b8 eebd c95c 56be 4cd4 28bd 29b2 6bbd
00000110: adca f43c d374 463e
