model/MLP-000659.pth (torch, 1959 bytes, 1 tensors)

weight f4 [1, 70]
-0.016199414 -0.02675715 -0.13577685 -0.044565383 0.0047517424 -0.034499478 0.06800511 -0.079819165
0.1212807 0.25050074 0.053016227 0.011906808 -0.056852117 0.010629651 0.050071258 -0.11429895
0.16457906 -0.007313818 0.089937486 0.05199185 0.07319794 -0.043827116 0.07338333 -0.062530555
-0.12304768 -0.11770218 0.1379672 -0.08589648 0.020531893 0.038597196 -0.11536834 -0.057981975
0.037212454 -0.050032437 -0.061296694 -0.05750826 0.031296022 -0.05456165 -0.015017383 0.19923367
-0.111426115 0.00617791 0.032328945 -0.04087726 0.032909505 -0.09741453 0.0732527 0.042567052
0.029324021 0.032721672 -0.08956299 0.02420191 -0.045501325 0.063385785 0.05582805 -0.13835688
0.13450196 0.010419071 0.06302859 0.103906415 -0.11105209 0.07458769 -0.07953254 0.023196131
-0.06763539 -0.12941168 0.12917739 0.092802875 -0.023371527 0.23624554
00000000: a2b4 84bc d031 dbbc 1609 0bbe 318a 36bd
00000010: 81b4 9b3b 534f 0dbd 4346 8b3d 3b78 a3bd
00000020: 0462 f83d a241 803e 8b27 593d c614 433c
00000030: c4dd 68bd fd27 2e3c 8517 4d3d 9115 eabd
00000040: 6a87 283e c1a8 efbb 2531 b83d 68f5 543d
00000050: cde8 953d 1084 33bd 004a 963d 0510 80bd
00000060: 6c00 fcbd d70d f1bd 4647 0d3e 7eea afbd
00000070: 8032 a83c 1818 1e3d 3c46 ecbd 827e 6dbd
00000080: 166c 183d d0ee 4cbd 3e12 7bbd c88d 6bbd
00000090: 4230 003d 097c 5fbd 780b 76bc e903 4c3e
000000a0: 6033 e4bd 1170 ca3b 5b6b 043d ea6e 27bd
000000b0: 1ecc 063d 4581 c7bd 8305 963d ca5a 2e3d
000000c0: ee38 f03c 2907 063d cd6c b7bd 1543 c63c
000000d0: 995f 3abd 68d0 813d f4ab 643d 6dad 0dbe
000000e0: e2ba 093e c0b4 2a3c 2215 813d e3cc d43d
000000f0: 476f e3bd 6ec1 983d f5e1 a2bd d005 be3c
00000100: 6c84 8abd 7f84 04be 1447 043e 6f0f be3d
00000110: a575 bfbc 5aea 713e
