model/MLP-000679.pth (torch, 1959 bytes, 1 tensors)

weight f4 [1, 70]
00000000: 1095 27bc 3214 ba3d 66db a0bd a7c2 65bd
00000010: b876 cd3d 4e76 f3bc dd01 9d3d 0093 06be
00000020: 2ef2 58bd 2b88 313e cc92 793d 5a23 d53c
00000030: 7985 8e3c f7a7 e33d 01c7 3ebd d2b0 63bd
00000040: 00d4 a13d e9bf 14bd a8c4 b53c 9807 273e
00000050: 56b2 6dbd c38e ff3d 5d04 b3bd e8d1 95bd
00000060: 1ead 82bd 793d 99bd 77a4 ca3d 9485 b0bb
00000070: bf7d 1abd 023c 6d3d 7590 cebd 5000 bb3d
00000080: 75ce 073d 7a67 a2bd 0676 f63d e294 b33b
00000090: 2345 8a3d 89f3 50bd 809a ff3b ee25 fd3d
000000a0: 7946 05be 7c07 20bd ea59 37bd e119 7d3d
000000b0: e01c 3b3d 1aca 64bc 5d05 9f3d 31e4 903c
000000c0: a596 8bbc 7af1 c43d 3a3a 993d 995a cb3d
000000d0: cd62 62bd 474c 60bd f6b0 153d 312d 9abd
000000e0: e6fe 1c3e 1e97 823d 7a0e edbc c9e5 2d3e
000000f0: 71b9 84bd cc3c 9ebd 012b a0bd 3f78 613c
00000100: 794c 3fbd e901 10be 9e9c 223e af87 9eb9
00000110: b723 04bd f19c 1d3e
-0.01022841 0.09085883 -0.07854347 -0.056093838 0.100324094 -0.029719498 0.07666371 -0.13142014
-0.052965336 0.173371 0.060931012 0.026017834 0.01739763 0.11116021 -0.046576504 -0.05558855
0.07901764 -0.036315832 0.0221885 0.1631149 -0.058031403 0.124784015 -0.087410666 -0.07315427
-0.06380676 -0.07482428 0.098946504 -0.0053870175 -0.037717577 0.057918556 -0.10086147 0.09130919
0.033155877 -0.07929893 0.1203423 0.0054803947 0.06751468 -0.051013503 0.0078004003 0.1236075
-0.13015164 -0.039069638 -0.044763483 0.06179226 0.045681834 -0.0139642 0.07764695 0.017686935
-0.017039606 0.096163705 0.07481809 0.099293895 -0.055270005 -0.054760244 0.036545716 -0.07528151
0.15331611 0.063764796 -0.028937567 0.16982187 -0.06480683 -0.0772644 -0.07820702 0.013761579
-0.04670379 -0.14063229 0.15880057 -0.000302372 -0.032260623 0.153919
