model/MLP-000615.pth (torch, 1959 bytes, 1 tensors)

weight f4 [1, 70]
0	0xbd3d4b87	-0.046214607
1	0x3b92cf3a	0.0044802697
2	0xbd35ae0b	-0.044355433
3	0xbcd84afa	-0.02640294
4	0x3d42bb6d	0.047542024
5	0x3d208d8e	0.039197497
6	0xb99c08f8	-0.0002976132
7	0x3d681105	0.056656856
8	0xbcb788e9	-0.022404151
9	0x3e71c154	0.23608905
10	0xbda2b81c	-0.07945272
11	0x3d45bc80	0.04827547
12	0x3d414936	0.04718896
13	0xbbdf4df2	-0.0068147117
14	0xba402e65	-0.0007331132
15	0xbcedcd36	-0.029028516
16	0x3de1d3a3	0.110266946
17	0xbce67e38	-0.028136358
18	0xbd4825e3	-0.048864257
19	0x3e1e8650	0.15480924
20	0xbda12abd	-0.0786948
21	0x3db386d9	0.087659545
22	0xbda767fe	-0.08174132
23	0xbca78b03	-0.020452028
24	0xbdac7708	-0.08421141
25	0x3c24e90f	0.010065331
26	0x3d128a50	0.035776436
27	0xbdf7bdeb	-0.12096771
28	0xbd0499db	-0.03237329
29	0x3de8bcfd	0.11364172
30	0xbe159ea7	-0.14611302
31	0xbdb07980	-0.08616924
32	0x3d4cf731	0.050040428
33	0xbdab142b	-0.08353456
34	0x3d8eaad6	0.06966178
35	0x3c03b5ce	0.008038951
36	0x3cd2b438	0.0257207
37	0x3c8216ce	0.015880015
38	0xba80e034	-0.0009832443
39	0x3c9b8773	0.018985486
40	0xbd750803	-0.059822094
41	0xbc8bb19f	-0.01705247
42	0x3cc3e0dd	0.023910934
43	0xbe0f8e9d	-0.14019246
44	0x3d694892	0.056953974
45	0xbd9e17b0	-0.07719362
46	0x3e0840f4	0.13306028
47	0x3d9835d7	0.07432144
48	0x3d364d12	0.044507094
49	0x3c888b9b	0.016668132
50	0xbdd931ab	-0.106051765
51	0x3d8c0fba	0.06838937
52	0xbde0f7b7	-0.10984748
53	0xbdcef212	-0.10104765
54	0xbc7276ef	-0.014798864
55	0xbc418a5f	-0.011812775
56	0x3d5e3890	0.05425316
57	0xbdab5104	-0.08365062
58	0xbc6bbf61	-0.01438889
59	0x3e4c143c	0.19929594
60	0xbd04f46e	-0.03245967
61	0xbdb08bad	-0.08620391
62	0x3b32da80	0.002729088
63	0x3cd6d9d1	0.02622691
64	0xbd8200d7	-0.063478164
65	0xbdc8d8ba	-0.09806962
66	0x3da6a7c6	0.08137469
67	0x3dc573c8	0.09641224
68	0xbd7672cf	-0.060168084
69	0x3e1752e0	0.14777708
