model/MLP-000628.pth (torch, 1959 bytes, 1 tensors)

weight f4 [1, 70]
000000 16 26 f0 bd 72 8b 62 3d c8 70 ba 3c 37 bb 86 3d
       -0.11726014 0.055308767 0.022758856 0.06578677
000010 98 0d 03 3e 05 8f 23 3d 68 b6 7a 3e 23 39 1f 3d
       0.12798154 0.039931316 0.24483645 0.03887285
000020 27 89 94 bc 71 bf 5c 3e 4b c8 4c be 31 df 65 3d
       -0.018131806 0.21557404 -0.1999828 0.056121055
000030 aa 07 c5 bd b4 15 83 3d 1c 20 22 3d fc fd 9b 3c
       -0.096206024 0.06400624 0.039581403 0.019042008
000040 8f 7b 73 3e 56 36 ca bd 35 61 17 be 75 6a a0 3d
       0.23777603 -0.09873645 -0.14783175 0.07832805
000050 17 49 1b be 05 ee 13 3e 61 47 58 bc 9c 5c cd bb
       -0.151646 0.14446266 -0.013200612 -0.0062671434
000060 7b 42 06 bd d2 ed 2f bd 27 03 79 3e 73 35 c4 bd
       -0.032778244 -0.042951412 0.24317609 -0.09580507
000070 86 a9 c7 bd c8 ab f5 3d 0a 3e 78 be 82 28 1d 3d
       -0.09749131 0.11995655 -0.24242416 0.03836871
000080 36 69 a6 3b 3b ca 9b 3d 1c 4b 14 bd 97 52 84 bc
       0.00507846 0.07606932 -0.036204442 -0.016152663
000090 3e 32 4f 3e 2d 95 58 bd 26 3c ca bd 98 c0 3f 3d
       0.2023401 -0.05287664 -0.09874754 0.04681453
0000a0 a5 38 1e be 2f 2f b3 3c 13 1f 47 bd ec ce e6 bd
       -0.15451296 0.021873085 -0.04861362 -0.11269936
0000b0 9c d0 60 bd 41 4d 7d bc 25 e7 17 3e 40 89 a7 bc
       -0.054886445 -0.015460313 0.14834268 -0.020451188
0000c0 e6 cc fc bd 50 42 6e 3c 4d d6 86 be a8 5b 0e 3d
       -0.12343769 0.014542177 -0.26335374 0.03475538
0000d0 44 77 10 be 4a 9d 88 bd 12 88 5f bd dc b2 eb bc
       -0.14107996 -0.066706255 -0.054573126 -0.02877181
0000e0 2e 7e 12 3e 3f eb 2f bd aa a1 b2 bd c2 9e 1a 3e
       0.14305946 -0.042948958 -0.08722241 0.15099624
0000f0 da 38 23 be 33 27 ae bd ad 31 9d bc d5 ef be 3c
       -0.15939656 -0.085035704 -0.019188726 0.02330772
000100 8a d4 83 3d 1b d7 a2 bd ca dd 28 3e f8 f3 d1 bd
       0.06437023 -0.07951184 0.16490856 -0.102516115
000110 e9 de 0d be 2a b8 04 3e
       -0.13854565 0.12960878
