model/MLP-000629.pth (torch, 1959 bytes, 1 tensors)

weight f4 [1, 70]
0.0015259543 0.11158218 -0.07262719 0.018457022 0.065011315 0.062668525 0.15784967 -0.11466952
-0.09788189 0.19439588 -0.02437544 -0.09502584 0.031405535 -0.0709262 0.013837976 0.044927616
0.11467523 -0.015755553 -0.06187619 0.0837321 0.1442035 0.035218433 0.088379756 0.076808766
-0.04243323 0.022294262 0.1103617 0.024084136 -0.04085254 0.07505201 -0.021467937 -0.0084286295
0.028463248 -0.008374614 0.020218072 0.06391561 0.0893974 -0.01330208 -0.09616229 0.11481393
0.14879738 -0.0804127 -0.07747966 -0.07328839 0.08705549 0.08005931 0.019485606 0.07124678
-0.10839899 0.09171589 0.10967506 -0.04282574 -0.057846457 0.11108428 0.030273078 0.07674886
-0.01891413 -0.11262062 0.0557044 0.11144264 -0.025175387 -0.08660326 0.09135439 -0.049100466
-0.013561802 0.07163425 -0.012948027 -0.12429523 0.07384943 0.20738308
00000000: 8802 c83a 3385 e43d 90bd 94bd 2e33 973c
00000010: a724 853d 5b58 803d 58a3 213e dad7 eabd
00000020: 4d76 c8bd b70f 473e 01af c7bc e89c c2bd
00000030: 17a3 003d c141 91bd aeb8 623c 0506 383d
00000040: d9da ea3d ca11 81bc e371 7dbd bc7b ab3d
00000050: 15aa 133e 3441 103d 7200 b53d ea4d 9d3d
00000060: 77ce 2dbd 75a2 b63c 5105 e23d 184c c53c
00000070: fe54 27bd deb4 993d 87dd afbc 3c18 0abc
00000080: c22b e93c ad35 09bc 5fa0 a53c 30e6 823d
00000090: fc15 b73d f8f0 59bc bcf0 c4bd 9123 eb3d
000000a0: 575e 183e 6aaf a4bd a8ad 9ebd 3918 96bd
000000b0: 264a b23d 23f6 a33d 47a0 9f3c d5e9 913d
000000c0: 4a00 debd 8ad5 bb3d 519d e03d 0b6a 2fbd
000000d0: 68f0 6cbd 2880 e33d 3fff f73c 822e 9d3d
000000e0: cef1 9abc a4a5 e6bd 4c2a 643d 0a3c e43d
000000f0: 9d3c cebc 0d5d b1bd 0318 bb3d 921d 49bd
00000100: 5232 5ebc fab4 923d f623 54bc 7f8e febd
00000110: 5f3e 973d 3b5c 543e
