model/MLP2-000679.pth (torch, 74207 bytes, 3 tensors)

weight f4 [250, 70]
00000000: 5d8a 8c3d a208 cebc 1a58 69bd b4a2 f43b
00000010: d012 1dbc 0ec8 ac3d 4ec9 b2bd 814a 833d
00000020: f903 b73d 602b 103d 329b efbc 051c acbb
00000030: c2dc 303d d302 14be 90f9 44bd 709b c7bd
00000040: 66b1 e9bd e94e 5d3d 023c ef3d bf60 bf3c
00000050: 4640 bb3d 71ef 403b 0fc3 34bd d594 6c3d
00000060: 04b1 d8bc 5be0 423d 0fb7 17be 32e6 8ebd
00000070: 26f9 e0bc 6b1d 2bbc 1000 a7bc 7351 10be
00000080: df83 5a3d 9fcc 523d b322 463d bf01 76bc
00000090: 71af 3fbb bc83 843d bd33 f33d 97dd 2cbc
000000a0: ebd3 8bbd d668 9bbb e730 21bd 1d1a b4bc
000000b0: daee 113d 5d45 a2bc 1fcc c5bd 0e93 e33d
000000c0: 1d46 083e ae0e 80bd 6999 883d dcd0 fd3c
000000d0: f676 45bd e255 7ebc f31d 963d 82bb 353d
000000e0: 75e4 fabd aa31 c93d 1259 813d 4b95 07be
000000f0: 7377 32bd bc00 263d 7ccc 06be 81b9 633d
00000100: e086 a63c b38d 85bd 9c00 263d ff7b 133d
00000110: 7d30 123d 3a9f b03c 1a57 133e d419 22bd
00000120: 9c38 a9bd 235d 0139 6b6f c8bc 32a0 893d
00000130: 8b25 1cbe 2313 dd3d a56b 203e dee5 5dbd
00000140: 19db 313d 01b9 463d fe82 07be a684 323c
00000150: b8f6 0dbe faa2 0fbe 9ec2 90bd 38e8 a33c
00000160: 321f 60bc a554 423c cccd 573e be16 ecbd
00000170: 6688 8fbc 193d ffbd c7f4 c2bd 9cc5 c3bd
00000180: a66d 96bc 15a1 073c 062e d63d e2af d7bb
00000190: 5107 403e 09aa 5c3d 2c68 453d 694b eebd
000001a0: e657 b0bc 2107 c0bd 08f8 2bbd f390 a3bc
000001b0: dca1 4fbb a565 6abd 4acf f33d 2b3e babc
000001c0: 9988 39bc 498a 823d f203 19bc 4bdb 57bd
000001d0: 15ed b4bd 0c97 4dbc daf9 e73d 5793 cebc
000001e0: 4c4b 833e 30cb b639 cee3 9c3c 743e 423d
000001f0: 3b8b 483c def9 1c3d 3bb2 33be 80bc 793c
00000200: 5572 be3d 1d31 73bd 7e7a 4e3e c66c 933d
00000210: 42a7 b8bc abe5 cdbd b783 313c 566c b13c
00000220: 2e55 38be 0524 d33d d277 0e3e 05c2 14be
00000230: c7e5 83bd 4ce9 05be 8900 9a3d 51c2 b23c
00000240: 640b e4bd c3c0 ac3d 87d0 b8bd 315b 80bd
00000250: c892 013d 8eec c9bc b163 ce3d d4fd 873d
00000260: ab36 9bbd 18bc bdbc b44a 923d a4a8 f3ba
00000270: 06b7 173d d2aa a1bc 8245 613d 76d9 e83c
00000280: 1409 c93c 5d8c aebd 2fc3 b53c 76b1 c2bd
00000290: c26f bebd 29f7 463d fdbb c1bd 8e97 c23d
000002a0: 951c 0fbd 1487 87bd 1409 b63d 2dc2 0dbe
000002b0: 6bb8 edbc ce63 90bd 6f77 d5bd 6c9f 0c3d
000002c0: 54de 97bd 704a 1a3c 7a95 833c e161 ee3c
000002d0: 0a5e 84bd 3a6e 513d 5d12 8d3d fa86 f5bc
000002e0: 549e c4bd 1124 3a3d 130f 20bd 148a 063e
000002f0: a8a3 bd3c cbf4 d43b 162b ce3d b8ce 47bd
00000300: 2246 acbd 648f dbbd 3525 78bb bbeb 7fbd
00000310: 12b1 ccbd a336 15bc c615 f33d 9588 c7bd
00000320: ec23 4fbd b6fd 55bd 9836 523d 487e aa3d
00000330: 1acb 4fbd 585a 793d cafa 0cbe 03dd 27bd
00000340: 8be2 123e cce6 7dbd 4c0e f93d 7159 d5bd
00000350: 9c91 873d 625e e23c 714f 323d 5535 923d
00000360: d46c a7bc 8d9e 62bd f400 013e 08d0 0bbd
00000370: 3222 71bd 4206 ce3d 7016 e4bd 5dff 8c3c
00000380: 1705 d9bd 2960 f8bd 8393 c5bd 8470 053e
00000390: 1611 2ebd 45bf b0bd 59a4 10bd 419f 363d
000003a0: e2a7 673d c000 62bd 74d3 293d 127d 533d
000003b0: e148 ccbd 4f6c 183e a937 de3d 6007 743d
000003c0: e767 46bd 1b87 c2bc c25a 58bc 93d9 91bd
000003d0: d45d a7bd 0a28 b8bd f33e 8ebd 18a6 ef3c
000003e0: b006 123e 20fe 343d 09ac ee3d 1224 cabd
000003f0: 82fd aebd a121 5bbd ccd1 dabd d2b4 28bd
0.06862328 -0.0251506 -0.056968786 0.007465685 -0.009587005 0.08436595 -0.08729802 0.06410695
0.089363046 0.035197616 -0.029248808 -0.0052523636 0.04317928 -0.14454202 -0.048089564 -0.09746444
-0.11410789 0.054030333 0.116813675 0.023361562 0.091431186 0.0029439593 -0.044131335 0.057759125
-0.026451595 0.047577243 -0.14815925 -0.069775 -0.027462553 -0.0104440255 -0.020385772 -0.1409357
0.05334842 0.051464673 0.048372936 -0.015015065 -0.0029248858 0.06470439 0.11875103 -0.010550878
-0.068275295 -0.004742722 -0.039353278 -0.021985108 0.035628177 -0.019808466 -0.09658074 0.11112033
0.13307996 -0.062528 0.06669886 0.030983381 -0.048209153 -0.015523406 0.07329931 0.044368275
-0.12250606 0.09823926 0.06315817 -0.13240544 -0.043570947 0.040528044 -0.13163942 0.055596832
0.020327985 -0.065211676 0.040527925 0.036006924 0.035690773 0.0215603 0.14388695 -0.039575413
-0.082627505 0.00012337095 -0.02446719 0.06720008 -0.15248697 0.10794666 0.15666063 -0.054174297
0.04342184 0.048516277 -0.13233563 0.010895884 -0.13863647 -0.14027014 -0.0706837 0.020008191
-0.013679313 0.011861001 0.21074599 -0.11527775 -0.017521095 -0.12462825 -0.09519344 -0.09559175
-0.018362831 0.008278151 0.10457997 -0.006582246 0.18752791 0.053873096 0.04819505 -0.11635477
-0.021526288 -0.0937636 -0.041984588 -0.019966578 -0.003168217 -0.057225842 0.119047716 -0.022734722
-0.011324071 0.06374032 -0.00933932 -0.05269937 -0.08834282 -0.012548219 0.11326952 -0.025216741
0.25643384 0.00034865132 0.019151594 0.04742284 0.012240226 0.03832423 -0.17548458 0.015242696
0.09299151 -0.05937301 0.20163915 0.07198481 -0.022540692 -0.10053571 0.010834626 0.021658104
-0.18001243 0.103096046 0.13912895 -0.14527138 -0.06440311 -0.13077277 0.07519633 0.021821173
-0.11134985 0.08435204 -0.090241484 -0.062673934 0.031634122 -0.02464893 0.100776084 0.06640211
-0.075787865 -0.02316098 0.07143155 -0.0018589688 0.03703978 -0.019734774 0.05499793 0.028424006
0.024540462 -0.08522866 0.022187797 -0.09506504 -0.0929866 0.048575554 -0.09459684 0.09501563
-0.034939367 -0.06617561 0.0888845 -0.13843603 -0.029018601 -0.07050286 -0.10423171 0.034331724
-0.074154526 0.009417161 0.016062487 0.029099407 -0.06463249 0.05113051 0.06888268 -0.029971588
-0.09600511 0.04544455 -0.039076876 0.1313861 0.023149326 0.006498908 0.10066812 -0.048781127
-0.08411814 -0.10720709 -0.0037863974 -0.06248067 -0.09994711 -0.009107265 0.11869387 -0.09742848
-0.050571367 -0.05224391 0.051321596 0.083248675 -0.050730802 0.060877174 -0.13767543 -0.040982258
0.14344232 -0.061987683 0.1216093 -0.1041745 0.0661957 0.027632896 0.043532792 0.071390785
-0.020437635 -0.055326987 0.1259802 -0.03413394 -0.0588705 0.10059787 -0.11137092 0.01721161
-0.10596674 -0.12127716 -0.09647276 0.13031203 -0.042496763 -0.08630232 -0.035312984 0.04458547
0.05655659 -0.055176497 0.041461423 0.05163295 -0.09974838 0.14885066 0.1085046 0.059577346
-0.048438933 -0.023746064 -0.013205232 -0.07121577 -0.08172193 -0.08992012 -0.069456 0.029254004
0.14260364 0.044187665 0.11653907 -0.09870161 -0.085444465 -0.053498868 -0.10684547 -0.04118807

bias f4 [250]
00000000: bee2 abbd 7a0f 173d ad6d e53b c1fc 81bd
00000010: 5626 48bc 8cab 72bc 92c4 1c3e 8963 8d3d
00000020: c479 6ebc 52f0 83bd 0c2a c73c 3aa9 f4bd
00000030: 40ec 643c 0d3e e1bc cec2 06bd aef9 ce3d
00000040: 0bca 1c3c 0e87 6ebb 46ec 1bbc 4833 a0bb
00000050: c567 44bd 2afe db3d 3e1f 943c b60a a63c
00000060: a8a1 13be 5ae8 95bc ba63 4ebd 2c25 dfbd
00000070: d57c ecbd 9540 333e a20a 173d bd9b e5bd
00000080: 5891 99bd 27f5 bdbc e730 24bd 4d37 5fbb
00000090: 5bd5 c7bd 7af6 703d 4308 d33c 6aac 673d
000000a0: 26b6 93bc f365 40bd 3ff6 523c 0ded 6c3d
000000b0: 8ffd 5b3c 497c a73c f5b9 06be ddc8 f53d
000000c0: 6b55 943d 738a 003d 5855 3abd f508 163d
000000d0: e591 623d fc2b 8cbc ed7e 813d 2122 b8bc
000000e0: f19e 13be a83c d6bd b775 46bd 1363 a0bd
000000f0: fd2a d7bd 2e9f ad3c 3086 aebc 98ca 32bc
00000100: 20c9 b93c e224 b8bd 5170 e6bb 0774 b33d
00000110: 3ec1 ab3c 0534 c53d 7514 0c3c c735 fcbc
00000120: a2f5 ebbd a274 b93a 76db 08bd a703 613c
00000130: d037 b13d defd 2b3d 6949 49bd 80d9 34bd
00000140: bd8b 71bc a790 37bd f8e0 edbd 3e3e 433e
00000150: 7cbf bb38 ba88 1dbc 8883 c33d e867 6a3d
00000160: cccc 863d c6ec 1c3d 946e d73c 2e4f 50be
00000170: d2a3 353e 3747 a5bc 4529 3b3c 77ea 4e3c
00000180: 0b4c 89bd 78c6 8cbd 86b2 133d ed4e 67bd
00000190: b11c bfbd 0346 6cbc 4fc2 be3d c515 2c3d
000001a0: f89d e4bc b0a9 e03c 0f1e 1cbd 6c33 0abd
000001b0: b538 afbd 87bd 09be fa16 933c 0b42 8ebd
000001c0: 1696 af3d d5db f2bc 544f f33c 695b a03d
000001d0: b96c 99bd b397 c5bc c98b bebd b8cd 9bbb
000001e0: 934b 9dbd 63fc 173e bc97 65bd 5d72 ae3e
000001f0: fd36 a9bd 417e 9d3d 394e 1fbd bce2 37bd
00000200: bb9a ccbc 3d02 86bd 542a a9bd 23a8 8cbc
00000210: 9bd4 663d baec fe3c 30c5 abbd e796 c93c
00000220: ec7f d93c d19c 3bbd 852d 803d 77a4 b9bd
00000230: c1d6 5139 514d 3e3c 6786 ed3d c54a b43c
00000240: 65f4 393d e30a ae3d 5ce5 17be c2e0 403d
00000250: c5c9 833d 35f5 01be 00e7 473d 2cec 2f3e
00000260: 6b66 35bc bc43 40bd 22e0 073d f4b8 c2bc
00000270: 2f97 b5bd 1223 cabd 0d55 0ebd 9dbd f73c
00000280: a0aa 8c3d fd0f ecbd ddb2 4bbd f8de 38bc
00000290: 0b64 96bd 55d0 8dbd 19ff 94bc 13e2 b2bd
000002a0: 53f9 cebc e34d 1bbd da93 d13d 139a b03c
000002b0: 221d 6a3d bcf5 e3bd f2f5 dc3d e262 4f3c
000002c0: e662 d9bd 4fb3 e4bd 087d 323d a501 60bd
000002d0: 173b a73d 0a03 e0bd 02d3 e5bd 4eb2 3fbc
000002e0: 77ac e33d d4f9 e03d c2fb bcbc 3670 953d
000002f0: 787b 33bd 27c9 45be 5675 aa3d c3a6 e7bc
00000300: 6216 653e 1926 06bd 1465 8abd 56c6 7abc
00000310: d646 ac3d e99c fe3d d8e3 0d3e 1c01 17bd
00000320: a9d4 03bd afb5 af3d 27bb ad3c 8278 abbd
00000330: 1567 74bd 9a1e 0bbe 4d1a 153d cc5c eebd
00000340: 8fad 923e 64ab e8bc 1ac0 a33d f47c 843d
00000350: d9ce f0bd 8c6e 693d 686e 15be 31a6 7b3e
00000360: a2fc 5b3d 8455 473e 124e bbbd f29d 433c
00000370: 9f97 69bd 99af 723b d449 e5bd 0818 82bd
00000380: 52c8 6c3d 9874 883d e141 863d f92a cdbc
00000390: 94ba 223e 0fbe 7b3d b3b7 d0bd 100e 9bbc
000003a0: f774 443d e3ea fabc 6eb2 233e 15f3 adbd
000003b0: 1155 1c3d 7c3a 363d c88d e8bd 9e09 fabd
000003c0: ce52 f4bc b4e4 18be 39d4 2d3c 1d0a 943d
000003d0: 0d3c 08bd 32b8 f63c 6856 99bd ad91 343e
000003e0: e673 943d 0479 b8bc
-0.08392857 0.036879994 0.0070015998 -0.06347037 -0.012216171 -0.014811408 0.1530936 0.069037504
-0.014555398 -0.06442322 0.024312042 -0.1194634 0.013972342 -0.027495408 -0.032900624 0.10106216
0.009569655 -0.0036396417 -0.009516781 -0.0048889257 -0.047950525 0.10741837 0.018081304 0.02026878
-0.14417136 -0.01829927 -0.050388075 -0.10895762 -0.11547247 0.17505105 0.036875375 -0.11211345
-0.07498425 -0.023188187 -0.0400857 -0.0034060061 -0.09757491 0.05882881 0.025760775 0.05656091
-0.018031191 -0.046972226 0.012876092 0.057843257 0.013427152 0.020445006 -0.13156874 0.12001202
0.07242855 0.031382035 -0.045491546 0.036629636 0.055314917 -0.017110817 0.06323037 -0.022477211
-0.144161 -0.10460788 -0.048452105 -0.07831397 -0.10506246 0.021194067 -0.02130422 -0.01091256
0.022678912 -0.0899141 -0.007032432 0.08762365 0.020966168 0.096290626 0.008549799 -0.030787362
-0.1152146 0.0014149139 -0.03341242 0.013733781 0.086532235 0.041990153 -0.049142275 -0.044152737
-0.014742789 -0.044815686 -0.11615175 0.19066712 8.9525216e-05 -0.009615118 0.09546572 0.057228
0.06582031 0.038311742 0.026297845 -0.20342705 0.17738274 -0.02017556 0.011423414 0.012629143
-0.06703957 -0.068737924 0.036058925 -0.056471754 -0.09331644 -0.014420989 0.09314405 0.04201295
-0.027907357 0.027424663 -0.038114604 -0.033740446 -0.08555738 -0.13451205 0.017955292 -0.069461904
0.085735485 -0.02964584 0.029700913 0.07829935 -0.0749144 -0.024120187 -0.09304006 -0.004754748
-0.0768043 0.14842372 -0.05605291 0.34071627 -0.08262441 0.07690097 -0.03889296 -0.044893965
-0.024976125 -0.06543396 -0.082600266 -0.017170018 0.0563551 0.03111874 -0.0838722 0.024608089
0.026550256 -0.04580385 0.06258682 -0.09064572 0.00020011795 0.011615113 0.11597901 0.02200831
0.04539909 0.0849817 -0.14833587 0.047089346 0.06434969 -0.12691195 0.048804283 0.17179936
-0.011071782 -0.046939597 0.033172734 -0.023769833 -0.088667266 -0.098699704 -0.03474908 0.030241782
0.06868482 -0.11526487 -0.049731124 -0.011283629 -0.073433004 -0.06924502 -0.018188046 -0.087345265
-0.025265371 -0.037916075 0.102332786 0.021557843 0.05715669 -0.111308545 0.10789098 0.012657853
-0.106145665 -0.11167013 0.04357627 -0.05468907 0.08165567 -0.1093808 -0.11221887 -0.011700226
0.111168794 0.10985151 -0.023069266 0.07296793 -0.04381892 -0.19315015 0.08323161 -0.02827776
0.2237182 -0.032751177 -0.0675756 -0.015306076 0.084119484 0.12432272 0.13856447 -0.036866292
-0.03218523 0.08579575 0.021207405 -0.083725944 -0.05966862 -0.13585892 0.036402036 -0.11638793
0.2864804 -0.028402038 0.07995625 0.064691454 -0.11758203 0.05699019 -0.14592898 0.24575116
0.053707726 0.19466215 -0.0914575 0.011939513 -0.057029363 0.0037030934 -0.11195722 -0.0635224
0.057808228 0.066628635 0.06555534 -0.025044905 0.15891486 0.06146055 -0.10191288 -0.018927604
0.04796311 -0.03062958 0.15986034 -0.0849363 0.038167063 0.04448937 -0.113551676 -0.122088656
-0.02982464 -0.14930993 0.01060968 0.072284915 -0.033260394 0.030117128 -0.07487184 0.17633696
0.072486684 -0.022518642

weight f4 [1, 250]
00000000: 99b4 be3c d8ed 963c 1b10 0c3d eb3f 343c
00000010: 4d57 b2bc 0838 beb9 b03d c7bc 3981 5fbc
00000020: f6a3 453d c39d a93c 47a1 cb3c 7563 703b
00000030: 51e4 d3bc 93a1 cd3b 4a2b 1b3c fab2 7bbc
00000040: c4c8 8c3c 9386 89bb bdf6 2b3c 0c49 1ebc
00000050: a535 60bd 81b6 dd3c 5024 f2bc 2b01 e9bc
00000060: d05b af3c f51a 83bb 62dc f9bc cd58 7bbc
00000070: c296 f2bc f8b7 0f3e bfc0 d23c 1aac 14b7
00000080: d8ce c5bc 579c f83b bbdd 943c 524c 143c
00000090: a92f 8c3c 00b2 0c3c c4b4 0cbc acb8 cbbb
000000a0: 6acf cabc ca5a 1c3d 3204 52bc df7c cd3c
000000b0: 03b4 303c d36f b8bc 1bdf 21bc 87a0 a33c
000000c0: bb2e 893b 598e d63b 41f4 1abd 7b48 b33c
000000d0: 5756 d93b d3be 4dbc bc38 6bbd 4122 913c
000000e0: c331 76bc 9f4d cf3c 4d6e 0cbc 445f 69bc
000000f0: 0228 39bd 0567 333d adfd a1bc fa87 a4bc
00000100: 9388 273b 9401 4bbc 780d 6f3b cb10 00ba
00000110: 0a8a bebc e0a2 41bb bc90 d13c e54b fb3c
00000120: 7c26 74bc 6eb0 3f3c f3e9 8c3c e6fa 4a3d
00000130: 84d7 423b 968c 653c aa4e 183c 8062 cd3b
00000140: c9b7 c5bb 9be4 37bb 2e71 303d de87 03be
00000150: 5ab1 273c e024 abbc 8f8e 43bc bc51 77ba
00000160: 2f6b bc3c 3ea0 5ebc 2a5e b4bc ae66 ca3d
00000170: 1461 a13d 49f6 83bc ff25 87bc 7756 b9bc
00000180: 5aaa eb3c 1e2d 99bb 1d9f 2bbc 75bd 7b3a
00000190: afb6 4abd e32d dabd d2dd e0bc 7081 c43c
000001a0: 7717 1a3c 9a31 95bc d8f7 0abd 0120 1e3d
000001b0: 2936 edbc 699c 9dbc 9a2a af3c 4c17 4d3c
000001c0: a1eb 943c 0e42 29bc 85f0 9abc b44b 43bc
000001d0: 61b9 70bb 0dc2 48b8 0d1f 5b3b e8a4 9b3c
000001e0: ecaf babc 3e82 733d c66e 26bd 0a7f 033e
000001f0: 8735 0f3d b280 0e3d 9555 d1bc 1823 de3c
00000200: 5c0e 663b c8fe 81bc 20c9 b23c 36fe 94bc
00000210: 2aa9 68bc fcda cd3b 7738 703b 514b 763c
00000220: a6d3 373a 01e1 86bc 2549 0ebd 0198 2a3b
00000230: ac97 2d3c e61c d3bc 6a91 043c c4df b13a
00000240: f785 063d 8683 a7bc 47ca 6439 718f b7bb
00000250: f2b6 b93a 6409 0a3b 441f 023c 2306 46bd
00000260: 85a2 07bd 9dea d4bc 9069 03bd 7cfa 55bd
00000270: 451c 08bc 69d8 b1bc ddd7 2e3c 2137 ae3b
00000280: 70f6 3cbc 1952 633c 5401 dcb9 2bf4 16bb
00000290: 9128 2b3d 365e 283b 6004 3fbc 1002 e8bb
000002a0: b065 1b3b 4e32 e33a eeab 8c3c c282 743d
000002b0: 3759 e93b 0b73 38bd c432 d73b 20b6 1e3d
000002c0: 1b4a 6b3d 0c88 f93c 0ff4 9a39 9e89 a53c
000002d0: f893 48bd d17c ebbc f9a2 48bb 57aa 24bd
000002e0: bc34 01be bfb4 8e3b c84c ed3c 6937 0a3c
000002f0: 3d9e e73b e9b2 b0bc 6b29 883c 9583 dc3c
00000300: d1fa 153e 85d8 7d3d 293b 65bb 25ce f1bc
00000310: d214 41bc ace0 ef3b d239 b2bd e277 b13b
00000320: 2da6 813b 4f7c ddbb 0930 113c 0303 3ebd
00000330: a79e 46ba d306 a93c a30c b4bc e3a0 72bc
00000340: 46f5 0d3d 0cbd 8d3c 71fc 1c3c a962 323d
00000350: c076 813b 7720 6ebc 2d7b 67ba 928c 2b3e
00000360: 322e c1bc 368f 0ebe f9fc 44bd f3e2 173b
00000370: f039 1f3d 2b2c 9a3c f4f6 f2bc 8c51 c33c
00000380: d852 b3bc b7ad 533d 0b44 e6b9 77f1 c73c
00000390: 283b 0ebc 5cbb ca3c 77b0 26bc 8e0d 2c3a
000003a0: bb12 e3bb 07c2 21bc 7992 243e 048f 14bb
000003b0: 0ab1 25bd 854f b4bc 91e2 57bc d9fb 623c
000003c0: 9856 4ebc 4492 d43b e058 a6bc 8e87 9d3b
000003d0: 6a7f 9a3c 8ce8 143d 98b4 64bd 03c4 843d
000003e0: 2b1e 523b befd 20bc
0.023279475 0.01842396 0.034195047 0.011001567 -0.021770144 -0.0003628137 -0.024321407 -0.013641649
0.04825207 0.02070511 0.024857176 0.0036680375 -0.025865706 0.0062753647 0.00947077 -0.015362496
0.017185576 -0.0041969507 0.010495839 -0.00966097 -0.05473866 0.027064564 -0.02955833 -0.02844294
0.021406084 -0.0040010163 -0.030500595 -0.015340996 -0.029612903 0.14035022 0.025726674 -8.861558e-06
-0.024146482 0.0075869965 0.018172136 0.009051399 0.01711257 0.00858736 -0.00858802 -0.006217083
-0.024757106 0.03817252 -0.012818383 0.025083957 0.010785106 -0.02251426 -0.009879853 0.019974006
0.004186479 0.006547731 -0.037830595 0.021885147 0.006632607 -0.012557703 -0.057427153 0.017716529
-0.015026513 0.025305567 -0.00857122 -0.0142439045 -0.04520417 0.04379942 -0.019774282 -0.02008437
0.0025563582 -0.012390513 0.0036476534 -0.0004885315 -0.023259182 -0.0029546544 0.02558171 0.030675838
-0.0149017535 0.011699779 0.0172014 0.04955568 0.0029730508 0.014010569 0.009296099 0.0062678456
-0.006033872 -0.0028059843 0.043076687 -0.12844798 0.010235155 -0.020891607 -0.011935844 -0.00094344816
0.023000328 -0.013588009 -0.022017557 0.09882866 0.07879844 -0.016108649 -0.01649761 -0.022624237
0.028767753 -0.004674568 -0.010474947 0.00096031214 -0.049490627 -0.106532834 -0.027449522 0.023987502
0.0094050085 -0.018212128 -0.03392777 0.03860474 -0.02895649 -0.019239621 0.021382619 0.012517761
0.018178763 -0.01033069 -0.018913517 -0.0119199045 -0.0036731588 -4.786444e-05 0.0033435256 0.018999532
-0.022788964 0.05945038 -0.040632986 0.1284143 0.034963157 0.034790702 -0.025553504 0.027116343
0.0035103774 -0.01586856 0.02182442 -0.018187623 -0.014200488 0.0062822085 0.003665475 0.015032605
0.0007012434 -0.016464712 -0.034737725 0.0026030543 0.010595243 -0.025770616 0.00809131 0.0013570716
0.032842603 -0.020448457 0.00021819129 -0.0056018163 0.0014168902 0.0021062726 0.007942025 -0.048345696
-0.033113975 -0.025990779 -0.032083094 -0.052240834 -0.008307521 -0.021709638 0.010671583 0.0053166305
-0.011533365 0.013874554 -0.0004196266 -0.002303372 0.041786734 0.002569092 -0.011658758 -0.007080324
0.0023711734 0.0017333718 0.017171826 0.059695013 0.007121231 -0.04503159 0.006567331 0.038747907
0.05744372 0.03046038 0.00029555007 0.020207223 -0.04896924 -0.02874604 -0.0030614717 -0.04020151
-0.12617773 0.0043550427 0.028967276 0.008436062 0.007068424 -0.021569686 0.016621312 0.026918212
0.1464646 0.061974067 -0.003497789 -0.029517243 -0.011784749 0.007320484 -0.087024346 0.0054159025
0.0039565773 -0.0067592035 0.00886155 -0.04638959 -0.00075767416 0.020633137 -0.021978682 -0.014808866
0.03465774 0.017302059 0.009581671 0.04355112 0.0039509237 -0.014534107 -0.00088303053 0.16752842
-0.023581598 -0.13921818 -0.048092816 0.0023176044 0.038873613 0.018819889 -0.029658772 0.023842596
-0.021890089 0.05167934 -0.00043919715 0.024407132 -0.008681096 0.024747543 -0.010173908 0.0006563299
-0.006929723 -0.00987292 0.160715 -0.0022668252 -0.04045204 -0.022010574 -0.013176576 0.0138539905
-0.012593888 0.006487163 -0.02030605 0.004807419 0.018859584 0.036354586 -0.05583629 0.06482699
0.0032061439 -0.009826122
