model/MLP2-000629.pth (torch, 74207 bytes, 3 tensors)

weight f4 [250, 70]
0	0xbd779f02	-0.060454376
1	0x3dbf54be	0.09342335
2	0xbd37c522	-0.044865735
3	0xbd4512c2	-0.048113592
4	0x3d8ac782	0.06776334
5	0xbe03780a	-0.1283876
6	0x3da1b5dd	0.07896016
7	0x3e04eb87	0.12980472
8	0xbd5b878e	-0.053596072
9	0x3d4fd451	0.05073959
10	0x3d874689	0.066052504
11	0xbda1e653	-0.07905259
12	0x3de43d0c	0.11144456
13	0x3ce16634	0.027514555
14	0xbc4f04ed	-0.012635452
15	0xbdbcb40c	-0.09214029
16	0x3d30b4e0	0.043141246
17	0xbc78f686	-0.0151954945
18	0xbd3c4aee	-0.045969896
19	0x3d8b3be0	0.067985296
20	0x3d326256	0.04355081
21	0x3e056351	0.13026167
22	0xbc3d5507	-0.011555917
23	0xbc106392	-0.008812802
24	0x3db5a379	0.088690706
25	0x3c98a104	0.018631466
26	0xbd812330	-0.063055396
27	0x3ba51429	0.0050378037
28	0x3c8bfa70	0.017087191
29	0xbde99d38	-0.1140694
30	0x3c4ff933	0.012693691
31	0x3bd24928	0.0064174123
32	0x3c9a00dd	0.01879924
33	0x3dbd5029	0.09243805
34	0xb9b6c6a0	-0.00034861732
35	0xbce17005	-0.027519235
36	0xbdd626ac	-0.10456595
37	0xbd7540b2	-0.05987615
38	0x3dc11a20	0.09428811
39	0x3d9d6a15	0.07686249
40	0x3bf5e0c7	0.007503602
41	0xbaa8d060	-0.0012879483
42	0x3df2a5ae	0.11848007
43	0xbcb5a43d	-0.022173041
44	0x3d7c766b	0.06163637
45	0xbc78817c	-0.01516759
46	0xbd912659	-0.07087392
47	0x3d2e4212	0.04254348
48	0x3c9dbbcf	0.019254593
49	0xbd3eca5b	-0.0465797
50	0x3d7420db	0.059601646
51	0xbb58e697	-0.0033096427
52	0xbd01e4c2	-0.0317123
53	0x3d213c1c	0.039363965
54	0x3e0044b3	0.12526207
55	0x3d56bb30	0.05242461
56	0x3c20a50f	0.009804978
57	0x3ddab21d	0.10678504
58	0x3d6f4d0b	0.058423083
59	0xbde01693	-0.10941806
60	0x3cc68ebc	0.024237983
61	0x3ce34de9	0.027747111
62	0xbb25a780	-0.002527684
63	0x3ca4b78f	0.020107059
64	0xbd7433e7	-0.05961981
65	0xbaef98c6	-0.0018279783
66	0xbca48f83	-0.020087963
67	0x3da2ef24	0.07955769
68	0x3d9a631f	0.07538437
69	0xbdae7512	-0.08518423
70	0x3d63bbe4	0.05559911
71	0x3d89d7a1	0.06730581
72	0x3c98dc8f	0.018659858
73	0x3c1a7656	0.009427628
74	0xb9d6fc2a	-0.00041005138
75	0x3d72da03	0.059289943
76	0xbbbf90e5	-0.00584613
77	0x3c420c28	0.011843719
78	0x3d1f9553	0.038960766
79	0xbccc4d2c	-0.024939142
80	0x3d3d2c6e	0.04618495
81	0x3d8b57d7	0.068038635
82	0xbd8b02d9	-0.067876525
83	0x3cc70579	0.024294602
84	0x3a8c2692	0.0010692647
85	0x3db16439	0.08661694
86	0xbddea184	-0.108706504
87	0x3d284eb9	0.0410907
88	0xbcbbc07d	-0.022918934
89	0xbb52a0df	-0.0032139344
90	0xbd739809	-0.059471164
91	0xbd2ec502	-0.04266835
92	0xbd6bdf91	-0.057586256
93	0xbbd1fb4d	-0.006408131
94	0xbd1a77b0	-0.0377118
95	0x3d09304b	0.03349332
96	0x3dadca35	0.084858336
97	0xbd861294	-0.06546512
98	0x3dd127d2	0.10212673
99	0x3cc4441d	0.02395826
100	0xbdc2a189	-0.09503467
101	0xbd644bfb	-0.055736523
102	0xbda96e5f	-0.08273005
103	0x3d8e2967	0.069414906
104	0x3d0052d0	0.031328976
105	0x3c984b4f	0.018590597
106	0xbd6120a9	-0.054962788
107	0xbcaaaae1	-0.020833435
108	0x3cda520c	0.026650451
109	0x3d08bbc3	0.03338219
110	0x3d295000	0.04133606
111	0x3d44678d	0.047950316
112	0xbd452db3	-0.048139285
113	0x3d17d265	0.037065882
114	0xbd646bd6	-0.055766903
115	0xbd84ff75	-0.06494037
116	0x3af7ba47	0.001890012
117	0xbc77eac7	-0.015131659
118	0xbd8a96f8	-0.06767076
119	0x3c510f05	0.012759929
120	0xbd50c365	-0.050967593
121	0xbcae4f95	-0.021278182
122	0x3d9a9954	0.07548776
123	0x3d24d45e	0.04024159
124	0xbd8cc2f1	-0.068731196
125	0xbd35d7de	-0.04439532
126	0xbd9e76a1	-0.077374704
127	0x3dca66ec	0.09882912
128	0x3d8d1b77	0.06890004
129	0x3d49d0b6	0.049271308
130	0xbd22d75e	-0.03975617
131	0x3d2ad6c2	0.041708715
132	0xbd034248	-0.032045633
133	0x3d55be95	0.052183706
134	0xbcc7cd79	-0.02438997
135	0x3d19665f	0.037451144
136	0x3d27f13a	0.041001536
137	0x3d161bc4	0.036647573
138	0x3c760576	0.01501595
139	0xbde1cf03	-0.110258125
140	0x3d06da2b	0.032922905
141	0x3d75f1e2	0.06004513
142	0xbc424be2	-0.011858912
143	0xbca49d06	-0.020094406
144	0x3d82e49d	0.06391261
145	0xbd9f9666	-0.07792358
146	0x3d3d1a72	0.0461678
147	0x3d21379e	0.03935968
148	0x3d850373	0.064947985
149	0xbd98524a	-0.074375704
150	0xbd0b4a57	-0.034006443
151	0xbd3627ef	-0.044471677
152	0xbbd02147	-0.006351623
153	0x3d786828	0.060646206
154	0x3d338f72	0.043837972
155	0x3d3cdcff	0.046109196
156	0x3cd40800	0.025882721
157	0x3de56294	0.11200443
158	0xbd89fe62	-0.06737973
159	0x3d65b7a3	0.056083333
160	0x3d24a992	0.040200777
161	0xbdc9ec7f	-0.09859561
162	0x3dca2132	0.09869613
163	0x3ddbb1e8	0.10727292
164	0x3d42c7ba	0.047553755
165	0x3ca53cf7	0.020170672
166	0xbc0bf642	-0.008542599
167	0x3d8fdba6	0.070243165
168	0x3dc9d217	0.098545246
169	0xbda3d3f6	-0.07999413
170	0x3dd608ad	0.104508735
171	0xbc82b822	-0.015956942
172	0x3cf7fad7	0.030270977
173	0x3d3731fa	0.044725396
174	0x3c10c179	0.00883519
175	0xbd3d3720	-0.04619515
176	0xbdb9c97e	-0.09071635
177	0x3dcf0ead	0.10110221
178	0x3d1235c4	0.035695806
179	0xbdce0ba7	-0.10060816
180	0x3cbf088e	0.023319509
181	0xbc9666e1	-0.018359603
182	0xbc695874	-0.01424228
183	0x3d69a5ea	0.057042994
184	0x3d2b76b2	0.041861244
185	0x3d0eba9e	0.03484594
186	0xbd92254d	-0.07136021
187	0x3c367c66	0.011138057
188	0xbca9d459	-0.020731138
189	0xbcfd39b5	-0.030911306
190	0x3d398155	0.045289356
191	0x3dbab40d	0.09116373
192	0xbd112a9f	-0.035441037
193	0xbd0beb0c	-0.034159705
194	0x3ce30f64	0.0277173
195	0x3d3640c4	0.04449536
196	0x3c80c45f	0.015718637
197	0x3c34e282	0.011040332
198	0xbcf0319c	-0.02932053
199	0xbd575053	-0.052566838
200	0x3c4e8498	0.012604855
201	0x3cb68d79	0.022284256
202	0xbd4c65f9	-0.049901936
203	0x3da3489b	0.07972833
204	0x3dc2ab8c	0.09505376
205	0xbd54911a	-0.051896192
206	0x3d818f35	0.06326143
207	0x3cf5630d	0.029954458
208	0xbc052d46	-0.00812847
209	0xbc9db31e	-0.019250449
210	0x3e16a79b	0.14712374
211	0xbc9418f8	-0.018078312
212	0x3e0b357d	0.13594623
213	0x3d30b6b0	0.043142974
214	0x3d5165ac	0.051122352
215	0xbd74b9ff	-0.059747692
216	0xbba16ce4	-0.004926311
217	0xbd0aaa25	-0.03385367
218	0xbd83d667	-0.064373784
219	0xbcc711d8	-0.0243005
220	0x3cd5e74b	0.026111266
221	0x3e087480	0.13325691
222	0x3d681e97	0.056669798
223	0xbcf1a371	-0.02949688
224	0x3dea0821	0.11427332
225	0x3be98ae4	0.0071271528
226	0x3caf56c8	0.021403685
227	0x3e21da45	0.1580592
228	0x3c0abe88	0.008468278
229	0xbdf8f6a2	-0.121564165
230	0x3c9afcca	0.018919367
231	0xbd51883f	-0.051155325
232	0x3dc99644	0.09843114
233	0xbc9e92b6	-0.019357067
234	0xbc2062ca	-0.009789178
235	0xbd5f73bf	-0.054553743
236	0x3d8412ce	0.06448899
237	0x3dbbb843	0.091660045
238	0x3e10fb00	0.14158249
239	0x3d786a25	0.060648102
240	0x3d0964f4	0.033543542
241	0x3e13c352	0.14429978
242	0xbc4f1476	-0.012639156
243	0xbcdec13e	-0.027191754
244	0xbd007460	-0.031360984
245	0x3d091dbc	0.033475623
246	0x3ce24205	0.027619371
247	0x3d0fb976	0.03508898
248	0xbd2af435	-0.0417368
249	0x3ba1a970	0.0049335286
250	0x3e06a3f0	0.13148475
251	0xbd0efacf	-0.03490716
252	0x3e029f8b	0.12756173
253	0x3dc26bc3	0.0949321
254	0x3d3a563a	0.04549239
255	0xbad59105	-0.001629383

bias f4 [250]
0	0xbd282bfb	-0.041057568
1	0x3c3e476c	0.011613708
2	0x3c0b6d85	0.008509998
3	0xbe1cb577	-0.15303598
4	0xbdb139ae	-0.0865358
5	0xbd62a564	-0.05533351
6	0x3df9ccd1	0.12197269
7	0xbce58090	-0.028015405
8	0xbe070458	-0.13185251
9	0x3e4b94bf	0.19880961
10	0x3d14f248	0.03636387
11	0x3d664c8d	0.05622535
12	0x3d6b5b83	0.05746032
13	0xbd08b5bb	-0.033376437
14	0x3cc47a2a	0.023984034
15	0x3d7ce3b6	0.0617406
16	0xbd606be7	-0.054790404
17	0x3cdd8465	0.02704067
18	0xbd6f76ca	-0.058462895
19	0xbdf2b328	-0.118505776
20	0x3d57bde2	0.05267132
21	0x3d57ea88	0.0527139
22	0x3d66877b	0.056281548
23	0xbe01075f	-0.12600468
24	0x3dd53f1f	0.1041243
25	0x3bdc3160	0.006719753
26	0x3d9037f7	0.070419244
27	0x3c3c012f	0.011474892
28	0xbd505ead	-0.05087154
29	0x3c25aa58	0.010111414
30	0x3dad47f2	0.08460988
31	0xbe1b59c8	-0.15170968
32	0xbc6b6ce3	-0.014369222
33	0x3d7dc1a8	0.061952263
34	0x3d00c4f5	0.031437833
35	0xbdf6d7b1	-0.120528586
36	0x3d9a0ff0	0.07522571
37	0xbd50a98c	-0.050942943
38	0xbe18df86	-0.14929017
39	0x3d36b4fd	0.044606198
40	0x3cac75b8	0.021052226
41	0xbca87578	-0.020563826
42	0x3daa2ca6	0.08309297
43	0x3d6e4df8	0.058179826
44	0xbdb12240	-0.08649111
45	0x3d31c37f	0.04339933
46	0x3c9e763e	0.019343492
47	0xbd511378	-0.051043957
48	0x3d61e6e9	0.055151854
49	0xbc17839f	-0.0092476895
50	0x3d8a93bf	0.067664616
51	0x3da46e8c	0.08028898
52	0xbc3f7a2b	-0.011686842
53	0xbda23b11	-0.07921422
54	0xbcd8b4f7	-0.026453478
55	0xbe1559d4	-0.14585048
56	0xbe090b88	-0.13383305
57	0x3cd7c751	0.026340159
58	0x3d567e07	0.052366283
59	0xbcb5651f	-0.022142945
60	0x3c6385cd	0.013886881
61	0x3cbdee02	0.02318478
62	0x3cf6de71	0.030135365
63	0xbd24fb87	-0.040278938
64	0xbdf0b198	-0.11752623
65	0xbd996d7d	-0.07491586
66	0xbc27f27b	-0.010250683
67	0xbdcaa2fe	-0.098943695
68	0xbdc759ba	-0.09733911
69	0xbd18106a	-0.03712503
70	0x3d451588	0.048116237
71	0x3c82b525	0.015955517
72	0xbd2635c9	-0.040578637
73	0x3c68a732	0.014200019
74	0xbc71bf5c	-0.014755096
75	0x3d522581	0.051305298
76	0xbd1ffc74	-0.039059117
77	0x3d42739f	0.047473546
78	0xbcfc871d	-0.030826146
79	0xbd1dc407	-0.038517024
80	0x3c54363c	0.012952384
81	0xbcb749c2	-0.022374038
82	0x3e2a2122	0.16614202
83	0xbe045910	-0.129246
84	0x3d2dc6ab	0.042425793
85	0x3d457ec2	0.04821659
86	0x3cedaab7	0.029012067
87	0xbdb2072a	-0.08692773
88	0x3d3e30f6	0.04643341
89	0x3e4972e4	0.19672734
90	0xbe08129a	-0.13288346
91	0x3c9aaa1c	0.018879943
92	0x3d05d4dd	0.032673705
93	0xbcb3346b	-0.02187558
94	0xbd6e1104	-0.058121696
95	0x3ce04252	0.027375374
96	0x3da1a900	0.07893562
97	0xbcc9a0c6	-0.024612796
98	0xbd5386ee	-0.05164235
99	0x3ce46752	0.027881298
100	0xbdbf4fda	-0.09341402
101	0x3caf3dbe	0.021391746
102	0x3d7d932f	0.061907943
103	0x3dfce791	0.12348855
104	0x3da45aef	0.08025157
105	0xbe187575	-0.14888556
106	0xbdd625a8	-0.10456401
107	0xbc8435df	-0.016138969
108	0x3d8f4824	0.069961816
109	0x3d717217	0.058946695
110	0xbc0d227e	-0.008614181
111	0x3dce2b8f	0.10066902
112	0xbdf8bf88	-0.12145907
113	0xbe19ae5e	-0.15007922
114	0xbd5f3cfd	-0.054501522
115	0x3d6d7e29	0.057981644
116	0x3cc37742	0.023860577
117	0xbccc95a6	-0.024973702
118	0xbcd53699	-0.02602701
119	0xbc902589	-0.017596023
120	0xbc47453f	-0.012162506
121	0xbdd5bd3e	-0.10436486
122	0x3dc6cee0	0.09707427
123	0xbdbf8f1f	-0.0935347
124	0xbe013987	-0.12619601
125	0xbcae8522	-0.021303717
126	0x3d9c294e	0.07625066
127	0x3d19c830	0.03754443
128	0x3d00df78	0.031463116
129	0x3d705c4a	0.058681764
130	0xbdad0784	-0.08448699
131	0xbdd9bf17	-0.106321506
132	0xbd37a4ac	-0.044834778
133	0xbd9dc8b2	-0.07704295
134	0x3b22c1fc	0.0024834862
135	0xbdbc1e94	-0.0918552
136	0xbce50646	-0.027957093
137	0xbd66d8ec	-0.056359217
138	0xbdef8bcf	-0.11696588
139	0xbc43469d	-0.011918691
140	0xbd7ab9a4	-0.061212197
141	0x3db99018	0.09060687
142	0xbd22f6dc	-0.039786205
143	0xbd5b4a87	-0.05353787
144	0x3c03b644	0.008039061
145	0xbcdbc2ad	-0.026826227
146	0xbd4f52d5	-0.050616104
147	0x3bbec566	0.0058218716
148	0xbc1bc12e	-0.009506507
149	0xbd3cd6ca	-0.046103276
150	0xbd9421c3	-0.07233002
151	0x3c42ce0b	0.011889945
152	0x3d7fe2a2	0.062471993
153	0xbdae86e1	-0.0852182
154	0xbdc2e4ba	-0.095162824
155	0x3d8d277c	0.06892297
156	0xbda68662	-0.081311
157	0x3c879ebc	0.016555183
158	0xbde3a554	-0.11115518
159	0x3daac3f9	0.0833816
160	0xbc4a8d94	-0.012362856
161	0x3d7ad725	0.061240334
162	0xbdef5abc	-0.11687228
163	0xbd6710ff	-0.056412693
164	0x3c888b06	0.016667854
165	0x3e6b6274	0.22986776
166	0xbdcc47a7	-0.09974604
167	0xbd8e41f6	-0.06946175
168	0xbd88acd3	-0.066735886
169	0x3d93bb6d	0.07213483
170	0x3db19c5c	0.08672401
171	0xbccde579	-0.025133835
172	0x3d61cfea	0.055129923
173	0x3d618c55	0.05506547
174	0x3c9b6a41	0.018971564
175	0x3d990c5a	0.07473059
176	0xbdb2afdd	-0.087249495
177	0xbd8fa8e7	-0.070146374
178	0xbd9fb1f0	-0.07797611
179	0xbcb4772d	-0.022029484
180	0x3dada263	0.084782384
181	0xbda224ea	-0.07917197
182	0x3d0a5151	0.033768956
183	0xbcc40131	-0.02392635
184	0x3b2040f4	0.0024452778
185	0xbdcf4d54	-0.10122171
186	0xbd028951	-0.031869236
187	0xbdd3673e	-0.10322426
188	0xbde7a65f	-0.1131103
189	0x3d7a5d15	0.061123926
190	0xbde4bab4	-0.11168423
191	0xbda4eecf	-0.080533616
192	0xbd7e9616	-0.06215485
193	0x3da2e0e7	0.07953053
194	0xbe0ca4e8	-0.13734782
195	0xbd1d5cea	-0.038418688
196	0x3c9a94a4	0.018869705
197	0xbdb55ab4	-0.08855191
198	0xbd382f4d	-0.044966985
199	0x3d915c1f	0.07097649
200	0x3ae5b6e7	0.0017525823
201	0xbe04a622	-0.12954
202	0x3d5f5333	0.054522704
203	0x3d1e6cad	0.03867786
204	0xbe0766eb	-0.13222854
205	0xbc3640a7	-0.011123813
206	0xbd27536e	-0.04085105
207	0x3e09b42f	0.13447641
208	0xbe205841	-0.15658666
209	0xbca2726b	-0.01982995
210	0x3c3d7349	0.011563131
211	0xbc84fbcf	-0.016233353
212	0x3d89005f	0.06689524
213	0x3c77ba78	0.015120141
214	0x3d4056c3	0.046957742
215	0x3d5edbff	0.054409023
216	0xbd8589e8	-0.06520444
217	0xbcc91dce	-0.024550345
218	0xbdf5f933	-0.120104216
219	0xbda22431	-0.07917059
220	0xbbd0348e	-0.0063539213
221	0xba09bd61	-0.0005254355
222	0xbe410da0	-0.18852854
223	0xbd16ae27	-0.03678718
224	0xbc94c1a6	-0.018158745
225	0x3daa437f	0.08313655
226	0xbcb3944d	-0.021921301
227	0x3db0d697	0.0863468
228	0xbc8438e1	-0.016140403
229	0x3d81aab2	0.06331386
230	0x3ddfeefc	0.109342545
231	0x3bd2903a	0.0064258846
232	0x3c2059d7	0.0097870445
233	0xbe0b4b32	-0.13602903
234	0xbca5600f	-0.020187406
235	0xbd713e96	-0.058897577
236	0xbc4fd7a2	-0.012685688
237	0x3c48e527	0.012261665
238	0xbaf4a5b7	-0.001866511
239	0x3d80a456	0.062813446
240	0xbdc6f4f5	-0.097146906
241	0x3d83d60c	0.064373106
242	0xbd904511	-0.07044423
243	0xbde7b558	-0.113138855
244	0xbe120e71	-0.14263321
245	0xbc8538d0	-0.016262442
246	0xbe02c9e9	-0.12772335
247	0x3cfffcab	0.031248411
248	0xbd65c969	-0.056100283
249	0xbdf9700a	-0.12179573

weight f4 [1, 250]
0	0x3c06b413	0.008221644
1	0x3d019220	0.031633496
2	0xbc9962e3	-0.01872391
3	0xbaf93350	-0.0019012485
4	0x3ce5af49	0.028037684
5	0xbc2015b3	-0.0097707985
6	0xbd83a2a1	-0.064275034
7	0xbc0a851f	-0.00845459
8	0x3c9f70c1	0.019462945
9	0x3db2102b	0.0869449
10	0xbab2472a	-0.0013601531
11	0x3c0b85de	0.008515803
12	0x3b637df8	0.0034712534
13	0x3c53b5a8	0.012921728
14	0xba8f86de	-0.0010950228
15	0x3c488893	0.012239593
16	0x3a7dd565	0.00096829823
17	0xbb5c2f38	-0.003359748
18	0x3d661102	0.056168564
19	0xbb89d586	-0.004206362
20	0x3e13e663	0.14443354
21	0xbcf7cd46	-0.03024925
22	0xbcd9951f	-0.026560364
23	0xbb3ebd46	-0.0029104515
24	0x3dbeb767	0.09312325
25	0x3d9ba9c2	0.07600738
26	0x3c536a65	0.012903784
27	0x3b3adc1b	0.002851254
28	0x3ad482c4	0.0016213288
29	0xbc99c5e5	-0.018771121
30	0xba961f1b	-0.0011453362
31	0x3d03986c	0.032127783
32	0x3c66299f	0.014048009
33	0x3d294bc0	0.041332006
34	0x3d53d41c	0.051715955
35	0x3d3973ec	0.045276567
36	0xbd39c06d	-0.045349527
37	0x3ac18814	0.0014765286
38	0xbca2a38b	-0.019853374
39	0xbbc897bf	-0.006121605
40	0x3a131dc1	0.00056120387
41	0xbafb87e8	-0.0019190283
42	0xbd3d410d	-0.046204615
43	0xbc810ffe	-0.015754696
44	0xbbbf56df	-0.0058392133
45	0x3b893415	0.004187117
46	0x3cbc55cd	0.022990132
47	0xbba5758d	-0.0050494135
48	0xbb9a6012	-0.0047111595
49	0xbd40f1fa	-0.047105767
50	0xbcdda796	-0.02705745
51	0xbca4f329	-0.020135479
52	0x3bd99b42	0.0066408226
53	0x3c031dbd	0.008002696
54	0xbd3b5881	-0.0457387
55	0x3bae7baa	0.0053248005
56	0xbd07542d	-0.03303926
57	0xbd6c11d9	-0.05763421
58	0xbc582b1d	-0.013193873
59	0xbcab3ed1	-0.020903977
60	0xbd148df6	-0.036268197
61	0xbd01cd72	-0.03169007
62	0xbc9847a1	-0.018588843
63	0x3bdacad8	0.006677013
64	0x3c02ff95	0.007995506
65	0x3c81a8e6	0.015827607
66	0xbc4e5cc3	-0.012595358
67	0xbc529bcc	-0.012854528
68	0x3d01aedd	0.031660903
69	0x3d6249fd	0.055246342
70	0x3d4e7aed	0.0504102
71	0xbc24eea0	-0.010066658
72	0x3b2dfdb3	0.0026548922
73	0x3cf548e2	0.02994198
74	0x3bee23e0	0.00726746
75	0x3d16c5a3	0.036809575
76	0x3cb5379f	0.022121249
77	0x3cba21d3	0.022721207
78	0x3d63f88c	0.055656955
79	0x3c5e359b	0.013562585
80	0xbc21c334	-0.0098732
81	0xbc1e964d	-0.009679389
82	0xbd4d43bd	-0.05011343
83	0xbb905ecb	-0.0044058315
84	0x3dae27ae	0.08503662
85	0xbc238d1f	-0.009982376
86	0xbc038dd3	-0.008029419
87	0x3c83055b	0.015993765
88	0x3bc8e026	0.006130236
89	0xbd88b072	-0.06674279
90	0xbcc7062e	-0.024294939
91	0x3c242598	0.010018729
92	0xbd360b55	-0.0444444
93	0xbd60bcbe	-0.0548675
94	0x3c07c3e1	0.008286447
95	0x3c73081a	0.0148334745
96	0x3ce0ccfe	0.027441498
97	0xbcb9af43	-0.02266658
98	0xbc4e5d75	-0.012595524
99	0x3c746f65	0.014919137
100	0xbc06c9a3	-0.008226785
101	0x3db7004b	0.08935603
102	0xbd2209c5	-0.0395601
103	0xbd48b3cd	-0.048999596
104	0xbcb941c2	-0.022614364
105	0xbc266836	-0.010156682
106	0x3c36e70d	0.011163485
107	0x3d50b1ce	0.050950818
108	0xbc5796d4	-0.013158519
109	0xbc377864	-0.011198137
110	0x3c8abc52	0.016935501
111	0xbbad29b5	-0.005284513
112	0xbc7a6293	-0.015282291
113	0x3c1c3e8d	0.009536398
114	0x3c3867fc	0.011255261
115	0x3c89433a	0.016755689
116	0xbcf466ab	-0.029834112
117	0x3c3d5d3b	0.011557872
118	0xbd794934	-0.060860828
119	0x3c1ee8fe	0.009699104
120	0x3c167962	0.009184213
121	0xbba1a010	-0.004932411
122	0x3c6f14fd	0.014592406
123	0x3d008063	0.03137244
124	0xbb6002b6	-0.0034181303
125	0xbc3e7e8e	-0.011626853
126	0x3db662f5	0.08905593
127	0x3cda3da1	0.026640715
128	0x3d1015d4	0.035177067
129	0x398b3435	0.00026551043
130	0x3c0fb27d	0.008770582
131	0x3a2b0d9f	0.0006525162
132	0x3d23fd61	0.040036563
133	0x3c62d31d	0.013844279
134	0xbd42d0ee	-0.047562532
135	0xbd5dddf1	-0.054166738
136	0xbd0cf2ca	-0.03441123
137	0x3c59b18b	0.013286958
138	0x3b097e77	0.002097992
139	0xbb5d1d84	-0.0033739517
140	0x3b81aec6	0.003957602
141	0x3be3cbdf	0.0069517936
142	0xbb2885bc	-0.0025714478
143	0x3d90f4be	0.07077931
144	0x3c78beab	0.015182178
145	0x3bafa1ab	0.0053598485
146	0xbd440595	-0.047856886
147	0xbc1a05ef	-0.009400829
148	0xbbfe56cc	-0.007761812
149	0x3cf450e8	0.029823735
150	0xbbd983ba	-0.0066380175
151	0x3c95f61b	0.018305829
152	0x3cd20445	0.025636801
153	0xbccf5845	-0.025310645
154	0x3c4da3af	0.012551232
155	0xbd6c5edd	-0.057707656
156	0x3d0831dd	0.03325068
157	0xbcd6ace5	-0.02620549
158	0x3c78929b	0.015171672
159	0xbd4a3713	-0.04936893
160	0x3af08c6f	0.0018352399
161	0x3c2f6b97	0.010706804
162	0xbce967af	-0.028491823
163	0x3d0c29fb	0.034219723
164	0xbbbf87af	-0.005845032
165	0x3e0f70ab	0.14007823
166	0x3ce485a0	0.027895749
167	0x3c451286	0.012028342
168	0x3cab9919	0.020947026
169	0x3cfedf53	0.031112349
170	0xbd4393df	-0.047748443
171	0xbc7605cd	-0.015016031
172	0xbe161124	-0.14654976
173	0xbce4ffa0	-0.027953923
174	0xbb32e6c9	-0.0027298203
175	0xbc6b947d	-0.014378664
176	0x3c9339a8	0.017971829
177	0x3c05394c	0.008131336
178	0x3b6e41bb	0.0036355096
179	0x3a8da9e7	0.0010808081
180	0x3d4bf74a	0.04979638
181	0x3d53bbb0	0.051692665
182	0xbb911ad2	-0.004428246
183	0x3c9554e3	0.018228954
184	0xbc9be6f1	-0.01903102
185	0x3d029d91	0.03188855
186	0x3cc9dc01	0.024641039
187	0xbb4629ab	-0.0030237238
188	0xbb3353ff	-0.0027363298
189	0x3cea7608	0.028620735
190	0x3cde8497	0.027162833
191	0x3c4fbabc	0.012678798
192	0xbd02af82	-0.03190566
193	0xbd43cd74	-0.047803357
194	0x3cccd592	0.025004182
195	0xbd4013c5	-0.046893854
196	0x3cbcb959	0.0230376
197	0x3c8c35eb	0.017115554
198	0x3cf1d0d2	0.029518519
199	0x3d1ff21d	0.039049257
200	0x3c7592ce	0.014988614
201	0x3c63636b	0.013878684
202	0x3bdd94fe	0.006762146
203	0x3bc9c0b0	0.0061570033
204	0xbc2b4361	-0.010453076
205	0x3b7c25d2	0.003847469
206	0x3c6b0038	0.014343314
207	0xbceee376	-0.029161196
208	0xbc1a25ed	-0.009408456
209	0xbd55b1b1	-0.052171413
210	0x3a3b0d91	0.00071355054
211	0x3c285130	0.010273263
212	0x3b83bd37	0.004020359
213	0x3cabf4d3	0.020990765
214	0x3cf2e173	0.029648518
215	0xbbb9404c	-0.0056534167
216	0x3d72eb4c	0.059306428
217	0x3ce63a83	0.028104072
218	0xbc147b0a	-0.009062538
219	0xbc5dadfe	-0.0135302525
220	0xba9d25cc	-0.0011989414
221	0x3ced961c	0.029002242
222	0x3bafc3ec	0.005363932
223	0x3cd51de3	0.026015228
224	0xbda4d8a6	-0.08049135
225	0xbbb5232f	-0.005527876
226	0xbba4bbca	-0.005027269
227	0xbc0a90cc	-0.008457374
228	0x3cfb0de5	0.030646274
229	0x3c15b5e2	0.0091376025
230	0xbd08b896	-0.03337916
231	0xbd61e19c	-0.0551468
232	0x3c9f7edf	0.019469677
233	0x3c9df75b	0.019282987
234	0x3c8a850e	0.016909149
235	0xbc5501fe	-0.013000963
236	0xbd31c72c	-0.043402836
237	0x3c10c250	0.00883539
238	0x3ce3cb44	0.027806886
239	0x3ca7ac79	0.020467984
240	0xba9b6649	-0.0011856045
241	0xbbc255ca	-0.005930637
242	0x3ca181e1	0.019715251
243	0x3cee1089	0.029060619
244	0x3cc38dec	0.023871385
245	0x3cbc3f41	0.02297938
246	0xbc9ed1d4	-0.019387163
247	0x3c51bb94	0.01280107
248	0x3b964af6	0.0045865728
249	0x3bbb13a1	0.005709127
