model/MLP2-000635.pth (torch, 74207 bytes, 3 tensors)

weight f4 [250, 70]
0	0x3c50bb62	0.012739988
1	0xbd1e20a1	-0.038605336
2	0xbda57f96	-0.08080976
3	0x3d933221	0.07187296
4	0xbdc06c91	-0.093957074
5	0x3d65af2a	0.056075253
6	0x3dea4f89	0.114409514
7	0x3ca0c97a	0.019627322
8	0xbc371f42	-0.011176886
9	0xbde80314	-0.11328712
10	0x3d3f38cf	0.046685036
11	0x3d94eb5c	0.07271454
12	0x3c6b8920	0.014375955
13	0xbdcc24ab	-0.09967931
14	0xbda74550	-0.08167517
15	0x3d948972	0.07252778
16	0x3a9f50a3	0.0012154769
17	0xbdd38243	-0.1032758
18	0x3cc754e3	0.02433247
19	0x3ddfe6e1	0.109327085
20	0xbdb6b46b	-0.08921131
21	0x3d40ad8e	0.047040515
22	0xbd231514	-0.039815024
23	0xbd005c94	-0.03133829
24	0x3c19c2a9	0.0093847895
25	0xbd6d6bb3	-0.057964038
26	0xbde6306c	-0.112397045
27	0x3dbf5efb	0.09344288
28	0x3dba23e2	0.09088875
29	0xbdbd976c	-0.09257397
30	0xbde4e7da	-0.11177035
31	0xbd1be1d8	-0.03805718
32	0x3d0ae4b7	0.033909526
33	0xbd6dc9aa	-0.05805365
34	0x3d2779b3	0.040887546
35	0xbd829734	-0.06376496
36	0xbda842b4	-0.082158476
37	0xbde07cd6	-0.109613106
38	0x3daff58b	0.085917555
39	0x3cc87422	0.024469439
40	0x3c92f042	0.01793683
41	0x3dcb48ee	0.099260196
42	0x3d86b47c	0.065773934
43	0xbd344863	-0.044014346
44	0x3d73d4d0	0.059529126
45	0xbd51501f	-0.0511018
46	0x3d93c1b8	0.07214683
47	0xbdb1df50	-0.086851716
48	0xbd222114	-0.039582327
49	0x3de74860	0.11293101
50	0x3d45a08d	0.048248816
51	0xbd5544dd	-0.052067626
52	0x3d953d86	0.07287125
53	0x3cc54dcd	0.02408495
54	0xbc7b5b89	-0.015341648
55	0x3db94c80	0.09047794
56	0x3de50984	0.111834556
57	0xbdb1e54b	-0.08686312
58	0xbd8ae9e4	-0.06782892
59	0xbd91670d	-0.070997335
60	0x3d1106ae	0.03540676
61	0x3d84bb41	0.06481028
62	0xbd85eea4	-0.06539658
63	0xbd74332d	-0.059619118
64	0x3dced92c	0.10100016
65	0x3d125b92	0.03573186
66	0xbddad898	-0.10685843
67	0x3ca2b61d	0.019862229
68	0x3d3c217e	0.04593038
69	0xbd946e61	-0.072476156
70	0x3cfa8945	0.030583033
71	0xbe1a9a17	-0.15097843
72	0xbd380cd8	-0.044934124
73	0x3cfe83e8	0.031068757
74	0x3cf4e925	0.029896328
75	0x3d088e9c	0.033339128
76	0xbdb0204f	-0.085999124
77	0x3d1b6ae8	0.03794375
78	0xbd20b67e	-0.039236538
79	0xbde83a50	-0.11339247
80	0xbb1fa790	-0.002436135
81	0xbb8c0574	-0.004273111
82	0xbe0d7f25	-0.13818033
83	0x3d95a0fe	0.073060974
84	0xbd76f0c4	-0.060288206
85	0xbdc37979	-0.095446534
86	0x3d47d009	0.048782382
87	0xbcacaa29	-0.021077232
88	0x3d50fd31	0.051022712
89	0x3c70f6b9	0.014707261
90	0xbddd5cd8	-0.10808724
91	0xbd77fb48	-0.060542375
92	0xbdbeb61d	-0.09312079
93	0x3d849e3c	0.06475493
94	0xbcc993ef	-0.024606673
95	0xbacbf9bb	-0.0015562096
96	0x3d695ede	0.056975238
97	0x3e1cd7ee	0.15316746
98	0xbd0bee9b	-0.0341631
99	0xbd648312	-0.05578906
100	0x3c6dacbe	0.014506517
101	0x3d6fa993	0.058511328
102	0xbd1f2ad2	-0.038859196
103	0xbde1b616	-0.11021058
104	0xbd80d212	-0.06290068
105	0xbd17e2d6	-0.037081562
106	0xbb340e7b	-0.0027474451
107	0x3db60734	0.08888093
108	0x3d5c65e8	0.053808123
109	0xbd768b40	-0.060191393
110	0x3d1171bf	0.035508867
111	0xbc981b37	-0.018567665
112	0xbc549dee	-0.0129771065
113	0xbd39a0d6	-0.0453194
114	0xbe072037	-0.13195883
115	0x3c7c2252	0.015389042
116	0xbe125ad0	-0.14292455
117	0xbc4613c2	-0.012089672
118	0xbdb028d5	-0.08601538
119	0x3ca12849	0.01967253
120	0xbe1ddae4	-0.15415531
121	0xbcd9966f	-0.02656099
122	0xbc4a00de	-0.012329308
123	0x3d4be411	0.049778048
124	0xbdc502c8	-0.09619671
125	0x3cc56c3d	0.024099464
126	0x3d40b35d	0.047046054
127	0xbcb04f56	-0.021522205
128	0xbd1021db	-0.035188537
129	0xbdcfd761	-0.10148502
130	0x3d448ea8	0.04798761
131	0xbcc21799	-0.023692893
132	0xbdb8cc97	-0.090233974
133	0xbda72423	-0.081611894
134	0xbdb3f9b2	-0.0878786
135	0xbd50ca2f	-0.050974067
136	0xbd8fca32	-0.070209876
137	0x3e120b82	0.14262202
138	0xbd529069	-0.05140725
139	0xbd40156d	-0.046895433
140	0xbd875e73	-0.06609812
141	0xbdb48c20	-0.08815789
142	0x3dc98c40	0.09841204
143	0x3d6ed024	0.058303967
144	0x3c1ede9f	0.009696632
145	0xbc9ce174	-0.019150473
146	0x3b99a6af	0.0046890597
147	0x3d8809cf	0.06642496
148	0xbd3f4756	-0.04669889
149	0xbd042949	-0.032265935
150	0xbe6ef510	-0.23335671
151	0x3dfd9d2c	0.12383494
152	0xbaa4d406	-0.0012575395
153	0x3de38f67	0.11111336
154	0x3d4c39fe	0.049859993
155	0xbda69a7e	-0.08134936
156	0x3dd4b655	0.103863396
157	0x3daf8d0b	0.08571824
158	0x3d3b0a2c	0.045663998
159	0x3db71283	0.08939078
160	0xbdc574fe	-0.09641455
161	0xbdc5c853	-0.096573494
162	0x3d9df784	0.077132255
163	0xbd4aebf4	-0.04954143
164	0x3d8d4704	0.06898311
165	0x3d4b05aa	0.04956595
166	0x3d09f53d	0.033681143
167	0x3d0b7f3c	0.034056887
168	0x3deada85	0.114674605
169	0x3d900958	0.07033032
170	0xbe12fa3d	-0.14353271
171	0xbcfda1c1	-0.03096092
172	0x3dc87d38	0.097895086
173	0x3d9e3b8c	0.077262014
174	0xbde3d146	-0.111239
175	0x3dba7654	0.091046005
176	0x3cad7fb9	0.021179067
177	0xbc95cd25	-0.018286297
178	0x3af9c417	0.0019055632
179	0x3c838d0f	0.016058473
180	0xbe17e3c8	-0.14832985
181	0x3d2d85fe	0.042364113
182	0x3d56322a	0.052293934
183	0x39f66bdf	0.00047001147
184	0xbd68ff3a	-0.056884028
185	0xbd4363a9	-0.047702465
186	0x3e0f64af	0.14003251
187	0xbda8f2c8	-0.08249432
188	0xbc38057a	-0.011231774
189	0x3d923267	0.0713852
190	0xbe8e300c	-0.27771032
191	0x3d8d2847	0.06892448
192	0x3d33ead6	0.04392513
193	0xbde33ec5	-0.11095957
194	0xbda630ae	-0.08114754
195	0xbe2aae82	-0.16668132
196	0x3e38d802	0.1805115
197	0xbd83ff87	-0.06445222
198	0xbce2bd63	-0.027678197
199	0xbc43ebfc	-0.0119581185
200	0xbe7c3333	-0.24628906
201	0xbdbec6da	-0.09315272
202	0x3d84c6e4	0.06483248
203	0xbcf3a957	-0.029743833
204	0xbde1fd6e	-0.11034666
205	0xbe43c5f8	-0.19118488
206	0xbc9f70d4	-0.01946298
207	0x3b7efde3	0.0038908652
208	0xbcad7be4	-0.02117724
209	0x3ca621a9	0.020279722
210	0x3dedb905	0.11607555
211	0x3e2b6b7f	0.16740225
212	0x3d900a74	0.07033244
213	0x3e5c56fb	0.21517555
214	0x3e7845be	0.24245355
215	0xbe1dab91	-0.15397479
216	0x3d9a3536	0.075296804
217	0x3e3855e9	0.18001522
218	0x3e58bd8f	0.21166061
219	0xbd48e5cd	-0.04904728
220	0x3dd70c2c	0.105003685
221	0x3dfeff45	0.124510325
222	0x3e421658	0.18953836
223	0x3e9085e1	0.28227141
224	0x3e179512	0.1480296
225	0x3d37d3bb	0.044879656
226	0x3d373b1a	0.044734098
227	0x3e26716b	0.16254203
228	0x3e289927	0.16464673
229	0xbe0f5e18	-0.14000738
230	0x3e6931fc	0.22772974
231	0x3e85fe16	0.26170415
232	0x3e49d7c3	0.19711213
233	0x3e01fb06	0.12693414
234	0x3e932b28	0.28743863
235	0xbd0a5e62	-0.033781417
236	0x3bfebbc4	0.0077738483
237	0x3e3df67e	0.1855106
238	0x3dac650f	0.08417713
239	0xbdd4fcb2	-0.1039976
240	0x3e16d041	0.1472788
241	0x3e456d8b	0.19280069
242	0x3e1916ff	0.14950179
243	0x3e5c8b06	0.21537408
244	0x3e678867	0.22610627
245	0xbdf8d1e8	-0.121494114
246	0x3c6379a8	0.013883986
247	0x3e23698b	0.1595823
248	0x3dad5ba4	0.08464745
249	0xbe04bb4a	-0.1296207
250	0x3e608cd4	0.21928722
251	0x3da73ebf	0.08166265
252	0x3e6c85ff	0.2309799
253	0x3e1a2110	0.15051675
254	0x3e851d32	0.25998837
255	0xbd90d54f	-0.070719354

bias f4 [250]
0	0x3d34cac3	0.04413868
1	0xbda930ee	-0.08261286
2	0x3d841dd2	0.06451
3	0xbc1857e0	-0.009298295
4	0xbdfe0798	-0.12403792
5	0x3db8eac3	0.09029152
6	0x3ce4503e	0.027870294
7	0x3dfb3c9a	0.12267418
8	0xbd8d5711	-0.06901372
9	0xbd46a680	-0.04849863
10	0x3d049881	0.032372
11	0xbd0a8c5c	-0.033825263
12	0xbd5079de	-0.05089747
13	0x3d61be0a	0.055112876
14	0x3ddec725	0.108778276
15	0xbcbac8f0	-0.022800893
16	0xbbc0171e	-0.005862131
17	0xbce800e6	-0.02832074
18	0x3e08468e	0.13308164
19	0xbd9a0424	-0.07520321
20	0x3d28a2ac	0.04117076
21	0x3e72808e	0.23681852
22	0xbd940945	-0.072283305
23	0x3d04cf83	0.03242446
24	0xbcfba1bb	-0.030716768
25	0xbbcaa3e1	-0.0061840867
26	0xbe022729	-0.12710251
27	0x3e14b930	0.14523768
28	0x3d3ac34f	0.045596417
29	0x3d6557e9	0.05599204
30	0xbc2b3f96	-0.010452172
31	0x3d2d3ef3	0.04229636
32	0x3e0244a5	0.12721498
33	0x3d9c2142	0.07623531
34	0x3d993c24	0.07482174
35	0xbd06b0ab	-0.032883327
36	0x3e1728ec	0.14761704
37	0x3debe959	0.11519117
38	0x3dc6c5fa	0.0970573
39	0xbdf46fbf	-0.119353764
40	0x3df58180	0.11987591
41	0xbd80fc17	-0.06298082
42	0xbc27ec48	-0.010249205
43	0xbc821b27	-0.015882088
44	0x3d44a84a	0.048012055
45	0xbda27c5e	-0.079338774
46	0x3e008c8f	0.12553619
47	0xbd89c032	-0.067261115
48	0xbc83c508	-0.016085163
49	0xbd396e61	-0.04527128
50	0x3e66b061	0.2252822
51	0x3d3dc5aa	0.046331085
52	0xbda7da0f	-0.08195888
53	0x3a7614f7	0.0009387279
54	0xbddc014b	-0.10742434
55	0x3d9db5a9	0.077006646
56	0xbdfa9c8f	-0.122368924
57	0xbdecbbe4	-0.11559275
58	0xbcde1096	-0.027107518
59	0x3ea48a2b	0.32136664
60	0xbdaf081d	-0.08546469
61	0x3e04e74e	0.1297886
62	0x3db36d94	0.08761135
63	0x3dce4c28	0.100731194
64	0x3dd9026e	0.105961666
65	0x3dea3263	0.11435392
66	0xbbb6e3d2	-0.0055813575
67	0xbd2e33b3	-0.042529773
68	0x3cf93154	0.03041903
69	0x3d8e8f5e	0.06960939
70	0xbd8f26f2	-0.0698985
71	0xbca764be	-0.02043378
72	0x3db2e3c4	0.08734849
73	0xbd21c30d	-0.039492656
74	0x3db8ecd8	0.09029549
75	0xbda8fac1	-0.082509525
76	0xbd557acc	-0.05211906
77	0xbcd264ab	-0.025682768
78	0x3d9539e9	0.07286436
79	0xbbf83181	-0.0075742607
80	0x3dafbf98	0.085814655
81	0xbcce6989	-0.025196807
82	0x3d287484	0.041126743
83	0xbe0085d0	-0.12551045
84	0xbcd7eba0	-0.026357472
85	0xbd8c08ad	-0.06837592
86	0x3e510fff	0.20416258
87	0xbcb1a097	-0.02168302
88	0xbddebbfc	-0.10875699
89	0xbcf04f16	-0.029334586
90	0xbd399538	-0.04530832
91	0x3be89c6f	0.0070987265
92	0x3d858721	0.065199144
93	0xbe044b50	-0.12919354
94	0xbd60c4cd	-0.054875184
95	0xbd995051	-0.07486022
96	0xbda9ed4d	-0.08297215
97	0x3db1b55d	0.086771704
98	0x3e97a776	0.2961995
99	0x3d67adab	0.056562107
100	0x3d237822	0.03990949
101	0x3b002d13	0.0019558116
102	0xbc8838b7	-0.016628606
103	0x3c7251d8	0.014790021
104	0x3e53a9c2	0.20670226
105	0x3e8f3a4d	0.27974167
106	0xbde53f6d	-0.11193738
107	0x3da67b1e	0.081289515
108	0x3cdc9764	0.026927657
109	0x3d95dc02	0.07317354
110	0x3e85c028	0.26123166
111	0x3c937423	0.017999714
112	0xbc07f0de	-0.008297173
113	0x3dabb616	0.083843395
114	0xbd555118	-0.05207929
115	0x3d41e2b1	0.04733533
116	0x3da136a8	0.07871753
117	0xbd13d9fe	-0.036096565
118	0xbd323420	-0.04350674
119	0xbde41c58	-0.11138219
120	0xbcee8353	-0.029115355
121	0x3e51f7a7	0.20504628
122	0xba6d8030	-0.0009059934
123	0xbda06a00	-0.07832718
124	0xbde23451	-0.11045135
125	0xbd990a1a	-0.0747263
126	0xbdd2c1ec	-0.10290894
127	0x3d4b3fc9	0.049621377
128	0xbd48165a	-0.04884944
129	0x3d6a667a	0.057226636
130	0xbb55f770	-0.0032648705
131	0xbe083379	-0.13300885
132	0xbc50141d	-0.012700108
133	0xbd904832	-0.0704502
134	0xbd455739	-0.048178885
135	0x3bd6e671	0.0065582325
136	0x3d9562a1	0.072942026
137	0x3dae8fd5	0.085235275
138	0x3dd67fdb	0.10473605
139	0x3d6ad3c9	0.05733088
140	0x3d2804ef	0.04102033
141	0x3d80e4d7	0.06293648
142	0x3d6798c1	0.05654216
143	0xbd987def	-0.07445895
144	0xbdecc950	-0.11561835
145	0xbdd577aa	-0.10423215
146	0x3d6f34d7	0.0584
147	0xbc6ddffb	-0.014518733
148	0x3e30a82e	0.17251655
149	0xb96ac813	-0.00022390512
150	0xbe205faa	-0.15661493
151	0x3cb7e35a	0.022447277
152	0xbcbf5193	-0.023354327
153	0xbe186988	-0.14884007
154	0x3d3d397e	0.046197407
155	0x3daedf3b	0.085386716
156	0x3c210c0e	0.009829534
157	0xbcf85c59	-0.030317472
158	0xbdbcabef	-0.09212481
159	0x3dcc4d95	0.09975735
160	0x3e49b3bd	0.19697471
161	0xbda0c8d1	-0.07850803
162	0x3bb848f6	0.005623932
163	0x3da5cbcc	0.08095512
164	0x3d58cf43	0.052932035
165	0x3d104d9f	0.035230275
166	0x3c3caff7	0.011516563
167	0xbdc7138f	-0.097205274
168	0x3cede47e	0.029039618
169	0xbd9f1a82	-0.07768728
170	0xbc43cece	-0.011951162
171	0x3cd760cd	0.026291275
172	0x3c5d6bec	0.0135145
173	0x3d635a0c	0.055505797
174	0x3e42b940	0.1901598
175	0xbd564d23	-0.052319657
176	0x3d363cd1	0.044491593
177	0xbd9fcb72	-0.07802476
178	0x3de32338	0.11090702
179	0x3d2eb645	0.042654295
180	0xbcc2cf56	-0.023780506
181	0x3c015e8a	0.007896075
182	0xbd85e23e	-0.06537293
183	0xbcef7ef6	-0.029235344
184	0xbd8bb779	-0.06822104
185	0xbe0d0620	-0.13771868
186	0x3c1d6573	0.009606707
187	0xbe10290a	-0.14078155
188	0x3d887e25	0.06664685
189	0x3d8eea28	0.069782555
190	0x3d34583c	0.04402946
191	0xb8572786	-5.1296804e-05
192	0x3d984bbe	0.07436322
193	0x3e3d2305	0.1847039
194	0x3ddd4c86	0.10805611
195	0x3e818413	0.25296077
196	0x3d694cc7	0.056957986
197	0xbd86dc6e	-0.065850124
198	0x3ccadf36	0.024764638
199	0x3c21ef0f	0.009883656
200	0xbc7cff3c	-0.015441712
201	0x3e058fb0	0.13043094
202	0xbdeca300	-0.11554527
203	0x3d8209d4	0.06349531
204	0x3de18982	0.11012556
205	0x3d5935a2	0.053029664
206	0xbd77b0ff	-0.06047153
207	0x3de6810e	0.11255084
208	0xbcaa500b	-0.02079012
209	0x3d8dd30c	0.069250196
210	0xbd80cc8d	-0.06289015
211	0x3e802661	0.2502928
212	0xbdaff97d	-0.08592508
213	0xbde1914e	-0.11014043
214	0xbc622d59	-0.013804757
215	0xbd91c92f	-0.07118451
216	0x3d6da3fa	0.05801771
217	0x3dfd7aa6	0.12376909
218	0xbd606b97	-0.054790106
219	0x3d02b104	0.031907097
220	0x3dc2004b	0.09472712
221	0x3d820aef	0.06349742
222	0xbd3e3e62	-0.04644621
223	0x3db03fd3	0.086059235
224	0x3d9cd01e	0.07656883
225	0x3dfe09d1	0.12404216
226	0xbc88ebac	-0.01671394
227	0x3d4e2d28	0.050336033
228	0x3d90635e	0.07050203
229	0x3dacc8dc	0.084367484
230	0x3c2db4e5	0.010602211
231	0xbd909c21	-0.07061029
232	0xbdd02e4f	-0.10165083
233	0xbce38d71	-0.027777405
234	0xbde31528	-0.110880196
235	0xbe1731f0	-0.14765143
236	0x3da971ff	0.08273696
237	0xbd6e420d	-0.05816846
238	0xbd92a6b7	-0.071607046
239	0x3dcbcbb6	0.09950964
240	0xbd5ccb22	-0.05390466
241	0xbd68383f	-0.056694265
242	0x3d5a710d	0.05333047
243	0x3d9f279e	0.07771228
244	0x3cc0d6e2	0.023539964
245	0xbd951d20	-0.07280946
246	0xbddf00d9	-0.108888336
247	0xbdd88df2	-0.10573949
248	0xbdee4f29	-0.11636192
249	0x3cd5858d	0.026064659

weight f4 [1, 250]
0	0xbd5f89b3	-0.05457468
1	0x3cd58eac	0.026069008
2	0x3ce1014c	0.027466439
3	0x3a2b2af8	0.0006529535
4	0x3caa6835	0.020801643
5	0x3ccaf445	0.02477468
6	0xbd296fc9	-0.041366372
7	0x3dd6f782	0.10496427
8	0xbca89e65	-0.02058334
9	0x3d05145f	0.03249013
10	0x3c4fe26a	0.012688259
11	0xbb487a65	-0.003059053
12	0x3d496a03	0.049173366
13	0xbd4a0889	-0.049324546
14	0x3c01f810	0.007932678
15	0xbc6abc4c	-0.01432712
16	0x3a715be9	0.0009207116
17	0x3cc3b5ec	0.023890458
18	0x3cdd1bd4	0.026990809
19	0xba883f07	-0.001039476
20	0x3ce544c2	0.027986888
21	0x3db47793	0.088118695
22	0x3b68f404	0.0035545835
23	0x3c19303b	0.009349878
24	0xba5ef2ac	-0.0008504789
25	0x3ae54d51	0.0017494356
26	0x3c606243	0.013695302
27	0x3b588eb7	0.003304405
28	0x3c326e26	0.010890519
29	0xbd26b2ff	-0.040698048
30	0xba6bdc6e	-0.0008997385
31	0x3b9dbf41	0.004814059
32	0x3cdb3830	0.02676019
33	0x3b7604d4	0.00375395
34	0xbb0cbb67	-0.0021474005
35	0xbcbc5b87	-0.022992862
36	0x3d38715b	0.04502998
37	0xb9ee8a88	-0.0004549811
38	0x3c8abf0f	0.016936807
39	0x3b039d87	0.0020082907
40	0x3b6e742b	0.003638516
41	0xbd276d8a	-0.04087595
42	0xbc35d198	-0.011097334
43	0xbd766527	-0.06015506
44	0x3c0c1d5d	0.008551923
45	0xbca863f6	-0.020555478
46	0xba8f58a1	-0.0010936448
47	0x3cfe1731	0.031016918
48	0xbcf2fc9c	-0.02966147
49	0xbcd30c41	-0.025762679
50	0x3d8d4308	0.06897551
51	0xbbd1c8a7	-0.0064020935
52	0xbc2ebf53	-0.010665732
53	0xbc28bd3e	-0.010299025
54	0x3bd3a690	0.006459065
55	0xbbaa3d2e	-0.0051952815
56	0x3be890d8	0.007097345
57	0x3c962986	0.018330347
58	0x3be747e7	0.007058132
59	0x3de033e7	0.109473996
60	0xbb3b326f	-0.0028563996
61	0xbbfd7942	-0.0077354023
62	0x3c97b17e	0.018517252
63	0x3ceaec23	0.028677052
64	0x3c591955	0.0132506685
65	0x3d1e09db	0.038583618
66	0x3c810ebb	0.015754094
67	0xbd030520	-0.03198731
68	0xbbaf851a	-0.005356443
69	0xbba3a6e0	-0.0049942583
70	0x3ce70258	0.02819936
71	0xbc662df9	-0.014049047
72	0xbba43f6c	-0.0050124433
73	0x3d3e0b71	0.04639763
74	0xbbe4c463	-0.006981419
75	0x3d61d2ab	0.05513255
76	0xbd531243	-0.051531088
77	0x3c8a4ddd	0.016882831
78	0xbce705cf	-0.028201012
79	0x3bd91bf6	0.0066256477
80	0xbd4b16cf	-0.0495823
81	0x3cfd48a4	0.030918427
82	0x3ce4fdb0	0.027952999
83	0xbc0ac450	-0.008469656
84	0x3d2af4bb	0.0417373
85	0x3b48f305	0.003066243
86	0x3e05c617	0.13063847
87	0x3d21c90d	0.039498378
88	0x3af1b7be	0.00184416
89	0xbc2f7f8d	-0.010711563
90	0x3c1aebce	0.009455634
91	0x3d580383	0.052737724
92	0x3c506a4c	0.012720656
93	0x3c806239	0.015671836
94	0x3b906fda	0.004407865
95	0xbd4c7d1c	-0.049924
96	0x3d1ee2d4	0.03879054
97	0x3d73372f	0.0593788
98	0x3e478b54	0.19486743
99	0xba6639d0	-0.00087824184
100	0xbce02f50	-0.02736631
101	0x3caa6714	0.020801105
102	0xbcd66608	-0.0261717
103	0xb97a5dcf	-0.00023876804
104	0xbb876fed	-0.0041332156
105	0x3d8cb16f	0.0686978
106	0xbceecf9e	-0.029151734
107	0x3c01e336	0.007927706
108	0x3d05d7c3	0.03267647
109	0x3b44e087	0.0030041055
110	0x3e1e5634	0.15462571
111	0xbd4296b8	-0.047507018
112	0x3c24b78f	0.010053529
113	0x3d266dac	0.040631935
114	0xbc4dfe00	-0.012572765
115	0x3d2d3b7d	0.04229306
116	0xbb9e35e7	-0.004828203
117	0xbd2b9d3c	-0.041897997
118	0x3c5c02c8	0.0134283975
119	0x3c63aea9	0.013896623
120	0xbbdd4132	-0.0067521567
121	0x3d3c1ec3	0.045927774
122	0x3cc5727b	0.02410244
123	0xbcc31a64	-0.023816295
124	0x3a943b62	0.0011309201
125	0xbc0b15c0	-0.008489072
126	0x3ce3e0a8	0.027817085
127	0x3ca96f30	0.020682901
128	0x3b0051aa	0.0019579926
129	0x3c10b331	0.008831785
130	0x3c8d0792	0.017215524
131	0xbc3365d3	-0.01094957
132	0x3cca8f71	0.024726601
133	0x3c8141a4	0.01577837
134	0x3d2c83f6	0.042118035
135	0xbb797b51	-0.0038067887
136	0x3d4402e5	0.047854323
137	0xbc7a76d6	-0.015287122
138	0x3d18f97e	0.03734731
139	0x3aa7170e	0.001274796
140	0xbc63918d	-0.0138896825
141	0x3cdf657f	0.027270077
142	0x3d0c5643	0.034261953
143	0xbcc81a1f	-0.024426518
144	0xbc8fbab0	-0.017545074
145	0x3cce11e8	0.025155023
146	0xbd581afc	-0.05276011
147	0xbc19a4d8	-0.009377681
148	0x3da475f9	0.08030314
149	0x3c7be954	0.015375454
150	0xbbead15b	-0.0071660704
151	0x3cd05d4a	0.025435109
152	0xbd6b27aa	-0.057410873
153	0x3ba5ecd1	0.005063631
154	0x3c93fe62	0.018065635
155	0x3d16abce	0.03678494
156	0x3b83f5a2	0.0040270844
157	0x3d696a3d	0.056986082
158	0xbaa753c1	-0.001276605
159	0xbc8cbb60	-0.017179191
160	0x3c3dd2b9	0.011585885
161	0xbc9930ad	-0.018699968
162	0x3c9d3a5c	0.019192867
163	0xbba750cd	-0.0051060678
164	0x3ac210ea	0.0014806066
165	0x3ce46167	0.027878476
166	0x3ba75e6f	0.005107693
167	0x3d18242c	0.03714387
168	0xbbf45ee9	-0.0074576032
169	0x3cbdbba8	0.02316077
170	0xbd76caab	-0.060251873
171	0x3b15aa0d	0.0022836954
172	0x3c5b097c	0.0133689605
173	0x3d6f859a	0.05847702
174	0x3ca80418	0.020509765
175	0xbcedba2b	-0.029019436
176	0x39fc6a80	0.00048144534
177	0x3ca4bbeb	0.020109138
178	0x3da513c7	0.08060413
179	0x3ba3733e	0.004988103
180	0x3bda306a	0.0066586034
181	0x3b53f3c0	0.0032341331
182	0xbc162456	-0.009163937
183	0x3d08b5e5	0.033376593
184	0x3d17e242	0.03708101
185	0xbc36dc50	-0.011160925
186	0xbcb3fe5c	-0.021971874
187	0x3c38aa1c	0.011271026
188	0x3b8a9206	0.004228833
189	0xbc87bcd6	-0.016569536
190	0xbd5ace55	-0.05341943
191	0x3d899555	0.06717936
192	0x3d1eccad	0.038769413
193	0x3b259a11	0.0025268833
194	0xb9f05b02	-0.00045844173
195	0x3d8115f3	0.063030146
196	0x3d4c768a	0.049917735
197	0x3d322c4e	0.043499283
198	0x3c87365a	0.016505409
199	0x3ba1fa97	0.0049432027
200	0xbcc13cad	-0.023588503
201	0x3dd3c41f	0.103401415
202	0x3cda8129	0.026672916
203	0xbb342e43	-0.0027493394
204	0x3d8b3c96	0.06798665
205	0x3c7b8361	0.015351147
206	0xbd776014	-0.06039436
207	0xbc81a693	-0.0158265
208	0x3bb073b2	0.0053848857
209	0xbd1db411	-0.038501803
210	0xb889e6f2	-6.575686e-05
211	0x3e1a9c72	0.15098742
212	0xbbaacabc	-0.005212156
213	0xbd080880	-0.03321123
214	0x3b3daa5c	0.0028940653
215	0xbbc8fd1e	-0.0061336895
216	0x3c0eb35a	0.008709753
217	0x3d887589	0.06663043
218	0xbcdfb3f0	-0.02730748
219	0xbb84fc89	-0.004058425
220	0x3d123d2f	0.03570288
221	0x3d08881e	0.033332936
222	0x3b1b5efe	0.0023707743
223	0xbd712296	-0.058870874
224	0xbc67146a	-0.014103988
225	0x3a7f0092	0.0009727563
226	0x3c9788ca	0.018497843
227	0x3c173e37	0.009231142
228	0x3cc85a36	0.024457078
229	0xbc12bb63	-0.008955809
230	0x3b6fab9c	0.0036570793
231	0xbc2a4554	-0.010392506
232	0xbca098f7	-0.01960419
233	0x3b83e7af	0.0040254216
234	0xbcb62ce0	-0.022238195
235	0x3bcf3041	0.006322891
236	0x3c308077	0.010772816
237	0x3d0d333c	0.03447269
238	0x3cbda98e	0.023152139
239	0xbc139343	-0.009007278
240	0x395db01a	0.00021141805
241	0x3cb30996	0.021855157
242	0x3d6844f3	0.05670638
243	0xbca77d1f	-0.020445405
244	0x3be70b0b	0.007050877
245	0xbcdc8714	-0.026919879
246	0xbc3411ee	-0.010990603
247	0x3bc93049	0.0061397892
248	0x3c0569a4	0.0081428625
249	0x3cf7b476	0.030237418
