model/MLP2-000670.pth (torch, 74207 bytes, 3 tensors)

weight f4 [250, 70]
0.05797491 0.078053646 -0.023164978 -0.09773863 0.033314247 0.007749171 -0.095573045 -0.061566427
-0.075588025 -0.06787613 -0.064205706 -0.097644426 0.017561123 0.053302117 -0.011208807 -0.009373891
0.09356739 -0.0052972594 -0.09331813 0.03929771 -0.09605604 0.10734191 0.041639216 0.026898704
-0.086016774 0.11412204 -0.0036130778 0.03955382 0.11423811 0.039227232 -0.037014417 -0.042437274
0.024510954 0.081074566 -0.074025325 -0.022646863 0.113817945 0.07574707 -0.083690874 -0.107843496
-0.04436724 -0.05076731 0.0086853 0.093500316 0.074595675 0.09082086 -0.006425998 0.028521173
0.058680765 -0.07164256 -0.036256228 0.0046674623 -0.013666679 -0.090678714 0.008336116 0.038428187
-0.063233554 -0.09942794 0.056103226 -0.019309655 0.09892621 0.115368985 0.014257282 0.029202905
-0.04609113 0.04289916 0.09633885 -0.0059890156 -0.09473615 -0.0070725693 0.053736735 0.120974176
-0.077219486 0.0044385865 0.1352077 0.020301504 -0.008846085 -0.07146321 0.057021573 -0.014331679
-0.08446525 -0.018892601 0.05860751 0.01881666 0.127906 0.057407074 0.0927224 0.0917915
0.08563225 -0.087226324 0.07658323 -0.011705503 0.033942934 -0.08558657 0.041814297 0.09947491
-0.02304361 0.1367877 0.016963314 -0.043012697 -0.08899075 -0.022938339 -0.0045610806 -0.07683956
0.09630556 0.12150049 -0.05572982 0.031978406 0.073785834 -0.10151736 0.11913567 0.0024671548
0.004518715 -0.043345228 -0.004008526 0.0016694639 0.10154382 0.07587504 -0.04184414 -0.1256864
0.13092907 0.010789889 0.13491459 -0.055016827 0.1315839 0.017457409 -0.03362656 -0.084715895
-0.02554855 0.01976042 0.10173022 0.05116251 0.1073953 -0.013972629 0.09486752 0.12550564
-0.048124235 0.137914 0.04076574 0.053221162 0.08900751 -0.08134403 0.046183918 -0.0030641013
-0.10265981 -0.057347402 0.104285076 -0.009603791 0.06625742 -0.06303723 0.13098933 -0.11340737
-0.02090254 0.018125873 -0.05188939 0.10593324 -0.100692526 0.03270176 -0.039625566 -0.121941574
0.094900146 -0.10912804 0.011488725 0.08505626 -0.018144833 -0.03128286 0.045965947 0.12882832
0.05940396 0.026951445 0.10687803 -0.043460507 -0.0076270946 0.06422185 -0.09723574 -0.027794497
-0.11182916 -0.037910007 0.10178298 0.08964942 0.06780732 0.030760262 -0.112429656 0.071375586
-0.05268859 0.063218534 0.01582667 -0.039448716 0.010160109 0.08596914 0.085476875 -0.10689319
0.10870489 0.006839624 0.001899365 0.087409616 -0.079447344 0.08475165 0.035275318 -0.04381781
0.04769033 -0.035357915 -0.014934266 0.08929407 0.00071567565 -0.058203563 0.08038787 -0.08267022
0.12659262 -0.06601656 -0.03757211 -0.086726286 -0.07652639 -0.029949991 0.046794146 -0.07252466
0.054427244 0.13845286 0.14160201 0.075027406 -0.015737666 0.05036436 -0.091285884 -0.06596569
-0.0027987002 0.07268715 0.10412359 0.033989113 0.043600038 -0.07037431 0.1260615 -0.12126079
-0.0065899105 0.015302124 -0.05671499 0.098803364 0.05090174 0.10241077 0.09194216 -0.09915292
0.10994074 0.09039618 0.054340668 -0.04702138 -0.05874618 -0.02104544 -0.028133342 0.008538776
-0.039593697 -0.12850867 0.133774 0.012314182 -0.020193124 0.011005446 -0.08809655 0.104969114
00000000: 1977 6d3d 97da 9f3d 7bc4 bdbc 312b c8bd
00000010: 8574 083d c2ec fd3b cdbb c3bd 142d 7cbd
00000020: e5cd 9abd a402 8bbd 487e 83bd cdf9 c7bd
00000030: 58dc 8f3c 5253 5a3d 25a5 37bc f394 19bc
00000040: 43a0 bf3d a294 adbb 931d bfbd a3f6 203d
00000050: 07b9 c4bd 13d6 db3d e28d 2a3d ac5a dc3c
00000060: 9029 b0bd d1b8 e93d 63c9 6cbb 3003 223d
00000070: acf5 e93d bcac 203d 6e9c 17bd b5d2 2dbd
00000080: 32cb c83c 6c0a a63d 979a 97bd ea85 b9bc
00000090: 6219 e93d 4821 9b3d 1f66 abbd 0ddd dcbd
000000a0: 6cba 35bd 62f1 4fbd ca4c 0e3c 187d bf3d
000000b0: 9ec5 983d 4900 ba3d 2e91 d2bb 3ca5 e93c
000000c0: 3e5b 703d 56b9 92bd 6981 14bd 83f1 983b
000000d0: 35ea 5fbc c3b5 b9bd 3494 083c e066 1d3d
000000e0: 9880 81bd e0a0 cbbd 7fcc 653d 482f 9ebc
000000f0: d399 ca3d 9346 ec3d 6097 693c ee3a ef3c
00000100: 0dca 3cbd 08b7 2f3d 4e4d c53d 813f c4bb
00000110: 0705 c2bd 03c1 e7bb 0d1b 5c3d 4fc1 f73d
00000120: 4025 9ebd 9071 913b e373 0a3e 574f a63c
00000130: 2bef 10bc 4e5b 92bd 748f 693d 6bcf 6abc
00000140: 1efc acbd a8c4 9abc 6e0e 703d 6525 9a3c
00000150: caf9 023e ae23 6b3d 3ee5 bd3d 2ffd bb3d
00000160: f65f af3d b7a3 b2bd abd7 9c3d 70c8 3fbc
00000170: bf07 0b3d 0348 afbd 7845 2b3d 80b9 cb3d
00000180: f4c5 bcbc 1312 0c3e a6f6 8a3c 152e 30bd
00000190: c840 b6bd 2fe9 bbbc 1e75 95bb 0f5e 9dbd
000001a0: d93b c53d 40d5 f83d f444 64bd cafb 023d
000001b0: 071d 973d 55e8 cfbd 67fd f33d fdaf 213b
000001c0: bb11 943b c48a 31bd f459 83bb ead1 da3a
000001d0: 35f6 cf3d 5f64 9b3d c364 2bbd f0b3 00be
000001e0: 4512 063e 13c8 303c 0d27 0a3e 5359 61bd
000001f0: eebd 063e d702 8f3c 01bc 09bd 877f adbd
00000200: 314b d1bc 9be0 a13c ef57 d03d c88f 513d
00000210: 11f2 db3d 74ed 64bc e749 c23d 8d84 003e
00000220: eb1d 45bd 5439 0d3e faf9 263d 6ffe 593d
00000230: 9249 b63d b397 a6bd 592b 3d3d 17cf 48bb
00000240: 4e3f d2bd 1ce5 6abd 6a93 d53d 3859 1dbc
00000250: f8b1 873d aa19 81bd 1122 063e 2042 e8bd
00000260: ce3b abbc b67c 943c f889 54bd 87f3 d83d
00000270: e237 cebd 48f2 053d 6b4e 22bd 81bc f9bd
00000280: 025b c23d 867e dfbd 353b 3c3c fa31 ae3d
00000290: 79a4 94bc 7522 00bd ca46 3c3d 92eb 033e
000002a0: 9151 733d 47c9 dc3c dee2 da3d a503 32bd
000002b0: b5ec f9bb bf86 833d 8823 c7bd 49b1 e3bc
000002c0: b006 e5bd 8647 1bbd 9873 d03d 1d9a b73d
000002d0: 90de 8a3d f2fc fb3c 8541 e6bd 5d2d 923d
000002e0: fecf 57bd b878 813d efa6 813c fa94 21bd
000002f0: 9676 263c 9710 b03d 800e af3d d1ea dabd
00000300: aba0 de3d ed1e e03b 1df4 f83a d003 b33d
00000310: 4ab5 a2bd 4692 ad3d da7c 103d 4e7a 33bd
00000320: ef56 433d 76d3 10bd daae 74bc cfdf b63d
00000330: 2e9c 3b3a dc66 6ebd 65a2 a43d 014f a9bd
00000340: 7fa1 013e b133 87bd 36e5 19bd 8d9d b1bd
00000350: deb9 9cbd af59 f5bc 38ab 3f3d cf87 94bd
00000360: 1aef 5e3d 96c6 0d3e 1e00 113e f8a7 993d
00000370: 47ec 80bc dc4a 4e3d 18f4 babd 0519 87bd
00000380: 666a 37bb 00dd 943d c03e d53d 2b38 0b3d
00000390: f495 323d 6820 90bd 4416 013e 9457 f8bd
000003a0: 2df0 d7bb c3b5 7a3c fa4d 68bd 6b59 ca3d
000003b0: 587e 503d bdbc d13d 2c4c bc3d b010 cbbd
000003c0: 9c28 e13d a221 b93d 5294 5e3d 7e99 40bd
000003d0: d69f 70bd 7d67 acbc e577 e6bc 39e6 0b3c
000003e0: 002d 22bd c797 03be 0dfc 083e 6cc1 493c
000003f0: 0d6c a5bc 3050 343c f76b b4bd 0cfa d63d

bias f4 [250]
-0.06328692 0.08553723 -0.08183889 0.036875673 -0.018246736 -0.009510996 0.026020922 -0.14752571
-0.0612602 0.014921985 0.04064585 -0.10772208 -0.046514034 0.06969845 0.06827234 -0.03628875
0.07200648 0.100172356 0.053891264 -0.040138435 -0.12357623 0.018873002 0.051494647 -0.06556786
-0.02610426 0.03369239 0.0320836 -0.07794441 -0.15350093 -0.1454152 -0.014871442 0.03637342
-0.05519156 -0.07353678 0.06507136 -0.096417055 -0.05264061 -0.019567471 -0.021426793 0.067664765
-0.069069 -0.038200226 0.060480982 -0.10471498 0.008224689 -0.015304189 -0.088033386 0.040648818
0.030317541 0.085184455 -0.034164075 -0.05968744 0.0055358377 -0.014829593 -0.06530842 -0.038320392
-0.103076704 -0.03954035 -0.00046266592 0.09202917 -0.074980676 -0.16237438 0.097731575 -0.07702696
-0.13860826 -0.010027709 0.059497308 -0.14688215 0.089225836 0.18978988 -0.034211192 -0.10037622
0.033222605 -0.02978986 0.05484149 0.07981065 -0.0732025 -0.025858907 -0.10960816 0.031880394
0.0029060293 0.02142814 -0.08076477 0.05591192 0.096824974 0.030396134 -0.02488866 0.05187112
0.025581326 0.07157533 0.009076239 -0.0032992393 0.08685098 -0.08690978 0.022913603 -0.15611444
-0.034180276 -0.09420366 0.04673329 -0.12498827 -0.09167118 0.014188713 -0.0749353 0.037673697
-0.018258499 0.0002070442 -0.09022254 -0.009240249 0.054903205 0.014081917 -0.018381523 -0.024556216
0.04141019 -0.07073911 -0.063703544 -0.09629963 0.08951293 -0.07109375 0.019194923 0.06759844
-0.034354463 -0.11798416 -0.09325751 0.07326099 -0.01603075 -0.00075886416 -0.036399182 0.062204946
0.055249877 0.036853295 0.051318508 0.078912936 0.079559036 0.03517915 0.043140423 0.05940964
-0.06137725 0.0019379975 0.04224377 -0.034693398 -0.14314549 -0.09274456 -0.022365168 0.07971511
-0.09523137 0.06689022 -0.1504015 0.060908575 0.03227045 -0.055252682 -0.11915121 -0.06944642
-0.094286375 -0.03026436 -0.14317338 0.08127335 -0.14025708 -0.04608101 -0.046396725 0.082167394
-0.050265912 -0.032680046 0.008077239 -0.052284203 0.02172649 -0.13035434 0.024628375 0.048429098
-0.13978344 -0.056825053 0.06271925 -0.09833498 -0.08078584 0.042373076 -0.026036624 0.07643593
-0.096184574 0.06796649 -0.061582137 -0.1556197 -0.0817247 0.04210337 0.028858876 0.045309123
0.05382419 -0.036460254 0.0664263 -0.061629843 -0.13526517 -0.14294644 -0.118165545 -0.07904543
-0.13712987 -0.078571886 -0.016489306 0.06970346 -0.039363008 0.08182116 0.03296761 0.066391215
-0.117650226 -0.02027342 -0.010854421 0.041889463 -0.089482225 -0.07453591 -0.10872887 -0.12400893
-0.0841429 0.12802958 -0.033073295 -0.04347287 -0.09156795 0.0036912393 -0.06190728 0.10150886
-0.036619887 -0.08313067 -0.1041676 -0.0012592756 -0.06784527 -0.09758229 -0.11981611 -0.05499774
0.104325704 0.068750754 -0.02771342 0.004404977 0.0013116203 -0.000109197616 0.04074777 -0.027517859
-0.050398372 0.052904714 -0.027403893 -0.13546081 -0.08033845 -0.10803976 0.045934286 -0.08542746
0.031034933 0.031189583 0.048714228 0.034092735 -0.08966901 -0.09979864 -0.066308014 0.042986296
0.08205385 -0.11007966
00000000: 939c 81bd 252e af3d 269b a7bd f20a 173d
00000010: 2e7a 95bc 02d4 1bbc d429 d53c fb10 17be
00000020: faeb 7abd 577b 743c 437c 263d 659d dcbd
00000030: 8085 3ebd 10be 8e3d 5ed2 8b3d 83a3 14bd
00000040: 2278 933d 2a27 cd3d 16bd 5c3d 3368 24bd
00000050: 8915 fdbd 8e9b 9a3c 0dec 523d 7148 86bd
00000060: 9ad8 d5bc 0801 0a3d 186a 033d 52a1 9fbd
00000070: 592f 1dbe b9e7 14be 59a7 73bc 4cfc 143d
00000080: 8c10 62bd 749a 96bd 2244 853d 4e76 c5bd
00000090: ae9d 57bd f64b a0bc 3e87 afbc d393 8a3d
000000a0: 0c74 8dbd d777 1cbd e8ba 773d cf74 d6bd
000000b0: d9c0 063c 6cbe 7abc d94a b4bd 607f 263d
000000c0: 7e5c f83c 3075 ae3d a1ef 0bbd d17a 74bd
000000d0: f965 b53b d2f7 72bc 6cc0 85bd d8f5 1cbd
000000e0: e119 d3bd 10f5 21bd f891 f2b9 ca79 bc3d
000000f0: 788f 99bd 7845 26be 7e27 c83d 50c0 9dbd
00000100: 53ef 0dbe 434b 24bc 73b3 733d 4668 16be
00000110: 09bc b63d 4758 423e 0921 0cbd 0c92 cdbd
00000120: 6d14 083d dd09 f4bc 78a1 603d c473 a33d
00000130: 31eb 95bd 0fd6 d3bc 3e7a e0bd 0495 023d
00000140: 1573 3e3b 118a af3c 0068 a5bd e603 653d
00000150: 2c4c c63d 5001 f93c 4ee3 cbbc d076 543d
00000160: ee8f d13c 1696 923d 81b4 143c 0d38 58bb
00000170: edde b13d c1fd b1bd 4fb5 bb3c 77dc 1fbe
00000180: 9e00 0cbd d9ed c0bd 686b 3f3d daf9 ffbd
00000190: 1abe bbbd c777 683c ae77 99bd bc4f 1a3d
000001a0: d992 95bc 011a 5939 98c6 b8bd 6a64 17bc
000001b0: 2fe2 603d d7b7 663c d994 96bc 1e2a c9bc
000001c0: bb9d 293d abdf 90bd 0177 82bd be38 c5bd
000001d0: 8e52 b73d 9a99 91bd ac3e 9d3c 0d71 8a3d
000001e0: 44b7 0cbd aea1 f1bd cbfd bebd dc09 963d
000001f0: eb52 83bc 83ee 46ba 4f17 15bd 9dca 7e3d
00000200: b24d 623d 7bf3 163d 5b33 523d 1b9d a13d
00000210: d9ef a23d 0318 103d 03b4 303d 8657 733d
00000220: b666 7bbd 6804 fe3a ce07 2d3d aa1a 0ebd
00000230: bb94 12be dcf0 bdbd 2837 b7bc ad41 a33d
00000240: aa08 c3bd bdfd 883d da02 1abe 457b 793d
00000250: 052e 043d a350 62bd 8d05 f4bd ed39 8ebd
00000260: 3719 c1bd f7ec f7bc 0b9c 12be a472 a63d
00000270: 8d9f 0fbe 71bf 3cbd 7e0a 3ebd 6147 a83d
00000280: a1e3 4dbd 83db 05bd 6556 043c f627 56bd
00000290: c1fb b13c 9c7b 05be 72c1 c93c 975d 463d
000002a0: 6423 0fbe 63c1 68bd f372 803d da63 c9bd
000002b0: 0c73 a5bd 648f 2d3d c24a d5bc 718a 9c3d
000002c0: 6bfc c4bd 0432 8b3d 8d3d 7cbd c55a 1fbe
000002d0: 485f a7bd 9574 2c3d 7369 ec3c 0f96 393d
000002e0: c176 5c3d 5957 15bd 830a 883d 936f 7cbd
000002f0: f482 0abe 8d60 12be c700 f2bd 92e2 a1bd
00000300: c66b 0cbe 4cea a0bd 9514 87bc b0c0 8e3d
00000310: 1b3b 21bd da91 a73d 0b09 073d 1ef8 873d
00000320: 9af2 f0bd 7114 a6bc bed6 31bc 4994 2b3d
00000330: 7542 b7bd 48a6 98bd 3ead debd 65f8 fdbd
00000340: 1d53 acbd 301a 033e dd77 07bd 9c10 32bd
00000350: fa87 bbbd b8e8 713b 7d92 7dbd e1e3 cf3d
00000360: bcfe 15bd 6a40 aabd d355 d5bd 470e a5ba
00000370: 76f2 8abd 39d9 c7bd 2662 f5bd 4f45 61bd
00000380: b7a8 d53d 32cd 8c3d 4107 e3bc a057 903b
00000390: adea ab3a 0601 e5b8 22e7 263d 226d e1bc
000003a0: 866e 4ebd 9db2 583d 217e e0bc 3db6 0abe
000003b0: 7c88 a4bd f343 ddbd 9725 3c3d 98f4 aebd
000003c0: f93c fe3c 4c81 ff3c 9288 473d d3a4 0b3d
000003d0: 63a4 b7bd 3b63 ccbd 7fcc 87bd 6612 303d
000003e0: d90b a83d 7271 e1bd

weight f4 [1, 250]
-0.03982004 -0.020692436 0.01641842 0.003455996 -0.0053026346 -0.017386042 -0.008317728 -0.010064744
-0.013585719 -0.009396753 0.051178392 0.013100442 -0.017850175 0.008425889 0.019941837 -0.021039138
-0.00036718944 -0.02044992 0.03723737 0.02308231 -0.008979547 -0.004128264 0.022469133 -0.008320572
0.032350365 0.0034287742 -0.0066245487 0.015549406 0.022937387 0.015176126 0.0030254237 -0.005098167
0.0034241443 0.022921458 -0.0066701705 -0.016619952 -0.05237658 -0.009426835 0.006258925 0.023710255
0.010104886 0.005847687 0.015620353 0.022519972 -0.019655831 0.0035739776 -0.0028133884 0.003530772
0.043525524 0.018270295 -0.007107672 0.04473149 0.04193005 -0.02210997 -0.013136985 0.014275018
0.00033912857 -0.010983322 -0.03528135 -0.004105939 -0.0011514778 -0.023717303 -0.0073371534 -0.02966187
-0.02260163 -0.024037872 0.11843923 0.0026850163 -0.014190367 0.16224255 0.011201524 -0.034118652
-0.004728439 0.011391825 0.024536027 0.018211868 0.034412425 0.11602027 -0.0033924903 -0.015378353
0.00038778613 0.015999516 0.021698434 -0.004867733 0.0054883314 0.010615002 0.008200468 0.006070721
0.0037858505 0.06303087 0.06657336 0.0051392433 0.004536366 -0.016758393 -0.013277948 0.031717986
0.045421537 0.016193071 -0.010860916 -0.0022874246 0.051068764 0.031539604 0.0048463284 -0.019877871
-0.0020401643 0.00064340804 0.027665742 -0.003581868 0.04442856 0.016563114 0.011707765 -0.0031347303
0.0138749285 0.023703482 0.056803185 0.0046720826 0.01221087 0.0038975892 0.008811952 0.0027629866
0.005502533 -0.004176782 0.005562788 0.01992612 0.0069908244 0.0014495366 -0.018117085 0.005143703
0.0011143256 0.023158869 0.013831286 0.09814734 0.10201076 -0.005590069 0.058428165 0.0043460433
0.059141863 -0.00063602644 0.03200313 0.029785028 -0.012685444 -0.01941043 -0.028529264 -0.04978448
-0.041558854 0.023542574 0.0121013 -0.057883844 0.09639142 -0.047331836 -0.0056282207 0.021343777
0.005347956 -0.024394644 0.023946505 0.0022773664 0.019791277 -0.007704215 0.00980308 0.0309791
0.0211803 0.04894017 0.01505099 -0.012986681 -0.0071755014 -0.023063717 -0.009245526 -0.021671064
-0.015255421 -0.00039891916 -0.032464366 -0.004436963 0.028431855 0.017897746 -0.006243648 -0.008811512
-0.0007808325 -0.009756014 -0.0401959 -0.02648384 -0.003409023 0.012984428 0.0059944033 0.024937801
0.012885454 0.0038892082 0.017995084 -0.056483436 -0.004536834 0.024374725 0.02868488 0.033027243
0.008608919 0.043104056 0.013231341 -0.017710296 0.023538075 -0.024237057 0.0008984483 0.020187763
0.021740068 0.0043695085 -0.020375159 0.026903287 -0.0049583917 -0.017323183 0.00061212806 -0.013924067
0.008227949 0.060498897 0.061639637 0.0037483606 -0.013771495 0.009750398 -0.010694342 -0.049622662
-0.013411722 0.005940219 0.021664863 0.021224553 -0.020275518 -0.0067865485 -0.019180631 0.0250452
0.008737676 0.008935433 0.0023751 0.0038206652 0.03262235 0.010631038 -0.024716474 -0.032861214
0.025676686 0.004003966 -0.01351769 -0.014281288 0.051393196 0.022555511 -0.020717204 0.002882583
-0.0025687057 0.019518444 0.010474329 0.057883214 0.016320609 -0.00545137 -0.04902204 0.0020448458
-0.0017456224 0.0011758546
00000000: 571a 23bd 2f83 a9bc ec7f 863c fe7d 623b
00000010: b9c1 adbb 2c6d 8ebc 1447 08bc 99e6 24bc
00000020: a396 5ebc d7f4 19bc 6fa0 513d 3ca3 563c
00000030: 883a 92bc bd0c 0a3c 105d a33c 455a acbc
00000040: 5583 c0b9 9786 a7bc 3686 183d 1d17 bd3c
00000050: f31e 13bc 6346 87bb 3011 b83c 0253 08bc
00000060: d181 043d 49b5 603b be12 d9bb f0c2 7e3c
00000070: 30e7 bb3c 49a5 783c 3046 463b 860e a7bb
00000080: 9c67 603b c8c5 bb3c 7291 dabb 9126 88bc
00000090: d388 56bd 0373 1abc ab17 cd3b 023c c23c
000000a0: f78e 253c f49d bf3b 82ec 7f3c ce7b b83c
000000b0: 4405 a1bc 6539 6a3b d360 38bb 8664 673b
000000c0: d247 323d 96ab 953c 79e7 e8bb 5e38 373d
000000d0: d8be 2b3d f81f b5bc 823c 57bc c4e1 693c
000000e0: 11cd b139 64f3 33bc 2d83 10bd 1d8b 86bb
000000f0: 2fed 96ba ca4a c2bc 816c f0bb 73fd f2bc
00000100: 0e27 b9bc 12eb c4bc 4490 f23d 19f7 2f3b
00000110: b77e 68bc e922 263e 9986 373c 00c0 0bbd
00000120: 05f1 9abb c7a4 3a3c c7ff c83c 0e31 953c
00000130: 0bf4 0c3d 099c ed3d 8b54 5ebb 7df5 7bbc
00000140: c64f cb39 6b11 833c eac0 b13c 8181 9fbb
00000150: 76d7 b33b 8cea 2d3c 415b 063c e6ec c63b
00000160: 081c 783b 5416 813d 9d57 883d 1967 a83b
00000170: cca5 943b e648 89bc c08b 59bc b8ea 013d
00000180: ef0b 3a3d 55a7 843c fcf1 31bc 9ee8 15bb
00000190: 7b2d 513d ac2f 013d f3cd 9e3b ebd6 a2bc
000001a0: 47b4 05bb 62aa 283a 44a3 e23c c6bd 6abb
000001b0: b9fa 353d 5eaf 873c edd1 3f3c 0c70 4dbb
000001c0: ab53 633c ce2d c23c 75aa 683d 4518 993b
000001d0: 1a10 483c b26e 7f3b 0160 103c 3913 353b
000001e0: 984e b43b 63dd 88bb 0c48 b63b 1a3c a33c
000001f0: 4913 e53b 61fe bd3a 486a 94bc 828c a83b
00000200: 900e 923a abb7 bd3c 9e9c 623c 7901 c93d
00000210: 04eb d03d e62c b7bb 5f52 6f3d 4169 8e3b
00000220: bd3e 723d 03bb 26ba b715 033d bbff f33c
00000230: 9cd6 4fbc 9f02 9fbc 34b6 e9bc d0ea 4bbd
00000240: 9e39 2abd 5bdc c03c 8844 463c 9c17 6dbd
00000250: dd68 c53d 07df 41bd f06c b8bb 25d9 ae3c
00000260: e83d af3b 47d7 c7bc 762b c43c de3f 153b
00000270: 5121 a23c a473 fcbb 199d 203c e2c7 fd3c
00000280: 4f82 ad3c 7d75 483d 6d98 763c 17c6 54bc
00000290: 7820 ebbb 1ff0 bcbc 8c7a 17bc 8487 b1bc
000002a0: e0f1 79bc 0626 d1b9 5bf9 04bd f163 91bb
000002b0: ece9 e83c 4b9e 923c 8497 ccbb 295e 10bc
000002c0: c8b0 4cba b0d7 1fbc 75a4 24bd a3f4 d8bc
000002d0: ea69 5fbb a3bc 543c b36c c43b 5c4a cc3c
000002e0: 831d 533c 16e2 7e3b 6d6a 933c 2d5b 67bd
000002f0: b9a9 94bb 81ad c73c 8efc ea3c 9347 073d
00000300: 6c0c 0d3c e18d 303d 44c8 583c 2f15 91bc
00000310: ecd2 c03c cb8c c6bc d885 6b3a cf60 a53c
00000320: 3a18 b23c 182e 8f3b cee9 a6bc 4864 dc3c
00000330: 017a a2bb 59e9 8dbc 3877 203a c521 64bc
00000340: 85ce 063c b1cd 773d d879 7c3d 0ea7 753b
00000350: d6a1 61bc 22c0 1f3c 5237 2fbc 2241 4bbd
00000360: d7bc 5bbc 2ba6 c23b 837a b13c 1ddf ad3c
00000370: d818 a6bc b261 debb b320 9dbc 972b cd3c
00000380: 7828 0f3c ec65 123c 91a7 1b3b 2064 7a3b
00000390: 039f 053d ce2d 2e3c 347a cabc 7b99 06bd
000003a0: ea57 d23c b433 833b 4d79 5dbc 10fc 69bc
000003b0: ac81 523d 56c6 b83c 20b7 a9bc b8e9 3c3b
000003c0: bb57 28bb 25e5 9f3c 859c 2b3c f316 6d3d
000003d0: ccb2 853c 68a1 b2bb 56cb 48bd d202 063b
000003e0: 5ecd e4ba 221f 9a3a
