model/MLP2-000666.pth (torch, 74207 bytes, 3 tensors)

weight f4 [250, 70]
00000000: d751 9f3d 59bb d23d 2b26 c63d 8456 953d
00000010: 9b1d 11bd 05e1 94bd 42ba 3bbd 7e73 1bbb
00000020: f7b3 583d 6776 c63c 4554 fbbd 061e 9dbc
00000030: 8886 d23d ec05 133d e6aa 84bd 3198 603d
00000040: f10b 443c 0ff2 e53d d9ef ac3c 7872 90bd
00000050: e36b 8f3c 84d2 8bbc a0b5 223d 0444 a33d
00000060: b6e3 5bbc f285 98bd 6592 543d 7ffe 45bd
00000070: 497d 28bd 9eed 183d 6145 08be 39ba 443d
00000080: 3785 26bd d78a 57bc df95 143e afe3 bc3c
00000090: 0662 e6bc 6c74 513c 2810 54bd 8ac5 ccbd
000000a0: 4ac2 06be 6eb3 a33d a87b 863d e64a dc3d
000000b0: 2590 2cbd de99 08bd 16af b7bd 7700 ae3d
000000c0: 24ea 033c b867 583d 54fe d9bd c89d 8fbd
000000d0: e6f5 9ebd 3a3f dc3d fc2c b03d a512 3f3c
000000e0: 26f3 30bd 6451 b73d a379 7fbc 9f24 91bd
000000f0: 033d 28bd ac2a 91bd c013 c13d 0469 a1bd
00000100: 3e3a 583d 44a0 2abe ea7e ae3d cbe4 1c3c
00000110: 7f68 aa3d 720d 3a3d ccd4 e4bd 3585 8ebd
00000120: 5444 81bd 1829 eb3d 7ead fdbc f55d 953d
00000130: 0774 77bd 1349 093e 54f2 313d 9566 e5bc
00000140: 6562 eb3c bb47 a13d 3468 79bb bb3c 413b
00000150: 5f06 ce3d d89e 97bd 1b8f ffbd af89 983b
00000160: 5009 f23c 619f 46bd 73b7 c8bd 60e3 163d
00000170: b66d c13c d777 8ebd b569 e83d 545a bb3d
00000180: f8ed babd cf23 a93d 718d 793d 26af bcbd
00000190: fc1b f33c 738f 5cbd 3cdb 5c3d fe10 b43d
000001a0: f37a 203d 6358 f4bc 86a6 86bc 30ed 4ebb
000001b0: 1cc4 123e 1000 193d 8701 023d 9d98 333c
000001c0: 8dea b53d ef98 4ebd 495b 00bd d5bb dabd
000001d0: f718 2abb 9c39 c93d d801 243d f78f 35bd
000001e0: ccc1 903d 38a7 bbbc af93 cc3c c475 8a3a
000001f0: 862c 983d 319f b3bd 424e 0f3d 806c 27bc
00000200: 7280 8ebc 804a 503d 0361 9b3d 9c2b d93d
00000210: a3f7 3a3d 1ba0 473d e4d8 493d e740 febd
00000220: 660d fdbc 367d d13d 2c4a 9cbb dcd9 0bbe
00000230: 4058 383d 4903 d93d 8a3e 52bb 6046 21bc
00000240: 0d49 03bd 38c7 a63d 0620 443d 6b2d be3c
00000250: 037a 7dbc c6ca 083d 2041 4e3d b433 ce3d
00000260: f622 fc3b 6ce3 3f3d ca8b bd3b 88c5 66bd
00000270: 981a f83c 9d08 ac3b 5267 833c f01d 15bd
00000280: 4b65 053d 4481 9bbc dd04 9c3d 7074 76bd
00000290: 418a 0fbd 76d3 113c 8365 a03d 480d 57bd
000002a0: fdd8 1a3d f221 563c 6b20 7b3d 0186 8abd
000002b0: e11f 803d de93 603d ef70 c2bc 59ba 713d
000002c0: 9301 7d3d 7cda 7fbd 64b4 5bbd 9649 d6bd
000002d0: d9d2 6ebc 0c6b 93bc d7a0 cabd 59cf bfbc
000002e0: aba2 2c3b 7ca5 cf3c 8bb3 debd 4df1 86bd
000002f0: 7d7d b13d 915f 94bd 69d5 5fbc 2ad3 5fbd
00000300: 2687 c6bd 7707 13bd bc89 aa3c 2dcf d7bd
00000310: 8010 dfbc 3568 0d3c 9f9c 013d bf67 93bd
00000320: 857e a73d 9448 c9bc 1d81 bdbb ee05 21bd
00000330: ecf0 ebbb b078 cebd 08e1 30bd 6c2a 9cbd
00000340: f55f 863d d535 87bd f5c0 ab3d 5d2d dbbb
00000350: f325 01bc 9d59 8c3d 1b98 f63d 6723 d73d
00000360: b62d 4e3d d0b9 f7bc c752 0f3e 7606 2b3c
00000370: c6d9 b7bd 534f 083d c8a6 ec3d 968a 623d
00000380: 0bc1 ae3d 5de8 653d 3584 193d fa07 00bc
00000390: 9416 ac3d 0b9c 023c 9b19 343c c600 2b3c
000003a0: 749d d8bb a996 e43d fba7 8f3d d5dd 78bc
000003b0: 64cb 85bd a707 e93d 1d5a d93d 3251 0dbe
000003c0: e6b2 bdbd 923d 6c3d b8a1 2c3e 3085 c03d
000003d0: 15e7 f1bc 368d 6a3d 72a3 14bd 4e31 963d
000003e0: 9a8a 003e 3c58 23bd 86d4 05bd 9d04 95bc
000003f0: 7c9d cb3b 99b8 8f3c c6cc f5bc fdfa 20bd
0.077792816 0.1028964 0.09675249 0.07291892 -0.035428625 -0.072694816 -0.045831926 -0.0023719962
0.052906003 0.02422638 -0.122719325 -0.019179355 0.10279566 0.03589432 -0.06477909 0.05483264
0.011965738 0.1122781 0.021110462 -0.07053083 0.0175075 -0.017068155 0.039723992 0.07971957
-0.01342099 -0.07447423 0.051897425 -0.04833841 -0.041135106 0.037335984 -0.13307716 0.04802916
-0.040654387 -0.013155661 0.14510296 0.023057787 -0.028122913 0.012784105 -0.05177322 -0.09998615
-0.13160053 0.07993208 0.06566554 0.10756473 -0.042129654 -0.033349864 -0.08968942 0.084961824
0.008051429 0.05283329 -0.10644212 -0.07012516 -0.07761745 0.10754247 0.0860233 0.01166216
-0.043200634 0.08951071 -0.015592965 -0.07087063 -0.04107381 -0.07088217 0.09427595 -0.07881358
0.05278992 -0.16662699 0.08520301 0.009576033 0.08320712 0.04542298 -0.111734 -0.06959001
-0.06311861 0.114824474 -0.030966517 0.072933115 -0.060413387 0.13406782 0.043443993 -0.028003016
0.028733442 0.078750096 -0.0038056495 0.002948566 0.10059809 -0.07403344 -0.12478467 0.004655085
0.029545456 -0.04849184 -0.09800615 0.036837935 0.023611885 -0.069564514 0.11348287 0.09148088
-0.0912742 0.08258783 0.060925905 -0.092130944 0.02967643 -0.05384774 0.053920016 0.087923035
0.039179754 -0.029827302 -0.016436826 -0.003157448 0.14332622 0.037353575 0.031739738 0.010961679
0.08882628 -0.050438818 -0.031337056 -0.10680357 -0.0025954822 0.09825441 0.04004082 -0.04432675
0.07068214 -0.022906885 0.024972765 0.0010563661 0.07430367 -0.08770598 0.03498674 -0.0102187395
-0.017395232 0.0508523 0.07586863 0.10604021 0.04564632 0.048736673 0.04927911 -0.12414723
-0.030890178 0.1022896 -0.004769584 -0.13657326 0.045006037 0.1059633 -0.0032080733 -0.009843439
-0.03205209 0.08143467 0.047882102 0.023215016 -0.015470984 0.033396505 0.050355077 0.10068455
0.0076945974 0.046847746 0.0057844864 -0.056340724 0.030286118 0.00525005 0.016040478 -0.036405504
0.032567304 -0.018982537 0.07618115 -0.060169637 -0.03504396 0.008900514 0.07831862 -0.0525029
0.037804592 0.013069617 0.061310213 -0.067638405 0.062560804 0.054828517 -0.023735492 0.059015606
0.06176908 -0.062464222 -0.05363883 -0.10463254 -0.014576637 -0.01799538 -0.09893959 -0.0234143
0.0026342075 0.025347464 -0.10874089 -0.06588993 0.08666513 -0.0724479 -0.013661721 -0.05464474
-0.09693746 -0.03589579 0.02081763 -0.105375625 -0.027229548 0.008630802 0.031643506 -0.07197522
0.081784286 -0.02457074 -0.005783214 -0.039312296 -0.007200351 -0.10081613 -0.043183357 -0.07625279
0.06561271 -0.066020645 0.08386413 -0.0066887573 -0.007882583 0.0685303 0.120407306 0.10504799
0.050336562 -0.03023997 0.13996421 0.010438552 -0.08977084 0.033278774 0.115552485 0.055307947
0.08532914 0.056129802 0.037479598 -0.007814402 0.08402744 0.007971774 0.010992433 0.010437196
-0.0066105668 0.11161549 0.070144616 -0.015189608 -0.06532934 0.11378413 0.10612891 -0.13800505
-0.09262638 0.057675906 0.16858566 0.094004035 -0.029529134 0.057263575 -0.036288686 0.07333623
0.12552872 -0.03987907 -0.03267338 -0.018190676 0.006213842 0.017544078 -0.03000487 -0.03930186

bias f4 [250]
00000000: 8e1e c2b9 29dd 8a3c 4f68 ca3d cbbc bd3d
00000010: d2f7 a0bc 481d bbbd 2588 883d be24 18be
00000020: de39 b63e dd42 3abd f155 0bbd c925 91bd
00000030: a95a 8fbd f6b0 c33c 24a7 0dbd 3a2b f6bd
00000040: 413b abbd a6c6 cb3d 38ff 1abd d106 023c
00000050: 4c09 b2bd 543c 70bd c54d 443d 6339 19bd
00000060: 7e09 1e3e e7ee 413c 07ae c83c 18b4 e1bd
00000070: 9860 9a3e 5e6e 173d f7ac edbd 39d6 b43e
00000080: 22c1 353d 0fdd 8c3d 8c74 18bd 4fa7 58bd
00000090: cf87 6d3d 84f5 c43d e3c0 c33b e89b d0bd
000000a0: 1706 06be d206 e63d 4255 1c3d 44f5 813d
000000b0: 9989 2abc 283f 60bd 220a 653d 72c0 5d3d
000000c0: 2eab 4cbd 4e9c 52bd cdd2 6fbd 4149 34bd
000000d0: 1e05 6bbc 9bb4 adbd cc01 e13d 060c c23e
000000e0: f835 d1bd 35b0 963b 3646 81bd 3d38 04be
000000f0: 47d4 823d ffc0 f3bc 4acb c8bd b3bc 3f3d
00000100: 2f46 b4bc bb55 043d 6714 373e 49d6 0bbe
00000110: 49ea 8b3d 2969 88bd 6862 92bd 51ce 8e3d
00000120: 2791 923d 0f85 0abe 4585 d0bd 740c fc3c
00000130: a89e ae3b 4e15 0f3e ba85 a6bd 50ca 0d3e
00000140: 993d 22bd 453e 723e e3ae 93bd dbe9 d73d
00000150: 943a 17bd 02a2 173d 64c2 dcbc a583 003d
00000160: 8e55 2cbd e53e e03d 385d 1fbd 304f 9abd
00000170: 3f97 f33c 3f9e 0e3e ae48 6e3c 4a07 f43d
00000180: 17ec 133e d915 78bd 2b50 dc3c 1113 f2bc
00000190: 5797 82bd d051 b4bd fca7 a33e c37a 90bc
000001a0: a800 043d e2a1 8a3d 82a4 f1bd 0948 beba
000001b0: e88d d139 3ccd e0bd 9b86 803d 05da 77bd
000001c0: 74e1 12bd f2db 89bd 62b7 d03c 80cf b9bc
000001d0: 53d8 203d 7dd9 903d 27c2 973d b934 c5bd
000001e0: b24c 56bd 836c 2a3d af07 88bc db7d 383d
000001f0: 03e6 1fbd 56b1 c7bd 1d27 35bd bfed 21be
00000200: 66a3 8abd 884b 94bc 9980 6d3d b0ad 8b3d
00000210: 692e d13d 1c40 d73d 6395 a9bd ddd2 393d
00000220: a164 87b9 6003 783e a4e8 edbd 14e1 a7bb
00000230: 5076 57bd c77d f0bd c149 a1bd 6b47 ec3c
00000240: 5050 29be 76aa 823d 35b5 573d 8f58 ebbd
00000250: c7aa b2bd 1481 223e 49f7 e13d 3d3d 403e
00000260: cff1 d4bd f4ba 9cbd 1564 73bd 038d b43c
00000270: a4b9 933d f4ba d3bd d52a bbbd 0695 58bd
00000280: 0026 63bd 9a4b 063d 1cab 823d d24f 8abd
00000290: f3ea 243e 4cde 9ebd 33f7 1ebd 8ea7 623d
000002a0: 6e7b 4fbe 89c3 86bb 432e 4b3b 24d3 303e
000002b0: fc56 133d 8d33 34bc d578 d53c e7c1 243d
000002c0: 4713 9abd b7bf 4ebd 5199 6c3d d625 943d
000002d0: 2e46 b33a 47b6 44bc 68d1 ffbc 022c 153d
000002e0: 0317 eb3b 0a40 963d 822f 9a3d 3902 a73c
000002f0: 59e0 f3bb d8b1 a2bd 0e34 9a3d 3122 c3bd
00000300: cd28 733d fdac 01be 1daf 81bd da0a 95bd
00000310: 0b3c a03d f2f3 0b3d 7ae4 56bd 2d1a b6bc
00000320: b32a 17bd 71f9 04bd 740a c03c 46a9 dd3d
00000330: 74a5 903d 2706 1f3c 51ee 913d 9b92 7c3d
00000340: 88e3 ffbd f491 a53c adc5 323d a5b0 0b3e
00000350: b85a bb3d 37d0 94bc 085b 14be fc67 8e3e
00000360: eaf4 1c3e 3e5b 573e 9d55 823d e2d7 16be
00000370: c0e1 13be 9824 93bd 1f4d 773e ae49 92bd
00000380: 8227 c1bd 6866 2cbd 5ee7 9d3e 693f d5bd
00000390: 0581 813d 4442 84bb eb0c 3cbd b658 12bd
000003a0: ef74 e93d 22a1 2dbd ff0d b83d 710a e23d
000003b0: a9b7 0fbe 1706 523d e141 863d 0fc2 063d
000003c0: e077 02bd 29fe 703d de01 1fbe acdf 93bd
000003d0: cb31 c33d 827c 193d 01a8 24bc c3d6 abbd
000003e0: 4b2b 0abc 447e e2bc
-0.00037025328 0.01695116 0.098831765 0.09264525 -0.01964942 -0.09136444 0.066665925 -0.14857766
0.35591024 -0.045473922 -0.034017507 -0.07087285 -0.06999714 0.023888092 -0.034583226 -0.120199636
-0.08360911 0.099499986 -0.03784105 0.0079361955 -0.086931795 -0.058651283 0.04792573 -0.037408244
0.15433308 0.011836744 0.024497045 -0.11020678 0.3015182 0.03697049 -0.11605256 0.3531969
0.04437364 0.06878101 -0.037220523 -0.052893933 0.057990845 0.09617141 0.0059739216 -0.10185987
-0.1308826 0.112317696 0.038167246 0.06345609 -0.010408782 -0.05474773 0.055917867 0.05413861
-0.049967937 -0.051418595 -0.058550645 -0.044015173 -0.014344482 -0.084817134 0.10986671 0.37899798
-0.10215372 0.0045986422 -0.0631222 -0.12912078 0.06388145 -0.029755114 -0.09804399 0.046810817
-0.022006122 0.03230832 0.17878877 -0.13655962 0.06831796 -0.06660683 -0.07147676 0.069729455
0.07156592 -0.1352732 -0.10181669 0.030767657 0.005328972 0.13972971 -0.08130975 0.13846707
-0.039609525 0.23656566 -0.07211091 0.10542651 -0.0369211 0.037019737 -0.026948161 0.031375546
-0.04207378 0.10949496 -0.03890726 -0.07534635 0.029735206 0.13927554 0.014543695 0.11915453
0.1444553 -0.06056771 0.026893696 -0.029550107 -0.06376522 -0.08804667 0.319641 -0.017636662
0.03222719 0.06769158 -0.117989555 -0.0014517318 0.00039969315 -0.10976645 0.06275674 -0.060510654
-0.03585954 -0.06731404 0.025478069 -0.022681952 0.039268803 0.070727326 0.074100785 -0.09629197
-0.052319236 0.04160739 -0.016605226 0.0450419 -0.039037716 -0.09750621 -0.044226754 -0.15813349
-0.06769447 -0.018102422 0.05798397 0.06820238 0.1021393 0.10510275 -0.082804464 0.04536711
-0.0002582418 0.24220037 -0.11616638 -0.005123267 -0.052603066 -0.1174274 -0.078753956 0.028842648
-0.16534543 0.06380169 0.052663047 -0.114915006 -0.087239794 0.15869552 0.11033494 0.1877336
-0.10397684 -0.07652846 -0.059421618 0.022039896 0.072131425 -0.10338393 -0.09139029 -0.052876495
-0.05545616 0.032786943 0.06380293 -0.06753506 0.16105251 -0.077572435 -0.038809966 0.055335574
-0.20261928 -0.004112665 0.0031002916 0.17268044 0.035971627 -0.010998619 0.026058594 0.040223982
-0.07523208 -0.050475802 0.0577634 0.07233779 0.0013677531 -0.012006349 -0.031227782 0.036418922
0.007174374 0.07336433 0.07528593 0.020386802 -0.007442516 -0.07944077 0.0752946 -0.09528006
0.059365083 -0.12663646 -0.06332228 -0.072774604 0.07823952 0.03416819 -0.052463986 -0.022229278
-0.036905956 -0.03246445 0.023442484 0.10823302 0.07062808 0.009706057 0.07125533 0.06166325
-0.1249457 0.020211197 0.04364555 0.13641603 0.091481626 -0.01816569 -0.1448785 0.2781371
0.15327802 0.210309 0.06363986 -0.1473079 -0.14441586 -0.07184714 0.24150513 -0.071429595
-0.09431364 -0.04208985 0.30840582 -0.10412485 0.06323437 -0.00403622 -0.045910757 -0.035729133
0.113992564 -0.042389996 0.089870445 0.11037148 -0.14034905 0.05127534 0.06555534 0.032899912
-0.031852603 0.058836136 -0.15528056 -0.072203964 0.09530982 0.037472256 -0.010049821 -0.08390572
-0.008433173 -0.027648099

weight f4 [1, 250]
00000000: 0277 b4bb 63e9 8fbc f967 453d 094d 93bc
00000010: 5bf0 4b3d a276 613b 1f57 b83c e084 5abb
00000020: 49ba 233e 4a25 333c eb68 843c f92a ffbc
00000030: 62de 0bbd e65e 853b 2d9a edbc 3f5e 993c
00000040: 0e2c 00bc e56a 353d 4dee 4cbd ee09 3bbd
00000050: 9be0 8b3c 99f3 9a3c 288a 08bd 8602 7a3a
00000060: cf9b 463d f5a9 47bb 59bf 463c 0fb4 983c
00000070: 9f61 e63d e9f4 ce3b 18b9 1dbb 3d96 ce3d
00000080: b0bf 26bd 184c ca35 2827 fabb f1bc 653c
00000090: 5e14 18bc 0e4e c63b 959a 4d39 386d 02bc
000000a0: c220 93bc c525 8dba 2acd b1bb 0041 293a
000000b0: d7ea 70bd 7c9c 263c 29b2 27bb 04cb 9e3c
000000c0: e6b1 2abc 8931 5cbd 2d79 333c 0619 f23a
000000d0: 8736 243c 4c94 80bc 1ccb 38bb be7d 133e
000000e0: 7f0a 623c e612 94bc 7eaf 0f3c 951b c7bc
000000f0: 9eb0 21bd 3f26 10bd 4f36 533b fd41 cf39
00000100: 412f c6bb dd9f 95bb 79f9 c6bc ec6b 1cbb
00000110: 8a0f ca3a 2eaa 70bd 472a 103d feed ef3a
00000120: f1ae e9bc 68b0 66bc a324 1b3d c0ca 283c
00000130: cc9c 583c 2a10 89bb 5d0b f6bb d028 673b
00000140: 04ac 5a3b 76c5 2b3c 3d40 bcbb 51e6 efbc
00000150: 2529 193d c50c 30bc a3d1 bf3c 9a46 4c3d
00000160: a560 aa3c fac5 b63b 4f5e babb 6ff3 fb3c
00000170: 6e88 f73b 0ce5 9f3d d413 ae3c 586f bcbc
00000180: 8d94 88bd 0661 1fbd 56e4 febc 4d93 d33c
00000190: 3c3d e0bc a945 7b3c f8eb 043e 7e9a 3f3d
000001a0: 9dd0 103d 235f ce3c 57cf 2dbc 5377 59bd
000001b0: 9a23 773c f2ba e03c 18b2 393d 268b 0dbd
000001c0: 4185 d73b 1aba 23bd e1fd 1e3c 695d b83c
000001d0: 87d5 0d3d 1f76 06bd c366 b43b d5c5 80bc
000001e0: 7e10 8fbc f530 debb e098 fc3b b3eb c33b
000001f0: 688b a73c e5dc 93bb 112d 203d fab3 9abc
00000200: 57ab 56bd d2e2 3eba f881 92bc 0400 d33c
00000210: 9b19 7e3d 8f6b bf3c 9a7f 44bd e320 f0bc
00000220: 7a43 b33c e307 a3bd 2c7b fabc f648 373d
00000230: c20d 3abd 4d6d 9e3b fbfb b4bc abda 893c
00000240: 1fc5 9ebc 0225 29bd 1fb7 6abd b50f 9e3c
00000250: ae8b 3e3d dc82 b8bc 944a cab9 a2ed 0cbd
00000260: beb9 45bd 54ea 883a 637d 6bbd 46f2 a43b
00000270: eaf4 febb 3a62 cb3c 74b6 263d 9d51 debb
00000280: 07df 2dbd 7974 d63c ca04 75bd ce09 72bc
00000290: e114 4dbd 7dd0 d13b 50d1 ba3b cba6 723b
000002a0: e175 33bd e794 22bd c478 eb3b 36f3 793d
000002b0: a862 3bbd ceaf e3bc 417c 96bb e82f 383c
000002c0: 76bf 363a 0d79 d0bc 12ba 23bd f591 62bd
000002d0: c615 cf3b 6183 b4bc c349 8d3c 0a15 ceba
000002e0: 4747 d13b de13 db3a 21f9 33bd 120b b53c
000002f0: 9583 19bd 326b b2bb a9e6 7a3d 7166 35bb
00000300: 8dbc e03c fbf1 013d 64a4 d23b d52b 993c
00000310: 858d 14bd 4852 6d3c caa7 ecbb df84 a4bc
00000320: 856d e73c e52f 1ebb 95b0 b5bc 5b21 d53c
00000330: 0b60 af3c acd3 3cbd 9db4 e03c ca31 61bb
00000340: 1d45 4ebb c27b 6bbb 257e 29bc 541d eb3b
00000350: 2bcf dfbc ef40 8cbc c890 2abc 4587 813d
00000360: 53cd bb3c 76e4 383d 83f6 ce3a eb63 bd3c
00000370: 3baa 853a 4555 6cbd 9988 41bc 13da 6a3c
00000380: 2249 793b f57b d3bc 73da 9e3d bca1 62bc
00000390: 5eab c8bc f2f7 893b a6e1 66bd ef16 7cbc
000003a0: bb4a e1bd fa8a bf3c 4df0 4e3d 2a9b c5bb
000003b0: 3cc2 823c 7f93 8e3c e56b 75bc 27da 50bc
000003c0: 3fa4 573d 4705 203c 784e b03c d324 223d
000003d0: 7403 5dbc aa0c 88bc 8e39 66bd fe27 693c
000003e0: 3c87 41bc b969 5bbc
-0.005507351 -0.017567342 0.04819486 -0.01798107 0.049789768 0.0034402986 0.02250248 -0.003334336
0.15989031 0.010934183 0.01616331 -0.03114842 -0.034147628 0.0040701507 -0.02900418 0.018721698
-0.007823003 0.044291396 -0.05003195 -0.045663767 0.017074874 0.018914985 -0.03333488 0.0009537119
0.048488434 -0.0030466293 0.012130582 0.018640546 0.112490885 0.0063158167 -0.0024066623 0.100872494
-0.04071015 1.5072319e-06 -0.0076340623 0.014022098 -0.0092822 0.0060517853 0.0001960791 -0.00796061
-0.017959956 -0.0010768702 -0.005426069 0.0006456524 -0.05881771 0.010169145 -0.002558837 0.019383915
-0.010418391 -0.053758178 0.0109541835 0.0018470592 0.010022766 -0.015695713 -0.0028197234 0.14403436
0.013796448 -0.018075418 0.008769868 -0.024305144 -0.039475076 -0.035192724 0.0032228415 0.00039531282
-0.0060481136 -0.0045661763 -0.02428888 -0.0023868037 0.0015416008 -0.058756046 0.03519657 0.001830518
-0.028525801 -0.014080144 0.037876736 0.010302246 0.013220977 -0.004182835 -0.007508679 0.003527213
0.003336669 0.01048409 -0.0057449625 -0.029284628 0.037392754 -0.010745232 0.023415392 0.04987202
0.020798037 0.0055778 -0.005687512 0.030755727 0.0075541055 0.07807359 0.02124969 -0.023002312
-0.06668959 -0.038910888 -0.031114738 0.025827074 -0.027372949 0.0153364325 0.1298064 0.046778195
0.0353552 0.02519185 -0.010608516 -0.053092312 0.015084172 0.027432892 0.04533586 -0.03455653
0.0065771644 -0.039972402 0.009704084 0.022505479 0.034627464 -0.032827493 0.005505414 -0.015719334
-0.017463919 -0.0067807385 0.007708654 0.0059790253 0.020452216 -0.0045124167 0.03910548 -0.018884648
-0.052409496 -0.00072817237 -0.01788424 0.025756843 0.062036138 0.023366718 -0.047973253 -0.029312557
0.021882761 -0.07960489 -0.030576311 0.044747315 -0.045423277 0.004834807 -0.02209281 0.016827902
-0.019381104 -0.04129506 -0.057303544 0.0192946 0.046519928 -0.022523336 -0.00038584007 -0.03440631
-0.04827284 0.0010445812 -0.057492625 0.005033764 -0.007780661 0.024827112 0.040701345 -0.0067846314
-0.042449024 0.026178585 -0.05981902 -0.014772845 -0.05006874 0.0064030276 0.0057012215 0.0037025686
-0.04381359 -0.039692786 0.0071860272 0.06102296 -0.045748383 -0.027793791 -0.004592449 0.0112418905
0.0006971279 -0.025448347 -0.039972372 -0.055314977 0.0063197343 -0.022035303 0.017247086 -0.0015722823
0.0063866707 0.0016714295 -0.04393876 0.022100005 -0.037479002 -0.0054449076 0.06125513 -0.0027679468
0.027433658 0.03172491 0.0064282883 0.018697659 -0.036267776 0.014484949 -0.0072221505 -0.02008289
0.028250465 -0.0024137434 -0.022178927 0.026016882 0.021408102 -0.046100304 0.027429873 -0.0034361952
-0.00314743 -0.003593192 -0.010345017 0.007175127 -0.027320465 -0.017120807 -0.010410495 0.06324629
0.022925055 0.045139752 0.0015790019 0.023118934 0.0010197827 -0.057698507 -0.011812353 0.0143342195
0.0038037975 -0.025815943 0.0775651 -0.013832506 -0.024495777 0.0042104656 -0.05636754 -0.015386327
-0.11000582 0.023381699 0.050522137 -0.00603046 0.015961759 0.017404316 -0.014979337 -0.012747324
0.05264687 0.009766883 0.021521792 0.0395859 -0.013489593 -0.016607601 -0.056207232 0.014230726
-0.011812028 -0.013391905
