model/MLP3-000635.pth (torch, 331015 bytes, 9 tensors)

weight f4 [250, 70]
00000000: 8009 6ebd 76a5 0c3d 51b2 d0bc 245a 8c3c
00000010: 9047 0f3d 41bf 82bd 681f 1e3d 41de 51bd
00000020: 0978 633d e936 4c3c f0bc 0c3d f3cb 9e3c
00000030: d79b 893d fa60 883d f038 043d f2fe 4a3c
00000040: f1a9 0fbe 5719 1c3c 7235 1bbd 8d7b a8bc
00000050: 3345 9dbc 6e80 073e 809d 813d a432 58bd
00000060: 83cd ea3d ca39 65bb 1d4b f93c 03a3 ee3c
00000070: f9a0 1e3d b772 86bc 8d6d 093c 5848 f63d
00000080: 39be b53c fa2d be3d f81f a23d e3a2 a33d
00000090: a66e 86bd 4fa4 89bd 09dd 12bb df91 84bd
000000a0: 1f02 4c3d dfdd a63d 8eda 1f3c 8076 3a3d
000000b0: 2281 ea3c 8069 0cbe b08c 9fbb 23b9 9f3d
000000c0: ad09 b739 4f02 533c 8895 9b3d 19d4 f63d
000000d0: ebf4 06bc 023f e73c cbd5 1d3d 52b8 eab9
000000e0: dac2 083b 6f44 a4bd c297 413c 6c1b 83bd
000000f0: 1958 1b3d 4b59 09bd 6383 ad3d a15b db3c
00000100: 7ad1 7cbb 2840 febc e1af b9bd 165c 253d
00000110: c81b 213d ebe9 6cbd 58e5 cf3d b905 98bd
00000120: 3d53 243d fc16 b03d aa2e 3d3c 73c3 c7bd
00000130: 8798 d1bd 9518 973c 6650 513c 38c8 0cbd
00000140: 3796 a93c 584a 583d 3fcc 093e 3447 363d
00000150: acf1 f83d e0e1 563d e8df 433d 3831 823c
00000160: ba65 b33d 7325 0a3b 466d 52bd 953a 3abd
00000170: b967 aabd 6608 8d3d f9c2 8b3d 006f 213d
00000180: e68b 303d 7500 f03c 001b 9d3c 0a71 753d
00000190: d908 d23d 8780 e5bc 3518 023e edf2 1b3d
000001a0: 92e9 c13d 092b c1bd 4983 d0bc 1341 94bd
000001b0: 2487 28bd f82e d3bd f62d c13c 1f86 a83d
000001c0: d11a 7d3d dc4b 1b3c 1958 a4bd e6de a83c
000001d0: fcad 15be c0dc a03d 5ffa 003d a6dd 30bc
000001e0: 7d21 55bb 6cfd 06bd fac6 89bd fc52 083e
000001f0: bd86 d13c da2c f1bd eb04 e1bc 5da3 123d
00000200: 11cd bc3c 18c1 f3bd 0793 79bc ab2f bfb9
00000210: abdf a03d 3e1c 6f3d ba45 1ebd d494 b5bc
00000220: f06d 00be d72d 97bd 2bc1 1a3d 3723 273c
00000230: c019 45bd efda b53d 7381 913d 1860 d63d
00000240: 65df 86bd 0cdc 4cbc bb84 0fbd 745c c63c
00000250: f59f d0bd c965 bfbd f323 4abc bba2 7bbb
00000260: cf0c 733d 3cb1 2c3d 415b 213c 6946 763d
00000270: abea 373d f6a7 3dbd 5a20 b3bd c664 3c3d
00000280: 6bed 7abc cf26 583d d09f 6ebc be65 a43d
00000290: 14e3 28bd 92b7 5039 c3a0 a4bd 85c6 ab3d
000002a0: 5b4b 273c efc7 a2bd 8de0 1d3d c0a5 b2bd
000002b0: 0e77 aabc 7e31 8f3c 95d1 94bc 133e 4dbd
000002c0: c82e 57bd a968 543d 02c8 8fbc 3bee efbc
000002d0: a81d 3fbd b998 6f3d b16a 9cbd 07c6 cf3d
000002e0: aa17 963d 01d4 cebd 180c c1bc f586 633d
000002f0: 593d dd3c 81be adbd 63f7 f33c cafe d33d
00000300: 481c 54bd b01b c03d 3075 0f3d 19aa 98bd
00000310: 5923 413d 4107 dab7 65a6 163d 538a e7bc
00000320: 8aad b3bd 2237 2dbd 06e8 403d 5de7 db3c
00000330: 72f7 b63b 350e 393d e644 183d cc72 c4bc
00000340: 3d85 23bd f9de 773d 4703 87bd 149e 02be
00000350: f93f 513d a4b0 7bbd f0d7 cdbd 4149 ee3b
00000360: 6b06 c4bd 8461 ab3d 4934 b8bc 64f8 193d
00000370: f964 503d ef46 94bc ab05 0bbd d1f1 9c3d
00000380: b8fc b63d c281 253d 12b2 b8bd 0f19 143d
00000390: 8a81 b9bc bd90 b43b f638 103d e599 f1bc
000003a0: 5905 433d 9aaf 37bd 6946 4abd d32d 73bd
000003b0: b355 f33a fcb7 87bd 2a0c 253d d833 083d
000003c0: 2b1b ae3d 12a5 c8bc 9650 583c 333d 7a3d
000003d0: d719 e5bc f9df 98bc c013 c4bd 05e7 243d
000003e0: 260b b93d 970b e3ba dd25 b4ba c162 0abc
000003f0: ec38 99bd 504b 11bb bd16 c43d d3bf df3d
-0.05811453 0.034337483 -0.025475653 0.017132826 0.034980357 -0.06384135 0.03860417 -0.05123735
0.055534396 0.0124642635 0.034359872 0.01938436 0.06719177 0.06659122 0.032280862 0.012389885
-0.14029671 0.009527526 -0.037892766 -0.020566726 -0.019198036 0.13232586 0.06328869 -0.05278267
0.114649795 -0.0034977072 0.030431325 0.029130464 0.038727734 -0.016412122 0.008387935 0.12025517
0.022185432 0.09286113 0.07916254 0.079900526 -0.06564073 -0.067207925 -0.002240958 -0.06473135
0.04980671 0.08147787 0.009756697 0.045523167 0.028626028 -0.1371212 -0.004869066 0.07798984
0.0003491169 0.012878968 0.0759688 0.12052173 -0.008237104 0.028228287 0.038533967 -0.00044769287
0.0020868094 -0.08020865 0.011815967 -0.06401715 0.037925813 -0.033532422 0.08472326 0.02677709
-0.0038577006 -0.031036451 -0.09066749 0.040371023 0.039333135 -0.05784027 0.10151166 -0.074229665
0.040118445 0.08598134 0.01154677 -0.09754076 -0.102341704 0.018444339 0.012775516 -0.03437063
0.02070151 0.052805275 0.1345682 0.0445015 0.1215547 0.052461505 0.047820956 0.01589261
0.08759637 0.002107945 -0.051373743 -0.045466024 -0.08320565 0.068863675 0.068242975 0.0394125
0.043102168 0.029297093 0.019177914 0.059922256 0.10255594 -0.028015388 0.12704547 0.03807347
0.09468378 -0.094320364 -0.025453227 -0.072389744 -0.041144505 -0.10311693 0.023581486 0.082287066
0.061793152 0.0094785355 -0.08024616 0.020614099 -0.14617151 0.07854605 0.031488772 -0.010795033
-0.0032521181 -0.032956526 -0.06727405 0.13312906 0.025576944 -0.11776133 -0.027468165 0.035800327
0.023047002 -0.11902064 -0.015232808 -0.00036465874 0.07855161 0.058376543 -0.038640715 -0.022165693
-0.12541938 -0.0738179 0.037781876 0.010201267 -0.04812026 0.08879649 0.071047686 0.10467547
-0.06585578 -0.012503635 -0.03503869 0.024214007 -0.101867594 -0.09345586 -0.0123376725 -0.0038396555
0.059338387 0.04216121 0.009848417 0.060125742 0.04490153 -0.04630276 -0.08746405 0.045994543
-0.015315394 0.052771386 -0.014564469 0.08027218 -0.041232184 0.00019904811 -0.08038475 0.08387474
0.010210837 -0.079482906 0.038544226 -0.087230206 -0.020808723 0.017479654 -0.018166343 -0.050108027
-0.05253485 0.051857624 -0.017551426 -0.029288402 -0.04665914 0.058495257 -0.07637537 0.101451926
0.07328732 -0.1009903 -0.023565337 0.055548627 0.027006792 -0.08483601 0.02978105 0.103513315
-0.051784784 0.09380281 0.035023868 -0.074543186 0.04715285 -2.5991003e-05 0.03677978 -0.0282642
-0.08773334 -0.042288907 0.047096275 0.026843721 0.005583697 0.045179565 0.03717508 -0.02398052
-0.039921988 0.060515378 -0.06592422 -0.12755615 0.0510864 -0.061447755 -0.100509524 0.007271916
-0.09571537 0.08368209 -0.022485869 0.0375904 0.050877545 -0.01810023 -0.033940952 0.0766331
0.08934921 0.04040695 -0.09018339 0.03615671 -0.022644777 0.005510418 0.035210572 -0.029492328
0.04761252 -0.0448452 -0.049383555 -0.059369873 0.0018564969 -0.06626889 0.040294804 0.033252567
0.08501276 -0.024492774 0.013202807 0.06109352 -0.027966423 -0.018661486 -0.095740795 0.04025938
0.090353295 -0.001732218 -0.0013744194 -0.008446396 -0.0748156 -0.0022170134 0.095746495 0.109252594

bias f4 [250]
00000000: c35b e2bd 7698 703d b8a0 ce3d df08 943d
00000010: 6fd3 eb3c 8303 25bd b3bd 943b 49c1 25bc
00000020: 4f38 4e3d f624 d23c 32b0 723d 0124 683d
00000030: f285 1ebd 2a49 d73d 3d67 b8bd 6e6b 8d3d
00000040: 0074 86bd 6317 863c 3e34 73bd 03c5 62bd
00000050: 704f 52bd d752 113d 3c53 8c3b c120 87bd
00000060: 8c5e b7bc 1fd9 3fbd 987e 6e3a 3b22 d6bd
00000070: e732 afbb bb5f 0c3e 36ad 55bd c79e fb3c
00000080: 7230 d8bd facc e2bd 13dd b4bd 8cad 5cbd
00000090: cd14 c83d d964 3f3c b6d0 6d3c 71d0 053e
000000a0: cd7d 0fbc 696f 143d 7ed0 813d e59c 563d
000000b0: 26ea f53d 9f0a 103e b020 a6bd 65ab ee3d
000000c0: 83b3 613c 8139 923c 9051 e2bd 5a87 123c
000000d0: 954c 31bd aade cebd 8616 46bd daff 813c
000000e0: 201d 11bd 0bc6 a1bd 1087 f13c ab6f 9e3c
000000f0: 009b 643d 7a87 213e ac0e f33c 4b87 2bbd
00000100: 70d1 bebc 56f0 253e c120 88ba 0893 a8ba
00000110: 4a84 de3d 7bb0 0fbd 7164 d3bd aa8d 8d3d
00000120: a473 be3d 66e2 c23d fad9 a3bd 1734 953c
00000130: 3eb8 4e3d 14bd 6f3d a2f6 b0bd 1f78 5c3d
00000140: a811 0fbd 8850 933c f8bb 77bd 9904 d8bc
00000150: 0f62 cf3c 34db 393e 8626 1d3d 8dcb 97bb
00000160: ccb6 05be 9652 183d 5836 90bd 31e6 9ebd
00000170: e1fd 743d c282 4b3c 5cac 2a3c 30d7 ef3c
00000180: fafb ae3d 0812 6dbd 655e a8bb 4661 6e3c
00000190: 53b8 3b3e e64d 57bd 2ca6 c4bd 56ba 8bbd
000001a0: 776b 88bc 53dd d6bd fb1b cbbd b46e 9a3d
000001b0: e42e ec3d 4829 b5bb beac 543d c0cb 973d
000001c0: 615e afbb 1091 3fbd 3dfb 7c3e 5471 07be
000001d0: 5b8f cd3d 9e6e 55bc edf8 bf3d b2d8 0e3c
000001e0: a080 a33d 190d 2e3b 0f9c 1d3d 985c db3d
000001f0: bc9b 6dbc 94e3 c13b d7ed d93d ce17 1a3d
00000200: ab2c d4bd 9d5c 243e 80a6 59bd 7b29 53bc
00000210: 1690 08be 47f2 00be 19bc bfbd a53f 1e3d
00000220: 61e4 99bc 8e8c dfbd 7f23 38bd c77d 4d3e
00000230: 15be c7bd fa82 04be b339 4c3e 4d1c 9cbc
00000240: 3547 053d 694d 67bc 133c edbc 10b2 d5bd
00000250: 1a4a c2bd 1df0 273d a973 813d c240 9ebd
00000260: 8334 b63d 75d9 b13d a182 f13c 7616 dd3d
00000270: 7563 e03d f100 29bd 9627 58bd 7da1 adbc
00000280: cb10 503e 960c 78bc fd37 cbbd f532 c5bd
00000290: 0605 023e 74e6 00be 0fe4 5f3d 0ef5 92bd
000002a0: 9c7c 95bd 6f88 c83b 26f4 13bd 98fc 4a3d
000002b0: cda4 6fbd 51ba ee3d 583c d4bd 1869 2abc
000002c0: 3174 6b3d 4b7b 16bd fc28 ad3b eaae 7c3d
000002d0: 1ee9 babd 84d9 98bd c9f5 b1bd ba96 9a3d
000002e0: 22da 593d a39a 19bc 4e72 b2bd 87b7 e0bc
000002f0: 4bed 133d a805 c2bd cc9b 79bd 8215 91bc
00000300: 4e5c bf3d ec55 9f3d 6986 edbd ea71 de3c
00000310: a4d2 853d 6346 083d 600e 8a3d b14e edbc
00000320: 029f 073c 7588 aebd 7ca9 a93c 9165 223e
00000330: f045 9c3d e617 a1ba 3185 f3bd 175a 253d
00000340: 8c27 0ebe 7ef5 bbbd 72c3 e5bc 7f03 84bd
00000350: e4c1 f7bd 5209 613d d041 37bd 3ee4 a6bd
00000360: d778 383e 5f89 cabd 9905 bebd 4984 e0ba
00000370: 4c1d d03d dbc9 fbbc 27bb 963e 303e 393c
00000380: 463b a9bd 4a63 1b3e 97ce f0bd fbd6 8abd
00000390: 922e 0a3e 5d67 3abc 349c 683d 7561 99bd
000003a0: a6f4 233c 8fca 9bbd baf5 43bd 2df7 783b
000003b0: 9ec7 3f3d 041c acbc 3a72 f63d e3a1 12bc
000003c0: 3c3f f1ba 543e 893d ae9c 983e ca9e 1c3d
000003d0: 5ab9 8b3d 0da3 b43d 64b6 a13d d1bb 5fbd
000003e0: 38ee 253b 1ddc 273d
-0.110526584 0.058739148 0.100892484 0.072282545 0.028787343 -0.040286552 0.0045392155 -0.010116884
0.05034667 0.02565239 0.059250064 0.05667496 -0.03870196 0.10512002 -0.09004066 0.06905256
-0.06565094 0.016368574 -0.059375994 -0.055363666 -0.05134529 0.035479393 0.0042823832 -0.06598044
-0.02238395 -0.046837922 0.00090978434 -0.10455748 -0.005346644 0.13708393 -0.05216714 0.03071536
-0.10556115 -0.110742524 -0.08831229 -0.053876445 0.097695924 0.011681759 0.014515093 0.13067795
-0.008758021 0.03623906 0.06338595 0.05239572 0.12007551 0.14066552 -0.081117034 0.11653785
0.013775709 0.017849686 -0.11050713 0.008943403 -0.043285925 -0.101010635 -0.048361324 0.01586907
-0.035428166 -0.07899102 0.029483348 0.019340357 0.055811882 0.15774336 0.029670082 -0.041877072
-0.023293227 0.16204962 -0.0010385738 -0.0012861202 0.10865076 -0.035080414 -0.10321892 0.06911786
0.092994004 0.09515838 -0.0800056 0.018213315 0.050468676 0.05852993 -0.086407915 0.053825494
-0.034928948 0.017982736 -0.060481995 -0.02636938 0.025315313 0.18150026 0.038366817 -0.0046324194
-0.13058013 0.037188135 -0.07041615 -0.07758749 0.05981243 0.012421312 0.01041707 0.029277414
0.085441545 -0.057878524 -0.005138206 0.014549559 0.18332033 -0.052564524 -0.09602007 -0.0682265
-0.016652806 -0.10491433 -0.09917446 0.07540646 0.11532381 -0.0055286027 0.051922552 0.07411909
-0.005351827 -0.0467692 0.24705215 -0.13226825 0.100371085 -0.0130268615 0.09373651 0.008718656
0.07983518 0.00265581 0.038478907 0.1071102 -0.014502462 0.005917022 0.106410675 0.03762036
-0.10360082 0.16050954 -0.053137302 -0.012888308 -0.13336214 -0.12592421 -0.09362049 0.038634915
-0.018785657 -0.109154806 -0.044955727 0.20067511 -0.09753052 -0.12940589 0.19943886 -0.019056464
0.03253861 -0.014117577 -0.02895931 -0.10434353 -0.0948679 0.041000474 0.063208885 -0.07727195
0.088967346 0.08684055 0.029481234 0.107953 0.1095647 -0.041260663 -0.052772127 -0.021195168
0.20318906 -0.0151397195 -0.09922788 -0.0962886 0.12697229 -0.12587911 0.054660853 -0.07175647
-0.07299158 0.00611978 -0.03612151 0.0495573 -0.058506776 0.11656631 -0.10363072 -0.010401033
0.057483856 -0.036738675 0.0052844267 0.06169025 -0.09126495 -0.07463363 -0.08689458 0.0754828
0.053186543 -0.009375247 -0.08713208 -0.027431263 0.036114972 -0.09473735 -0.060939595 -0.017710451
0.093437776 0.0778006 -0.11597902 0.027153928 0.06534317 0.03327025 0.06741023 -0.028968187
0.0082776565 -0.08522121 0.0207107 0.15859057 0.07630527 -0.0012290447 -0.118906386 0.04036912
-0.13882273 -0.09177683 -0.028047297 -0.06445979 -0.120975286 0.05494053 -0.044740498 -0.081490025
0.18014847 -0.09889483 -0.092784114 -0.0017129268 0.10161838 -0.0307359 0.2943966 0.011306331
-0.08263259 0.15174595 -0.11758154 -0.067792855 0.13494328 -0.011377183 0.056789592 -0.074892916
0.010007059 -0.07606994 -0.047841765 0.0037989125 0.04682123 -0.021009453 0.12033506 -0.00894973
-0.0018405686 0.06701341 0.29807037 0.03823737 0.068224624 0.08820162 0.078961164 -0.054622475
0.0025318991 0.0409814

weight f4 [250]
00000000: 0000 803f 0000 803f 0000 803f 0000 803f
00000010: 0000 803f 0000 803f 0000 803f 0000 803f
00000020: 0000 803f 0000 803f 0000 803f 0000 803f
00000030: 0000 803f 0000 803f 0000 803f 0000 803f
00000040: 0000 803f 0000 803f 0000 803f 0000 803f
00000050: 0000 803f 0000 803f 0000 803f 0000 803f
00000060: 0000 803f 0000 803f 0000 803f 0000 803f
00000070: 0000 803f 0000 803f 0000 803f 0000 803f
00000080: 0000 803f 0000 803f 0000 803f 0000 803f
00000090: 0000 803f 0000 803f 0000 803f 0000 803f
000000a0: 0000 803f 0000 803f 0000 803f 0000 803f
000000b0: 0000 803f 0000 803f 0000 803f 0000 803f
000000c0: 0000 803f 0000 803f 0000 803f 0000 803f
000000d0: 0000 803f 0000 803f 0000 803f 0000 803f
000000e0: 0000 803f 0000 803f 0000 803f 0000 803f
000000f0: 0000 803f 0000 803f 0000 803f 0000 803f
00000100: 0000 803f 0000 803f 0000 803f 0000 803f
00000110: 0000 803f 0000 803f 0000 803f 0000 803f
00000120: 0000 803f 0000 803f 0000 803f 0000 803f
00000130: 0000 803f 0000 803f 0000 803f 0000 803f
00000140: 0000 803f 0000 803f 0000 803f 0000 803f
00000150: 0000 803f 0000 803f 0000 803f 0000 803f
00000160: 0000 803f 0000 803f 0000 803f 0000 803f
00000170: 0000 803f 0000 803f 0000 803f 0000 803f
00000180: 0000 803f 0000 803f 0000 803f 0000 803f
00000190: 0000 803f 0000 803f 0000 803f 0000 803f
000001a0: 0000 803f 0000 803f 0000 803f 0000 803f
000001b0: 0000 803f 0000 803f 0000 803f 0000 803f
000001c0: 0000 803f 0000 803f 0000 803f 0000 803f
000001d0: 0000 803f 0000 803f 0000 803f 0000 803f
000001e0: 0000 803f 0000 803f 0000 803f 0000 803f
000001f0: 0000 803f 0000 803f 0000 803f 0000 803f
00000200: 0000 803f 0000 803f 0000 803f 0000 803f
00000210: 0000 803f 0000 803f 0000 803f 0000 803f
00000220: 0000 803f 0000 803f 0000 803f 0000 803f
00000230: 0000 803f 0000 803f 0000 803f 0000 803f
00000240: 0000 803f 0000 803f 0000 803f 0000 803f
00000250: 0000 803f 0000 803f 0000 803f 0000 803f
00000260: 0000 803f 0000 803f 0000 803f 0000 803f
00000270: 0000 803f 0000 803f 0000 803f 0000 803f
00000280: 0000 803f 0000 803f 0000 803f 0000 803f
00000290: 0000 803f 0000 803f 0000 803f 0000 803f
000002a0: 0000 803f 0000 803f 0000 803f 0000 803f
000002b0: 0000 803f 0000 803f 0000 803f 0000 803f
000002c0: 0000 803f 0000 803f 0000 803f 0000 803f
000002d0: 0000 803f 0000 803f 0000 803f 0000 803f
000002e0: 0000 803f 0000 803f 0000 803f 0000 803f
000002f0: 0000 803f 0000 803f 0000 803f 0000 803f
00000300: 0000 803f 0000 803f 0000 803f 0000 803f
00000310: 0000 803f 0000 803f 0000 803f 0000 803f
00000320: 0000 803f 0000 803f 0000 803f 0000 803f
00000330: 0000 803f 0000 803f 0000 803f 0000 803f
00000340: 0000 803f 0000 803f 0000 803f 0000 803f
00000350: 0000 803f 0000 803f 0000 803f 0000 803f
00000360: 0000 803f 0000 803f 0000 803f 0000 803f
00000370: 0000 803f 0000 803f 0000 803f 0000 803f
00000380: 0000 803f 0000 803f 0000 803f 0000 803f
00000390: 0000 803f 0000 803f 0000 803f 0000 803f
000003a0: 0000 803f 0000 803f 0000 803f 0000 803f
000003b0: 0000 803f 0000 803f 0000 803f 0000 803f
000003c0: 0000 803f 0000 803f 0000 803f 0000 803f
000003d0: 0000 803f 0000 803f 0000 803f 0000 803f
000003e0: 0000 803f 0000 803f
1.0 1.0 1.0 1.0 1.0 1.0 1.0 1.0
1.0 1.0 1.0 1.0 1.0 1.0 1.0 1.0
1.0 1.0 1.0 1.0 1.0 1.0 1.0 1.0
1.0 1.0 1.0 1.0 1.0 1.0 1.0 1.0
1.0 1.0 1.0 1.0 1.0 1.0 1.0 1.0
1.0 1.0 1.0 1.0 1.0 1.0 1.0 1.0
1.0 1.0 1.0 1.0 1.0 1.0 1.0 1.0
1.0 1.0 1.0 1.0 1.0 1.0 1.0 1.0
1.0 1.0 1.0 1.0 1.0 1.0 1.0 1.0
1.0 1.0 1.0 1.0 1.0 1.0 1.0 1.0
1.0 1.0 1.0 1.0 1.0 1.0 1.0 1.0
1.0 1.0 1.0 1.0 1.0 1.0 1.0 1.0
1.0 1.0 1.0 1.0 1.0 1.0 1.0 1.0
1.0 1.0 1.0 1.0 1.0 1.0 1.0 1.0
1.0 1.0 1.0 1.0 1.0 1.0 1.0 1.0
1.0 1.0 1.0 1.0 1.0 1.0 1.0 1.0
1.0 1.0 1.0 1.0 1.0 1.0 1.0 1.0
1.0 1.0 1.0 1.0 1.0 1.0 1.0 1.0
1.0 1.0 1.0 1.0 1.0 1.0 1.0 1.0
1.0 1.0 1.0 1.0 1.0 1.0 1.0 1.0
1.0 1.0 1.0 1.0 1.0 1.0 1.0 1.0
1.0 1.0 1.0 1.0 1.0 1.0 1.0 1.0
1.0 1.0 1.0 1.0 1.0 1.0 1.0 1.0
1.0 1.0 1.0 1.0 1.0 1.0 1.0 1.0
1.0 1.0 1.0 1.0 1.0 1.0 1.0 1.0
1.0 1.0 1.0 1.0 1.0 1.0 1.0 1.0
1.0 1.0 1.0 1.0 1.0 1.0 1.0 1.0
1.0 1.0 1.0 1.0 1.0 1.0 1.0 1.0
1.0 1.0 1.0 1.0 1.0 1.0 1.0 1.0
1.0 1.0 1.0 1.0 1.0 1.0 1.0 1.0
1.0 1.0 1.0 1.0 1.0 1.0 1.0 1.0
1.0 1.0

bias f4 [250]
00000000: 0000 0000 0000 0000 0000 0000 0000 0000
00000010: 0000 0000 0000 0000 0000 0000 0000 0000
00000020: 0000 0000 0000 0000 0000 0000 0000 0000
00000030: 0000 0000 0000 0000 0000 0000 0000 0000
00000040: 0000 0000 0000 0000 0000 0000 0000 0000
00000050: 0000 0000 0000 0000 0000 0000 0000 0000
00000060: 0000 0000 0000 0000 0000 0000 0000 0000
00000070: 0000 0000 0000 0000 0000 0000 0000 0000
00000080: 0000 0000 0000 0000 0000 0000 0000 0000
00000090: 0000 0000 0000 0000 0000 0000 0000 0000
000000a0: 0000 0000 0000 0000 0000 0000 0000 0000
000000b0: 0000 0000 0000 0000 0000 0000 0000 0000
000000c0: 0000 0000 0000 0000 0000 0000 0000 0000
000000d0: 0000 0000 0000 0000 0000 0000 0000 0000
000000e0: 0000 0000 0000 0000 0000 0000 0000 0000
000000f0: 0000 0000 0000 0000 0000 0000 0000 0000
00000100: 0000 0000 0000 0000 0000 0000 0000 0000
00000110: 0000 0000 0000 0000 0000 0000 0000 0000
00000120: 0000 0000 0000 0000 0000 0000 0000 0000
00000130: 0000 0000 0000 0000 0000 0000 0000 0000
00000140: 0000 0000 0000 0000 0000 0000 0000 0000
00000150: 0000 0000 0000 0000 0000 0000 0000 0000
00000160: 0000 0000 0000 0000 0000 0000 0000 0000
00000170: 0000 0000 0000 0000 0000 0000 0000 0000
00000180: 0000 0000 0000 0000 0000 0000 0000 0000
00000190: 0000 0000 0000 0000 0000 0000 0000 0000
000001a0: 0000 0000 0000 0000 0000 0000 0000 0000
000001b0: 0000 0000 0000 0000 0000 0000 0000 0000
000001c0: 0000 0000 0000 0000 0000 0000 0000 0000
000001d0: 0000 0000 0000 0000 0000 0000 0000 0000
000001e0: 0000 0000 0000 0000 0000 0000 0000 0000
000001f0: 0000 0000 0000 0000 0000 0000 0000 0000
00000200: 0000 0000 0000 0000 0000 0000 0000 0000
00000210: 0000 0000 0000 0000 0000 0000 0000 0000
00000220: 0000 0000 0000 0000 0000 0000 0000 0000
00000230: 0000 0000 0000 0000 0000 0000 0000 0000
00000240: 0000 0000 0000 0000 0000 0000 0000 0000
00000250: 0000 0000 0000 0000 0000 0000 0000 0000
00000260: 0000 0000 0000 0000 0000 0000 0000 0000
00000270: 0000 0000 0000 0000 0000 0000 0000 0000
00000280: 0000 0000 0000 0000 0000 0000 0000 0000
00000290: 0000 0000 0000 0000 0000 0000 0000 0000
000002a0: 0000 0000 0000 0000 0000 0000 0000 0000
000002b0: 0000 0000 0000 0000 0000 0000 0000 0000
000002c0: 0000 0000 0000 0000 0000 0000 0000 0000
000002d0: 0000 0000 0000 0000 0000 0000 0000 0000
000002e0: 0000 0000 0000 0000 0000 0000 0000 0000
000002f0: 0000 0000 0000 0000 0000 0000 0000 0000
00000300: 0000 0000 0000 0000 0000 0000 0000 0000
00000310: 0000 0000 0000 0000 0000 0000 0000 0000
00000320: 0000 0000 0000 0000 0000 0000 0000 0000
00000330: 0000 0000 0000 0000 0000 0000 0000 0000
00000340: 0000 0000 0000 0000 0000 0000 0000 0000
00000350: 0000 0000 0000 0000 0000 0000 0000 0000
00000360: 0000 0000 0000 0000 0000 0000 0000 0000
00000370: 0000 0000 0000 0000 0000 0000 0000 0000
00000380: 0000 0000 0000 0000 0000 0000 0000 0000
00000390: 0000 0000 0000 0000 0000 0000 0000 0000
000003a0: 0000 0000 0000 0000 0000 0000 0000 0000
000003b0: 0000 0000 0000 0000 0000 0000 0000 0000
000003c0: 0000 0000 0000 0000 0000 0000 0000 0000
000003d0: 0000 0000 0000 0000 0000 0000 0000 0000
000003e0: 0000 0000 0000 0000
0.0 0.0 0.0 0.0 0.0 0.0 0.0 0.0
0.0 0.0 0.0 0.0 0.0 0.0 0.0 0.0
0.0 0.0 0.0 0.0 0.0 0.0 0.0 0.0
0.0 0.0 0.0 0.0 0.0 0.0 0.0 0.0
0.0 0.0 0.0 0.0 0.0 0.0 0.0 0.0
0.0 0.0 0.0 0.0 0.0 0.0 0.0 0.0
0.0 0.0 0.0 0.0 0.0 0.0 0.0 0.0
0.0 0.0 0.0 0.0 0.0 0.0 0.0 0.0
0.0 0.0 0.0 0.0 0.0 0.0 0.0 0.0
0.0 0.0 0.0 0.0 0.0 0.0 0.0 0.0
0.0 0.0 0.0 0.0 0.0 0.0 0.0 0.0
0.0 0.0 0.0 0.0 0.0 0.0 0.0 0.0
0.0 0.0 0.0 0.0 0.0 0.0 0.0 0.0
0.0 0.0 0.0 0.0 0.0 0.0 0.0 0.0
0.0 0.0 0.0 0.0 0.0 0.0 0.0 0.0
0.0 0.0 0.0 0.0 0.0 0.0 0.0 0.0
0.0 0.0 0.0 0.0 0.0 0.0 0.0 0.0
0.0 0.0 0.0 0.0 0.0 0.0 0.0 0.0
0.0 0.0 0.0 0.0 0.0 0.0 0.0 0.0
0.0 0.0 0.0 0.0 0.0 0.0 0.0 0.0
0.0 0.0 0.0 0.0 0.0 0.0 0.0 0.0
0.0 0.0 0.0 0.0 0.0 0.0 0.0 0.0
0.0 0.0 0.0 0.0 0.0 0.0 0.0 0.0
0.0 0.0 0.0 0.0 0.0 0.0 0.0 0.0
0.0 0.0 0.0 0.0 0.0 0.0 0.0 0.0
0.0 0.0 0.0 0.0 0.0 0.0 0.0 0.0
0.0 0.0 0.0 0.0 0.0 0.0 0.0 0.0
0.0 0.0 0.0 0.0 0.0 0.0 0.0 0.0
0.0 0.0 0.0 0.0 0.0 0.0 0.0 0.0
0.0 0.0 0.0 0.0 0.0 0.0 0.0 0.0
0.0 0.0 0.0 0.0 0.0 0.0 0.0 0.0
0.0 0.0

weight f4 [250, 250]
00000000: 869d fcbc a4f8 0dbd 50bd 443d a84b 38bc
00000010: 60e5 973d 9199 4b3d d149 b7bc 660e 213c
00000020: d535 38bc 8e2d 653d 1833 973b 13ab c9bc
00000030: 4202 583d 88a1 f33c d2bb 4b3d 6aa3 10bd
00000040: de2e 383d 4cba a03b 7261 b6bc f1cc a03c
00000050: c147 84bc 5715 60bc 7b82 06bd a35b 033d
00000060: 6be3 cbbc dcdf 853c 070d a0bc fbd3 da3d
00000070: 5727 383d 5ea0 773c 87c6 b0bc 5096 2ebd
00000080: 7b6f 6bbd c2ad 95bc 3565 44bd 37df 513b
00000090: 13ae 073d f0ed f5bc 735c ca3c 08cf 91bd
000000a0: a302 36bc 60d7 28bd 1c26 0d3b f9e4 36bd
000000b0: 7728 cdbd e609 babd 0564 f4bc b7d1 bcbd
000000c0: 656b ef3c e9af f83b 001c 09bd f2de 663d
000000d0: 33ee 1f3d 1084 36bb 5ab0 1a3d 65a9 a63c
000000e0: 3b67 c8bc d7df 01ba 0cad 07be b0d7 3a3d
000000f0: 8853 d43c 0a3a cebd 96e8 d3bc db73 2abd
00000100: c704 30bb d60d a8bd 8d12 d83c a7a3 11bd
00000110: 7fbb ae3c b077 58bd 7527 a53c e588 3dbd
00000120: 0d06 9f3d 6665 863c 4964 31bc bc66 89bb
00000130: 6f04 88bc d4b9 573d 3a39 0abd 0d29 35bd
00000140: 0ba2 6cbd f30a 86bd fe5b 123c 6a52 a0bc
00000150: 88fa 63bd 0645 a6bc e758 623d bed4 9abd
00000160: d458 99bb 6eae 993c de82 c33d daba ecbc
00000170: a4df 1b3d 2fa2 53bb c8bd 8abd 257e 3ebc
00000180: 308d b53c f24f 4a3d e520 34bd e72f 033c
00000190: 3291 153c 3179 84bb 9f6b bbbc b26c 53bc
000001a0: b504 c13c 5fa2 c8bd a6da 2b3d ee2d a9bc
000001b0: d6c8 62bd bf7a 643d 64cd a43c 69d3 c0bd
000001c0: b917 6e3d 9f03 d5bc 4704 d43b 3a7e dd3d
000001d0: 08eb dabd 7f0f 453d 00a2 123b f58d 563d
000001e0: 18f2 bfbd 0a92 4fba 10be c4bd 8e8d b3bd
000001f0: 554d bc39 deb0 873c 9aa9 253c c374 a2bd
00000200: 9dee f43a e57e d53c 02ce 30bd de53 1b3c
00000210: 7faa c93c c959 043c be70 d5bc 05fc 80bc
00000220: 7967 373d 909a dfbc b6d1 54bd 89a8 1ebd
00000230: 1350 7c3c 4f8b 11bd 0010 34bd 780a a3bb
00000240: affb 53bd 66b4 d5bc ad4e ee3c 6db7 6dbc
00000250: 1f0c 00be e65b 6abd b065 37bd 4201 ab3c
00000260: f524 87bd 4137 fcbd 9ede 08be 64b9 683c
00000270: 2836 5e3d aa36 f9bc f890 36bc 6ac6 2bbb
00000280: 495b 2abd b349 f53c 481c 6ebd a8d4 903d
00000290: 023f 99bc db42 a53c a385 2ebd 9371 213c
000002a0: 3e17 1bbd 0a88 1e3d 2cf4 21bc 3257 f8bc
000002b0: 5653 0c3d b0a8 35bd e9fc 133d a348 3a3d
000002c0: d99f ca3c 88bb 22bc 4859 943d 78c2 67bc
000002d0: 8b54 1abc 3381 03bd 9df8 923d 4dee 133c
000002e0: f54a 43bd 88b7 673d 66c7 a43d abcd e73c
000002f0: b18f a53c 915d 803c 1e16 4c3b 38d0 99bc
00000300: 97b1 d83b ca70 113b 3700 19bd 644d 90bd
00000310: 2b38 183d b0e4 d53c c257 8b3b 7bd8 0dbd
00000320: 344d 57bd 09cf a83b 0cd0 333c a493 d0bd
00000330: 5453 60bd 98c9 62bd 8e01 9b3c db10 313d
00000340: 5fb8 5ebd e567 fabd 30bf 05bd 64e5 2b3c
00000350: ca53 2c3c 718d fe3c 232f ccbd d3b8 2d3c
00000360: 0a80 a3bd 59c5 cc3c 7223 25bd bd76 54bd
00000370: 49ac a2bd bcbe 6abd 0d78 183c cae7 eeba
00000380: 0044 32bd a220 cabd 832f 833d 7765 d3bd
00000390: 7754 86bd e2f5 f53c 1369 23bb 1f2a 6abd
000003a0: 251a 163d 931f afbd 6e27 a93c 64e2 ebbd
000003b0: d364 37bd ec89 e3bb ce40 803a 8e47 8c3c
000003c0: 47df 02bc 489e 88bc 088e 273d 002f 5bbd
000003d0: c422 23bd 71bd 2dbd e312 32bd 8167 713c
000003e0: 6d3c a03c 75cc 45bc 8df3 a33d 2d8b d3bb
000003f0: 53ea 05ba 1540 493d 5162 30ba fa7d af3c
-0.030836832 -0.03466095 0.048032105 -0.011248507 0.07416797 0.049707 -0.022374066 0.009830093
-0.011243303 0.055951647 0.004614245 -0.024617707 0.05273653 0.02974011 0.049739666 -0.035312094
0.04496657 0.004905021 -0.022263262 0.019628974 -0.016147496 -0.013676963 -0.03283928 0.032069813
-0.024888715 0.016342096 -0.019537462 0.10684963 0.044959392 0.015113918 -0.02157904 -0.042623818
-0.057479363 -0.01827133 -0.04794808 0.0032023916 0.033124994 -0.030020684 0.024702286 -0.07119566
-0.011109027 -0.041221023 0.0021537608 -0.04465196 -0.10017484 -0.09083919 -0.02983285 -0.092196874
0.029226014 0.0075893295 -0.03347397 0.05636496 0.039045524 -0.0027849711 0.03776584 0.020344445
-0.024463287 -0.0004954314 -0.13249606 0.045615852 0.025918737 -0.10069664 -0.025867742 -0.041614395
-0.0026858316 -0.08205764 0.026376033 -0.03555646 0.02132964 -0.052848518 0.020160416 -0.04627313
0.07764826 0.016405772 -0.0108271325 -0.004193155 -0.016603677 0.052667454 -0.03374598 -0.044228602
-0.057771724 -0.06545057 0.008933065 -0.019570548 -0.055658847 -0.020296585 0.055260565 -0.075601086
-0.0046797786 0.018759932 0.09546445 -0.028897692 0.038055077 -0.0032292714 -0.06774479 -0.011626755
0.02216205 0.049392648 -0.043976683 0.008007026 0.009128856 -0.0040427675 -0.022878466 -0.012904333
0.023561815 -0.09796595 0.041956566 -0.020651784 -0.055367313 0.055781122 0.02011747 -0.09415323
0.058128092 -0.026002703 0.0064702365 0.108150914 -0.1068936 0.04811048 0.0022374392 0.052381475
-0.093723476 -0.0007918185 -0.09606564 -0.08767234 0.0003591577 0.016563829 0.010111237 -0.07932427
0.0018686835 0.026061485 -0.043165214 0.009480445 0.024617432 0.008078047 -0.026054736 -0.015745172
0.044776414 -0.02729538 -0.05195781 -0.038734946 0.015399951 -0.035533246 -0.04396057 -0.004975613
-0.051753696 -0.026086997 0.02909025 -0.014509064 -0.12504624 -0.057216547 -0.04477471 0.020874623
-0.06598846 -0.12315226 -0.13366172 0.014204357 0.054250866 -0.030421574 -0.011142962 -0.0026210793
-0.041590963 0.02994237 -0.05813244 0.07071811 -0.018706802 0.02017348 -0.042607915 0.009853738
-0.037863962 0.038703956 -0.009884875 -0.030315015 0.034259163 -0.044350326 0.036129866 0.045479428
0.024734424 -0.009932406 0.072435915 -0.014145486 -0.009419571 -0.032105636 0.071763255 0.009028983
-0.047678906 0.056571513 0.08045845 0.028296312 0.020210119 0.015669616 0.0031141113 -0.018776044
0.0066129672 0.0022192472 -0.03735372 -0.07046011 0.03716294 0.026110023 0.004252405 -0.03463028
-0.05256386 0.0051516336 0.010974895 -0.1018441 -0.054766968 -0.055368036 0.01892164 0.043228965
-0.05437505 -0.122268476 -0.032653034 0.010491703 0.010518024 0.031073304 -0.09969928 0.010603148
-0.07983406 0.024996446 -0.040317006 -0.05187105 -0.07943017 -0.057310805 0.009305966 -0.0018227038
-0.04352188 -0.098695055 0.064055465 -0.10322087 -0.06559079 0.030024473 -0.0024934455 -0.057169076
0.036646027 -0.08550944 0.020648684 -0.1151779 -0.044773888 -0.006943932 0.0009784938 0.017123964
-0.007987804 -0.016677037 0.040906936 -0.05351162 -0.039828077 -0.042416994 -0.043475043 0.01473415
0.019560063 -0.012072672 0.08005438 -0.0064558 -0.00051084644 0.04913338 -0.00067285175 0.021422375

bias f4 [250]
00000000: 49b0 7a3b ede9 cf3e 152f 843d 3aaa 893e
00000010: 80a9 0fbc dae8 473d c03a 87bd c1ca 3f3c
00000020: b43b cabd 7e0f c53e 33d6 c73d ba89 42bd
00000030: 2799 62bd 338e 4cbc 6000 81bc 8cd8 973c
00000040: 3848 37bd aeee 49bd 918c dcbc 9425 d93a
00000050: 0e15 81bd c0b8 b0bc a332 3abd b015 8ebd
00000060: 5e1d b7bd aaef ae3c 3ec3 28bd ad1f 53bd
00000070: 2270 34bd 51ea 323d 6932 d3bc a575 a2bd
00000080: df99 a03a 7294 2d3d ccdd d5bc 1402 c73c
00000090: f795 4abc 957f efbc ca11 87bc 7e9b ce3c
000000a0: 1583 debc 0070 82bd 00ed 1cbd 710d da3c
000000b0: b8a9 f03b f785 00bd 6f98 7abc d4a2 dabc
000000c0: b8cf e53c fea2 13bd ee82 2bbc 00e5 ebbc
000000d0: 31ad 20bb 7f6b d73b ede9 fd3d 6f20 f9bb
000000e0: 643c ebbd 8f08 bc3a f734 12bd f12d b9bc
000000f0: 81dd b63d a551 523e 00e4 8cbd 081b f83c
00000100: 426d 4e3e 5735 6bbb c84f b63a 6783 2e3d
00000110: 029a b9bc eafc 183c 9d55 f43b 8bbd b53d
00000120: d40e e53d d553 9ebc 33af 9bbd b2a5 d4bb
00000130: 8142 8cbd f632 563e fc60 acbb 9f72 8e3d
00000140: c34f 90bd a88b d03e b39e 933c ed67 1b3b
00000150: 67cd a1bc 3e6f 8d3b bb95 ae3c 7c0a 33bc
00000160: fc64 c53c f657 d2bc 1f85 ccbd 4f2e ef3b
00000170: 2000 853d da1e e93c e9d4 863d ca6d 523c
00000180: 1627 653c 9a9f b9bd 1186 96bd 47a5 5cbd
00000190: aac7 64bd 88ab fb3d c21a 2fbd 4b81 26bd
000001a0: 02e2 95bd f274 d0bc a472 6abd 29eb 56bd
000001b0: f91f 81bb fb5e ebbc e064 50bd 4973 2fbd
000001c0: f444 09bd 9f58 e3bb b876 8fbd a9db 6dbb
000001d0: de0a 79bd d28a c63c ed82 25bd 5dae a33a
000001e0: cd33 dfbd fbe5 533c 40d3 0c3e 7038 18bc
000001f0: f684 dfbd 9226 823c 2d32 183d 1be0 2c3e
00000200: 80a3 e9bb 2a90 da3d 3de0 953e ecf8 52bd
00000210: 1209 cf3c 9b85 dc3c 1a4b b13e e94f af3d
00000220: 9a89 a13e 0702 1ebd 6181 98bd 4ce1 b5bc
00000230: e561 42bb 7593 9a3c 5360 e5bc 00df 19bd
00000240: e905 ccba 1f90 0dbd abe2 723c adbb 63bd
00000250: 21c5 4dbd aa9a 883c ce10 0c3c 8809 e53e
00000260: f3fc cb3d e365 9cbd fcc6 dc3c 1f42 a2bd
00000270: 1ac5 c8bc a72e 31bd 62e7 dfbd 5cd3 5bbd
00000280: 07be e0ba 99c0 9c3d 56d6 9d3d baf9 bf3e
00000290: 1eea acbc 63d9 673d 6918 03bd 9511 643c
000002a0: 17c4 673e 1b0e 16bd 784b 23bd 9efb 373c
000002b0: 44e1 7d3e 368c 9ebd d861 5abd fc58 203c
000002c0: 6f55 70bd dafa e0bd 44b7 f0bb c890 5bbc
000002d0: f7d2 813e 009a 453d b80e a7bd d742 b23c
000002e0: 6d39 05bd 7649 55bd e876 e03e 4c83 033e
000002f0: fd30 a73e 4bd7 4ebd 38f4 bebd 98bd 673c
00000300: edf0 ba3e 925e d73c 1c87 dc3e 16e9 433c
00000310: 1a98 b1bd 8055 c73d d3d9 dbbb cdaf 87bd
00000320: 8eda 10bd b13b f1bc 70b5 063e f3c6 7abb
00000330: d221 08bc 7248 7ebc f392 9ebd 07fd bcbd
00000340: 516c 44bd 7a10 2fbd 9910 2abd b956 1cbd
00000350: 0adc 76bd 4d6b 04bd b871 feba 5891 8ebd
00000360: 239e e23d 2768 0fbc 94f4 84bc 92b1 c33e
00000370: 917b d4bc 064d 4cba 209a 9ebd 3290 16bd
00000380: e76b d0bb f7c4 7abc 2ff9 103c f4bc 91bd
00000390: c8d7 1e3b 0fab 93bd 8201 613c 1d55 303d
000003a0: 154a 7f3c ac58 1b3e 5a63 1a3c 3546 08be
000003b0: 3d6f ae3c 368c 3b3c 416e 28bd 8aaf aebd
000003c0: 462c 9cbc 7294 183d 69cc 96bd e18b 05bc
000003d0: 72d0 92bc efa9 8939 a646 30bd 745d e6bd
000003e0: d4b8 553d 9aac ed3d
0.0038252047 0.4060816 0.06454293 0.26887685 -0.008768439 0.04880605 -0.066030025 0.011706055
-0.09874669 0.38488382 0.09757652 -0.047494628 -0.05532184 -0.012485075 -0.01574725 0.018535875
-0.044746608 -0.04929989 -0.026922496 0.0016566985 -0.06302844 -0.02157247 -0.045458447 -0.0693773
-0.08941148 0.021354515 -0.041201822 -0.05154388 -0.04405225 0.043680493 -0.025780873 -0.07932595
0.0012252888 0.042377897 -0.026106738 0.024292983 -0.012364856 -0.02923564 -0.016487975 0.025220629
-0.027162114 -0.063690186 -0.03831196 0.026617737 0.007344451 -0.03137776 -0.015295132 -0.02668897
0.02805315 -0.036044113 -0.010468228 -0.02879572 -0.0024517293 0.006574094 0.123981334 -0.0076027433
-0.11486128 0.0014345812 -0.035695042 -0.022604914 0.08928967 0.20538957 -0.06879425 0.030286327
0.20158866 -0.0035889947 0.0013909275 0.042605784 -0.022656444 0.009337643 0.007456495 0.08874043
0.11184469 -0.019327084 -0.07601776 -0.006489479 -0.06848622 0.20917878 -0.005260585 0.06955456
-0.07046463 0.4073155 0.01802001 0.0023713068 -0.019751264 0.0043162396 0.021311631 -0.010927793
0.024096005 -0.025676709 -0.09986328 0.0072992216 0.064941645 0.028457094 0.06583578 0.012843559
0.01398637 -0.09063645 -0.0734979 -0.05386856 -0.055854477 0.12288576 -0.042750128 -0.040650647
-0.07318498 -0.025446389 -0.057238236 -0.05247036 -0.003940579 -0.028731814 -0.050877452 -0.042834554
-0.033513024 -0.0069380547 -0.07005066 -0.0036294258 -0.06080138 0.024236117 -0.040408064 0.0012487877
-0.10898552 0.01293325 0.1375246 -0.0092907995 -0.10914032 0.015887532 0.037157226 0.16882364
-0.0071300864 0.10672028 0.29272643 -0.05150692 0.02527288 0.026919177 0.3462761 0.085601635
0.31550294 -0.038576152 -0.07446552 -0.022202156 -0.00296604 0.018869141 -0.028000033 -0.037566185
-0.0015565726 -0.034561273 0.01482455 -0.055598903 -0.050236825 0.016675312 0.008548928 0.44733834
0.099603556 -0.07636621 0.026950352 -0.07922768 -0.024508048 -0.04325738 -0.10932805 -0.053668365
-0.0017146476 0.076539226 0.07706897 0.37495214 -0.02110773 0.0566038 -0.0320057 0.0139202075
0.22633396 -0.036634546 -0.039866894 0.011229424 0.24792963 -0.07741587 -0.053315967 0.0097868405
-0.058675226 -0.10985346 -0.0073460657 -0.013401218 0.25356266 0.04824257 -0.08157104 0.021760387
-0.03252547 -0.05207201 0.43840718 0.12843055 0.32654563 -0.050498288 -0.09323925 0.014144324
0.36511937 0.026290212 0.4307183 0.0119574275 -0.08671589 0.09733105 -0.0067093163 -0.06625328
-0.03536468 -0.029447408 0.1315515 -0.0038265556 -0.008308845 -0.015520202 -0.07742872 -0.09227949
-0.04795486 -0.042740323 -0.041519735 -0.038168643 -0.06026844 -0.032328892 -0.0019412553 -0.06961316
0.110653184 -0.008752859 -0.016229905 0.38221413 -0.025937827 -0.000779346 -0.07744241 -0.03675861
-0.006360519 -0.015305749 0.0088484725 -0.07116118 0.0024237502 -0.07210361 0.01373327 0.04304992
0.015581627 0.15170544 0.009423101 -0.13308032 0.021293277 0.011447003 -0.04112077 -0.08529575
-0.01906408 0.037250943 -0.07363207 -0.0081510255 -0.01792166 0.00026257287 -0.043036126 -0.112482935
0.05217822 0.11605187

weight f4 [250]
00000000: 0000 803f 0000 803f 0000 803f 0000 803f
00000010: 0000 803f 0000 803f 0000 803f 0000 803f
00000020: 0000 803f 0000 803f 0000 803f 0000 803f
00000030: 0000 803f 0000 803f 0000 803f 0000 803f
00000040: 0000 803f 0000 803f 0000 803f 0000 803f
00000050: 0000 803f 0000 803f 0000 803f 0000 803f
00000060: 0000 803f 0000 803f 0000 803f 0000 803f
00000070: 0000 803f 0000 803f 0000 803f 0000 803f
00000080: 0000 803f 0000 803f 0000 803f 0000 803f
00000090: 0000 803f 0000 803f 0000 803f 0000 803f
000000a0: 0000 803f 0000 803f 0000 803f 0000 803f
000000b0: 0000 803f 0000 803f 0000 803f 0000 803f
000000c0: 0000 803f 0000 803f 0000 803f 0000 803f
000000d0: 0000 803f 0000 803f 0000 803f 0000 803f
000000e0: 0000 803f 0000 803f 0000 803f 0000 803f
000000f0: 0000 803f 0000 803f 0000 803f 0000 803f
00000100: 0000 803f 0000 803f 0000 803f 0000 803f
00000110: 0000 803f 0000 803f 0000 803f 0000 803f
00000120: 0000 803f 0000 803f 0000 803f 0000 803f
00000130: 0000 803f 0000 803f 0000 803f 0000 803f
00000140: 0000 803f 0000 803f 0000 803f 0000 803f
00000150: 0000 803f 0000 803f 0000 803f 0000 803f
00000160: 0000 803f 0000 803f 0000 803f 0000 803f
00000170: 0000 803f 0000 803f 0000 803f 0000 803f
00000180: 0000 803f 0000 803f 0000 803f 0000 803f
00000190: 0000 803f 0000 803f 0000 803f 0000 803f
000001a0: 0000 803f 0000 803f 0000 803f 0000 803f
000001b0: 0000 803f 0000 803f 0000 803f 0000 803f
000001c0: 0000 803f 0000 803f 0000 803f 0000 803f
000001d0: 0000 803f 0000 803f 0000 803f 0000 803f
000001e0: 0000 803f 0000 803f 0000 803f 0000 803f
000001f0: 0000 803f 0000 803f 0000 803f 0000 803f
00000200: 0000 803f 0000 803f 0000 803f 0000 803f
00000210: 0000 803f 0000 803f 0000 803f 0000 803f
00000220: 0000 803f 0000 803f 0000 803f 0000 803f
00000230: 0000 803f 0000 803f 0000 803f 0000 803f
00000240: 0000 803f 0000 803f 0000 803f 0000 803f
00000250: 0000 803f 0000 803f 0000 803f 0000 803f
00000260: 0000 803f 0000 803f 0000 803f 0000 803f
00000270: 0000 803f 0000 803f 0000 803f 0000 803f
00000280: 0000 803f 0000 803f 0000 803f 0000 803f
00000290: 0000 803f 0000 803f 0000 803f 0000 803f
000002a0: 0000 803f 0000 803f 0000 803f 0000 803f
000002b0: 0000 803f 0000 803f 0000 803f 0000 803f
000002c0: 0000 803f 0000 803f 0000 803f 0000 803f
000002d0: 0000 803f 0000 803f 0000 803f 0000 803f
000002e0: 0000 803f 0000 803f 0000 803f 0000 803f
000002f0: 0000 803f 0000 803f 0000 803f 0000 803f
00000300: 0000 803f 0000 803f 0000 803f 0000 803f
00000310: 0000 803f 0000 803f 0000 803f 0000 803f
00000320: 0000 803f 0000 803f 0000 803f 0000 803f
00000330: 0000 803f 0000 803f 0000 803f 0000 803f
00000340: 0000 803f 0000 803f 0000 803f 0000 803f
00000350: 0000 803f 0000 803f 0000 803f 0000 803f
00000360: 0000 803f 0000 803f 0000 803f 0000 803f
00000370: 0000 803f 0000 803f 0000 803f 0000 803f
00000380: 0000 803f 0000 803f 0000 803f 0000 803f
00000390: 0000 803f 0000 803f 0000 803f 0000 803f
000003a0: 0000 803f 0000 803f 0000 803f 0000 803f
000003b0: 0000 803f 0000 803f 0000 803f 0000 803f
000003c0: 0000 803f 0000 803f 0000 803f 0000 803f
000003d0: 0000 803f 0000 803f 0000 803f 0000 803f
000003e0: 0000 803f 0000 803f
1.0 1.0 1.0 1.0 1.0 1.0 1.0 1.0
1.0 1.0 1.0 1.0 1.0 1.0 1.0 1.0
1.0 1.0 1.0 1.0 1.0 1.0 1.0 1.0
1.0 1.0 1.0 1.0 1.0 1.0 1.0 1.0
1.0 1.0 1.0 1.0 1.0 1.0 1.0 1.0
1.0 1.0 1.0 1.0 1.0 1.0 1.0 1.0
1.0 1.0 1.0 1.0 1.0 1.0 1.0 1.0
1.0 1.0 1.0 1.0 1.0 1.0 1.0 1.0
1.0 1.0 1.0 1.0 1.0 1.0 1.0 1.0
1.0 1.0 1.0 1.0 1.0 1.0 1.0 1.0
1.0 1.0 1.0 1.0 1.0 1.0 1.0 1.0
1.0 1.0 1.0 1.0 1.0 1.0 1.0 1.0
1.0 1.0 1.0 1.0 1.0 1.0 1.0 1.0
1.0 1.0 1.0 1.0 1.0 1.0 1.0 1.0
1.0 1.0 1.0 1.0 1.0 1.0 1.0 1.0
1.0 1.0 1.0 1.0 1.0 1.0 1.0 1.0
1.0 1.0 1.0 1.0 1.0 1.0 1.0 1.0
1.0 1.0 1.0 1.0 1.0 1.0 1.0 1.0
1.0 1.0 1.0 1.0 1.0 1.0 1.0 1.0
1.0 1.0 1.0 1.0 1.0 1.0 1.0 1.0
1.0 1.0 1.0 1.0 1.0 1.0 1.0 1.0
1.0 1.0 1.0 1.0 1.0 1.0 1.0 1.0
1.0 1.0 1.0 1.0 1.0 1.0 1.0 1.0
1.0 1.0 1.0 1.0 1.0 1.0 1.0 1.0
1.0 1.0 1.0 1.0 1.0 1.0 1.0 1.0
1.0 1.0 1.0 1.0 1.0 1.0 1.0 1.0
1.0 1.0 1.0 1.0 1.0 1.0 1.0 1.0
1.0 1.0 1.0 1.0 1.0 1.0 1.0 1.0
1.0 1.0 1.0 1.0 1.0 1.0 1.0 1.0
1.0 1.0 1.0 1.0 1.0 1.0 1.0 1.0
1.0 1.0 1.0 1.0 1.0 1.0 1.0 1.0
1.0 1.0

bias f4 [250]
00000000: 0000 0000 0000 0000 0000 0000 0000 0000
00000010: 0000 0000 0000 0000 0000 0000 0000 0000
00000020: 0000 0000 0000 0000 0000 0000 0000 0000
00000030: 0000 0000 0000 0000 0000 0000 0000 0000
00000040: 0000 0000 0000 0000 0000 0000 0000 0000
00000050: 0000 0000 0000 0000 0000 0000 0000 0000
00000060: 0000 0000 0000 0000 0000 0000 0000 0000
00000070: 0000 0000 0000 0000 0000 0000 0000 0000
00000080: 0000 0000 0000 0000 0000 0000 0000 0000
00000090: 0000 0000 0000 0000 0000 0000 0000 0000
000000a0: 0000 0000 0000 0000 0000 0000 0000 0000
000000b0: 0000 0000 0000 0000 0000 0000 0000 0000
000000c0: 0000 0000 0000 0000 0000 0000 0000 0000
000000d0: 0000 0000 0000 0000 0000 0000 0000 0000
000000e0: 0000 0000 0000 0000 0000 0000 0000 0000
000000f0: 0000 0000 0000 0000 0000 0000 0000 0000
00000100: 0000 0000 0000 0000 0000 0000 0000 0000
00000110: 0000 0000 0000 0000 0000 0000 0000 0000
00000120: 0000 0000 0000 0000 0000 0000 0000 0000
00000130: 0000 0000 0000 0000 0000 0000 0000 0000
00000140: 0000 0000 0000 0000 0000 0000 0000 0000
00000150: 0000 0000 0000 0000 0000 0000 0000 0000
00000160: 0000 0000 0000 0000 0000 0000 0000 0000
00000170: 0000 0000 0000 0000 0000 0000 0000 0000
00000180: 0000 0000 0000 0000 0000 0000 0000 0000
00000190: 0000 0000 0000 0000 0000 0000 0000 0000
000001a0: 0000 0000 0000 0000 0000 0000 0000 0000
000001b0: 0000 0000 0000 0000 0000 0000 0000 0000
000001c0: 0000 0000 0000 0000 0000 0000 0000 0000
000001d0: 0000 0000 0000 0000 0000 0000 0000 0000
000001e0: 0000 0000 0000 0000 0000 0000 0000 0000
000001f0: 0000 0000 0000 0000 0000 0000 0000 0000
00000200: 0000 0000 0000 0000 0000 0000 0000 0000
00000210: 0000 0000 0000 0000 0000 0000 0000 0000
00000220: 0000 0000 0000 0000 0000 0000 0000 0000
00000230: 0000 0000 0000 0000 0000 0000 0000 0000
00000240: 0000 0000 0000 0000 0000 0000 0000 0000
00000250: 0000 0000 0000 0000 0000 0000 0000 0000
00000260: 0000 0000 0000 0000 0000 0000 0000 0000
00000270: 0000 0000 0000 0000 0000 0000 0000 0000
00000280: 0000 0000 0000 0000 0000 0000 0000 0000
00000290: 0000 0000 0000 0000 0000 0000 0000 0000
000002a0: 0000 0000 0000 0000 0000 0000 0000 0000
000002b0: 0000 0000 0000 0000 0000 0000 0000 0000
000002c0: 0000 0000 0000 0000 0000 0000 0000 0000
000002d0: 0000 0000 0000 0000 0000 0000 0000 0000
000002e0: 0000 0000 0000 0000 0000 0000 0000 0000
000002f0: 0000 0000 0000 0000 0000 0000 0000 0000
00000300: 0000 0000 0000 0000 0000 0000 0000 0000
00000310: 0000 0000 0000 0000 0000 0000 0000 0000
00000320: 0000 0000 0000 0000 0000 0000 0000 0000
00000330: 0000 0000 0000 0000 0000 0000 0000 0000
00000340: 0000 0000 0000 0000 0000 0000 0000 0000
00000350: 0000 0000 0000 0000 0000 0000 0000 0000
00000360: 0000 0000 0000 0000 0000 0000 0000 0000
00000370: 0000 0000 0000 0000 0000 0000 0000 0000
00000380: 0000 0000 0000 0000 0000 0000 0000 0000
00000390: 0000 0000 0000 0000 0000 0000 0000 0000
000003a0: 0000 0000 0000 0000 0000 0000 0000 0000
000003b0: 0000 0000 0000 0000 0000 0000 0000 0000
000003c0: 0000 0000 0000 0000 0000 0000 0000 0000
000003d0: 0000 0000 0000 0000 0000 0000 0000 0000
000003e0: 0000 0000 0000 0000
0.0 0.0 0.0 0.0 0.0 0.0 0.0 0.0
0.0 0.0 0.0 0.0 0.0 0.0 0.0 0.0
0.0 0.0 0.0 0.0 0.0 0.0 0.0 0.0
0.0 0.0 0.0 0.0 0.0 0.0 0.0 0.0
0.0 0.0 0.0 0.0 0.0 0.0 0.0 0.0
0.0 0.0 0.0 0.0 0.0 0.0 0.0 0.0
0.0 0.0 0.0 0.0 0.0 0.0 0.0 0.0
0.0 0.0 0.0 0.0 0.0 0.0 0.0 0.0
0.0 0.0 0.0 0.0 0.0 0.0 0.0 0.0
0.0 0.0 0.0 0.0 0.0 0.0 0.0 0.0
0.0 0.0 0.0 0.0 0.0 0.0 0.0 0.0
0.0 0.0 0.0 0.0 0.0 0.0 0.0 0.0
0.0 0.0 0.0 0.0 0.0 0.0 0.0 0.0
0.0 0.0 0.0 0.0 0.0 0.0 0.0 0.0
0.0 0.0 0.0 0.0 0.0 0.0 0.0 0.0
0.0 0.0 0.0 0.0 0.0 0.0 0.0 0.0
0.0 0.0 0.0 0.0 0.0 0.0 0.0 0.0
0.0 0.0 0.0 0.0 0.0 0.0 0.0 0.0
0.0 0.0 0.0 0.0 0.0 0.0 0.0 0.0
0.0 0.0 0.0 0.0 0.0 0.0 0.0 0.0
0.0 0.0 0.0 0.0 0.0 0.0 0.0 0.0
0.0 0.0 0.0 0.0 0.0 0.0 0.0 0.0
0.0 0.0 0.0 0.0 0.0 0.0 0.0 0.0
0.0 0.0 0.0 0.0 0.0 0.0 0.0 0.0
0.0 0.0 0.0 0.0 0.0 0.0 0.0 0.0
0.0 0.0 0.0 0.0 0.0 0.0 0.0 0.0
0.0 0.0 0.0 0.0 0.0 0.0 0.0 0.0
0.0 0.0 0.0 0.0 0.0 0.0 0.0 0.0
0.0 0.0 0.0 0.0 0.0 0.0 0.0 0.0
0.0 0.0 0.0 0.0 0.0 0.0 0.0 0.0
0.0 0.0 0.0 0.0 0.0 0.0 0.0 0.0
0.0 0.0

weight f4 [1, 250]
00000000: 9bde abbb 0ea2 e03d 3c63 513b 8233 5b3d
00000010: b9f2 553c 145a 1c3a 23cb 93bb 4dfb 8fbc
00000020: 7370 043c 9aa9 993d e0e3 fa3a b3dd b5bb
00000030: 42a0 85ba a23a 893c e25e 17bc 0950 2bb8
00000040: ccf1 083d d705 babc b41f 6cbc 5c16 4f3d
00000050: c05e a8bb 6cb3 73bc ab2f bcbc a33e 993c
00000060: 8c2c 7abc 40f0 113c 98ac 763c 9310 813d
00000070: 4b38 3b3c 5a81 61bd 22c2 313c 45ca 10bd
00000080: 56a8 923c 887f e9bb 4233 c3bc aaa9 09bd
00000090: 2d8a 2c3d 07a0 33bb fad2 12b9 675b d6ba
000000a0: a5ca 22bb d098 7239 369c 6b3c 2d31 903a
000000b0: ac11 b43c ef41 c43c bb14 3bbc 7e9d d5bb
000000c0: 7d02 3dbc 0e7a 8abc 4100 afbc 490e a43c
000000d0: ee00 83bd cb30 d0bb f7c8 1a3b 73ae 9b3c
000000e0: 759e 73bd c67c 9e3b 5911 84bc 1922 043d
000000f0: 6f94 d43a b868 f6bb 3480 7cbc e4a3 0dbc
00000100: 7add fe3b 57f1 85bc b132 0b3b 19c7 59ba
00000110: 6bd6 483c 8e6f 0eba 8dbf f4bc 03cc d0bb
00000120: fb70 d5ba a170 18bd 63c4 be3c 3094 323d
00000130: 7b03 0cbd 66df cabb 9e6d c13c 8638 4bba
00000140: 82af 213c c212 ad3d d98a 813c f960 a2b9
00000150: a847 a83b 32dc 15bc 268a 88ba 326e 81bc
00000160: e8cb f1bb e10e 63bd bcf7 cebc 205a a23c
00000170: 7dc2 92bb 145f 0c3a b6a1 df3b 2aaa 75bc
00000180: eae9 0fbc f43b 37bd dc12 bdbc 8216 673b
00000190: d44f fb3c 9089 0b3b 5c9d 263c 2d01 42bc
000001a0: 310f 9a3c a256 3e3c 7f38 1e3d ccae 06bd
000001b0: af52 52bd 7f9e c83c 3e15 453c dd07 573d
000001c0: 93cb ae3a 3495 323d a3d6 afbc 8b1b 303c
000001d0: dc29 f8bc 2395 123c ff66 e4bb 30c9 dabb
000001e0: daa5 81bd 9137 4f3d 7d13 1f3b ba8c a83c
000001f0: f574 903c 27c5 b83c 6302 99bc 6591 d8bb
00000200: df45 e2bc 023f 223a 4ca8 7f3d e434 b13c
00000210: caee 143d d511 473d 7043 773d a3c7 2a3a
00000220: e247 a23d 1d77 e1bb bae7 82bc 3e85 ffb9
00000230: a1ee b33c e724 e1bc 9d83 36bc 057e d43c
00000240: 2a27 55bc cf33 a53c b82b d63c 5a49 ae3b
00000250: 15e4 763c eab5 f5ba 30df dd3a 72df 0c3e
00000260: 8fa8 2a3b ac72 093b be5e c639 3b29 94bc
00000270: b7b1 cc3c 8c04 4abc 3fe6 0f3c 6436 dd3b
00000280: 944b 12bd 692a 133c 3756 11ba 5ffa 8d3d
00000290: cda7 0e3c e25c 8abc c00a f83c 889e 103c
000002a0: d36d aa3b 4efc ebbc d7dc 5c3c e9fd beb8
000002b0: 74a4 1cbb b9f6 c9bb 427b 083c c190 bbbc
000002c0: f5c8 12bd 908d aa3c a5c3 61bd dac3 5f3d
000002d0: e97e de3b 4cf9 57bd ffa3 903c d46d a5bc
000002e0: e7f2 54bc 06b2 3bba 4a07 053e 62f4 77bb
000002f0: 88da aa3d 0c31 02bb b74b 1e3d 9541 693b
00000300: f970 a33d d166 35bd 064e 073e f741 7abe
00000310: 57bf e0bc ae6d 9bbc 59b3 16bc 7dd6 d93b
00000320: fbcb 86b9 07ee a53d 3496 6ebc eb56 90bb
00000330: 3918 bdbc 3c2c cabc dbd8 f8bc 766f 53bd
00000340: 86dd 4c3b d9a7 a73c 8dba 09bc 49e0 c93c
00000350: 0c98 5c3c 0e3d adbc 811d fd3c cbc6 e2bc
00000360: 33b5 ad3a 466f 153c 84c9 b9bb 8793 8d3d
00000370: c625 11bd 76d7 c43c a8ab 983b 229d 9fba
00000380: dd82 8bbb df9f 6abb 8d0b d7bc 6c25 7fbd
00000390: 459a 2dbc f921 88bc c27d a6bc 6f8f 153b
000003a0: 61ef 8cbc 8344 333b 174d bf39 d1cb 4a3d
000003b0: b9ab 71bd 0fa6 d0bc 06d8 88bc dc54 89bc
000003c0: 2a28 653c 4123 7c3b 3e8a 93bc 240a 1f3d
000003d0: 21e1 43bd da22 ab3c a8d5 563d 4e18 2b3d
000003e0: 8b98 963b 2675 4c3a
-0.0052450425 0.109684095 0.0031950017 0.05351592 0.013058358 0.00059643504 -0.0045103 -0.017575884
0.008083451 0.07503052 0.0019141398 -0.0055501102 -0.0010194855 0.016751591 -0.00923893 -4.0844116e-05
0.03343372 -0.022707863 -0.0144118555 0.050558433 -0.005138248 -0.0148743205 -0.022971949 0.018706625
-0.01526941 0.008907378 0.015055798 0.063019894 0.0114269955 -0.055055 0.0108495075 -0.03534915
0.017902534 -0.0071257986 -0.023828153 -0.03360907 0.042123962 -0.0027408616 -0.0001400224 -0.0016354144
-0.0024840024 0.00023135846 0.014380505 0.0011000984 0.021981083 0.02395722 -0.011418517 -0.0065190187
-0.011536238 -0.016903903 -0.021362426 0.020026343 -0.06396662 -0.006353473 0.002361832 0.019004082
-0.05947729 0.0048366515 -0.016121553 0.03225908 0.0016218553 -0.0075198077 -0.015411425 -0.008645032
0.007777867 -0.016350431 0.0021239931 -0.0008307561 0.0122581525 -0.0005433493 -0.029876495 -0.0063719763
-0.0016284281 -0.037216786 0.023287004 0.043598354 -0.034183007 -0.006191182 0.02361184 -0.0007752258
0.0098685045 0.084508434 0.015813278 -0.00030971298 0.005135495 -0.009146737 -0.0010417148 -0.015799616
-0.007379044 -0.05543411 -0.025264613 0.019818366 -0.004478751 0.0005354744 0.0068246974 -0.014994184
-0.008783797 -0.04473491 -0.023080282 0.0035261218 0.030677713 0.002129171 0.010169353 -0.011841101
0.018806072 0.011617335 0.038628098 -0.032881543 -0.051348384 0.02448964 0.01202899 0.052497733
0.0013335816 0.043599322 -0.021464651 0.010748754 -0.030293398 0.00894669 -0.006970286 -0.0066768155
-0.06330462 0.0505901 0.002427309 0.020574916 0.017633894 0.022554947 -0.018677896 -0.0066091293
-0.027621208 0.00061891985 0.06241636 0.021631666 0.03636054 0.04860099 0.060367048 0.00065147335
0.07923867 -0.0068806545 -0.015979636 -0.00048736663 0.021964373 -0.027483417 -0.0111397775 0.025938997
-0.013009826 0.020166306 0.026143894 0.005318803 0.015069027 -0.0018746231 0.0016927477 0.13757113
0.002604041 0.002097289 0.0003783609 -0.018086066 0.024987085 -0.012330186 0.008782922 0.0067508686
-0.03571661 0.008982279 -0.0005544158 0.0693252 0.008706999 -0.016889993 0.030278563 0.008826859
0.0052010803 -0.028806832 0.013480387 -9.1072005e-05 -0.0023901733 -0.006163445 0.008330168 -0.022896172
-0.03583618 0.020819455 -0.05511822 0.054630138 0.006790031 -0.052727982 0.017656324 -0.020193972
-0.012997366 -0.00071600114 0.12991062 -0.0037834872 0.08342463 -0.001986566 0.038646426 0.0035592068
0.07980532 -0.044287506 0.13213357 -0.24439226 -0.027434988 -0.018973198 -0.009198033 0.0066478834
-0.0002571045 0.08102041 -0.014562178 -0.0044048927 -0.02308284 -0.024679296 -0.030376842 -0.05161997
0.0031259968 0.020465778 -0.008406294 0.02464308 0.013463985 -0.021147277 0.030897858 -0.027682682
0.0013252854 0.009120768 -0.0056697745 0.06912904 -0.035436414 0.024028521 0.004659135 -0.0012177567
-0.0042575435 -0.0035800857 -0.026250625 -0.062291548 -0.010595863 -0.016617762 -0.020323638 0.0022821089
-0.017203989 0.0027354069 0.00036487795 0.04951078 -0.059001658 -0.025469808 -0.01670457 -0.016764097
0.013986627 0.0038473161 -0.018010255 0.03882803 -0.04782212 0.020890642 0.052449852 0.041771226
0.0045958213 0.0007799439
