model/MLP3-000680.pth (torch, 331079 bytes, 9 tensors)

weight f4 [250, 70]
00000000: 11e6 e63d d7da 443d efaa 8bbd c158 003e
00000010: 05b3 39bd fe26 4dbe 86a2 21be f668 143d
00000020: 8bb6 843d ff8f 0b3c 84de 8fbd 9472 e13d
00000030: 2531 b93d ed61 473b 8b07 87bd 71d4 6fbd
00000040: 0de0 37be 5a64 7c3d 66a0 a53d 337e 243d
00000050: dba8 893d 44a9 8ebd ceef 69bd 6897 8d3d
00000060: 7b20 1f3c c807 b2bd 3cab 913b 37ea cd3c
00000070: 48ad 223e f92b 81bd 054e 9d3d 46b0 4c3c
00000080: f5f8 0abd 0212 ff3d 34c1 c83d f2f6 2abe
00000090: 8acc fdbd d65d a63d 0277 063d 31f7 45bb
000000a0: 4fbc 943d 8d82 97bd 8769 cb3d 3f23 8f3d
000000b0: 1213 983c 6e99 bebc aa7d 3bbe aa48 16bd
000000c0: c88e 32bd 2671 293d 97b3 66bd d829 0a3d
000000d0: 13fc 3abd 5613 7fbc 7735 efbc a2cd 1d3d
000000e0: bad2 0e3c 41a5 22bd 08d7 743d c052 34be
000000f0: 25f2 733d b8c7 babc b47c c53b 310e ed3d
00000100: 1f7f cb3d 9433 f9bb 9b02 e63b f2e3 f33d
00000110: f227 c3bc ccc6 16be 4d8f 683d de57 7bbd
00000120: 58f6 0abd 005f a2bd 43c6 2d3d 4985 953d
00000130: b7f2 a83d 4b4c 6a3c 6b10 be3d 3a9b 013d
00000140: 577a 01bd 3df3 2e3d 23b3 bf3d dde2 28bd
00000150: 2874 fd3c b64e b6bd c683 f5bc 1293 8f3d
00000160: 4bb2 2dbd 3cc9 e7bd da64 d53d ec33 0c3e
00000170: bc51 f83d a16c c7bc eb48 ee3b 6c36 f53c
00000180: dc70 883d 9def 023e 4b58 8fbd 4d3b c2bd
00000190: df20 693d 8037 1d3d e408 52bd e95b 6cbc
000001a0: e3a8 0ebd cf1c 2e3d dc39 5d3d 3762 713d
000001b0: 31f2 413d eb2b 91bd 28f5 063e ec86 0a3e
000001c0: d5bc aebc 81c2 f43d fe84 ebbc 018f e2bd
000001d0: 8de0 2cbc fefc 503c c3fa 3dbd 05a8 ba3c
000001e0: 97d7 193d a3c3 95bd c9b9 02bd 14d4 fcbc
000001f0: 0aaa b0bc 2384 8aba 275b 003d 046e cd3d
00000200: 849f ea3c 4a3c 90bd cc87 b13d a46a 15bc
00000210: 51f0 83bd bc5d 1fbd 7ef2 43bd 6b16 1dbd
00000220: e283 d4bc 6cfb 8b3d 23ed cdbc 619f ebba
00000230: 886d e3be a9c1 543c abc1 94bd f08d ccbd
00000240: 62f6 3cbd 3c71 ddbd 3f18 7a3c 4042 d0bd
00000250: cd3c eb3d c753 583d f787 ddbe 80da 263d
00000260: a0b3 16bd d622 d9bd dabe db3d 40bd c43c
00000270: 70f1 e73c a21e 3d3d 1b82 f6bc 05db 4b3d
00000280: 5111 a3be 9b23 e4bd b22c 13bd 741b aa3c
00000290: 5a7e 963d 4c4f 863c 6274 6e3d c3fb 6dbc
000002a0: faef b63d 705a 0abe d385 e5be 29fd b83d
000002b0: c9f2 813b d5d3 90bd 35b8 f0bd 5487 493c
000002c0: 421a 7f3c 36f8 4a3d 0b35 973d 341f 32bd
000002d0: 2f04 c8be 3e1c 9c3c e1d5 f33c 0028 f6bd
000002e0: 5f05 333c 21b7 71bd 6739 e33d 97cc 48bc
000002f0: 1d3f c13d f966 8f3d f224 d9be d09e 903c
00000300: b2b8 5c3d 0954 bdbc b0cf a6bd 9b08 0fbd
00000310: 5595 51bd a157 da3d 6cc4 7e3c 269a b23d
00000320: 7538 e4be db61 9f3d a762 7f3b f74a 103c
00000330: 2f2d e33c 48b4 79bd 90aa 9b3d 9634 55bd
00000340: 758f c63b 19ae 97bd 7cdd 1a3d a36d a73c
00000350: d1d1 f53d e587 053e 69aa e4bc b775 6e3c
00000360: d978 313d 8ab7 1dbc 83cd c43b ae9e 82bd
00000370: 664b 50bd 70aa d0bb 5f10 cf3d 586f 9b3d
00000380: 3976 7bbd 4187 ebbd e800 9dbc 0a40 a43d
00000390: 8c43 883d 8602 babd eea4 eaba d0f8 47bd
000003a0: 1a06 dd3d 49dd 183d 6c90 6ebd fdd9 e0bd
000003b0: 60ff ca3b 96ed b33b 44f1 b83d a8dc a73d
000003c0: 84b5 9c3c b81a cb3d db99 773d e513 073e
000003d0: bddb 69bd 8be8 c4bb 8143 be3a d91e a53d
000003e0: 8047 fabc 0e4f ecbc a0aa ef3d e6f4 5fbd
000003f0: 3ec6 6bbc e881 633d 9194 ddbc 7c25 ac3d
0.112743504 0.048060264 -0.06819712 0.12533857 -0.045336742 -0.20034406 -0.15784654 0.03623291
0.0648013 0.008518218 -0.07024863 0.11008182 0.09042577 0.0030423359 -0.065932356 -0.05855221
-0.17956562 0.06161914 0.08087234 0.040159415 0.0672166 -0.069658786 -0.05711346 0.06913644
0.009712334 -0.086928904 0.0044454616 0.025136096 0.15886414 -0.06307215 0.07680897 0.012493199
-0.03392883 0.124546066 0.098024756 -0.16695765 -0.12392528 0.081233665 0.03282834 -0.0030207152
0.072624795 -0.073979475 0.09932237 0.069891445 0.018563781 -0.02326652 -0.18309656 -0.03669039
-0.043593198 0.041367672 -0.056323614 0.03373131 -0.045650553 -0.015568575 -0.029200299 0.038526185
0.008717233 -0.03970838 0.059775382 -0.17609692 0.0595571 -0.022800311 0.0060268287 0.115749724
0.09936356 -0.0076050255 0.0070193536 0.119087115 -0.023822758 -0.14724272 0.056777287 -0.061363094
-0.033926338 -0.07928276 0.042425405 0.07300813 0.08249419 0.014300416 0.09280475 0.031642176
-0.031610813 0.04271244 0.093603395 -0.04123198 0.030939177 -0.08901732 -0.029970061 0.07010473
-0.04240636 -0.11317679 0.104196265 0.13691682 0.121249646 -0.02434379 0.007271876 0.029933177
0.06662151 0.12786718 -0.069992624 -0.09483967 0.056916114 0.038383007 -0.05127801 -0.01442621
-0.03482903 0.042507943 0.054010257 0.058931556 0.047350112 -0.07088455 0.13179457 0.13528031
-0.021330277 0.11951161 -0.028749939 -0.11062432 -0.010551584 0.012755631 -0.046381723 0.022785196
0.037559118 -0.07312705 -0.03191546 -0.030862845 -0.021565456 -0.0010567944 0.03133693 0.100307494
0.028640516 -0.07042749 0.08668479 -0.009119663 -0.06442321 -0.03890775 -0.04783868 -0.038351458
-0.025941793 0.06835064 -0.02513749 -0.0017976576 -0.44419503 0.012985625 -0.07263502 -0.0998801
-0.046133406 -0.10812613 0.01526457 -0.10168886 0.11486206 0.05281427 -0.43267795 0.04073572
-0.036792397 -0.106023476 0.107297614 0.024016023 0.028313369 0.04617179 -0.030091336 0.04976942
-0.3184915 -0.11139604 -0.035931297 0.020765044 0.073483184 0.016395234 0.05821646 -0.014525357
0.08932491 -0.13511062 -0.44828662 0.090326615 0.00396571 -0.07071654 -0.11753885 0.012300331
0.015570225 0.04955312 0.07383164 -0.04348679 -0.39065692 0.019056436 0.029765071 -0.12019348
0.010926574 -0.059012536 0.11094933 -0.012255809 0.09435866 0.07002062 -0.42411 0.017653853
0.053887077 -0.02311136 -0.08145082 -0.034920316 -0.051167805 0.10661245 0.01554976 0.08720808
-0.44574323 0.07782336 0.0038968713 0.0088069355 0.027731506 -0.060962945 0.076008916 -0.052052103
0.006059582 -0.07406253 0.03780888 0.020438021 0.1200291 0.13040121 -0.02791329 0.014554433
0.04332814 -0.009626279 0.006005944 -0.06377922 -0.050853156 -0.006367974 0.101105444 0.075895965
-0.061392043 -0.11500407 -0.019165471 0.08020027 0.066535085 -0.090825126 -0.0017901936 -0.04882127
0.107921794 0.03732041 -0.0582432 -0.10979078 0.006194994 0.005490969 0.09030393 0.08196384
0.019129522 0.099172056 0.060449462 0.13191183 -0.057094324 -0.0060091666 0.0014515967 0.08062524
-0.030551672 -0.02884629 0.11702466 -0.054676913 -0.014390526 0.05554381 -0.027048381 0.08405587

bias f4 [250]
00000000: 134a 62bd 52f2 853c 8d59 773d e3e3 c5bd
00000010: 14c0 99bd d4a0 393d 35f0 c6bd ea06 09be
00000020: 9680 05be 6164 cabd 9ab9 45bd e613 b63d
00000030: 383f b03c 6104 3fbd 1c45 7ebc 2f9c ac3d
00000040: 9dcf c1bc f76a f8bb c6dd efbd 4867 e03c
00000050: b003 f83c 7b23 b13d e7f3 ecbb a1c8 9cbd
00000060: 3e1e 92bd 7fa3 173d a361 553d 5ad2 a6bd
00000070: 7879 f1bd 5ec6 563d 28e5 603d ef96 11bc
00000080: 6a3b 203d 6c01 ab3d 49af 223d 7668 003d
00000090: 8de1 a7bd 4d21 143b 030c a93d ce10 953c
000000a0: c038 053d 942d dd3d 49be c43d be3c 89bd
000000b0: 545a 753d c2a4 bd3d 3cfa 373d 26e8 d63d
000000c0: 0784 4bbb 84f2 8abd db0c 5dbc e318 2fbd
000000d0: 12e7 fd3d 0e70 a1bd bdde 1dbd 1804 003d
000000e0: af1f 943c 0de2 a9bd 7e0b cabd 5dd9 553c
000000f0: 009a cfbc b92c 57bd 9185 b63d 1682 dfbd
00000100: 01d3 663d 4657 97bb c929 483d 41d6 fb3c
00000110: e83c dc3c f721 1fbd 51d6 60bc db9c afbc
00000120: 808f c0bc 4649 a23d 04bc 12be d47b 86bd
00000130: 9258 e3bd d362 4abc ecc8 da3d 9b27 22bc
00000140: effe 643d c9d0 58bd c683 4cbb d2d0 77bd
00000150: 6293 f23d e6ff 413c bee6 38bd c7ed 173d
00000160: 3328 60bc 45b5 0bbe 671c 383d 07c0 37bc
00000170: b4b2 67bd 560d dd3d 0894 013e 00d4 913d
00000180: 2e45 dcba bfb7 2abd d043 133d b72d 84bd
00000190: 1930 ba3d 30ee c0bc f8ba e63d 471e a73c
000001a0: 6516 ff3d 8340 89bd c2df 983b 23d6 30be
000001b0: d520 acbd 9956 04ba ee8f 84bd f891 89bc
000001c0: 4afd 98bd 5c3e d6ba a262 e33d 28eb 70bd
000001d0: 500e 36bd 745c 043d 7f25 d0bd fb80 023d
000001e0: 92e4 1abe b1fe 5fbd 85b9 9e3d 394c b7bd
000001f0: 59f1 84bd 0f41 31bd 6ac6 9bbd 60ec 30be
00000200: e71b cc3d 57d0 863d f56c 2bbe 02f2 8a3c
00000210: 1124 bdbd fa0a 59bd 674c d5bc 0f45 93bd
00000220: 6cb0 26bb 1423 083e 4bee 303d 12c6 b83d
00000230: 1673 4bbd 0500 e5bd 8a82 163d 332f 1fbe
00000240: 91a4 1e3c 3c9d 0c3d 5270 f8bb 63c5 363d
00000250: 3fa3 9bbd 2303 c3bc 8417 eb3c 5a4e 33bd
00000260: f056 9abc 86a6 f5bc 2caa 03bd 52a8 283d
00000270: 74e5 94bd d2d3 cf3c 16df e4bd c0a2 8cbc
00000280: de6b 98bd 80f9 e3bd 9f11 64bd f493 a33d
00000290: 29b5 fcbc 6550 5fbd eea4 e2bd f3d3 b9bd
000002a0: 97ff bbbd f03d 9d3b af53 c9bd 984c 9f3b
000002b0: 5c9b 6abc f1e2 66bd 692b 463b f4bd b93c
000002c0: 8eef 92bd cea0 aebd 4acb a4bd 6564 09be
000002d0: e981 03bd 3c27 883c 85de 49bc a870 d9bd
000002e0: 32c0 37bd 5210 a0bd 41e9 783b 82e2 dcbc
000002f0: 9860 033b 33a6 ad3b dc8d 0e3d 0bfb b73d
00000300: 364e b73d d249 c83c c91a b5bd 1be3 a4bd
00000310: faae fdbd 5733 693c c090 723c e682 68bc
00000320: 7452 583b cdb2 de3c 9b01 afbd 84b4 bd3c
00000330: 7fa8 fdbd cba8 9c3d d3db a23d 18cd f3bd
00000340: 76f7 71bd 1a70 283d 99b6 fdba 5218 94bd
00000350: cabc 483b 634f d5bd 8a62 e5bd 0588 4dbd
00000360: ccb3 803d 3c9f cbbc 7241 153e 362d b8bd
00000370: 5fda 7a3c 5d3a f5bd bccf 703c f77a 993d
00000380: 60a9 bd3d 73ae e03d 44d1 52bd 4834 2dbc
00000390: 55a3 5abd 595a 8dbd e44e c2bd 7a92 f7bd
000003a0: 8d71 23bc d344 213c f45f 333d 64be 7f3d
000003b0: 0688 573d f245 52ba 18b3 eb3c 1871 6cbd
000003c0: 1ef7 c4bc 3817 96bb fab0 0f3d 4822 01be
000003d0: 1a50 ffbc 344d 90bc 0de7 e0bd e13b 203d
000003e0: 37fe 883d f6f3 a43c
-0.055246424 0.016350899 0.060388137 -0.096626066 -0.07507339 0.045319393 -0.097137846 -0.13381544
-0.13037333 -0.09882427 -0.048272707 0.08890514 0.02151452 -0.046635035 -0.015519407 0.08428227
-0.023658568 -0.0075811106 -0.11712222 0.027392998 0.030275196 0.086493455 -0.007231224 -0.076554544
-0.071346745 0.037021156 0.052095067 -0.0814559 -0.117907465 0.05243527 0.05490604 -0.008886083
0.03911916 0.083498806 0.039717946 0.03134962 -0.08197317 0.0022602857 0.08254244 0.01819649
0.032524824 0.10799709 0.096066065 -0.06701039 0.059900597 0.09259941 0.044916376 0.104934976
-0.0031054036 -0.067845374 -0.0134918345 -0.042748343 0.12397589 -0.07882701 -0.038542498 0.031253904
0.018081514 -0.08295069 -0.09865473 0.013052312 -0.025341988 -0.052532885 0.089121945 -0.10913484
0.056353573 -0.004618558 0.048867974 0.030741813 0.026884511 -0.03885075 -0.013722972 -0.0214371
-0.023505926 0.07924132 -0.14329535 -0.06566587 -0.11100878 -0.012352663 0.10682854 -0.009897138
0.055907186 -0.052933488 -0.0031206473 -0.06050188 0.11844517 0.011840796 -0.045141928 0.037091997
-0.013681459 -0.13643368 0.04494896 -0.0112152165 -0.05656691 0.10793559 0.12654126 0.07120514
-0.0016805285 -0.04167914 0.035953343 -0.06454032 0.09091205 -0.023551077 0.1126613 0.02040018
0.12455443 -0.06701758 0.004665346 -0.17269187 -0.084047 -0.00050483044 -0.06472765 -0.016793236
-0.07470186 -0.0016345489 0.11102797 -0.058818012 -0.044447243 0.032314733 -0.10163402 0.031861287
-0.15126255 -0.054686252 0.07750229 -0.08950085 -0.06491346 -0.043274935 -0.07606204 -0.1727767
0.099662594 0.065827064 -0.16740783 0.016961101 -0.09235395 -0.052988984 -0.026037408 -0.07190906
-0.0025434745 0.13294631 0.043196004 0.09022154 -0.0496703 -0.11181644 0.036745586 -0.15545349
0.00968279 0.034329638 -0.007581749 0.044621836 -0.07599496 -0.023805207 0.028697737 -0.043775894
-0.018840283 -0.029986631 -0.03214471 0.041176148 -0.07270327 0.025369558 -0.11175363 -0.017167449
-0.07442449 -0.11131573 -0.055680867 0.07987204 -0.030848103 -0.05452003 -0.11066614 -0.09073629
-0.09179609 0.0047986433 -0.098304145 0.0048614256 -0.014319267 -0.056368772 0.0030238277 0.022673585
-0.07174598 -0.08526765 -0.08046587 -0.13417204 -0.032106314 0.01662027 -0.012321119 -0.106171906
-0.044861026 -0.07815613 0.0037980827 -0.026963476 0.0020046588 0.0052993535 0.034803256 0.089834295
0.089504644 0.024449263 -0.088429995 -0.080511294 -0.1238689 0.014233432 0.014805019 -0.014191365
0.003300813 0.027184868 -0.08545228 0.023157366 -0.12385654 0.07649382 0.079520844 -0.11904353
-0.059073888 0.041122533 -0.0019356787 -0.07231201 0.0030630105 -0.104155324 -0.112004355 -0.050178546
0.062842935 -0.024856202 0.14575747 -0.08992998 0.015310853 -0.119740225 0.014697965 0.07494157
0.09260821 0.109707735 -0.051469103 -0.010571547 -0.05337842 -0.06901998 -0.094877034 -0.12088485
-0.009975803 0.009843069 0.04379268 0.06243743 0.052619956 -0.0008021287 0.028771922 -0.057725042
-0.024043616 -0.0045804046 0.035080887 -0.12610734 -0.031166125 -0.017614938 -0.109815694 0.039119605
0.06689113 0.02013586

weight f4 [250]
00000000: 0000 803f 0000 803f 0000 803f 0000 803f
00000010: 0000 803f 0000 803f 0000 803f 0000 803f
00000020: 0000 803f 0000 803f 0000 803f 0000 803f
00000030: 0000 803f 0000 803f 0000 803f 0000 803f
00000040: 0000 803f 0000 803f 0000 803f 0000 803f
00000050: 0000 803f 0000 803f 0000 803f 0000 803f
00000060: 0000 803f 0000 803f 0000 803f 0000 803f
00000070: 0000 803f 0000 803f 0000 803f 0000 803f
00000080: 0000 803f 0000 803f 0000 803f 0000 803f
00000090: 0000 803f 0000 803f 0000 803f 0000 803f
000000a0: 0000 803f 0000 803f 0000 803f 0000 803f
000000b0: 0000 803f 0000 803f 0000 803f 0000 803f
000000c0: 0000 803f 0000 803f 0000 803f 0000 803f
000000d0: 0000 803f 0000 803f 0000 803f 0000 803f
000000e0: 0000 803f 0000 803f 0000 803f 0000 803f
000000f0: 0000 803f 0000 803f 0000 803f 0000 803f
00000100: 0000 803f 0000 803f 0000 803f 0000 803f
00000110: 0000 803f 0000 803f 0000 803f 0000 803f
00000120: 0000 803f 0000 803f 0000 803f 0000 803f
00000130: 0000 803f 0000 803f 0000 803f 0000 803f
00000140: 0000 803f 0000 803f 0000 803f 0000 803f
00000150: 0000 803f 0000 803f 0000 803f 0000 803f
00000160: 0000 803f 0000 803f 0000 803f 0000 803f
00000170: 0000 803f 0000 803f 0000 803f 0000 803f
00000180: 0000 803f 0000 803f 0000 803f 0000 803f
00000190: 0000 803f 0000 803f 0000 803f 0000 803f
000001a0: 0000 803f 0000 803f 0000 803f 0000 803f
000001b0: 0000 803f 0000 803f 0000 803f 0000 803f
000001c0: 0000 803f 0000 803f 0000 803f 0000 803f
000001d0: 0000 803f 0000 803f 0000 803f 0000 803f
000001e0: 0000 803f 0000 803f 0000 803f 0000 803f
000001f0: 0000 803f 0000 803f 0000 803f 0000 803f
00000200: 0000 803f 0000 803f 0000 803f 0000 803f
00000210: 0000 803f 0000 803f 0000 803f 0000 803f
00000220: 0000 803f 0000 803f 0000 803f 0000 803f
00000230: 0000 803f 0000 803f 0000 803f 0000 803f
00000240: 0000 803f 0000 803f 0000 803f 0000 803f
00000250: 0000 803f 0000 803f 0000 803f 0000 803f
00000260: 0000 803f 0000 803f 0000 803f 0000 803f
00000270: 0000 803f 0000 803f 0000 803f 0000 803f
00000280: 0000 803f 0000 803f 0000 803f 0000 803f
00000290: 0000 803f 0000 803f 0000 803f 0000 803f
000002a0: 0000 803f 0000 803f 0000 803f 0000 803f
000002b0: 0000 803f 0000 803f 0000 803f 0000 803f
000002c0: 0000 803f 0000 803f 0000 803f 0000 803f
000002d0: 0000 803f 0000 803f 0000 803f 0000 803f
000002e0: 0000 803f 0000 803f 0000 803f 0000 803f
000002f0: 0000 803f 0000 803f 0000 803f 0000 803f
00000300: 0000 803f 0000 803f 0000 803f 0000 803f
00000310: 0000 803f 0000 803f 0000 803f 0000 803f
00000320: 0000 803f 0000 803f 0000 803f 0000 803f
00000330: 0000 803f 0000 803f 0000 803f 0000 803f
00000340: 0000 803f 0000 803f 0000 803f 0000 803f
00000350: 0000 803f 0000 803f 0000 803f 0000 803f
00000360: 0000 803f 0000 803f 0000 803f 0000 803f
00000370: 0000 803f 0000 803f 0000 803f 0000 803f
00000380: 0000 803f 0000 803f 0000 803f 0000 803f
00000390: 0000 803f 0000 803f 0000 803f 0000 803f
000003a0: 0000 803f 0000 803f 0000 803f 0000 803f
000003b0: 0000 803f 0000 803f 0000 803f 0000 803f
000003c0: 0000 803f 0000 803f 0000 803f 0000 803f
000003d0: 0000 803f 0000 803f 0000 803f 0000 803f
000003e0: 0000 803f 0000 803f
1.0 1.0 1.0 1.0 1.0 1.0 1.0 1.0
1.0 1.0 1.0 1.0 1.0 1.0 1.0 1.0
1.0 1.0 1.0 1.0 1.0 1.0 1.0 1.0
1.0 1.0 1.0 1.0 1.0 1.0 1.0 1.0
1.0 1.0 1.0 1.0 1.0 1.0 1.0 1.0
1.0 1.0 1.0 1.0 1.0 1.0 1.0 1.0
1.0 1.0 1.0 1.0 1.0 1.0 1.0 1.0
1.0 1.0 1.0 1.0 1.0 1.0 1.0 1.0
1.0 1.0 1.0 1.0 1.0 1.0 1.0 1.0
1.0 1.0 1.0 1.0 1.0 1.0 1.0 1.0
1.0 1.0 1.0 1.0 1.0 1.0 1.0 1.0
1.0 1.0 1.0 1.0 1.0 1.0 1.0 1.0
1.0 1.0 1.0 1.0 1.0 1.0 1.0 1.0
1.0 1.0 1.0 1.0 1.0 1.0 1.0 1.0
1.0 1.0 1.0 1.0 1.0 1.0 1.0 1.0
1.0 1.0 1.0 1.0 1.0 1.0 1.0 1.0
1.0 1.0 1.0 1.0 1.0 1.0 1.0 1.0
1.0 1.0 1.0 1.0 1.0 1.0 1.0 1.0
1.0 1.0 1.0 1.0 1.0 1.0 1.0 1.0
1.0 1.0 1.0 1.0 1.0 1.0 1.0 1.0
1.0 1.0 1.0 1.0 1.0 1.0 1.0 1.0
1.0 1.0 1.0 1.0 1.0 1.0 1.0 1.0
1.0 1.0 1.0 1.0 1.0 1.0 1.0 1.0
1.0 1.0 1.0 1.0 1.0 1.0 1.0 1.0
1.0 1.0 1.0 1.0 1.0 1.0 1.0 1.0
1.0 1.0 1.0 1.0 1.0 1.0 1.0 1.0
1.0 1.0 1.0 1.0 1.0 1.0 1.0 1.0
1.0 1.0 1.0 1.0 1.0 1.0 1.0 1.0
1.0 1.0 1.0 1.0 1.0 1.0 1.0 1.0
1.0 1.0 1.0 1.0 1.0 1.0 1.0 1.0
1.0 1.0 1.0 1.0 1.0 1.0 1.0 1.0
1.0 1.0

bias f4 [250]
00000000: 0000 0000 0000 0000 0000 0000 0000 0000
00000010: 0000 0000 0000 0000 0000 0000 0000 0000
00000020: 0000 0000 0000 0000 0000 0000 0000 0000
00000030: 0000 0000 0000 0000 0000 0000 0000 0000
00000040: 0000 0000 0000 0000 0000 0000 0000 0000
00000050: 0000 0000 0000 0000 0000 0000 0000 0000
00000060: 0000 0000 0000 0000 0000 0000 0000 0000
00000070: 0000 0000 0000 0000 0000 0000 0000 0000
00000080: 0000 0000 0000 0000 0000 0000 0000 0000
00000090: 0000 0000 0000 0000 0000 0000 0000 0000
000000a0: 0000 0000 0000 0000 0000 0000 0000 0000
000000b0: 0000 0000 0000 0000 0000 0000 0000 0000
000000c0: 0000 0000 0000 0000 0000 0000 0000 0000
000000d0: 0000 0000 0000 0000 0000 0000 0000 0000
000000e0: 0000 0000 0000 0000 0000 0000 0000 0000
000000f0: 0000 0000 0000 0000 0000 0000 0000 0000
00000100: 0000 0000 0000 0000 0000 0000 0000 0000
00000110: 0000 0000 0000 0000 0000 0000 0000 0000
00000120: 0000 0000 0000 0000 0000 0000 0000 0000
00000130: 0000 0000 0000 0000 0000 0000 0000 0000
00000140: 0000 0000 0000 0000 0000 0000 0000 0000
00000150: 0000 0000 0000 0000 0000 0000 0000 0000
00000160: 0000 0000 0000 0000 0000 0000 0000 0000
00000170: 0000 0000 0000 0000 0000 0000 0000 0000
00000180: 0000 0000 0000 0000 0000 0000 0000 0000
00000190: 0000 0000 0000 0000 0000 0000 0000 0000
000001a0: 0000 0000 0000 0000 0000 0000 0000 0000
000001b0: 0000 0000 0000 0000 0000 0000 0000 0000
000001c0: 0000 0000 0000 0000 0000 0000 0000 0000
000001d0: 0000 0000 0000 0000 0000 0000 0000 0000
000001e0: 0000 0000 0000 0000 0000 0000 0000 0000
000001f0: 0000 0000 0000 0000 0000 0000 0000 0000
00000200: 0000 0000 0000 0000 0000 0000 0000 0000
00000210: 0000 0000 0000 0000 0000 0000 0000 0000
00000220: 0000 0000 0000 0000 0000 0000 0000 0000
00000230: 0000 0000 0000 0000 0000 0000 0000 0000
00000240: 0000 0000 0000 0000 0000 0000 0000 0000
00000250: 0000 0000 0000 0000 0000 0000 0000 0000
00000260: 0000 0000 0000 0000 0000 0000 0000 0000
00000270: 0000 0000 0000 0000 0000 0000 0000 0000
00000280: 0000 0000 0000 0000 0000 0000 0000 0000
00000290: 0000 0000 0000 0000 0000 0000 0000 0000
000002a0: 0000 0000 0000 0000 0000 0000 0000 0000
000002b0: 0000 0000 0000 0000 0000 0000 0000 0000
000002c0: 0000 0000 0000 0000 0000 0000 0000 0000
000002d0: 0000 0000 0000 0000 0000 0000 0000 0000
000002e0: 0000 0000 0000 0000 0000 0000 0000 0000
000002f0: 0000 0000 0000 0000 0000 0000 0000 0000
00000300: 0000 0000 0000 0000 0000 0000 0000 0000
00000310: 0000 0000 0000 0000 0000 0000 0000 0000
00000320: 0000 0000 0000 0000 0000 0000 0000 0000
00000330: 0000 0000 0000 0000 0000 0000 0000 0000
00000340: 0000 0000 0000 0000 0000 0000 0000 0000
00000350: 0000 0000 0000 0000 0000 0000 0000 0000
00000360: 0000 0000 0000 0000 0000 0000 0000 0000
00000370: 0000 0000 0000 0000 0000 0000 0000 0000
00000380: 0000 0000 0000 0000 0000 0000 0000 0000
00000390: 0000 0000 0000 0000 0000 0000 0000 0000
000003a0: 0000 0000 0000 0000 0000 0000 0000 0000
000003b0: 0000 0000 0000 0000 0000 0000 0000 0000
000003c0: 0000 0000 0000 0000 0000 0000 0000 0000
000003d0: 0000 0000 0000 0000 0000 0000 0000 0000
000003e0: 0000 0000 0000 0000
0.0 0.0 0.0 0.0 0.0 0.0 0.0 0.0
0.0 0.0 0.0 0.0 0.0 0.0 0.0 0.0
0.0 0.0 0.0 0.0 0.0 0.0 0.0 0.0
0.0 0.0 0.0 0.0 0.0 0.0 0.0 0.0
0.0 0.0 0.0 0.0 0.0 0.0 0.0 0.0
0.0 0.0 0.0 0.0 0.0 0.0 0.0 0.0
0.0 0.0 0.0 0.0 0.0 0.0 0.0 0.0
0.0 0.0 0.0 0.0 0.0 0.0 0.0 0.0
0.0 0.0 0.0 0.0 0.0 0.0 0.0 0.0
0.0 0.0 0.0 0.0 0.0 0.0 0.0 0.0
0.0 0.0 0.0 0.0 0.0 0.0 0.0 0.0
0.0 0.0 0.0 0.0 0.0 0.0 0.0 0.0
0.0 0.0 0.0 0.0 0.0 0.0 0.0 0.0
0.0 0.0 0.0 0.0 0.0 0.0 0.0 0.0
0.0 0.0 0.0 0.0 0.0 0.0 0.0 0.0
0.0 0.0 0.0 0.0 0.0 0.0 0.0 0.0
0.0 0.0 0.0 0.0 0.0 0.0 0.0 0.0
0.0 0.0 0.0 0.0 0.0 0.0 0.0 0.0
0.0 0.0 0.0 0.0 0.0 0.0 0.0 0.0
0.0 0.0 0.0 0.0 0.0 0.0 0.0 0.0
0.0 0.0 0.0 0.0 0.0 0.0 0.0 0.0
0.0 0.0 0.0 0.0 0.0 0.0 0.0 0.0
0.0 0.0 0.0 0.0 0.0 0.0 0.0 0.0
0.0 0.0 0.0 0.0 0.0 0.0 0.0 0.0
0.0 0.0 0.0 0.0 0.0 0.0 0.0 0.0
0.0 0.0 0.0 0.0 0.0 0.0 0.0 0.0
0.0 0.0 0.0 0.0 0.0 0.0 0.0 0.0
0.0 0.0 0.0 0.0 0.0 0.0 0.0 0.0
0.0 0.0 0.0 0.0 0.0 0.0 0.0 0.0
0.0 0.0 0.0 0.0 0.0 0.0 0.0 0.0
0.0 0.0 0.0 0.0 0.0 0.0 0.0 0.0
0.0 0.0

weight f4 [250, 250]
00000000: f28f acbc 6591 35bd bd05 9dbd 5584 94bc
00000010: 0fdc 6bbd dcc5 713c ceb5 15bc 95d8 e3bc
00000020: 0e9a 9ebc 561d 4abd c24a bfbc a47e 8f3d
00000030: 65de 3c3d daf6 c4bb 29c8 423d 0a4e 09bc
00000040: 831a 873c 9aab 9d3d 35c9 a63b 65f5 c83b
00000050: d025 f8bb f926 6ebc 1cbd 6a3b 12fd 123d
00000060: d1e4 543d 942d 9bbb e290 853d 36a1 2d3b
00000070: 7a21 d43c d1bd 2fbd 3b2e e03b 0a37 fd3c
00000080: f44d b13d 1ed3 5c3b 19b4 1ebd f5a7 9ebd
00000090: 10b5 b53b ef23 3a3d b4d9 2e3c aac6 1ebd
000000a0: f49d 0ebd ec42 9dbc 7204 8cbc 7987 4d3c
000000b0: 9989 d23b b9c4 d6bc 4bfb 51bc cc6e 21bd
000000c0: 117f 663d 986a 39bb c92a 333d 7a00 573d
000000d0: 5bc3 1abc 2f56 083c 3b67 1c3c 5402 8abb
000000e0: abc1 573d 2ad3 f8bb 29ad 1f3d 0eff 46bd
000000f0: 5b5a ffbc 4d9d 273a 7d64 8b3c 7354 cb3c
00000100: 205b b33c e3fe 1ebd cc50 babc 9e9b 2c3d
00000110: edfb 323d 6d95 58bd fdd1 003d fa95 40bd
00000120: f366 5a3c 4a25 aabb a402 13bd d036 373b
00000130: ba50 5d3d efd1 033c 9b47 003d 71fb 45bd
00000140: 42ea 623c d3b6 4abd 3d9a 6c3d 1a5d ae3d
00000150: a0bf 51bd 2cf2 003d 9535 b03c 0e4c 6e3c
00000160: 99db ba3c 5400 c9bc 9f83 fdbc fe19 4f3c
00000170: cd7c 71bd e1a8 d0bc 79df 90bd b123 a73d
00000180: 74ac 263d 833b bbbc 0fc3 013d 5742 303d
00000190: fd33 dd3c 0189 83bd 9984 33bd 6808 1fbd
000001a0: 3f82 a6bc 0c1f 8ebc e800 213d b9b1 e4bc
000001b0: 47e3 a1bc 1745 62bc 692a 7c3d ed09 43bd
000001c0: 21f1 1d3d 3fc5 1abd 8ff5 54bc 678f 22bc
000001d0: defe e0bc b720 dc3c 2cb8 a83c e519 f53c
000001e0: 56fd 193d 5af5 76bd eba1 4f3d d82e d93c
000001f0: 922d 843b d3af a23c 0e63 193d a13b a53c
00000200: eee7 9abc 55c3 c13d 6c6b 073d a30b ee3c
00000210: 24b2 5f3d 472a 4abb 3b02 74bd d8ca 62bd
00000220: 733c 1bbd 0ceb f3ba eeab 74bd 2269 8d3d
00000230: 2b18 29bc fec3 203d 7a0f c63b cdd7 acbc
00000240: 24ee 7a3d 289c 4abb aa7f 423b 8331 313d
00000250: 531b 77bc 988a 19bd 2a19 b0bc 875b 49bd
00000260: fb01 7e3d 7bfb 1dbc 73ab b2bc 0670 543d
00000270: 694c e63b f57d ba3d deb0 1dbd a5a2 e13c
00000280: 8c28 7ebc f773 293d 1293 d33c 82d1 ab3c
00000290: b2e9 0bbd 60b8 0fbd f20e 88bc a032 9cbc
000002a0: d83c ff3c 78bd 65bd 684f a33c 2851 a4bc
000002b0: f911 86bc f1e0 633c 636e 73bc 0e64 cebc
000002c0: c9d1 7e3d 1e03 f5bc 47b5 c1bb 6b3d 02bc
000002d0: b1c5 92bb d029 d23c 0ec4 653d 0edd f03c
000002e0: 1e2c 933d daa3 6d3c 5935 78ba 8e44 36bc
000002f0: bb64 a0bc e9c9 8a3d 6968 c03a 5ae7 84bc
00000300: e1e4 5e3d 66d9 bc3d 5d56 6cbc acf0 3fbd
00000310: 7da6 2bbd a283 c73c 7577 533d 6694 72bc
00000320: 5923 be3c f340 a43c ac09 2d3c 3047 4dbd
00000330: 02d0 b53d 31d4 9bbd 6503 fdbc 93d8 2abc
00000340: 6b54 67bd a4d7 733d 375e 243d bfd1 87bc
00000350: bf6a 7fbc 86d8 d2bc f8bb d63c a430 393d
00000360: 8030 c63a 743e 043d 37be a73c bc73 9bbc
00000370: bf33 aebc 0d3a dc3c feee 88bd ac9a 833d
00000380: 5314 693d 32e0 f03c e678 d9bc 7343 96bc
00000390: 8f38 293d 3038 383d 54d8 793c 7f29 cbbd
000003a0: 4c37 1abd 341b 413c 0d6c b33c f66d 98bc
000003b0: f3fa 2b3d 3034 e4bc 3189 65bc ae1a b63c
000003c0: 8309 333d 4b62 55bd dfcc bfbc 49cb 52bd
000003d0: d6f9 463d 0e23 2b3d d79e 9ebd 3888 6ebc
000003e0: e510 2a3d c038 183d 2f84 12bd 5418 673d
000003f0: 6f74 b2bd 83e3 01bd 2930 54bd f9a9 89bd
-0.021064732 -0.044328112 -0.0766711 -0.018129507 -0.05758291 0.014756646 -0.009137584 -0.027813235
-0.019360568 -0.049344383 -0.023351077 0.07006577 0.04611053 -0.0060108723 0.04755417 -0.008380422
0.016492134 0.07698746 0.0050899037 0.006132769 -0.007572867 -0.014535659 0.0035818284 0.035885878
0.05197603 -0.004735658 0.06521775 0.0026493794 0.02589487 -0.042905632 0.0068414486 0.030910034
0.086574465 0.0033695172 -0.038745973 -0.07746879 0.005545266 0.045444425 0.010672022 -0.03876368
-0.034818605 -0.01919695 -0.017091963 0.012544506 0.0064250943 -0.026216852 -0.012816261 -0.039412305
0.056273524 -0.0028292295 0.043741975 0.05249069 -0.00944599 0.008321329 0.009546096 -0.0042117033
0.05267493 -0.007593532 0.038983498 -0.048583083 -0.031171015 0.0006393984 0.01701569 0.024820542
0.021894038 -0.038817298 -0.022743605 0.042140596 0.043697286 -0.05287688 0.03145026 -0.04701803
0.013330209 -0.0051924335 -0.03589119 0.0027956255 0.054032065 0.008045658 0.03131829 -0.048335496
0.013849797 -0.04949076 0.05776428 0.085138515 -0.05120814 0.031480953 0.021509925 0.0145445
0.02280979 -0.02453629 -0.03094655 0.012640474 -0.05895691 -0.025471153 -0.07073874 0.081611045
0.040691808 -0.022855526 0.031680163 0.043032017 0.027002329 -0.06422616 -0.043827627 -0.038826376
-0.020325778 -0.017348789 0.039307505 -0.027916776 -0.019761695 -0.013810418 0.061563883 -0.047616888
0.038560037 -0.037785765 -0.012997999 -0.009921885 -0.02746528 0.026871068 0.020595632 0.029919574
0.037595116 -0.06029258 0.050691526 0.026511595 0.0040337527 0.01985923 0.03744798 0.020170035
-0.01890942 0.09461085 0.03306143 0.029058283 0.054613248 -0.0030847953 -0.05957244 -0.055369228
-0.037899446 -0.0018609478 -0.059734277 0.06904818 -0.0103207035 0.039249413 0.0060443254 -0.021098996
0.061262265 -0.003091583 0.0029678144 0.04326011 -0.015082198 -0.03748569 -0.021496374 -0.049159553
0.062013607 -0.009642477 -0.021810269 0.051864646 0.007028152 0.09106056 -0.03849875 0.027543375
-0.015512597 0.04137036 0.025826965 0.020973925 -0.034158416 -0.035087943 -0.016608689 -0.019067109
0.031156942 -0.056088895 0.019935325 -0.02005823 -0.016365992 0.013908611 -0.014857861 -0.025194194
0.062211785 -0.029908713 -0.0059115025 -0.0079492135 -0.004479133 0.025654703 0.056095175 0.029402282
0.07186149 0.014504397 -0.00094683986 -0.011124743 -0.019579282 0.067767926 0.0014679554 -0.016223598
0.054417495 0.09221153 -0.0144248875 -0.046860382 -0.041906822 0.02435476 0.051627595 -0.014805889
0.023210214 0.020050501 0.010561388 -0.050116718 0.08877565 -0.07608832 -0.030885408 -0.010427612
-0.05647699 0.059531823 0.040128913 -0.016579507 -0.015589415 -0.025738012 0.026212677 0.045212403
0.0015120655 0.032286122 0.020476444 -0.018976085 -0.021264909 0.02688315 -0.06686209 0.06425986
0.05690415 0.02940378 -0.026546907 -0.01834271 0.041313704 0.04497546 0.015249331 -0.09920024
-0.03765039 0.011786271 0.021902109 -0.018607121 0.04198737 -0.027856916 -0.01400976 0.022229519
0.043710243 -0.052095693 -0.02341312 -0.0514634 0.048578106 0.041781478 -0.0774514 -0.014558844
0.041520018 0.037163496 -0.03577059 0.056419685 -0.08713614 -0.031711113 -0.05180374 -0.06721873

bias f4 [250]
00000000: edef 1a3e e981 88bd 6788 9ebb a213 8ebd
00000010: ac02 4abc 3f5b 963c aa74 323e d3ed 94bc
00000020: 5b26 423e 2de7 5bbd 8cac 7f3a 231d 58bd
00000030: 07b9 9dbd adc0 aa3c 92d0 b5bd 8cca b63c
00000040: d7c1 b03b 5903 7abd bd44 ddbc 08f1 82ba
00000050: 9bbc 4dbd 12c0 f8bb a0a0 c93c 270e a83d
00000060: d635 323d fd9d de3d 93e1 0dbd 4c6d 24bd
00000070: 7ac0 2abc 45b4 79bd a315 a63c 3304 4fbc
00000080: 6c7f d23c ee1b 5c3d 13ab 76bd e21f e9bc
00000090: 8534 dc3c db77 703d ee37 8dbc 66df 20bd
000000a0: 8e74 77bd 3632 a13d 4179 3a3d 1458 f03c
000000b0: 73c7 eebd b14a 85bd 6fc3 823d 9c35 313d
000000c0: d668 8cbd 51fe 4d3d 5b22 49bd cc80 7ebb
000000d0: 293c b3bc a93a 3d3c 99be 45bd cec0 a9bc
000000e0: 8e00 edbd eb85 71bd a381 8bbd d971 bdbd
000000f0: c94c ed3d 7616 05bd c767 913c 0945 d33e
00000100: c2bc a13d 5e78 863e 3a6e f83d b82f 3cbd
00000110: a2dd a63c 4719 6cbd 79e2 c43b 711f 343c
00000120: 34df 2bbd 8daf 3c3e 2bc0 bcbc 4626 33bd
00000130: 9ff5 543e 8213 983d e8e6 ac3c 5b9c a8bd
00000140: b478 a3bc a687 b6bc dbca 84bd 3892 96bd
00000150: 015f 4c3d d6f0 56bd 1266 483d 3034 e23d
00000160: e741 053e 20fb 943c c141 ddbc 030c 73bd
00000170: 2007 15bd 1931 02bd 088d 8fbd 8a3b e53c
00000180: 0440 153d d74b bcbc bffc 02bd 8b51 bd3e
00000190: fd24 dc3d ba39 da3d 1404 94bc 8454 863d
000001a0: 22c5 e5bc 2e41 8bbd 8de0 2e3d ba4b 5abd
000001b0: 250e 81bd a200 62bd 864b 923e c334 b63d
000001c0: cf4c 70bd d481 f63d 3a3b b43c 44f9 493c
000001d0: b7fd 763c 7f35 6ebd f5b4 17ba 6e58 963e
000001e0: 8067 88bd 576f 38bd b38c 6cbd 23aa 6d3e
000001f0: 3516 07be cd9c 513b 7f38 3cbd 68f7 51bd
00000200: 8631 37bd 22fe e63b 54cb 333e bed5 833c
00000210: 57d2 15bd 194e 0b3c b00b 703c 5451 893d
00000220: 6bfd ecbc 4863 cf3c ba57 d53e 3df1 fc3c
00000230: a044 fc3c 345b 37bd a07f 61bd 644d 32bd
00000240: 3de6 383d f3f6 e3bc fd44 7b3c df64 013d
00000250: 06d6 7b3d 85f3 8a3d 2ccd 013d 7ae3 a63c
00000260: 0e9d 803c cac7 993e f262 2bbd 68e7 33bd
00000270: d15f 303c 6385 6fbd 599a 1d3e b208 0d3e
00000280: 3be8 bebc 1295 a3bd 92a7 c83c c159 063c
00000290: 962f 363d 22cb 593e e6c8 41bd fbbd aabd
000002a0: c8eb 8b3e f1d4 6d3c 0f59 1d3e b46f 0e3e
000002b0: 969d 9c3b 5d27 de3a 665a 07bd 72de ccbc
000002c0: 1ae3 b1bd e6fa 2e3d c949 35bd f14c b1bd
000002d0: e4f3 dfbc 5cc0 96bd 1f53 61bd f610 63bd
000002e0: c957 0c3c 0157 11bc 7509 51bd 5269 f1bd
000002f0: 7942 1b3d 724f b5bb 64dc 0e3c 58e7 b03d
00000300: 4274 a1bd 1c90 a9bc e397 973d f93e 62bc
00000310: 06c4 30bc 06bc 96bd 9008 f7bc 3d8d 023e
00000320: afee 0e3e 1fa2 c2bd 05a4 e539 b710 00bd
00000330: dcbe 9abd ab3b 693c f8e5 1a3c f81f ec3c
00000340: 8a2a 083d f218 323e 76fe 3c3e 98a8 ae3c
00000350: 20e9 abbd 252e 1b3d a1ec ad3e a29b 8bbd
00000360: e43d 973c 2257 8cbd d343 95ba 2459 d2bc
00000370: e2b6 ffbd ca32 adbd b97d ccbd 57a2 c03e
00000380: 2619 b6bb 80a2 e3bc b385 24bd f739 fbbc
00000390: 7608 92bc f97d c3bc 62d4 483c d685 88bd
000003a0: 200f 4abd b972 9c3d e407 0bbd 9878 a13c
000003b0: a130 0abd a6eb 8abd b459 943c 8ddd d73c
000003c0: 50ac 613b ffde 38bd 4600 2abc 2364 78bd
000003d0: d228 993c 3797 95bd a3c6 323e e7b5 043c
000003e0: 196f 883c 18b1 9d3a
0.15130587 -0.066654034 -0.004838038 -0.069373384 -0.012329739 0.018354056 0.17427316 -0.01817981
0.18959944 -0.053687263 0.00097531895 -0.052762162 -0.07701307 0.020843828 -0.08877672 0.022313379
0.0053942013 -0.06103835 -0.027010316 -0.0009990046 -0.050228696 -0.007591256 0.024612725 0.08205824
0.043508373 0.108699776 -0.034638952 -0.040143296 -0.010421867 -0.060962934 0.020273989 -0.0126352785
0.025695525 0.053737573 -0.060221743 -0.028457586 0.026880512 0.058708053 -0.017238583 -0.03927555
-0.06041389 0.07870905 0.045525793 0.029338874 -0.11659136 -0.06508387 0.06384932 0.043264017
-0.06855933 0.050291363 -0.04910503 -0.0038834093 -0.021879273 0.01154963 -0.04827747 -0.02072182
-0.115723714 -0.058965605 -0.068118356 -0.0925023 0.11586911 -0.032492124 0.01774968 0.41263607
0.07897331 0.26263708 0.12130399 -0.045943946 0.020369355 -0.057641294 0.006008443 0.010993824
-0.04196091 0.18426342 -0.023040852 -0.043737672 0.20796822 0.07425596 0.021106198 -0.082329474
-0.019955017 -0.02228148 -0.06484004 -0.07352108 0.04989529 -0.052475773 0.048925467 0.1104511
0.13013421 0.018186152 -0.027008893 -0.059337627 -0.036383748 -0.031785104 -0.070093215 0.027982492
0.036438003 -0.022985382 -0.03197932 0.36976275 0.107492425 0.10655542 -0.01806835 0.06559089
-0.028048102 -0.067995414 0.042694617 -0.053294875 -0.06301526 -0.055176385 0.28573245 0.08896782
-0.058667 0.120364815 0.022000898 0.012327496 0.015075139 -0.058156487 -0.00057871576 0.29364341
-0.06660366 -0.045028057 -0.05775137 0.23209433 -0.13192065 0.003198433 -0.045952316 -0.051261336
-0.044724964 0.007049338 0.17558032 0.016093131 -0.03657755 0.008502507 0.014651224 0.06704965
-0.028929433 0.025315896 0.41668493 0.03087675 0.030794442 -0.044764712 -0.055053353 -0.043530837
0.045141447 -0.027827716 0.015336272 0.03159034 0.061483406 0.06784729 0.031689808 0.020372141
0.01569989 0.3003524 -0.04184241 -0.043921858 0.010765032 -0.058476817 0.1539091 0.13772848
-0.023304095 -0.07987417 0.024493966 0.00820011 0.044478975 0.21268895 -0.047310732 -0.08337017
0.27328324 0.014516101 0.15366004 0.13909799 0.004779528 0.0016948987 -0.033045195 -0.025008414
-0.08685894 0.042719744 -0.04425982 -0.086572535 -0.027337976 -0.073609084 -0.05501091 -0.055436097
0.0085658515 -0.008870841 -0.05103441 -0.117876664 0.03790519 -0.0055331523 0.008719537 0.08637875
-0.078835025 -0.0206986 0.07402017 -0.013808959 -0.010788923 -0.073600814 -0.03015545 0.1274919
0.13958238 -0.095035784 0.00043800488 -0.03126594 -0.07555935 0.014235417 0.009454243 0.028823838
0.033243693 0.17392328 0.18456444 0.021320626 -0.083940744 0.037885804 0.33969596 -0.06816794
0.018462129 -0.06852557 -0.0011388011 -0.025677271 -0.12486054 -0.08456953 -0.09984917 0.37623855
-0.005557197 -0.027787447 -0.040166568 -0.030667288 -0.0178263 -0.02386378 0.012257667 -0.06666152
-0.04933083 0.07639069 -0.033943072 0.019710824 -0.033737782 -0.067832276 0.01810918 0.02635076
0.0034434982 -0.04513454 -0.010376042 -0.060642373 0.018696222 -0.073042326 0.17458586 0.0081000095
0.016654538 0.0012030927

weight f4 [250]
00000000: 0000 803f 0000 803f 0000 803f 0000 803f
00000010: 0000 803f 0000 803f 0000 803f 0000 803f
00000020: 0000 803f 0000 803f 0000 803f 0000 803f
00000030: 0000 803f 0000 803f 0000 803f 0000 803f
00000040: 0000 803f 0000 803f 0000 803f 0000 803f
00000050: 0000 803f 0000 803f 0000 803f 0000 803f
00000060: 0000 803f 0000 803f 0000 803f 0000 803f
00000070: 0000 803f 0000 803f 0000 803f 0000 803f
00000080: 0000 803f 0000 803f 0000 803f 0000 803f
00000090: 0000 803f 0000 803f 0000 803f 0000 803f
000000a0: 0000 803f 0000 803f 0000 803f 0000 803f
000000b0: 0000 803f 0000 803f 0000 803f 0000 803f
000000c0: 0000 803f 0000 803f 0000 803f 0000 803f
000000d0: 0000 803f 0000 803f 0000 803f 0000 803f
000000e0: 0000 803f 0000 803f 0000 803f 0000 803f
000000f0: 0000 803f 0000 803f 0000 803f 0000 803f
00000100: 0000 803f 0000 803f 0000 803f 0000 803f
00000110: 0000 803f 0000 803f 0000 803f 0000 803f
00000120: 0000 803f 0000 803f 0000 803f 0000 803f
00000130: 0000 803f 0000 803f 0000 803f 0000 803f
00000140: 0000 803f 0000 803f 0000 803f 0000 803f
00000150: 0000 803f 0000 803f 0000 803f 0000 803f
00000160: 0000 803f 0000 803f 0000 803f 0000 803f
00000170: 0000 803f 0000 803f 0000 803f 0000 803f
00000180: 0000 803f 0000 803f 0000 803f 0000 803f
00000190: 0000 803f 0000 803f 0000 803f 0000 803f
000001a0: 0000 803f 0000 803f 0000 803f 0000 803f
000001b0: 0000 803f 0000 803f 0000 803f 0000 803f
000001c0: 0000 803f 0000 803f 0000 803f 0000 803f
000001d0: 0000 803f 0000 803f 0000 803f 0000 803f
000001e0: 0000 803f 0000 803f 0000 803f 0000 803f
000001f0: 0000 803f 0000 803f 0000 803f 0000 803f
00000200: 0000 803f 0000 803f 0000 803f 0000 803f
00000210: 0000 803f 0000 803f 0000 803f 0000 803f
00000220: 0000 803f 0000 803f 0000 803f 0000 803f
00000230: 0000 803f 0000 803f 0000 803f 0000 803f
00000240: 0000 803f 0000 803f 0000 803f 0000 803f
00000250: 0000 803f 0000 803f 0000 803f 0000 803f
00000260: 0000 803f 0000 803f 0000 803f 0000 803f
00000270: 0000 803f 0000 803f 0000 803f 0000 803f
00000280: 0000 803f 0000 803f 0000 803f 0000 803f
00000290: 0000 803f 0000 803f 0000 803f 0000 803f
000002a0: 0000 803f 0000 803f 0000 803f 0000 803f
000002b0: 0000 803f 0000 803f 0000 803f 0000 803f
000002c0: 0000 803f 0000 803f 0000 803f 0000 803f
000002d0: 0000 803f 0000 803f 0000 803f 0000 803f
000002e0: 0000 803f 0000 803f 0000 803f 0000 803f
000002f0: 0000 803f 0000 803f 0000 803f 0000 803f
00000300: 0000 803f 0000 803f 0000 803f 0000 803f
00000310: 0000 803f 0000 803f 0000 803f 0000 803f
00000320: 0000 803f 0000 803f 0000 803f 0000 803f
00000330: 0000 803f 0000 803f 0000 803f 0000 803f
00000340: 0000 803f 0000 803f 0000 803f 0000 803f
00000350: 0000 803f 0000 803f 0000 803f 0000 803f
00000360: 0000 803f 0000 803f 0000 803f 0000 803f
00000370: 0000 803f 0000 803f 0000 803f 0000 803f
00000380: 0000 803f 0000 803f 0000 803f 0000 803f
00000390: 0000 803f 0000 803f 0000 803f 0000 803f
000003a0: 0000 803f 0000 803f 0000 803f 0000 803f
000003b0: 0000 803f 0000 803f 0000 803f 0000 803f
000003c0: 0000 803f 0000 803f 0000 803f 0000 803f
000003d0: 0000 803f 0000 803f 0000 803f 0000 803f
000003e0: 0000 803f 0000 803f
1.0 1.0 1.0 1.0 1.0 1.0 1.0 1.0
1.0 1.0 1.0 1.0 1.0 1.0 1.0 1.0
1.0 1.0 1.0 1.0 1.0 1.0 1.0 1.0
1.0 1.0 1.0 1.0 1.0 1.0 1.0 1.0
1.0 1.0 1.0 1.0 1.0 1.0 1.0 1.0
1.0 1.0 1.0 1.0 1.0 1.0 1.0 1.0
1.0 1.0 1.0 1.0 1.0 1.0 1.0 1.0
1.0 1.0 1.0 1.0 1.0 1.0 1.0 1.0
1.0 1.0 1.0 1.0 1.0 1.0 1.0 1.0
1.0 1.0 1.0 1.0 1.0 1.0 1.0 1.0
1.0 1.0 1.0 1.0 1.0 1.0 1.0 1.0
1.0 1.0 1.0 1.0 1.0 1.0 1.0 1.0
1.0 1.0 1.0 1.0 1.0 1.0 1.0 1.0
1.0 1.0 1.0 1.0 1.0 1.0 1.0 1.0
1.0 1.0 1.0 1.0 1.0 1.0 1.0 1.0
1.0 1.0 1.0 1.0 1.0 1.0 1.0 1.0
1.0 1.0 1.0 1.0 1.0 1.0 1.0 1.0
1.0 1.0 1.0 1.0 1.0 1.0 1.0 1.0
1.0 1.0 1.0 1.0 1.0 1.0 1.0 1.0
1.0 1.0 1.0 1.0 1.0 1.0 1.0 1.0
1.0 1.0 1.0 1.0 1.0 1.0 1.0 1.0
1.0 1.0 1.0 1.0 1.0 1.0 1.0 1.0
1.0 1.0 1.0 1.0 1.0 1.0 1.0 1.0
1.0 1.0 1.0 1.0 1.0 1.0 1.0 1.0
1.0 1.0 1.0 1.0 1.0 1.0 1.0 1.0
1.0 1.0 1.0 1.0 1.0 1.0 1.0 1.0
1.0 1.0 1.0 1.0 1.0 1.0 1.0 1.0
1.0 1.0 1.0 1.0 1.0 1.0 1.0 1.0
1.0 1.0 1.0 1.0 1.0 1.0 1.0 1.0
1.0 1.0 1.0 1.0 1.0 1.0 1.0 1.0
1.0 1.0 1.0 1.0 1.0 1.0 1.0 1.0
1.0 1.0

bias f4 [250]
00000000: 0000 0000 0000 0000 0000 0000 0000 0000
00000010: 0000 0000 0000 0000 0000 0000 0000 0000
00000020: 0000 0000 0000 0000 0000 0000 0000 0000
00000030: 0000 0000 0000 0000 0000 0000 0000 0000
00000040: 0000 0000 0000 0000 0000 0000 0000 0000
00000050: 0000 0000 0000 0000 0000 0000 0000 0000
00000060: 0000 0000 0000 0000 0000 0000 0000 0000
00000070: 0000 0000 0000 0000 0000 0000 0000 0000
00000080: 0000 0000 0000 0000 0000 0000 0000 0000
00000090: 0000 0000 0000 0000 0000 0000 0000 0000
000000a0: 0000 0000 0000 0000 0000 0000 0000 0000
000000b0: 0000 0000 0000 0000 0000 0000 0000 0000
000000c0: 0000 0000 0000 0000 0000 0000 0000 0000
000000d0: 0000 0000 0000 0000 0000 0000 0000 0000
000000e0: 0000 0000 0000 0000 0000 0000 0000 0000
000000f0: 0000 0000 0000 0000 0000 0000 0000 0000
00000100: 0000 0000 0000 0000 0000 0000 0000 0000
00000110: 0000 0000 0000 0000 0000 0000 0000 0000
00000120: 0000 0000 0000 0000 0000 0000 0000 0000
00000130: 0000 0000 0000 0000 0000 0000 0000 0000
00000140: 0000 0000 0000 0000 0000 0000 0000 0000
00000150: 0000 0000 0000 0000 0000 0000 0000 0000
00000160: 0000 0000 0000 0000 0000 0000 0000 0000
00000170: 0000 0000 0000 0000 0000 0000 0000 0000
00000180: 0000 0000 0000 0000 0000 0000 0000 0000
00000190: 0000 0000 0000 0000 0000 0000 0000 0000
000001a0: 0000 0000 0000 0000 0000 0000 0000 0000
000001b0: 0000 0000 0000 0000 0000 0000 0000 0000
000001c0: 0000 0000 0000 0000 0000 0000 0000 0000
000001d0: 0000 0000 0000 0000 0000 0000 0000 0000
000001e0: 0000 0000 0000 0000 0000 0000 0000 0000
000001f0: 0000 0000 0000 0000 0000 0000 0000 0000
00000200: 0000 0000 0000 0000 0000 0000 0000 0000
00000210: 0000 0000 0000 0000 0000 0000 0000 0000
00000220: 0000 0000 0000 0000 0000 0000 0000 0000
00000230: 0000 0000 0000 0000 0000 0000 0000 0000
00000240: 0000 0000 0000 0000 0000 0000 0000 0000
00000250: 0000 0000 0000 0000 0000 0000 0000 0000
00000260: 0000 0000 0000 0000 0000 0000 0000 0000
00000270: 0000 0000 0000 0000 0000 0000 0000 0000
00000280: 0000 0000 0000 0000 0000 0000 0000 0000
00000290: 0000 0000 0000 0000 0000 0000 0000 0000
000002a0: 0000 0000 0000 0000 0000 0000 0000 0000
000002b0: 0000 0000 0000 0000 0000 0000 0000 0000
000002c0: 0000 0000 0000 0000 0000 0000 0000 0000
000002d0: 0000 0000 0000 0000 0000 0000 0000 0000
000002e0: 0000 0000 0000 0000 0000 0000 0000 0000
000002f0: 0000 0000 0000 0000 0000 0000 0000 0000
00000300: 0000 0000 0000 0000 0000 0000 0000 0000
00000310: 0000 0000 0000 0000 0000 0000 0000 0000
00000320: 0000 0000 0000 0000 0000 0000 0000 0000
00000330: 0000 0000 0000 0000 0000 0000 0000 0000
00000340: 0000 0000 0000 0000 0000 0000 0000 0000
00000350: 0000 0000 0000 0000 0000 0000 0000 0000
00000360: 0000 0000 0000 0000 0000 0000 0000 0000
00000370: 0000 0000 0000 0000 0000 0000 0000 0000
00000380: 0000 0000 0000 0000 0000 0000 0000 0000
00000390: 0000 0000 0000 0000 0000 0000 0000 0000
000003a0: 0000 0000 0000 0000 0000 0000 0000 0000
000003b0: 0000 0000 0000 0000 0000 0000 0000 0000
000003c0: 0000 0000 0000 0000 0000 0000 0000 0000
000003d0: 0000 0000 0000 0000 0000 0000 0000 0000
000003e0: 0000 0000 0000 0000
0.0 0.0 0.0 0.0 0.0 0.0 0.0 0.0
0.0 0.0 0.0 0.0 0.0 0.0 0.0 0.0
0.0 0.0 0.0 0.0 0.0 0.0 0.0 0.0
0.0 0.0 0.0 0.0 0.0 0.0 0.0 0.0
0.0 0.0 0.0 0.0 0.0 0.0 0.0 0.0
0.0 0.0 0.0 0.0 0.0 0.0 0.0 0.0
0.0 0.0 0.0 0.0 0.0 0.0 0.0 0.0
0.0 0.0 0.0 0.0 0.0 0.0 0.0 0.0
0.0 0.0 0.0 0.0 0.0 0.0 0.0 0.0
0.0 0.0 0.0 0.0 0.0 0.0 0.0 0.0
0.0 0.0 0.0 0.0 0.0 0.0 0.0 0.0
0.0 0.0 0.0 0.0 0.0 0.0 0.0 0.0
0.0 0.0 0.0 0.0 0.0 0.0 0.0 0.0
0.0 0.0 0.0 0.0 0.0 0.0 0.0 0.0
0.0 0.0 0.0 0.0 0.0 0.0 0.0 0.0
0.0 0.0 0.0 0.0 0.0 0.0 0.0 0.0
0.0 0.0 0.0 0.0 0.0 0.0 0.0 0.0
0.0 0.0 0.0 0.0 0.0 0.0 0.0 0.0
0.0 0.0 0.0 0.0 0.0 0.0 0.0 0.0
0.0 0.0 0.0 0.0 0.0 0.0 0.0 0.0
0.0 0.0 0.0 0.0 0.0 0.0 0.0 0.0
0.0 0.0 0.0 0.0 0.0 0.0 0.0 0.0
0.0 0.0 0.0 0.0 0.0 0.0 0.0 0.0
0.0 0.0 0.0 0.0 0.0 0.0 0.0 0.0
0.0 0.0 0.0 0.0 0.0 0.0 0.0 0.0
0.0 0.0 0.0 0.0 0.0 0.0 0.0 0.0
0.0 0.0 0.0 0.0 0.0 0.0 0.0 0.0
0.0 0.0 0.0 0.0 0.0 0.0 0.0 0.0
0.0 0.0 0.0 0.0 0.0 0.0 0.0 0.0
0.0 0.0 0.0 0.0 0.0 0.0 0.0 0.0
0.0 0.0 0.0 0.0 0.0 0.0 0.0 0.0
0.0 0.0

weight f4 [1, 250]
00000000: 166f 50bb 7c47 fabc 70be ea3c fd4d cebc
00000010: ad32 4ebd 2930 c0b9 b805 2a3c d200 bf3c
00000020: cb82 193b 6729 f0ba ca44 ee3b ecb9 2c3d
00000030: 86f6 a13c 7512 4fbc ffb4 e6bc 81ab 1bbc
00000040: 8a27 3b3c ff84 2fbb 8bea cf3c 693f b13a
00000050: 24f7 1c3c db14 c1ba cd74 1fbb 5737 3c3a
00000060: 83be 4bbb 35ab fa3b 3416 413c e0b4 193c
00000070: 0ff7 23bc 45e7 353c 1fb5 94bc 6d6e 033d
00000080: 03cf 6cbc 7e65 703d fce1 09bc ac3d 6339
00000090: 70f2 ecbc 44c6 0b3b eecb 72bc 544a ff3b
000000a0: 6ca4 a33c d839 5aba cf17 0a3d 359f 76bc
000000b0: 8a2e 74bb cac3 c23d 8a9c db3a bb39 4cbb
000000c0: 4b57 f43b 9ed9 b13c 66f0 a33c 1d44 0ebc
000000d0: 0ea3 963d 767e 903a 455e 68bc 52fb c63c
000000e0: b3ad acbc 689a 6c3c f1d1 c03c 6c09 d33c
000000f0: 14ab ddbb 3750 6fbb 460b be39 e7e6 363e
00000100: 2b7c f937 ff7f 5b3d ff60 443b 95b2 533d
00000110: 0add 16ba 9965 23bb 4e09 acbc 5d93 c43b
00000120: bd0d b73c ce61 b13c 8f96 543c 1fb2 783b
00000130: 5f85 373d ec0e 4cbb e741 10bc 1915 a6bc
00000140: 7f9b ea3b 18eb 543c b597 633c 377e 88bb
00000150: fe58 4dbb 721d 68bc 1e5d 1cbc 93b9 a33b
00000160: eba5 bb3b ee7a f23b 7d59 2e3a f6a8 b0bc
00000170: 83a3 1c3c 07c1 243c b29f 8d3a 1ee5 34bb
00000180: d69b d53c ceb8 90ba 7d8c 27bc 8665 be3d
00000190: fd38 dd39 7b95 623b 278c a7bb 4a3f 51ba
000001a0: f6dd 2e3c b084 f2bb 1e85 073b 5d33 f6bc
000001b0: 3e88 763c e19e b23a 2477 513d a52c 5b3b
000001c0: 448d dabc e829 f0bc 7730 0bbd cdc2 f3bc
000001d0: 1f37 8d3c baf5 793d 86d7 403b 93de e83d
000001e0: 37e2 7d3b 7ec9 3abc 2d50 9a3c ecf0 293b
000001f0: 5579 97bc e95a d53b 0818 b8bc 3a11 d03c
00000200: 23ca 52bb adf6 25ba 99dd 393b 5e19 123b
00000210: dfbc cf3c 1a75 8fbc 4253 093d a962 ef3c
00000220: 2933 dfbc 468b fab9 13b4 373e c157 afbb
00000230: 4596 5ebc 120f 5cbc 2a36 d43c 6552 3abc
00000240: 3cb8 cebb 6a4a 67bc 230c 36bc 134b b0bc
00000250: 0786 d1b9 370e 913c 2949 6c3d f2b2 99bc
00000260: a035 e33c d2fe f83d 8ff9 d8bc 5137 56bc
00000270: a87c 663c 643c 213b 565c 38bc 4809 033c
00000280: 3472 3639 1444 483b 0eaf 66bc 905a fcbc
00000290: 4e06 463d 9c35 783c 314d 82bd 484f c9bc
000002a0: 9681 a53d 382c a53b 877c 5bba f8ca 74ba
000002b0: 6ff5 afbc 0bd8 843a 6e39 e6bc 2aae a4bc
000002c0: f24f a8bb 18d4 b8bc 1321 00bb 37f8 0b3a
000002d0: dd15 9b3c aa87 c63c e256 68bc 1a1a f8bc
000002e0: 7f6f fbba 89fc 2abb 7eab 27bb c486 6a3a
000002f0: 3f54 a4bb 1f25 62bc 9dba c83c 6a28 943b
00000300: feeb 913c f6fa a13b 77d8 57ba bf46 e5bb
00000310: 9d03 5e3c 22a1 f9bb eacb 9c3c 70ae f83b
00000320: 6731 4c38 3fba a5bd 5094 ae3c e5ae 22bc
00000330: 93ed c7bc 3b36 0a3d fb78 07bd fd95 913d
00000340: 18a9 21bc 796d 1fb9 94e7 023b a7c0 b8bb
00000350: 9ffc 603c c8bf 09bc 5cbe 9f3d ee82 a9bc
00000360: 9569 be3b 5c37 cbbc ef64 e33b bb2c 2abb
00000370: f719 c63c 79c6 0d3c e37e 5e3d 0fa2 de3d
00000380: 2342 febc e00d 13bd 2b06 adbc 629f e73c
00000390: 21a0 40bc 4d9c 223b 5317 7bbb 5d93 b13c
000003a0: 4db7 1ebc e4e7 5f3a 96c9 d33c 091d 4f3d
000003b0: b50c 03ba 681e b63c 9a18 ce3c 947f 873c
000003c0: d536 cdbc 610d b53c 833c 1b3b c808 753b
000003d0: a8a1 dd3c 897b f83c 6275 4c3b 4338 70bb
000003e0: 7ec9 05bd 6d88 3dbd
-0.0031804494 -0.030551665 0.02865526 -0.025183672 -0.050341297 -0.00036656976 0.01037734 0.02331582
0.0023423906 -0.0018322886 0.007271384 0.042169496 0.019770872 -0.012638678 -0.028162478 -0.009501339
0.011423001 -0.0026782153 0.025380393 0.0013522926 0.009580407 -0.0014730947 -0.0024331093 0.0007179877
-0.0031088896 0.007649804 0.011785079 0.009381503 -0.010007634 0.011102502 -0.018152772 0.032087732
-0.014453652 0.05869054 -0.008415695 0.00021671382 -0.028924197 0.0021327892 -0.014819128 0.007790843
0.019975863 -0.00083246594 0.033714112 -0.015052606 -0.0037259185 0.0951 0.0016755026 -0.003116234
0.007456695 0.021710213 0.020012092 -0.008683232 0.07355319 0.0011024016 -0.014182632 0.02428976
-0.02107892 0.01444111 0.023537608 0.025761329 -0.006764779 -0.0036516318 0.00036248023 0.1786152
2.9740933e-05 0.053588863 0.002996504 0.05168398 -0.0005754983 -0.0024932383 -0.02100053 0.0059990124
0.022345418 0.021653082 0.012975349 0.0037947965 0.044804927 -0.0031136824 -0.008804775 -0.020273732
0.00715965 0.012995504 0.01389115 -0.0041654366 -0.003133356 -0.014167177 -0.009543685 0.0049964874
0.005726566 0.0073999083 0.0006650908 -0.021564942 0.009560469 0.010055787 0.0010805039 -0.0027602385
0.026075285 -0.0011041404 -0.010226366 0.09296708 0.00042194864 0.003457396 -0.005113143 -0.0007982148
0.010673037 -0.0074010715 0.002067871 -0.030053789 0.015047131 0.0013627672 0.051139012 0.0033443358
-0.026678689 -0.029316857 -0.033981767 -0.029755974 0.017238198 0.06102536 0.0029425337 0.11370578
0.003873957 -0.011400579 0.018837059 0.0025930954 -0.018490473 0.0065110815 -0.022472396 0.02539884
-0.003216394 -0.0006331008 0.0028360842 0.0022292952 0.025358615 -0.017511893 0.033526666 0.02922185
-0.027246075 -0.00047787483 0.17939787 -0.0053510373 -0.013585632 -0.013431327 0.025904734 -0.011372183
-0.0063085835 -0.014116863 -0.011111292 -0.021520173 -0.00039963445 0.017706973 0.05768696 -0.018762086
0.027735531 0.12157978 -0.026486186 -0.013074712 0.014067806 0.0024602646 -0.011252483 0.007997818
0.00017399417 0.0030558156 -0.014079822 -0.030804902 0.048345856 0.0151495 -0.06362379 -0.024573937
0.08081357 0.0050406717 -0.0008372743 -0.0009338106 -0.021479337 0.0010135187 -0.028103556 -0.02010258
-0.0051364833 -0.022562072 -0.0019550964 0.0005339416 0.018931324 0.024234612 -0.014180871 -0.030285884
-0.0019183009 -0.0026090464 -0.0025584395 0.0008946473 -0.0050149257 -0.013802796 0.024503047 0.0045214193
0.017812725 0.004943247 -0.0008233855 -0.006996959 0.013550666 -0.0076180855 0.019140203 0.007589154
4.86834e-05 -0.08092164 0.021310955 -0.009929393 -0.024405276 0.033743124 -0.03307436 0.07108686
-0.009866975 -0.00015204203 0.0019974457 -0.0056382003 0.013732105 -0.008407541 0.0779998 -0.020692315
0.005810926 -0.02480667 0.0069395225 -0.0025966603 0.024182303 0.008653277 0.054320227 0.10870754
-0.031037396 -0.035901904 -0.021121105 0.028274242 -0.011756928 0.00248124 -0.0038313463 0.021676714
-0.009687257 0.00085413293 0.02585296 0.0505648 -0.0004999147 0.022231296 0.025158215 0.016540326
-0.02505056 0.022101106 0.002368719 0.0037389267 0.027054623 0.030332344 0.0031197895 -0.0036654628
-0.03266286 -0.046272684
