model/MLP3-000670.pth (torch, 331079 bytes, 9 tensors)

weight f4 [250, 70]
0	0xbde2d27c	-0.11075303
1	0x3da9282b	0.082596146
2	0x3c29f908	0.010374315
3	0xbdadb14f	-0.084810846
4	0x3d29037e	0.041263096
5	0x3dba6345	0.091009654
6	0x3dda69cd	0.10664711
7	0xbdbf75f2	-0.09348668
8	0x3d4650cf	0.04841691
9	0x3d840e2e	0.06448017
10	0x3de3a0cc	0.11114654
11	0x3d90d9ce	0.07072793
12	0x3d8bbb02	0.06822778
13	0xbb8e5d3f	-0.004344612
14	0x3dac3b6e	0.08409773
15	0xbcce94bb	-0.025217405
16	0x3c28f659	0.01031264
17	0x3cd85061	0.026405515
18	0x3c187717	0.009305737
19	0xbd905f2c	-0.070494026
20	0x3dc35a77	0.09538739
21	0x3de2da3c	0.11076781
22	0x3d2bb63b	0.041921835
23	0x3d533cb9	0.05157158
24	0xbd624cb7	-0.055248942
25	0xbde4a57f	-0.111643784
26	0x3d6b6bc8	0.057475835
27	0x3d8d327c	0.06894395
28	0xbdbcc9f8	-0.0921821
29	0x3d8b8ae9	0.068136044
30	0x3d11ffab	0.035644215
31	0x3cae22cb	0.021256825
32	0x3c438d03	0.011935475
33	0x3dd37249	0.103245325
34	0xbd1a71f4	-0.03770633
35	0x3d863620	0.06553292
36	0x3da5c7bb	0.08094736
37	0x3c31492b	0.010820667
38	0xbce38d7b	-0.027777424
39	0xbd9b63f6	-0.075874254
40	0xbd53ebb1	-0.051738445
41	0xbcbca6e5	-0.0230288
42	0x3d7826b3	0.06058378
43	0xbc9c50c7	-0.019081486
44	0xbd137966	-0.036004446
45	0xbdbb7ca8	-0.09154636
46	0xbd7aca66	-0.06122818
47	0xbddd836f	-0.108160846
48	0x3debcf78	0.11514181
49	0xbd88c2af	-0.06677758
50	0x3d9cee8b	0.07662686
51	0x3d964aa5	0.07338456
52	0xbcf21e4d	-0.029555464
53	0xbce144ec	-0.027498685
54	0xbddb7ceb	-0.107171856
55	0xbd4c10e4	-0.049820796
56	0x3d88248d	0.066475965
57	0xbdd5ec7c	-0.104454964
58	0xbd3370a4	-0.043808594
59	0xbd8f244d	-0.06989346
60	0x3d09a1c0	0.033601522
61	0xbd3697cf	-0.04457837
62	0x3d3943ca	0.045230664
63	0xbdc17f62	-0.094481245
64	0xbdac50fe	-0.084138855
65	0xbd20dc3d	-0.039272536
66	0xbad9655b	-0.0016585992
67	0x3cf928c4	0.030414946
68	0x3bdb88e7	0.0066996696
69	0xbde59105	-0.11209301
70	0xbd5524e5	-0.05203714
71	0xbd419f3b	-0.047270995
72	0x3d9e6e85	0.07735924
73	0x3dbba7c8	0.09162861
74	0x3b970c02	0.0046095857
75	0x3b881603	0.0041530146
76	0x3cd7d5d5	0.02634708
77	0xbceb6601	-0.028735163
78	0xbd1e9ad6	-0.03872188
79	0x3d88628f	0.066594236
80	0x3c8def19	0.017325925
81	0x3cebe771	0.028796883
82	0xbc36a86d	-0.011148554
83	0x3dceb9e0	0.100940466
84	0xbdd29f68	-0.102843106
85	0x3d14b128	0.036301762
86	0xbcb9d80a	-0.022686023
87	0xbd24efd0	-0.040267766
88	0x3dcd9d6a	0.1003979
89	0xbe104a0c	-0.14090747
90	0xbd8623d7	-0.06549805
91	0x3b7cc4e9	0.0038569516
92	0xbd591d78	-0.05300662
93	0x3dbd4971	0.092425235
94	0x3b71d971	0.0036903287
95	0x3dcd2128	0.1001609
96	0xbb279122	-0.0025568684
97	0xbc415500	-0.011800051
98	0x3c3d3ab3	0.0115496395
99	0xbdde548e	-0.10855971
100	0xbc9d3bb1	-0.019193502
101	0x3dee7d54	0.11644998
102	0x3d934dc0	0.07192564
103	0xbd5686e2	-0.052374728
104	0x3d5ff2e1	0.054674987
105	0x3d9502c2	0.07275917
106	0xbcde87bc	-0.027164333
107	0x3e2485e3	0.16066699
108	0x3d57a18a	0.05264429
109	0x3d86887d	0.06569002
110	0x3c559a8a	0.013037333
111	0x3dbb90dc	0.09158489
112	0x3d49b4b5	0.0492446
113	0x3d5933b8	0.05302784
114	0x3d07d1c7	0.033159044
115	0x3c0234e1	0.007947178
116	0xbd7c53db	-0.06160341
117	0x3caab8b5	0.020840028
118	0x3dfe25c2	0.124095455
119	0x3d99331a	0.0748045
120	0x3d6f05c8	0.058355123
121	0x3b8cafcc	0.0042934176
122	0xbd274868	-0.040840536
123	0x3c198bec	0.009371739
124	0x3cbdf6eb	0.023189029
125	0x3d109f9a	0.035308458
126	0x3d7e7ed5	0.062132675
127	0x3da0e9fd	0.0785713
128	0xbd19efc9	-0.037582193
129	0xbcba7331	-0.022760006
130	0x3d7e7654	0.062124565
131	0xbc19f66e	-0.009397132
132	0x3d877334	0.0661377
133	0xbd9c9b8e	-0.07646857
134	0x3dda0fe6	0.10647564
135	0x3d9da214	0.076969296
136	0x3d2be8f1	0.041970197
137	0x3e0a8e95	0.13530953
138	0xbd466176	-0.04843279
139	0xbe0250e6	-0.12726173
140	0xbbfe67e4	-0.0077638496
141	0x3daaf444	0.08347371
142	0xbd21e976	-0.039529286
143	0x3c28b99d	0.01029816
144	0x3d48c2e5	0.04901399
145	0xbdc5b908	-0.096544325
146	0x3cda683c	0.026661031
147	0xbd3e0bf0	-0.046398103
148	0xbdc5ecf6	-0.09664337
149	0xbe1d4057	-0.15356575
150	0x3d929559	0.07157392
151	0x3df7f7aa	0.12107785
152	0x3dc15bbb	0.09441324
153	0x3d8759c5	0.06608919
154	0x3e23bf94	0.1599105
155	0x3c3a5097	0.011371753
156	0x3c4e7c60	0.0126028955
157	0xbdb9954a	-0.09061678
158	0x3b96974b	0.0045956722
159	0xbd51e714	-0.051245764
160	0xbd128b24	-0.035777226
161	0x3e2dafba	0.16961566
162	0x3e095814	0.13412505
163	0xbc2166cc	-0.009851169
164	0xbbd93568	-0.006628681
165	0xbd92f3a0	-0.07175374
166	0xbd3326d8	-0.043738216
167	0x3d77200e	0.060333304
168	0x3dbf6fb3	0.09347477
169	0xbda9899a	-0.082781985
170	0xbc7489c0	-0.01492542
171	0xbcc46b65	-0.023976991
172	0xbc88e76b	-0.016711911
173	0xbca4bb58	-0.020108864
174	0x3e22f82b	0.15914981
175	0xbddadc7a	-0.10686584
176	0x3d9fc5c0	0.0780139
177	0xbd0453c7	-0.03230646
178	0xbd771f95	-0.060332853
179	0x3c96cb59	0.01840751
180	0x3db95956	0.090502426
181	0x3c938525	0.018007824
182	0x3e103daf	0.1408603
183	0x3e2adb8c	0.16685313
184	0xbc99acb4	-0.01875911
185	0xbdac90a3	-0.08426025
186	0xbda065a2	-0.07831885
187	0x3d23b32b	0.03996579
188	0x3c92442b	0.01785477
189	0x3caee8ac	0.021351181
190	0x3ccdd796	0.025127213
191	0xbc44552b	-0.011983196
192	0xbc1a46ca	-0.0094162915
193	0x3d2e5e4d	0.0425704
194	0xbd0437b4	-0.032279685
195	0xbdd7aef6	-0.10531418
196	0xbd16f6ce	-0.036856465
197	0x3d63854f	0.055547055
198	0xbdb312f3	-0.08743849
199	0xbd37a720	-0.044837117
200	0x3e091fac	0.13390988
201	0x3d26c4c3	0.04071499
202	0x3e097d9d	0.13426824
203	0x3dc02bdb	0.09383365
204	0xbd1ad0eb	-0.037796896
205	0x3da97238	0.082737386
206	0x3dd9b081	0.106293686
207	0x3d9c3247	0.07626777
208	0xbd521a10	-0.051294386
209	0xbd8085e8	-0.062755406
210	0x3bcdaa6a	0.0062764185
211	0x3de81acf	0.11333238
212	0xbce62155	-0.028092066
213	0xbdeac357	-0.11463039
214	0x3cf5e5f0	0.03001687
215	0xbd9ef367	-0.07761269
216	0xbb8de965	-0.0043308013
217	0xbd45bbec	-0.04827492
218	0x3daa16db	0.083051406
219	0xbd6b5c5b	-0.057461124
220	0x3d6b1a35	0.05739804
221	0xbb656d2f	-0.0035007705
222	0x3c654876	0.013994327
223	0xbd7d3233	-0.06181545
224	0x3bbcecf2	0.005765551
225	0x3de41b62	0.11138035
226	0x3dc91ff1	0.098205455
227	0x3dc27397	0.09494703
228	0x3d6bca96	0.057566248
229	0xbd9177b5	-0.071029104
230	0x3dd5dbff	0.104423515
231	0xbdfc023b	-0.12305113
232	0xbe093eb6	-0.13402829
233	0xbdc54b01	-0.096334465
234	0xbdaad6ec	-0.08341774
235	0xbd908440	-0.07056475
236	0xbd19be2d	-0.03753488
237	0x3ce62209	0.028092401
238	0x3dc4a75e	0.09602235
239	0x3d515fbd	0.051116694
240	0xbc8f6447	-0.01750387
241	0x3da8446c	0.082161754
242	0x3d2f6844	0.042824045
243	0xbc93df4b	-0.01805081
244	0xbdc5f579	-0.09665961
245	0xbd4cab0f	-0.04996782
246	0x3d7ddbfc	0.06197737
247	0xbcfd16d5	-0.030894676
248	0xbd6aa823	-0.057289254
249	0x3c05be34	0.008163024
250	0x3e09dda0	0.1346345
251	0x3d7ad69b	0.06123982
252	0xbe06ed57	-0.13176475
253	0xbcfc1034	-0.030769445
254	0x3cbcec63	0.023061937
255	0x3d3dce4c	0.04633932

bias f4 [250]
0	0xbd152e6a	-0.036421217
1	0xbcfbd9ab	-0.03074344
2	0x3d4383f1	0.04773325
3	0xbd50fc8b	-0.051022094
4	0xbd8f31d7	-0.06991928
5	0xbd5b91c3	-0.053605806
6	0x3d61f500	0.05516529
7	0xbdbb2a92	-0.09138979
8	0x3da683f4	0.08130637
9	0xbd0c135f	-0.03419816
10	0xbd83a043	-0.06427052
11	0xbd6adc5f	-0.05733907
12	0xbda9f513	-0.08298697
13	0x3d1460c0	0.03622508
14	0xbb9940f6	-0.0046769334
15	0x3da61a62	0.08110501
16	0x3d2c6a19	0.04209337
17	0xbdb2d9fb	-0.08732983
18	0x3d31f5c1	0.04344726
19	0x3cc03e31	0.023467155
20	0x3e212155	0.15735371
21	0xbc50ba81	-0.0127397785
22	0x3d8420c2	0.064515606
23	0xbd03684a	-0.03208188
24	0xbd215236	-0.039385043
25	0x3c13e106	0.009025818
26	0xbda4d688	-0.08048731
27	0x3d43bffe	0.04779052
28	0x3d6c8d04	0.05775167
29	0xbde92f98	-0.11386031
30	0xbd548484	-0.05188419
31	0xbd3184ef	-0.043339666
32	0x3c1b14a1	0.0094653675
33	0xbdbbd469	-0.091713734
34	0xbdd8034b	-0.10547503
35	0x3c93378e	0.017970826
36	0xbaf792b1	-0.0018888322
37	0xbd98a77b	-0.07453819
38	0xbd8d4e33	-0.06899681
39	0xbdf500b3	-0.11963024
40	0x3abba577	0.001431628
41	0xbc4ef0c7	-0.012630648
42	0xbd047c83	-0.032345306
43	0x3d87a250	0.066227555
44	0x3df21a20	0.11821389
45	0x3d5e44af	0.05426472
46	0xbc60a466	-0.013711071
47	0x3c3fa7c0	0.01169771
48	0xbdd2aadf	-0.10286497
49	0xbd4c0ff5	-0.049819905
50	0x3c92e4d9	0.017931389
51	0xbe02f97c	-0.12790483
52	0x3d7b8321	0.06140435
53	0x3d5b0c5a	0.053478576
54	0xbcaccf37	-0.021094901
55	0x3d553f05	0.052062053
56	0x3d0d2ddc	0.034467563
57	0xbdb2ca19	-0.08729953
58	0xbdcd081f	-0.100113146
59	0xbd4ca812	-0.04996497
60	0x3c5ec32b	0.013596336
61	0xbb768e3f	-0.0037621406
62	0xbdd627e9	-0.10456831
63	0xbdba4e1c	-0.090969294
64	0xbdc4dfef	-0.096130244
65	0x3d38fdc1	0.045163874
66	0xbe00ad25	-0.1256605
67	0xbd34203a	-0.043976046
68	0x3cfc3c58	0.030790493
69	0xbe0aac6a	-0.13542333
70	0xbce6e60e	-0.02818587
71	0x3caba898	0.020954415
72	0xbc2816bf	-0.010259329
73	0xbda65c0e	-0.08123027
74	0x3d5e641b	0.054294687
75	0xbe17d98a	-0.14829078
76	0xbd58334f	-0.052783307
77	0xbd8ef630	-0.0698055
78	0xbdc6d51b	-0.097086154
79	0xbce33976	-0.02773736
80	0x3d710cbe	0.058850043
81	0xbb98c7a4	-0.004662471
82	0xbb18d566	-0.0023320555
83	0xbcab7ba2	-0.020932976
84	0x3e0c91e1	0.13727523
85	0xbd05a6d3	-0.0326298
86	0x3d1a7318	0.03770742
87	0xbdd43e11	-0.10363401
88	0xbda41ba3	-0.08013084
89	0xbdf66fe4	-0.1203306
90	0xbdf573f0	-0.11985004
91	0x3931b96f	0.00016949115
92	0x3d8d2a5c	0.06892845
93	0x3dc109d3	0.09425702
94	0xbbfdf332	-0.0077499384
95	0x3bef7a57	0.007308285
96	0xbd190733	-0.03736038
97	0xbbd58978	-0.0065166317
98	0xbdcb71b4	-0.099337965
99	0x3cebcce8	0.02878423
100	0xbd8067ec	-0.062698215
101	0xbdd60b1f	-0.1045134
102	0xbcc2f5c0	-0.023798823
103	0xbe072d0e	-0.13200781
104	0xbcaead69	-0.021322923
105	0x3cdbc9fc	0.026829712
106	0xbd2373dc	-0.039905414
107	0x3d8b500f	0.06802379
108	0xbc61b0df	-0.0137750795
109	0xbdbf121f	-0.09329628
110	0x3df4fa09	0.11961753
111	0x3d8b2057	0.06793278
112	0xbd00463d	-0.031316984
113	0x3d7c3545	0.06157424
114	0x3d80a884	0.06282142
115	0xbca014a8	-0.0195411
116	0xbe19b520	-0.150105
117	0xbc9c08f1	-0.019047232
118	0x3d02ffe6	0.031982325
119	0x3d690d6d	0.05689757
120	0xbdcb97da	-0.09941073
121	0x3bd6e287	0.006557766
122	0x3d881856	0.06645267
123	0xbca27566	-0.01983137
124	0xbb996c87	-0.004682127
125	0x3ba447a5	0.0050134235
126	0x3a2bb881	0.00065506255
127	0xbc6b9df3	-0.01438092
128	0xbc954328	-0.0182205
129	0xbdb96119	-0.09051723
130	0xbd508f45	-0.050917882
131	0x3b7310fa	0.0037088976
132	0xbdb605b8	-0.088878095
133	0x3d0c9633	0.03432293
134	0xbe237cba	-0.15965548
135	0xbc742713	-0.014901894
136	0xbcc623d3	-0.024187004
137	0xbd2c9d04	-0.04214193
138	0xbd0614c4	-0.032734647
139	0x3dcd2b5c	0.10018036
140	0xbd977cfd	-0.073968865
141	0x3d380657	0.04492792
142	0xbd9d4e55	-0.07680956
143	0xbde00cd2	-0.10939945
144	0xbd8337a7	-0.06407099
145	0x3cbf290d	0.023335004
146	0xbe4c5d1a	-0.1995739
147	0xbd7e9a15	-0.062158663
148	0xbdfedef3	-0.12444868
149	0xbdb6b095	-0.08920399
150	0x3d48fa2d	0.04906671
151	0x3d5f0447	0.05444744
152	0xbd2b0b31	-0.04175872
153	0x3d96fa98	0.07372016
154	0xbd25c349	-0.04046944
155	0xbdd6e982	-0.10493757
156	0xbd60b64f	-0.054861363
157	0xbcf6ae51	-0.030112417
158	0x3e3696ec	0.1783101
159	0xbd1ae12c	-0.037812397
160	0x3a723645	0.0009239654
161	0xbd167497	-0.036732282
162	0xbdaf1253	-0.08548417
163	0xbe1ab463	-0.15107875
164	0x3d844a2e	0.06459461
165	0xbdb0d3ed	-0.08634172
166	0x3d3d8a79	0.046274636
167	0xbd37239d	-0.044711698
168	0xbc5cde02	-0.013480665
169	0x3cd2b58d	0.025721336
170	0xbdcd2427	-0.10016661
171	0x3d712df5	0.05888172
172	0xbda82189	-0.08209521
173	0x3d348d70	0.044080198
174	0xbd6b0c56	-0.05738481
175	0x3da0f714	0.078596264
176	0xbd9cd7de	-0.07658361
177	0xbdcf0c45	-0.10109762
178	0xbd4bab50	-0.049723923
179	0x3cd3c16f	0.025849072
180	0x3d6c0c52	0.057628937
181	0xbdbb89b9	-0.09157128
182	0xbd1a3e69	-0.037657175
183	0xbd8a7a99	-0.06761665
184	0x3dc8ef17	0.09811228
185	0xbd94cdcd	-0.07265816
186	0x3bbbf0ad	0.005735478
187	0xbd9fa2d9	-0.077947326
188	0x3d6c5895	0.057701666
189	0xbd293ee9	-0.04131976
190	0x3d37df6c	0.044890806
191	0x3cf9a328	0.030473307
192	0x3da61dbe	0.081111416
193	0xbce8d857	-0.028423471
194	0xbdae0445	-0.08496908
195	0xbda342df	-0.07971739
196	0x3dc73e9e	0.0972874
197	0x3da8c96b	0.082415424
198	0xbda529a6	-0.080645844
199	0xbe08453d	-0.13307662
200	0xbdc44f39	-0.09585423
201	0x3c5996c0	0.0132805705
202	0xbd6132fa	-0.054980256
203	0x3ca5bf2f	0.020232765
204	0xbdacc41f	-0.08435845
205	0xbd99b950	-0.07506049
206	0x3c24d994	0.01006164
207	0xbc944cb0	-0.018102974
208	0xbda61d57	-0.08111065
209	0x3cf23391	0.029565604
210	0xbdf0bc39	-0.117546506
211	0x3dcdb6e5	0.1004465
212	0xbd9c2f9a	-0.07626267
213	0xbb9da274	-0.0048106257
214	0xbd107777	-0.03527018
215	0xbdfde9d8	-0.12398118
216	0x3dc546f9	0.096326776
217	0x3dac337a	0.08408256
218	0xbd3a5821	-0.045494203
219	0xbdc16ada	-0.094442084
220	0xbd8df8d5	-0.069322266
221	0x3d957b45	0.072989024
222	0xbddab39f	-0.10678791
223	0xbd8d62ea	-0.06903632
224	0xbe3d4fba	-0.18487445
225	0x3dcdd3a3	0.10050132
226	0xbc9cb780	-0.019130468
227	0xbdf68b5a	-0.12038298
228	0xbd5286dd	-0.051398147
229	0x3d05f7f0	0.032707155
230	0x3c28edbf	0.010310589
231	0xbbbe8737	-0.0058144587
232	0xbddef370	-0.10886276
233	0xbd8c19ec	-0.06840882
234	0xbdbcd623	-0.09220531
235	0xbd837764	-0.06419256
236	0x3cba89db	0.022770813
237	0xbd4cdf31	-0.05001754
238	0xbddb3de1	-0.10705162
239	0xbd6ac4ef	-0.057316717
240	0xbb985429	-0.0046487045
241	0xbd116c4e	-0.035503678
242	0xbd2dfa7c	-0.04247521
243	0xbe0e1547	-0.13875304
244	0xbdb6c10d	-0.0892354
245	0xbb30220e	-0.0026875767
246	0x3da7f1fc	0.08200452
247	0xbddc0f3c	-0.10745093
248	0x3db90a5a	0.090351775
249	0x3b7d083e	0.003860965

weight f4 [250]
0	0x3f800000	1.0
1	0x3f800000	1.0
2	0x3f800000	1.0
3	0x3f800000	1.0
4	0x3f800000	1.0
5	0x3f800000	1.0
6	0x3f800000	1.0
7	0x3f800000	1.0
8	0x3f800000	1.0
9	0x3f800000	1.0
10	0x3f800000	1.0
11	0x3f800000	1.0
12	0x3f800000	1.0
13	0x3f800000	1.0
14	0x3f800000	1.0
15	0x3f800000	1.0
16	0x3f800000	1.0
17	0x3f800000	1.0
18	0x3f800000	1.0
19	0x3f800000	1.0
20	0x3f800000	1.0
21	0x3f800000	1.0
22	0x3f800000	1.0
23	0x3f800000	1.0
24	0x3f800000	1.0
25	0x3f800000	1.0
26	0x3f800000	1.0
27	0x3f800000	1.0
28	0x3f800000	1.0
29	0x3f800000	1.0
30	0x3f800000	1.0
31	0x3f800000	1.0
32	0x3f800000	1.0
33	0x3f800000	1.0
34	0x3f800000	1.0
35	0x3f800000	1.0
36	0x3f800000	1.0
37	0x3f800000	1.0
38	0x3f800000	1.0
39	0x3f800000	1.0
40	0x3f800000	1.0
41	0x3f800000	1.0
42	0x3f800000	1.0
43	0x3f800000	1.0
44	0x3f800000	1.0
45	0x3f800000	1.0
46	0x3f800000	1.0
47	0x3f800000	1.0
48	0x3f800000	1.0
49	0x3f800000	1.0
50	0x3f800000	1.0
51	0x3f800000	1.0
52	0x3f800000	1.0
53	0x3f800000	1.0
54	0x3f800000	1.0
55	0x3f800000	1.0
56	0x3f800000	1.0
57	0x3f800000	1.0
58	0x3f800000	1.0
59	0x3f800000	1.0
60	0x3f800000	1.0
61	0x3f800000	1.0
62	0x3f800000	1.0
63	0x3f800000	1.0
64	0x3f800000	1.0
65	0x3f800000	1.0
66	0x3f800000	1.0
67	0x3f800000	1.0
68	0x3f800000	1.0
69	0x3f800000	1.0
70	0x3f800000	1.0
71	0x3f800000	1.0
72	0x3f800000	1.0
73	0x3f800000	1.0
74	0x3f800000	1.0
75	0x3f800000	1.0
76	0x3f800000	1.0
77	0x3f800000	1.0
78	0x3f800000	1.0
79	0x3f800000	1.0
80	0x3f800000	1.0
81	0x3f800000	1.0
82	0x3f800000	1.0
83	0x3f800000	1.0
84	0x3f800000	1.0
85	0x3f800000	1.0
86	0x3f800000	1.0
87	0x3f800000	1.0
88	0x3f800000	1.0
89	0x3f800000	1.0
90	0x3f800000	1.0
91	0x3f800000	1.0
92	0x3f800000	1.0
93	0x3f800000	1.0
94	0x3f800000	1.0
95	0x3f800000	1.0
96	0x3f800000	1.0
97	0x3f800000	1.0
98	0x3f800000	1.0
99	0x3f800000	1.0
100	0x3f800000	1.0
101	0x3f800000	1.0
102	0x3f800000	1.0
103	0x3f800000	1.0
104	0x3f800000	1.0
105	0x3f800000	1.0
106	0x3f800000	1.0
107	0x3f800000	1.0
108	0x3f800000	1.0
109	0x3f800000	1.0
110	0x3f800000	1.0
111	0x3f800000	1.0
112	0x3f800000	1.0
113	0x3f800000	1.0
114	0x3f800000	1.0
115	0x3f800000	1.0
116	0x3f800000	1.0
117	0x3f800000	1.0
118	0x3f800000	1.0
119	0x3f800000	1.0
120	0x3f800000	1.0
121	0x3f800000	1.0
122	0x3f800000	1.0
123	0x3f800000	1.0
124	0x3f800000	1.0
125	0x3f800000	1.0
126	0x3f800000	1.0
127	0x3f800000	1.0
128	0x3f800000	1.0
129	0x3f800000	1.0
130	0x3f800000	1.0
131	0x3f800000	1.0
132	0x3f800000	1.0
133	0x3f800000	1.0
134	0x3f800000	1.0
135	0x3f800000	1.0
136	0x3f800000	1.0
137	0x3f800000	1.0
138	0x3f800000	1.0
139	0x3f800000	1.0
140	0x3f800000	1.0
141	0x3f800000	1.0
142	0x3f800000	1.0
143	0x3f800000	1.0
144	0x3f800000	1.0
145	0x3f800000	1.0
146	0x3f800000	1.0
147	0x3f800000	1.0
148	0x3f800000	1.0
149	0x3f800000	1.0
150	0x3f800000	1.0
151	0x3f800000	1.0
152	0x3f800000	1.0
153	0x3f800000	1.0
154	0x3f800000	1.0
155	0x3f800000	1.0
156	0x3f800000	1.0
157	0x3f800000	1.0
158	0x3f800000	1.0
159	0x3f800000	1.0
160	0x3f800000	1.0
161	0x3f800000	1.0
162	0x3f800000	1.0
163	0x3f800000	1.0
164	0x3f800000	1.0
165	0x3f800000	1.0
166	0x3f800000	1.0
167	0x3f800000	1.0
168	0x3f800000	1.0
169	0x3f800000	1.0
170	0x3f800000	1.0
171	0x3f800000	1.0
172	0x3f800000	1.0
173	0x3f800000	1.0
174	0x3f800000	1.0
175	0x3f800000	1.0
176	0x3f800000	1.0
177	0x3f800000	1.0
178	0x3f800000	1.0
179	0x3f800000	1.0
180	0x3f800000	1.0
181	0x3f800000	1.0
182	0x3f800000	1.0
183	0x3f800000	1.0
184	0x3f800000	1.0
185	0x3f800000	1.0
186	0x3f800000	1.0
187	0x3f800000	1.0
188	0x3f800000	1.0
189	0x3f800000	1.0
190	0x3f800000	1.0
191	0x3f800000	1.0
192	0x3f800000	1.0
193	0x3f800000	1.0
194	0x3f800000	1.0
195	0x3f800000	1.0
196	0x3f800000	1.0
197	0x3f800000	1.0
198	0x3f800000	1.0
199	0x3f800000	1.0
200	0x3f800000	1.0
201	0x3f800000	1.0
202	0x3f800000	1.0
203	0x3f800000	1.0
204	0x3f800000	1.0
205	0x3f800000	1.0
206	0x3f800000	1.0
207	0x3f800000	1.0
208	0x3f800000	1.0
209	0x3f800000	1.0
210	0x3f800000	1.0
211	0x3f800000	1.0
212	0x3f800000	1.0
213	0x3f800000	1.0
214	0x3f800000	1.0
215	0x3f800000	1.0
216	0x3f800000	1.0
217	0x3f800000	1.0
218	0x3f800000	1.0
219	0x3f800000	1.0
220	0x3f800000	1.0
221	0x3f800000	1.0
222	0x3f800000	1.0
223	0x3f800000	1.0
224	0x3f800000	1.0
225	0x3f800000	1.0
226	0x3f800000	1.0
227	0x3f800000	1.0
228	0x3f800000	1.0
229	0x3f800000	1.0
230	0x3f800000	1.0
231	0x3f800000	1.0
232	0x3f800000	1.0
233	0x3f800000	1.0
234	0x3f800000	1.0
235	0x3f800000	1.0
236	0x3f800000	1.0
237	0x3f800000	1.0
238	0x3f800000	1.0
239	0x3f800000	1.0
240	0x3f800000	1.0
241	0x3f800000	1.0
242	0x3f800000	1.0
243	0x3f800000	1.0
244	0x3f800000	1.0
245	0x3f800000	1.0
246	0x3f800000	1.0
247	0x3f800000	1.0
248	0x3f800000	1.0
249	0x3f800000	1.0

bias f4 [250]
0	0x00000000	0.0
1	0x00000000	0.0
2	0x00000000	0.0
3	0x00000000	0.0
4	0x00000000	0.0
5	0x00000000	0.0
6	0x00000000	0.0
7	0x00000000	0.0
8	0x00000000	0.0
9	0x00000000	0.0
10	0x00000000	0.0
11	0x00000000	0.0
12	0x00000000	0.0
13	0x00000000	0.0
14	0x00000000	0.0
15	0x00000000	0.0
16	0x00000000	0.0
17	0x00000000	0.0
18	0x00000000	0.0
19	0x00000000	0.0
20	0x00000000	0.0
21	0x00000000	0.0
22	0x00000000	0.0
23	0x00000000	0.0
24	0x00000000	0.0
25	0x00000000	0.0
26	0x00000000	0.0
27	0x00000000	0.0
28	0x00000000	0.0
29	0x00000000	0.0
30	0x00000000	0.0
31	0x00000000	0.0
32	0x00000000	0.0
33	0x00000000	0.0
34	0x00000000	0.0
35	0x00000000	0.0
36	0x00000000	0.0
37	0x00000000	0.0
38	0x00000000	0.0
39	0x00000000	0.0
40	0x00000000	0.0
41	0x00000000	0.0
42	0x00000000	0.0
43	0x00000000	0.0
44	0x00000000	0.0
45	0x00000000	0.0
46	0x00000000	0.0
47	0x00000000	0.0
48	0x00000000	0.0
49	0x00000000	0.0
50	0x00000000	0.0
51	0x00000000	0.0
52	0x00000000	0.0
53	0x00000000	0.0
54	0x00000000	0.0
55	0x00000000	0.0
56	0x00000000	0.0
57	0x00000000	0.0
58	0x00000000	0.0
59	0x00000000	0.0
60	0x00000000	0.0
61	0x00000000	0.0
62	0x00000000	0.0
63	0x00000000	0.0
64	0x00000000	0.0
65	0x00000000	0.0
66	0x00000000	0.0
67	0x00000000	0.0
68	0x00000000	0.0
69	0x00000000	0.0
70	0x00000000	0.0
71	0x00000000	0.0
72	0x00000000	0.0
73	0x00000000	0.0
74	0x00000000	0.0
75	0x00000000	0.0
76	0x00000000	0.0
77	0x00000000	0.0
78	0x00000000	0.0
79	0x00000000	0.0
80	0x00000000	0.0
81	0x00000000	0.0
82	0x00000000	0.0
83	0x00000000	0.0
84	0x00000000	0.0
85	0x00000000	0.0
86	0x00000000	0.0
87	0x00000000	0.0
88	0x00000000	0.0
89	0x00000000	0.0
90	0x00000000	0.0
91	0x00000000	0.0
92	0x00000000	0.0
93	0x00000000	0.0
94	0x00000000	0.0
95	0x00000000	0.0
96	0x00000000	0.0
97	0x00000000	0.0
98	0x00000000	0.0
99	0x00000000	0.0
100	0x00000000	0.0
101	0x00000000	0.0
102	0x00000000	0.0
103	0x00000000	0.0
104	0x00000000	0.0
105	0x00000000	0.0
106	0x00000000	0.0
107	0x00000000	0.0
108	0x00000000	0.0
109	0x00000000	0.0
110	0x00000000	0.0
111	0x00000000	0.0
112	0x00000000	0.0
113	0x00000000	0.0
114	0x00000000	0.0
115	0x00000000	0.0
116	0x00000000	0.0
117	0x00000000	0.0
118	0x00000000	0.0
119	0x00000000	0.0
120	0x00000000	0.0
121	0x00000000	0.0
122	0x00000000	0.0
123	0x00000000	0.0
124	0x00000000	0.0
125	0x00000000	0.0
126	0x00000000	0.0
127	0x00000000	0.0
128	0x00000000	0.0
129	0x00000000	0.0
130	0x00000000	0.0
131	0x00000000	0.0
132	0x00000000	0.0
133	0x00000000	0.0
134	0x00000000	0.0
135	0x00000000	0.0
136	0x00000000	0.0
137	0x00000000	0.0
138	0x00000000	0.0
139	0x00000000	0.0
140	0x00000000	0.0
141	0x00000000	0.0
142	0x00000000	0.0
143	0x00000000	0.0
144	0x00000000	0.0
145	0x00000000	0.0
146	0x00000000	0.0
147	0x00000000	0.0
148	0x00000000	0.0
149	0x00000000	0.0
150	0x00000000	0.0
151	0x00000000	0.0
152	0x00000000	0.0
153	0x00000000	0.0
154	0x00000000	0.0
155	0x00000000	0.0
156	0x00000000	0.0
157	0x00000000	0.0
158	0x00000000	0.0
159	0x00000000	0.0
160	0x00000000	0.0
161	0x00000000	0.0
162	0x00000000	0.0
163	0x00000000	0.0
164	0x00000000	0.0
165	0x00000000	0.0
166	0x00000000	0.0
167	0x00000000	0.0
168	0x00000000	0.0
169	0x00000000	0.0
170	0x00000000	0.0
171	0x00000000	0.0
172	0x00000000	0.0
173	0x00000000	0.0
174	0x00000000	0.0
175	0x00000000	0.0
176	0x00000000	0.0
177	0x00000000	0.0
178	0x00000000	0.0
179	0x00000000	0.0
180	0x00000000	0.0
181	0x00000000	0.0
182	0x00000000	0.0
183	0x00000000	0.0
184	0x00000000	0.0
185	0x00000000	0.0
186	0x00000000	0.0
187	0x00000000	0.0
188	0x00000000	0.0
189	0x00000000	0.0
190	0x00000000	0.0
191	0x00000000	0.0
192	0x00000000	0.0
193	0x00000000	0.0
194	0x00000000	0.0
195	0x00000000	0.0
196	0x00000000	0.0
197	0x00000000	0.0
198	0x00000000	0.0
199	0x00000000	0.0
200	0x00000000	0.0
201	0x00000000	0.0
202	0x00000000	0.0
203	0x00000000	0.0
204	0x00000000	0.0
205	0x00000000	0.0
206	0x00000000	0.0
207	0x00000000	0.0
208	0x00000000	0.0
209	0x00000000	0.0
210	0x00000000	0.0
211	0x00000000	0.0
212	0x00000000	0.0
213	0x00000000	0.0
214	0x00000000	0.0
215	0x00000000	0.0
216	0x00000000	0.0
217	0x00000000	0.0
218	0x00000000	0.0
219	0x00000000	0.0
220	0x00000000	0.0
221	0x00000000	0.0
222	0x00000000	0.0
223	0x00000000	0.0
224	0x00000000	0.0
225	0x00000000	0.0
226	0x00000000	0.0
227	0x00000000	0.0
228	0x00000000	0.0
229	0x00000000	0.0
230	0x00000000	0.0
231	0x00000000	0.0
232	0x00000000	0.0
233	0x00000000	0.0
234	0x00000000	0.0
235	0x00000000	0.0
236	0x00000000	0.0
237	0x00000000	0.0
238	0x00000000	0.0
239	0x00000000	0.0
240	0x00000000	0.0
241	0x00000000	0.0
242	0x00000000	0.0
243	0x00000000	0.0
244	0x00000000	0.0
245	0x00000000	0.0
246	0x00000000	0.0
247	0x00000000	0.0
248	0x00000000	0.0
249	0x00000000	0.0

weight f4 [250, 250]
0	0xbd15c817	-0.036567774
1	0xbd6e3ff2	-0.05816645
2	0xbc07f079	-0.008297079
3	0xbca809c7	-0.020512475
4	0xbcdf07ac	-0.027225338
5	0x3c76f4cf	0.015073015
6	0x3d8693c0	0.0657115
7	0xbdae67c2	-0.08515884
8	0x3d036a08	0.03208354
9	0x3ceb173f	0.028697608
10	0x3d4a8879	0.049446557
11	0xbd2cca0b	-0.04218487
12	0x3c51c2a1	0.012802751
13	0xbcabcab3	-0.020970678
14	0xbd749d43	-0.05972029
15	0xbd06f596	-0.032949053
16	0xbbf88352	-0.007584014
17	0xbda2b339	-0.0794434
18	0x3d6c6ef0	0.057722986
19	0x3c7e71f1	0.015530095
20	0xbcc48a40	-0.023991704
21	0xbd0e9088	-0.034805804
22	0xbdce8ab2	-0.10085048
23	0xbd6437d8	-0.05571732
24	0xbb7b2c2d	-0.0038325891
25	0x3d4cc0df	0.049988624
26	0x3d27d84e	0.04097777
27	0x3d0bfb56	0.03417524
28	0xbd87a6a6	-0.066235825
29	0xbd336d9e	-0.04380571
30	0xbd019d08	-0.031643897
31	0x3d1ce9a9	0.038308773
32	0x3b974ddf	0.0046174373
33	0xbc862c30	-0.016378492
34	0xbafd7cc1	-0.0019339548
35	0x3a3d242f	0.00072151696
36	0xbc2bef67	-0.01049409
37	0x3c5df620	0.01354745
38	0x3cb53bac	0.02212318
39	0x3d554e44	0.052076593
40	0xbd2ac1a5	-0.04168858
41	0x3c263ec3	0.0101467995
42	0x3cb65179	0.022255646
43	0xbc976c66	-0.018484306
44	0xbd67eae1	-0.056620482
45	0xbdaab304	-0.08334926
46	0x3d9b41e2	0.075809255
47	0x38db49d6	0.00010456487
48	0xbd0efd3f	-0.034909483
49	0x3cd2c9b6	0.025730949
50	0xbc8ecd43	-0.01743186
51	0x3db6146a	0.088906124
52	0xbcfa0114	-0.030518092
53	0xbc717211	-0.014736668
54	0xbd270058	-0.040771812
55	0x3c61ad94	0.013774294
56	0xbda8fa48	-0.08250862
57	0xbd2e4b28	-0.042552143
58	0xbd8698ba	-0.06572099
59	0xbd16b459	-0.036793087
60	0xbbe11368	-0.0068687685
61	0x3c1dfab9	0.0096422965
62	0x3d65093c	0.05591701
63	0xbbab89f6	-0.005234952
64	0x3ce7c823	0.028293675
65	0xbd3cdfe8	-0.04611197
66	0x3cd56bb3	0.026052332
67	0x3d93449e	0.07190822
68	0x3cf50c42	0.029913072
69	0xbc60e8b7	-0.013727359
70	0x3d3ba127	0.045807984
71	0x3d1d1a09	0.038354907
72	0xbd060075	-0.03271528
73	0x3ca04219	0.019562768
74	0xbd935ff5	-0.07196037
75	0x3d335f5f	0.043792125
76	0xbb929d46	-0.004474315
77	0x3d9758a6	0.07389955
78	0xbcc2f6b3	-0.023799276
79	0x3d7291a2	0.059220918
80	0x3d889402	0.06668855
81	0xbc8b9fbb	-0.017043939
82	0x3ca9c45b	0.020723512
83	0xbdd2d5c9	-0.102946825
84	0xbde58b8a	-0.112082556
85	0x3d266f82	0.040633686
86	0xbd4f768f	-0.050650176
87	0x3bca0178	0.006164726
88	0xbcf9299f	-0.030415354
89	0x3bd93197	0.006628226
90	0xbd2139c7	-0.03936174
91	0x3d73cb7a	0.059520222
92	0x3b9c21c0	0.0047647655
93	0xba8980eb	-0.0010490691
94	0x3da2a192	0.07940973
95	0xbd9de4d4	-0.07709661
96	0xbc4a5da9	-0.012351432
97	0xbc2f34fe	-0.010693787
98	0xbd6e544c	-0.05818586
99	0xbc75e119	-0.015007281
100	0xbced3b3d	-0.028958911
101	0x3ba90df1	0.0051591326
102	0xbd55b27d	-0.052172173
103	0xbd4f3a5b	-0.05059276
104	0xbd3be0f7	-0.04586884
105	0xbd89e44c	-0.06732997
106	0x3d3b8571	0.045781557
107	0xbb9cc9c6	-0.0047847955
108	0xbb796bf5	-0.0038058732
109	0xbd18930c	-0.03724961
110	0xbd9cecc6	-0.076623484
111	0xbd751629	-0.059835587
112	0x3d4a45f3	0.049383115
113	0xbce65c5f	-0.028120218
114	0xbcff37f7	-0.031154616
115	0x3bcbdd37	0.006221439
116	0xbccdcdd5	-0.025122562
117	0x3b545e36	0.0032404787
118	0xbc103d6e	-0.0088037085
119	0xbd53bde8	-0.05169478
120	0x3d444f8d	0.047927428
121	0xbd1ee599	-0.03879318
122	0xbd087f72	-0.033324666
123	0x3ab562ba	0.0013838627
124	0xbd4c9205	-0.049943943
125	0xbd49e9fd	-0.049295414
126	0xbce16993	-0.027516162
127	0xbcae4357	-0.021272345
128	0x3bf8e274	0.0075953547
129	0x3d3492df	0.04408538
130	0xbd8cd1a5	-0.06875924
131	0xbaf73f23	-0.0018863421
132	0x3d6e921c	0.05824481
133	0xbdafa32a	-0.08576043
134	0x3c95dd0f	0.018293886
135	0x3c0906cf	0.00836344
136	0x3cc6d78f	0.024272708
137	0xbd9f72df	-0.07785582
138	0xbd989f53	-0.07452264
139	0xbd5477ab	-0.051871937
140	0xbbf2d1d5	-0.007410268
141	0xbd20df6e	-0.03927558
142	0xbd062f7b	-0.032760125
143	0xbc4bef36	-0.012447169
144	0xbdb9ee34	-0.09078637
145	0xbd2404e3	-0.040043723
146	0x3c9e14ec	0.019297086
147	0x3b97ce74	0.0046327654
148	0x3d2425af	0.040075
149	0x3cc79062	0.02436084
150	0xbd82daf0	-0.06389415
151	0xbcdfab00	-0.027303219
152	0xbd21c2bd	-0.039492358
153	0xbb5c6314	-0.003362839
154	0xbd5e1c8c	-0.054226443
155	0x3cb013aa	0.021493752
156	0xbcd443cf	-0.02591124
157	0x3d47f100	0.04881382
158	0x3ce8aad4	0.02840177
159	0x3d4a0292	0.049318857
160	0x3d0768a5	0.03305878
161	0xbd95358f	-0.07285606
162	0x3d49e32a	0.049288906
163	0xbcc7ed33	-0.024405098
164	0xbd50247d	-0.050816048
165	0x3d98ba44	0.07457402
166	0x3d6d339e	0.057910554
167	0xbd21b1d8	-0.039476246
168	0xba245190	-0.0006268257
169	0xbd626edd	-0.05528151
170	0xbc903cb9	-0.01760708
171	0x3cb974ed	0.022638762
172	0xbd6c1ad5	-0.057642777
173	0xbc48cdc3	-0.012256089
174	0x3c77cf6a	0.015125135
175	0xbda40506	-0.08008771
176	0xbd268094	-0.040649965
177	0xbceff09d	-0.029289538
178	0xbba2e99a	-0.004971695
179	0xbd64c198	-0.055848688
180	0xbd0aebc0	-0.033916235
181	0xbd9fb62c	-0.077984184
182	0xbd040c57	-0.03223833
183	0xbd9e5f38	-0.07733005
184	0x3d758eab	0.059950512
185	0x3cffbfee	0.031219449
186	0xbd864867	-0.065567784
187	0xbb161c2d	-0.0022904978
188	0xbd775245	-0.060381193
189	0x3d4caedc	0.049971446
190	0xbdcd8861	-0.10035778
191	0xbd6ffa78	-0.058588475
192	0xbd044435	-0.03229161
193	0x3c85fde6	0.01635642
194	0x3d8d1a0b	0.06889733
195	0xbcbb23e8	-0.02284427
196	0xbd57094a	-0.052499093
197	0x3be53ac4	0.006995531
198	0xbd4c3e56	-0.049864136
199	0x3d5be01c	0.053680524
200	0x3d35daf4	0.044398263
201	0xbd839429	-0.06424744
202	0xbdb109b7	-0.08644431
203	0x3d9d44e0	0.076791525
204	0xbd2b7f24	-0.041869298
205	0xbdcba3a4	-0.09943321
206	0xbd3e1c66	-0.0464138
207	0xbd7c1427	-0.061542656
208	0xbd27ccb3	-0.0409667
209	0xbcae1b15	-0.021253148
210	0xbd3475e2	-0.044057734
211	0x3d723563	0.059132945
212	0xbd41bf40	-0.04730153
213	0xbd505034	-0.050857738
214	0x3c301d0b	0.010749112
215	0xbc368539	-0.011140161
216	0x3be1d157	0.0068914103
217	0x3cb18fed	0.021675074
218	0xbd4764f1	-0.04868025
219	0xbd682fa5	-0.056686062
220	0x3c2037c8	0.009778924
221	0xbca8e842	-0.020618562
222	0xbbc79be4	-0.0060915817
223	0x3d6c4752	0.057685204
224	0xbcaf740b	-0.021417638
225	0x3c60edc6	0.013728565
226	0x3d72d2e5	0.059283156
227	0x3d6d3375	0.0579104
228	0x3c68ac13	0.014201182
229	0xbd645b95	-0.055751402
230	0x3ceaf404	0.028680809
231	0xbc8b79be	-0.017025825
232	0x3b2b79f2	0.0026165214
233	0xbd52fc6c	-0.05151026
234	0xbd236f1a	-0.039900877
235	0xbd375e2b	-0.04476754
236	0xbd6714bd	-0.056416262
237	0x3bb7248f	0.005589075
238	0x3b684b38	0.0035445224
239	0xbc7aa171	-0.01529728
240	0xbac2823a	-0.0014839836
241	0xbce86f81	-0.028373482
242	0x3c41e2cd	0.011833859
243	0xb8ce74ae	-9.844579e-05
244	0x3a8922e3	0.0010462668
245	0xbc696c47	-0.014247007
246	0x3d27e0fe	0.040986054
247	0x3d664a9b	0.056223493
248	0xbc36038f	-0.011109247
249	0xbd477d52	-0.0487035
250	0xbc4c64f6	-0.012475243
251	0xbc704b0b	-0.014666329
252	0xbd90ee51	-0.07076705
253	0x3c31c58b	0.010850321
254	0xbbab91d4	-0.00523589
255	0xbb61ca97	-0.0034453028

bias f4 [250]
0	0x3c6def26	0.014522349
1	0x3e37cd14	0.17949325
2	0xbdd61ccb	-0.104547106
3	0x3be1716c	0.006879976
4	0xbbfe431e	-0.007759466
5	0xbd902be1	-0.07039619
6	0xbda3717f	-0.07980632
7	0x3e41d6e3	0.18929629
8	0x3d847d6c	0.06469235
9	0xbd299c68	-0.041408926
10	0xbba21831	-0.0049467315
11	0x3d9686a3	0.07349899
12	0x3d1e4d7a	0.038648106
13	0xbd087109	-0.033310924
14	0xbd0562be	-0.03256487
15	0x3e2a6121	0.16638614
16	0x3a818630	0.000988191
17	0xbcaa4188	-0.0207832
18	0x3ce00183	0.02734447
19	0xbd0a54ea	-0.033772387
20	0x3d56d953	0.05245335
21	0xbd16d304	-0.036822334
22	0xbdacb1e9	-0.08432371
23	0xbd294b00	-0.04133129
24	0xbb977f2c	-0.0046233144
25	0xbdb39782	-0.08769132
26	0x3d80d604	0.0629082
27	0xbc86b251	-0.01644245
28	0xbb98d4f0	-0.004664056
29	0xbd96e6ac	-0.07368216
30	0xbd4f6d38	-0.05064127
31	0xbca66085	-0.020309696
32	0xbd43fb3b	-0.047847014
33	0xbc75a5bd	-0.014993128
34	0xbd23ea9b	-0.04001866
35	0xbcbbc2c7	-0.022920026
36	0x3d7ee5e7	0.06223097
37	0x3c9e0a75	0.019292096
38	0xbd728c77	-0.05921599
39	0x3be81ff3	0.007083887
40	0xbd858bf9	-0.06520838
41	0x3d7013ba	0.058612563
42	0xbd9e574e	-0.07731496
43	0xba05a398	-0.0005097925
44	0xbd59b33b	-0.053149443
45	0x3e032e7c	0.12810701
46	0xbd3d3c67	-0.046200182
47	0x3ddc641d	0.107612826
48	0xbd5ef184	-0.054429546
49	0xbcb348bf	-0.021885274
50	0xbcd451c2	-0.025917891
51	0x3e24877a	0.16067305
52	0xbd002d0c	-0.03129296
53	0x3c3ab203	0.01139498
54	0xbd054352	-0.032534905
55	0xbca502a2	-0.020142857
56	0xbd75951d	-0.05995666
57	0xbc9591f7	-0.018258078
58	0x3cf36e4b	0.029715678
59	0xbd52f891	-0.051506583
60	0xbd27a9f4	-0.040933564
61	0x3cb61a89	0.02222945
62	0x3e5919c8	0.21201241
63	0x3ce8d9d6	0.028424185
64	0x3d8db110	0.069185376
65	0x3c21bd79	0.009871834
66	0x3cf5e13c	0.030014627
67	0xbd428536	-0.04749032
68	0xbd06f769	-0.032950792
69	0xbc93e1b2	-0.018051956
70	0xbdb4b5a1	-0.088237055
71	0x3dfb4781	0.12269498
72	0xbcdffb27	-0.027341438
73	0x3e6d583d	0.23178191
74	0xbcc00b1e	-0.023442801
75	0x3ccf27aa	0.025287468
76	0xbd254d14	-0.04035671
77	0x3cf1c654	0.029513516
78	0xbd842df4	-0.06454077
79	0xbddbd75c	-0.10734436
80	0x3daefc6e	0.08544241
81	0x3d175b2f	0.036952194
82	0x3dc4e58c	0.09614095
83	0xbd35e7dd	-0.044410575
84	0x3d02ba4c	0.031915948
85	0x3bbd6372	0.005779677
86	0x3c26fd69	0.010192254
87	0xbad1aded	-0.0015997268
88	0x3d5cff97	0.053954687
89	0xbd2814c3	-0.041035425
90	0x3e2a3509	0.16621794
91	0x3de1e34f	0.11029684
92	0x3dd2f853	0.1030127
93	0xbce59fa5	-0.028030226
94	0xbd8b7833	-0.068100356
95	0xbdbba58b	-0.09162434
96	0xbc990331	-0.01867828
97	0xbc113769	-0.0088633085
98	0x3d8b1982	0.067919746
99	0x3ddd57e2	0.10807778
100	0xbb3b59d4	-0.0028587477
101	0xbdb43258	-0.08798665
102	0x3cc0910b	0.023506662
103	0x3da2a8a1	0.0794232
104	0xbc843a18	-0.016140983
105	0xba570ca5	-0.00082034833
106	0xbc41548d	-0.011799944
107	0xbd87579d	-0.06608508
108	0x3d63b705	0.055594463
109	0xbc4a3d8a	-0.012343774
110	0x3ca02caf	0.019552557
111	0x3d8c1b48	0.06841141
112	0xbd920748	-0.07130295
113	0x3e092c9e	0.13395926
114	0xbd34831a	-0.04407034
115	0xbdbc75e9	-0.09202177
116	0xbd930564	-0.071787626
117	0x3c59d2a2	0.013294848
118	0x3c0bf576	0.008542409
119	0x3cec94ef	0.02887961
120	0xbcfad554	-0.0306193
121	0xbd627793	-0.055289816
122	0xbda03f36	-0.078245565
123	0x3d29b16a	0.04142896
124	0xbc45a8c2	-0.012064161
125	0xbd2d5a6c	-0.04232256
126	0xbd6e67bf	-0.05820441
127	0x3db1e0e2	0.08685471
128	0x3d23cb49	0.03998879
129	0x3ce91ed5	0.028457085
130	0xbd3683ed	-0.044559408
131	0xbc2f0076	-0.010681262
132	0x3d73b78b	0.059501212
133	0xbbc7b8dd	-0.0060950355
134	0x3ded5138	0.11587757
135	0xbdea6e67	-0.11446839
136	0xbc452483	-0.012032631
137	0x3c44b9d4	0.0120071955
138	0x3d9a4aa1	0.075337656
139	0xbcc7d0d8	-0.024391577
140	0x3d1a2f0a	0.037642516
141	0x3d3081aa	0.043092407
142	0xbd64519f	-0.055741902
143	0xbc4d76ad	-0.012540502
144	0x3e0eb152	0.1393483
145	0xbc8ed637	-0.01743613
146	0x3e17b70d	0.14815922
147	0x3cd5af08	0.026084438
148	0x3d5c19eb	0.053735655
149	0xbc4d98ea	-0.012548665
150	0xbd4f47ab	-0.050605457
151	0x3d92bfcd	0.07165489
152	0xbdb58098	-0.08862418
153	0xbd7104b1	-0.058842365
154	0x3dabc0b0	0.083863616
155	0xbd8f7d63	-0.070063375
156	0xbda99322	-0.082800165
157	0xbda97bd9	-0.08275575
158	0xbd77f18a	-0.060533084
159	0xbd632484	-0.055454746
160	0xba0254f5	-0.0004971766
161	0xbc9b6ca2	-0.018972699
162	0x3ce509a5	0.0279587
163	0xbd389b10	-0.045069754
164	0xbc3e970f	-0.011632695
165	0x3cb9453f	0.022616027
166	0x3da4f6f9	0.08054919
167	0x3ce57e6b	0.028014382
168	0x3c545cb7	0.012961558
169	0xbcb8bd5a	-0.022551227
170	0xbd91d7af	-0.071212165
171	0xbd833e29	-0.064083405
172	0x3bc4c009	0.0060043377
173	0xbb9a9cc7	-0.0047183963
174	0x3d043c6a	0.032284178
175	0xbc50572e	-0.012716098
176	0xbceecff9	-0.029151903
177	0xbc9c4396	-0.019075196
178	0xbd689aa3	-0.056788098
179	0x3db3216b	0.08746608
180	0xbce4e536	-0.027941328
181	0xbd2bf658	-0.04198298
182	0x3c28f7f0	0.010313019
183	0xbdab2452	-0.08356537
184	0xbd5bd61b	-0.053670984
185	0x3d5aa460	0.053379416
186	0x3df3a162	0.11896016
187	0xbcb99aad	-0.022656763
188	0xbd15d852	-0.036583252
189	0xbd9b4788	-0.07582003
190	0x3c90666e	0.017626967
191	0xbb06e481	-0.0020582976
192	0x3e1aaa7f	0.15104102
193	0xbd362221	-0.04446614
194	0x3d57ea9f	0.052713986
195	0x3dad116c	0.084505886
196	0x3c2e3a26	0.010633981
197	0x3d955ce2	0.072931066
198	0x3e525194	0.20538932
199	0x3c0c6de9	0.0085711265
200	0xbda7f521	-0.082010515
201	0x3cef1345	0.029183993
202	0x3d94380b	0.07237252
203	0xbb581b8b	-0.0032975401
204	0xbd030301	-0.031985287
205	0xbb957e37	-0.004562165
206	0x3d2e2b4d	0.042521764
207	0x3cfd9499	0.030954646
208	0xbd0e3953	-0.034722637
209	0xbc901c60	-0.017591655
210	0xbcf3724e	-0.02971759
211	0xbd35a238	-0.044344157
212	0xbcc3a602	-0.02388287
213	0x3c1e5438	0.009663634
214	0x3cc30055	0.02380387
215	0xbdd4ab6e	-0.1038426
216	0xbda4717f	-0.0802946
217	0xbd9d66c5	-0.07685617
218	0x3c7bfdd7	0.015380344
219	0xbd9b3d33	-0.07580032
220	0xbc908f1a	-0.017646361
221	0xbda220dd	-0.079164244
222	0x3de0363a	0.10947843
223	0x3da3b9d7	0.079944305
224	0xbd682c66	-0.056682967
225	0x3d3fad01	0.04679585
226	0xbda8b963	-0.08238485
227	0xbd5d830a	-0.054080047
228	0xbd14d570	-0.036336362
229	0xbdf40207	-0.11914449
230	0x3c49d587	0.012318975
231	0xbd2a8623	-0.04163183
232	0x3e0174f9	0.12642278
233	0x3dc554a4	0.096352845
234	0xbd82892d	-0.063738205
235	0x3dc9cfa7	0.0985406
236	0xbd951ae5	-0.0728052
237	0x3cf23f30	0.029571146
238	0xbd37f7a0	-0.044913888
239	0xbd8630d6	-0.065522835
240	0x3d132131	0.035920326
241	0xbc700ec9	-0.014651963
242	0xbd907cdd	-0.07055066
243	0xbda7e8ca	-0.08198698
244	0x3d85ff99	0.06542892
245	0xbda9c26b	-0.082890354
246	0xbd25028a	-0.040285625
247	0x3c845ed7	0.016158504
248	0xbadb502d	-0.0016732268
249	0x3d0e13aa	0.03468672

weight f4 [250]
0	0x3f800000	1.0
1	0x3f800000	1.0
2	0x3f800000	1.0
3	0x3f800000	1.0
4	0x3f800000	1.0
5	0x3f800000	1.0
6	0x3f800000	1.0
7	0x3f800000	1.0
8	0x3f800000	1.0
9	0x3f800000	1.0
10	0x3f800000	1.0
11	0x3f800000	1.0
12	0x3f800000	1.0
13	0x3f800000	1.0
14	0x3f800000	1.0
15	0x3f800000	1.0
16	0x3f800000	1.0
17	0x3f800000	1.0
18	0x3f800000	1.0
19	0x3f800000	1.0
20	0x3f800000	1.0
21	0x3f800000	1.0
22	0x3f800000	1.0
23	0x3f800000	1.0
24	0x3f800000	1.0
25	0x3f800000	1.0
26	0x3f800000	1.0
27	0x3f800000	1.0
28	0x3f800000	1.0
29	0x3f800000	1.0
30	0x3f800000	1.0
31	0x3f800000	1.0
32	0x3f800000	1.0
33	0x3f800000	1.0
34	0x3f800000	1.0
35	0x3f800000	1.0
36	0x3f800000	1.0
37	0x3f800000	1.0
38	0x3f800000	1.0
39	0x3f800000	1.0
40	0x3f800000	1.0
41	0x3f800000	1.0
42	0x3f800000	1.0
43	0x3f800000	1.0
44	0x3f800000	1.0
45	0x3f800000	1.0
46	0x3f800000	1.0
47	0x3f800000	1.0
48	0x3f800000	1.0
49	0x3f800000	1.0
50	0x3f800000	1.0
51	0x3f800000	1.0
52	0x3f800000	1.0
53	0x3f800000	1.0
54	0x3f800000	1.0
55	0x3f800000	1.0
56	0x3f800000	1.0
57	0x3f800000	1.0
58	0x3f800000	1.0
59	0x3f800000	1.0
60	0x3f800000	1.0
61	0x3f800000	1.0
62	0x3f800000	1.0
63	0x3f800000	1.0
64	0x3f800000	1.0
65	0x3f800000	1.0
66	0x3f800000	1.0
67	0x3f800000	1.0
68	0x3f800000	1.0
69	0x3f800000	1.0
70	0x3f800000	1.0
71	0x3f800000	1.0
72	0x3f800000	1.0
73	0x3f800000	1.0
74	0x3f800000	1.0
75	0x3f800000	1.0
76	0x3f800000	1.0
77	0x3f800000	1.0
78	0x3f800000	1.0
79	0x3f800000	1.0
80	0x3f800000	1.0
81	0x3f800000	1.0
82	0x3f800000	1.0
83	0x3f800000	1.0
84	0x3f800000	1.0
85	0x3f800000	1.0
86	0x3f800000	1.0
87	0x3f800000	1.0
88	0x3f800000	1.0
89	0x3f800000	1.0
90	0x3f800000	1.0
91	0x3f800000	1.0
92	0x3f800000	1.0
93	0x3f800000	1.0
94	0x3f800000	1.0
95	0x3f800000	1.0
96	0x3f800000	1.0
97	0x3f800000	1.0
98	0x3f800000	1.0
99	0x3f800000	1.0
100	0x3f800000	1.0
101	0x3f800000	1.0
102	0x3f800000	1.0
103	0x3f800000	1.0
104	0x3f800000	1.0
105	0x3f800000	1.0
106	0x3f800000	1.0
107	0x3f800000	1.0
108	0x3f800000	1.0
109	0x3f800000	1.0
110	0x3f800000	1.0
111	0x3f800000	1.0
112	0x3f800000	1.0
113	0x3f800000	1.0
114	0x3f800000	1.0
115	0x3f800000	1.0
116	0x3f800000	1.0
117	0x3f800000	1.0
118	0x3f800000	1.0
119	0x3f800000	1.0
120	0x3f800000	1.0
121	0x3f800000	1.0
122	0x3f800000	1.0
123	0x3f800000	1.0
124	0x3f800000	1.0
125	0x3f800000	1.0
126	0x3f800000	1.0
127	0x3f800000	1.0
128	0x3f800000	1.0
129	0x3f800000	1.0
130	0x3f800000	1.0
131	0x3f800000	1.0
132	0x3f800000	1.0
133	0x3f800000	1.0
134	0x3f800000	1.0
135	0x3f800000	1.0
136	0x3f800000	1.0
137	0x3f800000	1.0
138	0x3f800000	1.0
139	0x3f800000	1.0
140	0x3f800000	1.0
141	0x3f800000	1.0
142	0x3f800000	1.0
143	0x3f800000	1.0
144	0x3f800000	1.0
145	0x3f800000	1.0
146	0x3f800000	1.0
147	0x3f800000	1.0
148	0x3f800000	1.0
149	0x3f800000	1.0
150	0x3f800000	1.0
151	0x3f800000	1.0
152	0x3f800000	1.0
153	0x3f800000	1.0
154	0x3f800000	1.0
155	0x3f800000	1.0
156	0x3f800000	1.0
157	0x3f800000	1.0
158	0x3f800000	1.0
159	0x3f800000	1.0
160	0x3f800000	1.0
161	0x3f800000	1.0
162	0x3f800000	1.0
163	0x3f800000	1.0
164	0x3f800000	1.0
165	0x3f800000	1.0
166	0x3f800000	1.0
167	0x3f800000	1.0
168	0x3f800000	1.0
169	0x3f800000	1.0
170	0x3f800000	1.0
171	0x3f800000	1.0
172	0x3f800000	1.0
173	0x3f800000	1.0
174	0x3f800000	1.0
175	0x3f800000	1.0
176	0x3f800000	1.0
177	0x3f800000	1.0
178	0x3f800000	1.0
179	0x3f800000	1.0
180	0x3f800000	1.0
181	0x3f800000	1.0
182	0x3f800000	1.0
183	0x3f800000	1.0
184	0x3f800000	1.0
185	0x3f800000	1.0
186	0x3f800000	1.0
187	0x3f800000	1.0
188	0x3f800000	1.0
189	0x3f800000	1.0
190	0x3f800000	1.0
191	0x3f800000	1.0
192	0x3f800000	1.0
193	0x3f800000	1.0
194	0x3f800000	1.0
195	0x3f800000	1.0
196	0x3f800000	1.0
197	0x3f800000	1.0
198	0x3f800000	1.0
199	0x3f800000	1.0
200	0x3f800000	1.0
201	0x3f800000	1.0
202	0x3f800000	1.0
203	0x3f800000	1.0
204	0x3f800000	1.0
205	0x3f800000	1.0
206	0x3f800000	1.0
207	0x3f800000	1.0
208	0x3f800000	1.0
209	0x3f800000	1.0
210	0x3f800000	1.0
211	0x3f800000	1.0
212	0x3f800000	1.0
213	0x3f800000	1.0
214	0x3f800000	1.0
215	0x3f800000	1.0
216	0x3f800000	1.0
217	0x3f800000	1.0
218	0x3f800000	1.0
219	0x3f800000	1.0
220	0x3f800000	1.0
221	0x3f800000	1.0
222	0x3f800000	1.0
223	0x3f800000	1.0
224	0x3f800000	1.0
225	0x3f800000	1.0
226	0x3f800000	1.0
227	0x3f800000	1.0
228	0x3f800000	1.0
229	0x3f800000	1.0
230	0x3f800000	1.0
231	0x3f800000	1.0
232	0x3f800000	1.0
233	0x3f800000	1.0
234	0x3f800000	1.0
235	0x3f800000	1.0
236	0x3f800000	1.0
237	0x3f800000	1.0
238	0x3f800000	1.0
239	0x3f800000	1.0
240	0x3f800000	1.0
241	0x3f800000	1.0
242	0x3f800000	1.0
243	0x3f800000	1.0
244	0x3f800000	1.0
245	0x3f800000	1.0
246	0x3f800000	1.0
247	0x3f800000	1.0
248	0x3f800000	1.0
249	0x3f800000	1.0

bias f4 [250]
0	0x00000000	0.0
1	0x00000000	0.0
2	0x00000000	0.0
3	0x00000000	0.0
4	0x00000000	0.0
5	0x00000000	0.0
6	0x00000000	0.0
7	0x00000000	0.0
8	0x00000000	0.0
9	0x00000000	0.0
10	0x00000000	0.0
11	0x00000000	0.0
12	0x00000000	0.0
13	0x00000000	0.0
14	0x00000000	0.0
15	0x00000000	0.0
16	0x00000000	0.0
17	0x00000000	0.0
18	0x00000000	0.0
19	0x00000000	0.0
20	0x00000000	0.0
21	0x00000000	0.0
22	0x00000000	0.0
23	0x00000000	0.0
24	0x00000000	0.0
25	0x00000000	0.0
26	0x00000000	0.0
27	0x00000000	0.0
28	0x00000000	0.0
29	0x00000000	0.0
30	0x00000000	0.0
31	0x00000000	0.0
32	0x00000000	0.0
33	0x00000000	0.0
34	0x00000000	0.0
35	0x00000000	0.0
36	0x00000000	0.0
37	0x00000000	0.0
38	0x00000000	0.0
39	0x00000000	0.0
40	0x00000000	0.0
41	0x00000000	0.0
42	0x00000000	0.0
43	0x00000000	0.0
44	0x00000000	0.0
45	0x00000000	0.0
46	0x00000000	0.0
47	0x00000000	0.0
48	0x00000000	0.0
49	0x00000000	0.0
50	0x00000000	0.0
51	0x00000000	0.0
52	0x00000000	0.0
53	0x00000000	0.0
54	0x00000000	0.0
55	0x00000000	0.0
56	0x00000000	0.0
57	0x00000000	0.0
58	0x00000000	0.0
59	0x00000000	0.0
60	0x00000000	0.0
61	0x00000000	0.0
62	0x00000000	0.0
63	0x00000000	0.0
64	0x00000000	0.0
65	0x00000000	0.0
66	0x00000000	0.0
67	0x00000000	0.0
68	0x00000000	0.0
69	0x00000000	0.0
70	0x00000000	0.0
71	0x00000000	0.0
72	0x00000000	0.0
73	0x00000000	0.0
74	0x00000000	0.0
75	0x00000000	0.0
76	0x00000000	0.0
77	0x00000000	0.0
78	0x00000000	0.0
79	0x00000000	0.0
80	0x00000000	0.0
81	0x00000000	0.0
82	0x00000000	0.0
83	0x00000000	0.0
84	0x00000000	0.0
85	0x00000000	0.0
86	0x00000000	0.0
87	0x00000000	0.0
88	0x00000000	0.0
89	0x00000000	0.0
90	0x00000000	0.0
91	0x00000000	0.0
92	0x00000000	0.0
93	0x00000000	0.0
94	0x00000000	0.0
95	0x00000000	0.0
96	0x00000000	0.0
97	0x00000000	0.0
98	0x00000000	0.0
99	0x00000000	0.0
100	0x00000000	0.0
101	0x00000000	0.0
102	0x00000000	0.0
103	0x00000000	0.0
104	0x00000000	0.0
105	0x00000000	0.0
106	0x00000000	0.0
107	0x00000000	0.0
108	0x00000000	0.0
109	0x00000000	0.0
110	0x00000000	0.0
111	0x00000000	0.0
112	0x00000000	0.0
113	0x00000000	0.0
114	0x00000000	0.0
115	0x00000000	0.0
116	0x00000000	0.0
117	0x00000000	0.0
118	0x00000000	0.0
119	0x00000000	0.0
120	0x00000000	0.0
121	0x00000000	0.0
122	0x00000000	0.0
123	0x00000000	0.0
124	0x00000000	0.0
125	0x00000000	0.0
126	0x00000000	0.0
127	0x00000000	0.0
128	0x00000000	0.0
129	0x00000000	0.0
130	0x00000000	0.0
131	0x00000000	0.0
132	0x00000000	0.0
133	0x00000000	0.0
134	0x00000000	0.0
135	0x00000000	0.0
136	0x00000000	0.0
137	0x00000000	0.0
138	0x00000000	0.0
139	0x00000000	0.0
140	0x00000000	0.0
141	0x00000000	0.0
142	0x00000000	0.0
143	0x00000000	0.0
144	0x00000000	0.0
145	0x00000000	0.0
146	0x00000000	0.0
147	0x00000000	0.0
148	0x00000000	0.0
149	0x00000000	0.0
150	0x00000000	0.0
151	0x00000000	0.0
152	0x00000000	0.0
153	0x00000000	0.0
154	0x00000000	0.0
155	0x00000000	0.0
156	0x00000000	0.0
157	0x00000000	0.0
158	0x00000000	0.0
159	0x00000000	0.0
160	0x00000000	0.0
161	0x00000000	0.0
162	0x00000000	0.0
163	0x00000000	0.0
164	0x00000000	0.0
165	0x00000000	0.0
166	0x00000000	0.0
167	0x00000000	0.0
168	0x00000000	0.0
169	0x00000000	0.0
170	0x00000000	0.0
171	0x00000000	0.0
172	0x00000000	0.0
173	0x00000000	0.0
174	0x00000000	0.0
175	0x00000000	0.0
176	0x00000000	0.0
177	0x00000000	0.0
178	0x00000000	0.0
179	0x00000000	0.0
180	0x00000000	0.0
181	0x00000000	0.0
182	0x00000000	0.0
183	0x00000000	0.0
184	0x00000000	0.0
185	0x00000000	0.0
186	0x00000000	0.0
187	0x00000000	0.0
188	0x00000000	0.0
189	0x00000000	0.0
190	0x00000000	0.0
191	0x00000000	0.0
192	0x00000000	0.0
193	0x00000000	0.0
194	0x00000000	0.0
195	0x00000000	0.0
196	0x00000000	0.0
197	0x00000000	0.0
198	0x00000000	0.0
199	0x00000000	0.0
200	0x00000000	0.0
201	0x00000000	0.0
202	0x00000000	0.0
203	0x00000000	0.0
204	0x00000000	0.0
205	0x00000000	0.0
206	0x00000000	0.0
207	0x00000000	0.0
208	0x00000000	0.0
209	0x00000000	0.0
210	0x00000000	0.0
211	0x00000000	0.0
212	0x00000000	0.0
213	0x00000000	0.0
214	0x00000000	0.0
215	0x00000000	0.0
216	0x00000000	0.0
217	0x00000000	0.0
218	0x00000000	0.0
219	0x00000000	0.0
220	0x00000000	0.0
221	0x00000000	0.0
222	0x00000000	0.0
223	0x00000000	0.0
224	0x00000000	0.0
225	0x00000000	0.0
226	0x00000000	0.0
227	0x00000000	0.0
228	0x00000000	0.0
229	0x00000000	0.0
230	0x00000000	0.0
231	0x00000000	0.0
232	0x00000000	0.0
233	0x00000000	0.0
234	0x00000000	0.0
235	0x00000000	0.0
236	0x00000000	0.0
237	0x00000000	0.0
238	0x00000000	0.0
239	0x00000000	0.0
240	0x00000000	0.0
241	0x00000000	0.0
242	0x00000000	0.0
243	0x00000000	0.0
244	0x00000000	0.0
245	0x00000000	0.0
246	0x00000000	0.0
247	0x00000000	0.0
248	0x00000000	0.0
249	0x00000000	0.0
