model/RNN-000679.pth (torch, 265699 bytes, 5 tensors)

weight_ih_l0 f4 [250, 10]
000000 99 9f 48 3e 8f fa 54 3e e6 a3 7b 3e 00 10 60 3e
       0.19592132 0.20798706 0.24574241 0.21881104
000010 53 b1 37 3e d5 fb 15 3e 8d 51 66 be 67 a5 b2 3e
       0.17938738 0.14646848 -0.22492047 0.34891817
000020 d1 96 8a 3e 05 4c 78 be 5b 4f 0d be d2 4d 03 3e
       0.2706819 -0.24247749 -0.13799803 0.12822655
000030 0f c4 09 3e 1a 29 3b 3e 43 65 4f 3e 34 ba ad 3c
       0.13453697 0.18277398 0.20253472 0.021206953
000040 c0 38 ed 3d 38 cb 0c bd ab 7c a3 bd ec fd a9 bb
       0.1158309 -0.034373492 -0.07982763 -0.0051877405
000050 ab 4f cc 3d 73 6e 54 be e6 bb e9 bd dd 88 10 be
       0.09976133 -0.20745258 -0.11412792 -0.14114709
000060 e2 7a 1e be 68 ac d9 bc 9a 04 d8 3d 32 67 6b bd
       -0.15476564 -0.026571468 0.10547753 -0.05747146
000070 ff c9 03 be 3e 0f 38 be b1 08 5a be 66 eb 4e bc
       -0.12870024 -0.17974564 -0.21292378 -0.012629366
000080 c8 c4 8d 3d de 68 97 3d c9 9d 85 3d dc 87 2d 3c
       0.06922299 0.07393049 0.06524236 0.010591473
000090 c3 08 2d 3e ff 20 20 be 74 78 9f bd 4c 4d b3 3e
       0.16897874 -0.15637587 -0.077866465 0.3501991
0000a0 11 94 a0 3e 72 3d 22 bb 79 ad 6a 3d 16 fe 3c bc
       0.31362966 -0.0024755863 0.057294343 -0.011535188
0000b0 ec c3 8e 3d 3f b1 21 3e 59 63 6f be 66 2d 9e 3e
       0.06970963 0.1579027 -0.23377742 0.3089401
0000c0 10 25 7b 3e 45 a7 af be 97 99 78 be 6f 5d 28 3c
       0.24525857 -0.34307304 -0.2427734 0.010276183
0000d0 bf ba 43 3c 7e 94 88 bc f9 ae 09 bd 23 57 0b be
       0.011946379 -0.01667237 -0.033614133 -0.13607459
0000e0 d8 af 1a 3e 71 35 18 be c2 79 5b be 3f d1 e3 3e
       0.15106142 -0.14864136 -0.21433166 0.4449558
0000f0 42 6e a7 3d bb 83 86 3c 90 c4 0e 3c 5a 5e 90 3d
       0.08175327 0.016420236 0.008713856 0.07049246
000100 3f 23 08 3c 31 c3 22 be 73 17 cb bd 6a 68 32 3d
       0.008309185 -0.15894772 -0.09916582 0.04355661
000110 41 76 84 ba 95 aa 95 be 14 74 e7 bd 65 9a c9 bc
       -0.0010106043 -0.29231706 -0.11301437 -0.024609754
000120 bc c5 c8 bc d0 b4 3c bd 61 8c 9a bd 19 7a 42 be
       -0.02450835 -0.046070874 -0.075463064 -0.18991889
000130 bc d4 01 3e d2 25 82 be 70 78 3a be 7f d2 23 3d
       0.12678808 -0.2541948 -0.18210006 0.039995667
000140 5f a1 51 3e 2f bd 93 3e 1d 97 92 3e 30 c8 40 3e
       0.20471714 0.28855273 0.28630915 0.18826365
000150 2a 09 6d 3e 71 0f ee 3d ca f4 1b be ce d4 25 3e
       0.23148027 0.11624039 -0.15230098 0.1619446
000160 ae 23 27 3e cd 34 84 be 53 fa 43 3e f9 bf 8e 3e
       0.16322204 -0.25821534 0.1913846 0.2788084
000170 a3 cf 8a 3e 6b 89 a7 3e 0c c9 80 3e db d8 ad 3d
       0.2711154 0.3272203 0.25153387 0.084886275
000180 e2 ca 27 be b1 27 07 3e ad 07 43 3e 5d 0d ac bd
       -0.16385987 0.13198735 0.19045897 -0.08400986
000190 31 10 d8 3d f8 a3 5a 3e 10 5b 61 3e db c2 68 3e
       0.10549963 0.21351612 0.22007394 0.22730581
0001a0 07 e3 62 3e c9 5b 25 3e 43 12 64 be b1 10 6a 3e
       0.22156917 0.16148295 -0.22272591 0.2285793
0001b0 0a 39 93 3e 06 b5 84 be 60 51 39 3e 72 33 36 3e
       0.28754455 -0.2591936 0.18097448 0.17793062
0001c0 41 80 57 3e 40 73 10 3e a2 04 82 3e 0c 27 89 bd
       0.21045019 0.14106464 0.2539416 -0.06696901
0001d0 a4 0b 81 bd dc 74 24 3e a4 96 d1 3d 52 2e 63 3c
       -0.063010484 0.16060203 0.102338105 0.013866024
0001e0 6a ef f4 3c 63 1d 96 3c ae bf aa 3b b8 18 80 3d
       0.029899318 0.01832456 0.0052108383 0.06254715
0001f0 a8 ff c3 bb 52 eb 3e bd 5e 97 40 bc 87 86 88 3a
       -0.0059814043 -0.046611138 -0.011754839 0.0010416069
000200 24 a2 84 bd 29 cd 3b 3d 7f 7c eb be 61 a8 1c be
       -0.06476238 0.045849953 -0.4599342 -0.15298606
000210 03 d5 da bd 94 4e ca bd c8 7b d5 bd 25 2b 00 be
       -0.1068516 -0.09878269 -0.10424 -0.12516458
000220 91 23 24 3e 94 eb 0c be 36 13 56 be b4 83 04 3f
       0.16029193 -0.13761741 -0.20905766 0.51763463
000230 ae 91 16 be d1 8d 15 be c0 8f e4 bd 17 55 0e be
       -0.1470401 -0.1460488 -0.11160231 -0.13899647
000240 da 0f 3e be 6f a2 14 bd 9f 19 f0 3d 7c 67 70 be
       -0.18560734 -0.03628772 0.11723637 -0.23476976
000250 6f b4 84 be 07 cd 21 3e 5e 6d 02 bf 38 10 18 be
       -0.2591891 0.15800868 -0.5094813 -0.14849937
000260 a9 b5 fc bd 11 9e 05 be 27 99 96 bd 53 54 bb bd
       -0.123393364 -0.13048579 -0.0735343 -0.09146943
000270 33 c2 61 3e 35 79 33 be b4 06 3e be 58 a6 36 3f
       0.22046737 -0.17526706 -0.18557245 0.7134757
000280 5e 8d 47 bc 62 de 63 3e 5a 31 5d 3e ef 05 6e 3e
       -0.012179701 0.22252801 0.21600857 0.23244451
000290 b8 c1 39 3e 64 f0 de 3d 40 43 16 3d 94 52 b1 3d
       0.18140304 0.108856946 0.03668523 0.08658329
0002a0 4b f9 69 3c 79 c0 d5 bd 04 24 60 3e 58 e6 8f 3e
       0.0142806275 -0.10437102 0.21888739 0.28105426
0002b0 70 7e 8e 3e a0 84 5c 3e de 0f 5e 3e d5 f3 38 3e
       0.2783084 0.21534967 0.2168574 0.18061765
0002c0 50 1a 2f be 1c 1f a6 3e 56 07 83 3e e6 64 a3 be
       -0.17099881 0.3244561 0.25591534 -0.31912917
0002d0 f7 d0 a9 be 8a 89 d8 bd 0a 96 9a bd cc f9 8b bd
       -0.3316724 -0.105731085 -0.07548149 -0.06834754
0002e0 f3 bb d0 bd e1 28 8b bd 6f 0e f3 3d 4d db 55 be
       -0.101920985 -0.067949064 0.11867987 -0.20884438
0002f0 d6 fe 30 be 52 95 ba 3e df 48 40 3e e0 58 7a 3e
       -0.17284712 0.36442047 0.18777798 0.24447966
000300 19 ae 1a 3e e2 82 75 3e 34 21 33 3e 41 1f a4 3d
       0.15105475 0.23975709 0.17493135 0.08013774
000310 e9 33 d7 bd cb 21 35 3e a9 69 43 3e b2 1e 19 bd
       -0.10507948 0.17688672 0.19083275 -0.03738279
000320 c2 c9 d3 3e 78 b5 8d 3d 87 75 40 3d 75 70 d9 3d
       0.41364866 0.06919378 0.046987083 0.106171526
000330 db 66 e4 3d b9 99 a3 bd 78 e5 5c be 6f ef 49 3e
       0.111524306 -0.07988305 -0.2157191 0.19720243
000340 e0 7f 44 3e 88 1a b1 be 96 46 90 be 84 1d c0 3d
       0.19189405 -0.34590554 -0.28178853 0.0938063
000350 e4 10 c8 3d ce 4e 7e 3d f4 5c 06 3e 15 9b b5 3d
       0.09768847 0.062086873 0.13121396 0.0886747
000360 20 34 12 3e c5 c4 4e be e7 ae 1b be 47 60 b5 3e
       0.14277697 -0.20192249 -0.15203439 0.35425016
000370 0b 4b c3 3c 0f 02 03 bd e9 68 38 3d 66 a7 85 3d
       0.023839494 -0.031984385 0.045021925 0.06526069
000380 d1 30 8e 3d 17 51 2d be 8f 14 24 bd 4d 40 5e bd
       0.06942905 -0.16925465 -0.04005867 -0.05426054
000390 40 68 85 bd 44 a4 4d bd e5 e1 ab be 44 72 ae bd
       -0.06514025 -0.050205484 -0.3357078 -0.08517888
0003a0 ad 35 29 bc 34 4b 3e 3b 45 b0 c4 3c 52 67 40 3e
       -0.010327739 0.0029036524 0.024009833 0.18789414
0003b0 65 f0 24 3e 83 7e f6 bd 25 e8 07 be f2 42 7b 3e
       0.16107328 -0.12035849 -0.1327215 0.24537256
0003c0 2e 73 7e bd 3b f5 a2 3d 0c 07 59 3c d8 a6 20 bc
       -0.062121563 0.0795693 0.013246309 -0.009805404
0003d0 19 4f 8f bc bd 51 c6 3d 52 f9 90 bd 9a 7d a0 3d
       -0.017493771 0.09683559 -0.07078804 0.078364566
0003e0 bc a4 bf 3d 6f df c0 3d 6b eb 1d 3e d2 41 87 3d
       0.093575925 0.094176166 0.15421836 0.06604351
0003f0 ea fa cd 3c 12 2c 62 3c e6 ac ca 3d 75 2d d0 bc
       0.02514406 0.0138044525 0.09896259 -0.0254123

weight_hh_l0 f4 [250, 250]
000000 32 c9 31 3d 84 35 3f 3d cf 61 0a 3c 73 cc 4d bb
       0.043404765 0.046681896 0.008446171 -0.0031402379
000010 ac 98 8e 3d 0e ac 63 bd 94 5e 1f bc e2 1a f2 bc
       0.069627136 -0.055584006 -0.009727139 -0.029553834
000020 a0 09 b6 3d e6 ec d2 3d fd 08 35 3e 24 44 ba bc
       0.088885546 0.10299091 0.1767921 -0.02273757
000030 9e 92 2f bd 72 2e 88 bd c8 8e ae bd 25 8d 08 bd
       -0.042864434 -0.06649484 -0.08523327 -0.03333773
000040 60 a0 90 bd 83 09 f8 3d 0e 65 2f bd ac ed 87 bd
       -0.07061839 0.12111189 -0.042820983 -0.06637129
000050 5e 0b 05 3e 69 3f 30 bd 86 d8 47 bd a2 bd 00 3e
       0.12992617 -0.043029223 -0.048790477 0.12572339
000060 fb a5 5b bd 45 61 8c 3d aa b9 31 3d 09 71 96 bd
       -0.05362509 0.0685449 0.043389954 -0.073457785
000070 d0 84 a7 bd d8 2a 94 3d 7b a3 e0 bd a8 0f 3f 3d
       -0.08179629 0.07234734 -0.109686814 0.04664579
000080 ef 2c 00 3e 36 95 08 3c 5b 85 11 3d 5c b8 bf bd
       0.12517141 0.008336356 0.03552757 -0.09361336
000090 a3 8f bc 3d 1e 0c 42 3d 05 92 7d bd 2f 0e a4 bd
       0.09207084 0.047374837 -0.061906833 -0.08010518
0000a0 dc 23 d7 bd 01 67 e8 3d ac bd 79 3c 24 56 b9 bd
       -0.105048865 0.113477714 0.015242975 -0.09049633
0000b0 08 c0 a2 3d 55 ed 8e bd 70 4f 57 bb c4 71 85 bd
       0.07946783 -0.06978861 -0.0032853745 -0.0651584
0000c0 fa 62 15 3e c3 ba 4c bb 44 d2 05 be 72 df a3 3d
       0.14588538 -0.0031239248 -0.13068491 0.08001603
0000d0 9a 2b 41 bb 04 14 1d be b7 4c a2 bc 16 14 06 bd
       -0.0029475451 -0.15339667 -0.019811971 -0.032734
0000e0 cf d3 0b 3e 1a f0 b4 bd 51 1b 34 bd e3 28 2e be
       0.13655017 -0.08834858 -0.043971363 -0.17007785
0000f0 5b e0 ee bd 61 61 e7 bd 4b db ad bd 3f b9 09 bd
       -0.11663886 -0.112978704 -0.084890924 -0.03362393
000100 a9 13 ed 3d e9 75 23 3d 1e ab 88 bd e9 16 8e 3d
       0.115760155 0.03990737 -0.06673263 0.069379635
000110 1c 42 73 3d d4 3d 3d 3c de c8 d6 3d e3 b8 1b be
       0.05938922 0.0115503855 0.10487531 -0.15207247
000120 a2 ea 5f bd e3 d7 b1 3d a0 75 dc bd 0d 5c aa 3d
       -0.054667123 0.08683755 -0.10764623 0.083183385
000130 b9 94 74 3c 74 9c 6d 3d 40 51 65 3b 56 2b cd bc
       0.014928036 0.058010533 0.0034991056 -0.025045078
000140 8d 23 7d 3c b2 66 d2 3d 3a 5a 40 bd 8e c1 70 3d
       0.0154503705 0.10273494 -0.046961047 0.058778338
000150 b2 0e c7 bb f1 91 59 3d 03 fc e3 3c 0e 32 6a bd
       -0.00607475 0.053117696 0.02783013 -0.057176642
000160 10 4d 6c 3d ee 30 f3 3d 04 7a a1 3d 94 31 4c 3d
       0.05769068 0.11874567 0.07884601 0.04985197
000170 6c d8 5c bd d8 77 8a 3c 72 33 c3 bb 0d 3a 6a ba
       -0.053917333 0.01690285 -0.0059570605 -0.0008935042
000180 39 28 c0 3d 6e ce 5d bd f4 5d d3 3b bb 31 ed bd
       0.09382672 -0.054151945 0.006450409 -0.11581751
000190 f6 cb 2d 3e cf c0 8c 3d 2a 8e 1c bb ee 67 02 be
       0.16972336 0.06872713 -0.0023888447 -0.12734959
0001a0 7d 6e f7 bd 3a 81 81 3d a5 a6 b7 3d c3 92 8e bd
       -0.12081621 0.06323476 0.08967332 -0.06961586
0001b0 ab f8 2f be b6 46 95 3d db 2f cd bd 88 2d e5 3d
       -0.17184703 0.07288878 -0.10018893 0.11190325
0001c0 75 3b 13 bd 70 e2 12 bd 05 16 80 bd 28 c2 cc bd
       -0.035945375 -0.03586048 -0.062542 -0.0999797
0001d0 0a 94 24 3c 94 cd a8 bc 75 2a b7 bd 0e 24 21 3c
       0.010045061 -0.02060584 -0.08943645 0.009835256
0001e0 4a 5d 6c bc 63 68 ce bd f6 e2 79 bd 4a 25 17 3e
       -0.014426539 -0.10078504 -0.061007462 0.14760318
0001f0 a7 3a 71 3e bb 59 57 3d cd a3 88 3d 94 71 f8 3c
       0.2355753 0.052575808 0.066718675 0.030327596
000200 a3 07 02 be 36 d6 67 3c f9 9d 5c bd 11 00 3b bb
       -0.12698226 0.014150193 -0.053861592 -0.0028533975
000210 92 d4 92 bd fb b2 f7 bd 30 79 d1 bd d5 ad 1b be
       -0.07169451 -0.12094685 -0.10228193 -0.1520303
000220 08 7b a8 bd 59 cc e5 3d 40 bf ef 3c b8 85 1a 3e
       -0.08226591 0.11220617 0.029266 0.15090072
000230 36 3b 55 3d 78 13 1c 3d 4f 0b c1 3d c1 94 4a 3d
       0.05205842 0.038104504 0.09425985 0.04945827
000240 ff 97 28 3d 95 0f c6 bd 1f f3 d5 3d a8 10 40 3e
       0.04116058 -0.09670941 0.10446762 0.18756354
000250 4b 13 39 3e a7 62 30 bd 2b b1 18 3d c2 95 10 3e
       0.18073766 -0.043062832 0.037278336 0.14119628
000260 57 fa 0a 3d a7 7d 2d be 8f a3 f1 3d 0a 27 e1 3b
       0.03393015 -0.16942464 0.117987745 0.006871109
000270 ba c6 e6 bb 91 6e 94 3d 8d 58 15 bd cb 50 2a bd
       -0.007042733 0.07247651 -0.0364614 -0.041580956
000280 a4 cc af 3d 81 3b 0f be 6c ad 5a bd bd db 78 3d
       0.08583954 -0.13987543 -0.053388044 0.060756434
000290 ee 36 aa 3c 1e 50 27 be 73 0f 11 3d 37 ff bb 3d
       0.020778146 -0.16339156 0.035415124 0.09179538
0002a0 02 4f 47 bd ce e8 36 be 23 40 8a bd 6a f7 0b bd
       -0.048659332 -0.17862245 -0.06750514 -0.0341715
0002b0 a3 90 e6 bd 5e 3f be bd 5a 95 1f 3d 3b 35 d9 3d
       -0.11258056 -0.0928943 0.038960792 0.10605856
0002c0 37 c1 d2 3c 20 4d 23 3e 90 5e da 3d f2 8d 0e bd
       0.025726898 0.1594739 0.106625676 -0.03480334
0002d0 b0 db 1d 3e 10 45 c8 3b 98 7b 35 3e 3e 1a a8 bd
       0.15415835 0.0061117485 0.17722929 -0.0820813
0002e0 79 3e 7c 3d 89 9e a3 bd 91 bb 7b 3d 12 b7 0d 3d
       0.061583016 -0.079892226 0.061458174 0.034598418
0002f0 45 80 13 be f0 db 9c bd 6b 61 bc 3c cf 4a 02 3d
       -0.144044 -0.07659137 0.022995671 0.031809624
000300 c1 d5 9c 3d 00 1c e4 bd 28 6c 4e 3d 0a 87 55 bc
       0.07657958 -0.11138153 0.050396115 -0.013032684
000310 5a fc b1 3d e8 f2 96 bd 89 b3 c9 bb 63 25 1c 3d
       0.0869071 -0.073705494 -0.0061554355 0.038121592
000320 a9 98 10 3d 15 ee 60 3d 34 7a a9 3d 22 6d 47 3e
       0.035301838 0.054914553 0.082752615 0.19475225
000330 fd aa f6 3d 2c bc da bc c6 87 ee 3c 7b dd cb bd
       0.12044332 -0.026701055 0.029117476 -0.099543534
000340 1a 87 0e 3d 2c 49 2d 3e 17 b1 46 bc 3a 62 e1 3c
       0.03479681 0.16922444 -0.012127182 0.027512658
000350 4b 0b fa bb e7 4d 8d 3b 9b 54 0e 3d ca c5 4c bd
       -0.0076307408 0.004312265 0.034748655 -0.049993314
000360 43 d9 74 be 1b 79 28 bd 5a 67 f5 3c dd 67 bb 3d
       -0.23911004 -0.04113112 0.029956508 0.0915067
000370 2b 48 56 bd 6a 2b 1f 3d ee 34 89 bc c9 37 9e 3d
       -0.05231492 0.038859762 -0.016748872 0.07725484
000380 3e b7 09 3d 92 6b b9 bd e7 05 02 3d 4c 49 f5 3d
       0.03362202 -0.090537205 0.03174391 0.11976871
000390 7a e7 5f 3d 08 ef c3 bd e8 30 5d 3c f3 3b 1f bc
       0.054664113 -0.09567076 0.01350043 -0.009718883
0003a0 a8 2b 16 bd 06 5b 3f 3d dd 1e ca 3c e3 b8 d1 3d
       -0.036662728 0.046717666 0.02467292 0.102403425
0003b0 a1 d6 0d 3e 0f a8 e7 bc 26 18 ca 3d 1a 48 10 3c
       0.13851406 -0.028278379 0.09867887 0.008806253
0003c0 a9 d5 19 3d 02 db f2 bd 19 6a 62 3d c5 a8 73 3d
       0.037557278 -0.11858179 0.055276964 0.059487123
0003d0 c3 1a cf 3a cb b8 eb bd 71 ea 16 bd 82 ee 0d 3d
       0.0015800822 -0.11509856 -0.036844674 0.034651287
0003e0 15 6b 03 3e 70 4e bb 3b 59 75 1b 3e 9a d0 93 be
       0.12833817 0.0057161376 0.15181483 -0.28870088
0003f0 a5 c6 35 be 0a 7d 9d bd ae d9 0f 3e b0 85 98 bd
       -0.17751558 -0.07689865 0.14047882 -0.07447374

bias_ih_l0 f4 [250]
000000 81 33 9e be cd d2 d3 3d f5 46 34 3d f7 6a d2 3d
       -0.3089867 0.103429414 0.044012982 0.10274308
000010 86 28 84 be 3d b0 35 3e 82 10 29 bd 4c 82 6f 3e
       -0.25812167 0.17743011 -0.04127551 0.23389548
000020 da 7a 81 be 28 a1 0b be f2 02 50 be 30 77 00 be
       -0.2528904 -0.13635695 -0.20313624 -0.12545466
000030 83 48 72 3c ca a8 20 3e 69 2d 5e 3e 91 d3 43 3e
       0.014787796 0.15689388 0.2169701 0.19123675
000040 e3 d4 d3 bd 85 9e aa be 03 bb 43 3e 0d 69 26 be
       -0.10343339 -0.33324066 0.19114308 -0.16251011
000050 d7 98 65 be d4 f0 17 3e ac 28 1c 3d e2 69 fa 3d
       -0.22421585 0.14837962 0.038124725 0.12227227
000060 c9 65 91 bd f3 8c 17 bd c1 82 c7 bd 91 6b 1f be
       -0.07099492 -0.036999654 -0.09741736 -0.15568377
000070 cf c2 d9 bd 8a de 52 be e3 0e a0 3d 4a 9f 22 be
       -0.1063286 -0.20592704 0.078153394 -0.15881076
000080 7e 3d 90 be d2 18 a9 bd 65 aa c1 bd 7c cb 21 be
       -0.28171915 -0.08256687 -0.09456328 -0.1580028
000090 cd f7 2e 3e e0 28 28 be a7 45 b7 3d 83 24 8e bd
       0.17086716 -0.16421843 0.08948832 -0.06940558
0000a0 e7 a3 20 3d d8 ac 6c be 5c d2 91 be 21 26 2a bd
       0.03921881 -0.2311281 -0.28480804 -0.04154027
0000b0 6e 78 5c be 3c f8 49 3c 3c 57 6e 3e 0e 6d 1d bd
       -0.21530315 0.01232725 0.23275465 -0.03843408
0000c0 25 d7 48 be 53 b4 1f 3e 96 06 4b 3e a7 b9 03 3c
       -0.19613321 0.15596132 0.19826731 0.008039868
0000d0 16 88 1a 3e fd 6b 17 3e 38 88 b0 bd 48 a8 67 3d
       0.15090975 0.14787288 -0.08619732 0.05655697
0000e0 59 21 87 be b3 d5 49 3e 59 50 58 bd 95 11 a9 3d
       -0.2639263 0.19710426 -0.052811 0.08255307
0000f0 a5 e5 5f 3e 2a a0 1b 3e f1 45 6d 3e cb e9 18 bd
       0.21864946 0.15197816 0.23171212 -0.037332337
000100 71 b9 0c be ee b0 00 3e fd 2e 45 3e 9c 08 5a bc
       -0.13742615 0.12567493 0.19256206 -0.013307717
000110 2a 49 07 bd 0e 84 25 be 3b 71 a3 bd 9c ce 72 3e
       -0.03302876 -0.16163656 -0.079805814 0.23711628
000120 8e 57 3a 3a 8a 02 4c 3e 7d 7d 10 3e 3a b4 ce 3a
       0.00071083836 0.19922844 0.1411037 0.0015770264
000130 b8 c8 c4 bd 2e e4 cd 3c 9c 0e 1c be b9 84 f3 bd
       -0.096085966 0.025133219 -0.15239948 -0.11890549
000140 0a a3 a2 b9 54 c0 2d be d3 ae 30 be 3e b9 3a be
       -0.0003102052 -0.16967899 -0.1725419 -0.18234727
000150 89 27 15 3e da 6f 0c 3e 47 04 87 3e 41 4e c8 3d
       0.14565863 0.13714543 0.2637045 0.09780551
000160 0c 01 4e be bf ab 9c 3d 75 d8 e9 bd 9f e8 43 be
       -0.20117587 0.076499455 -0.11418239 -0.19131707
000170 e9 b5 43 3c a9 92 68 3b 21 ea ad 3d cb bd bb 3d
       0.011945226 0.0035487807 0.08491922 0.091670595
000180 df a3 e2 bc 15 1a 4c 3e c1 02 ff bb 6c 05 88 3e
       -0.02766603 0.19931825 -0.0077823107 0.26566637
000190 a6 b8 c6 bc 28 68 98 3d 16 8b 21 3e 8e cb 47 3d
       -0.02425797 0.07441741 0.15775713 0.04877811
0001a0 d5 90 1d 3e fd 08 a7 bb b0 e5 3c 3d 84 3e 37 be
       0.1538728 -0.005097507 0.046117485 -0.17894942
0001b0 ac 6b 72 3e 1d 6a a4 bd f9 5b 13 3b 89 fa 14 bd
       0.23673886 -0.08028052 0.002248524 -0.03637174
0001c0 42 1c 7a 3e d0 2c c8 3d 9a 0d 85 3e a4 ff c7 3d
       0.24424842 0.09774172 0.2598694 0.097655565
0001d0 d3 e9 21 3e 6a ec b8 3d e2 af 82 3e 83 28 ed bd
       0.15811853 0.090294674 0.25524813 -0.115799926
0001e0 d0 b7 a7 3c de ce 8c 3e 48 00 5f 3e c9 dc b1 bd
       0.02047339 0.27501577 0.21777451 -0.086846896
0001f0 70 e7 84 be b6 39 f5 bd e3 48 05 be 03 20 3a 3e
       -0.25957823 -0.11973898 -0.13016085 0.18176274
000200 8f 42 5a 3e c9 17 c9 3d 59 d6 20 3e 9e c7 88 3d
       0.21314453 0.0981899 0.15706767 0.06678699
000210 eb 69 ea 3d cc 0a b8 ba 92 94 fe 3d b6 da 29 3e
       0.114459835 -0.0014041304 0.12430681 0.16587338
000220 96 73 53 3e fa f4 ff bd 8d 71 5c bd 3c 10 b2 bd
       0.20649561 -0.124978974 -0.053819228 -0.08694503
000230 45 6e 24 be 6b d4 6c bd 75 4d c9 bd 19 b3 36 3e
       -0.1605769 -0.057819765 -0.09829227 0.17841758
000240 f3 c5 37 be c4 b4 a1 bd d4 ca 12 3e d3 c4 be bd
       -0.17946605 -0.078958064 0.14335185 -0.09314885
000250 40 43 05 be 7b da af bc eb 6b e6 39 b1 5a 7d be
       -0.13013935 -0.021466484 0.00043949424 -0.24741627
000260 cf ad 48 bc f8 94 da 3c d1 a2 0d be a7 e0 50 be
       -0.01224847 0.026682362 -0.13831641 -0.20398198
000270 ac 81 ca bd 3f 4c 3e bd 00 6c 84 3d ae cd 91 3e
       -0.09888014 -0.046459433 0.06465912 0.28477234
000280 fd d4 35 be 95 0a 75 3e af c9 f7 3d 94 b1 ca 3d
       -0.1775703 0.23929818 0.12099015 0.098971516
000290 58 47 0e 3e 3e a7 fe bd a5 36 18 be 17 2f 62 be
       0.13894403 -0.12434243 -0.14864595 -0.22088276
0002a0 d7 93 99 3d b7 1e 7d 3e 0e b4 f4 3c 70 d0 44 3e
       0.07498901 0.24718748 0.029871013 0.19220138
0002b0 72 a5 85 bc db 2b c1 3d 5b 28 3b 3e 45 a1 20 3c
       -0.016314242 0.09432193 0.18277113 0.009804075
0002c0 ce 41 06 be 14 9a 2f be 4b c2 6a be 1e b7 c0 bd
       -0.1311104 -0.1714862 -0.2292568 -0.09409927
0002d0 0e 04 89 be a5 a5 c3 3d 6e 2f 80 be 0e be 27 3e
       -0.26760906 0.095530786 -0.25036186 0.16381094
0002e0 f0 75 e6 3c 2a 93 e4 3d 77 33 13 be f2 27 29 be
       0.028132409 0.11160882 -0.14375101 -0.16519144
0002f0 18 ff 07 3e 03 6d d4 3d aa 72 46 3e 8e 51 37 be
       0.13280904 0.10372355 0.19379678 -0.17902204
000300 39 0a 1b be 0e 3f 4f 3e 2e b3 8c bc 88 b4 78 3d
       -0.15140618 0.20238897 -0.017175283 0.060719043
000310 4d 15 04 be b8 69 89 3e f4 50 9a 3d 19 05 2c be
       -0.1289875 0.2683847 0.07534972 -0.1679882
000320 88 e9 9c bd ca cf 14 be b9 a6 bb bd ac 8d ef bd
       -0.0766173 -0.1453239 -0.09162659 -0.11696944
000330 74 bd 94 be 4f 2e 1b 3e 4e f6 3d bd 2b d8 43 3d
       -0.2905079 0.15154384 -0.046377473 0.047813576
000340 ef 45 9d 3d 3e 6f 73 be 3d 12 a6 3d ce 73 0c 3e
       0.076793544 -0.23772904 0.081089474 0.13716051
000350 bb 6c 0d 3e 49 51 3e 3e 56 10 13 be 66 46 39 3e
       0.13811009 0.18585695 -0.143617 0.18093261
000360 b7 1a 78 3e e9 23 85 3e a4 e3 e6 3d 4e d9 28 be
       0.24228941 0.2600396 0.11273888 -0.16489145
000370 d9 92 4f bb ab de 25 be 58 c7 89 3e 47 7f 99 be
       -0.0031673221 -0.16198222 0.269099 -0.29979917
000380 f3 d9 60 be 37 1a 0c 3e 6b 91 44 be b4 cf a1 bc
       -0.21958141 0.13681875 -0.19196098 -0.01975236
000390 04 ed 56 bd ee df 48 3e 60 15 31 be b4 17 36 be
       -0.05247213 0.19616672 -0.1729331 -0.1778248
0003a0 e0 37 30 bd 68 58 50 be 34 56 fe 3d 32 e7 45 be
       -0.043022037 -0.20346224 0.12418786 -0.19326475
0003b0 5d 2e 98 be ff 11 30 3d 21 9d 86 be 9b 7f 3d be
       -0.29722872 0.042985912 -0.26291755 -0.18505709
0003c0 f0 31 ae bd 08 49 34 3e 93 7f 21 3e 2a fa 63 3e
       -0.085056186 0.17605984 0.15771322 0.22263399
0003d0 56 0d ed 3d c3 08 3e 3e d6 6a 0a 3e fe 34 1a be
       0.11574809 0.1855803 0.13517317 -0.15059277
0003e0 d8 ee 53 be e5 8b e6 3d
       -0.2069658 0.112571515

bias_hh_l0 f4 [250]
000000 91 00 87 be 94 12 66 3d 91 30 a5 3d 3d 32 57 3e
       -0.2636762 0.05617006 0.08065904 0.21015258
000010 65 c6 97 be 41 83 26 3e 85 d2 11 bb 61 87 12 3e
       -0.2964355 0.16261007 -0.0022250724 0.14309455
000020 12 91 36 be ae 24 0f be 5c 79 45 be 66 fe 13 be
       -0.17828777 -0.13978836 -0.19284576 -0.14452514
000030 27 70 bb 3c 57 37 42 3e 46 14 26 3e 9d 13 70 3e
       0.022880627 0.18966423 0.16218671 0.23444982
000040 80 b7 dd bb 5c 76 b0 be 88 5d 5c 3e f3 5a 18 be
       -0.0067662597 -0.344653 0.21520054 -0.14878444
000050 c5 d5 81 be f1 ea 1f 3e 28 4f 62 3d 6f c5 32 3e
       -0.25358406 0.15616967 0.05525127 0.17458127
000060 17 2c e9 bd fb e2 8f bd 3e 8b f4 bd ab d0 04 be
       -0.113853626 -0.07025715 -0.11940621 -0.12970226
000070 c7 45 06 3c 2a 31 15 be 4e 2e 34 3e e0 10 44 be
       0.008195347 -0.14569536 0.17595789 -0.19147062
000080 ce e9 76 be a4 f3 96 bd de 5a c6 bd 7e c8 f2 bd
       -0.24112627 -0.073706895 -0.096853 -0.11854647
000090 1b bc 2c 3e 44 93 c9 bd 61 cb 96 3d 0e 33 37 3c
       0.16868632 -0.09842542 0.0736301 0.011181606
0000a0 67 5c 40 3d db 94 85 be 2f a7 9d be be 49 d2 bd
       0.04696312 -0.2609013 -0.30791613 -0.102679715
0000b0 5f 65 e3 bd c4 13 15 3d 58 5e 25 3e ee 00 1a bd
       -0.111033194 0.036395803 0.1614927 -0.037598543
0000c0 68 95 2f be d6 ab 22 3e ff 62 e8 3d 9b e5 8b 3d
       -0.17146838 0.15885863 0.11347007 0.06830903
0000d0 71 9a 5e 3d bf f1 5b 3e 31 44 7b bd be f8 57 3d
       0.054346506 0.21478938 -0.06134433 0.052727453
0000e0 91 7f 77 be 2e d6 31 3e 8a a0 0d bd e0 ba b9 3d
       -0.24169756 0.1736686 -0.03457693 0.09068847
0000f0 30 ba 5e 3e a8 a3 37 3e 7d 9c 48 3e 13 20 a7 3c
       0.21750712 0.17933524 0.19590946 0.020401036
000100 cb e0 2a be 60 5f bc 3d 66 e9 62 3e be ed 3b bd
       -0.16687314 0.09197879 0.22159347 -0.045881025
000110 6f 3c 02 bd 59 d3 61 be 8e 83 2f bd f4 15 30 3e
       -0.031795915 -0.22053279 -0.04285007 0.17195874
000120 06 20 a3 3d 50 0e 29 3e f7 cc e9 3d 97 6e ad 3d
       0.07965092 0.16509366 0.11416047 0.08468359
000130 db bc 15 bd 8a cb c3 bc eb 63 f4 bd 51 41 c5 bd
       -0.03655706 -0.023900766 -0.1193312 -0.09631599
000140 d4 45 74 bd 61 fa 07 be 2e 2b a4 bd 3f e0 3c be
       -0.059636906 -0.13279106 -0.08016048 -0.18444918
000150 0a 49 dc 3d b8 e0 a9 3d 2f 94 46 3e f7 22 98 3c
       0.107561186 0.08294815 0.19392465 0.01857136
000160 05 b5 3f be e3 b2 a6 3d cd 7e 22 be 5a fb 77 be
       -0.18721397 0.08139589 -0.15868683 -0.24216977
000170 f8 38 07 bd 4c a3 4a bd d0 fe c6 3d d6 1a 27 3e
       -0.033013314 -0.04947214 0.097165704 0.16318831
000180 e0 6e ca bd a6 da 0e 3e 83 7a 42 bd ce 2d 9b 3e
       -0.09884429 0.13950595 -0.047480118 0.30308384
000190 36 89 60 bd f6 93 3a 3b 26 b9 96 3d 9d 18 af 3c
       -0.054818355 0.002846954 0.07359533 0.021374041
0001a0 ef 68 95 3d fb 87 95 3c 85 6b 40 bd 02 43 b4 bd
       0.07295405 0.018253317 -0.04697754 -0.08801843
0001b0 a2 ab 7e 3e 05 7f 2e be 5a 2c ff bc ba db 88 bd
       0.2487016 -0.17040642 -0.031149078 -0.066825345
0001c0 49 6d 6b 3e 58 bb af 3d 79 e8 45 3e a9 f4 05 3e
       0.22990908 0.08580655 0.19326963 0.13081612
0001d0 cb 85 20 3e 3c ae a5 3d 59 f5 6f 3e 34 91 57 bd
       0.15676038 0.08089873 0.23433436 -0.05262871
0001e0 2f 26 a3 3d f4 65 8f 3e a2 e3 14 3e 46 25 13 bd
       0.07966267 0.28007472 0.1453996 -0.03592422
0001f0 7a f9 36 be 11 ff 02 bd 90 1c 3c be b2 b9 5c 3e
       -0.17868605 -0.03198153 -0.1837027 0.21555212
000200 f9 e5 62 3e 61 ff 4e 3d 20 46 1a 3e 03 be da 3d
       0.2215804 0.050536517 0.15065813 0.10680773
000210 9e c2 3c 3e 39 32 f9 bb 15 ec 0e 3e 83 84 14 3e
       0.18433616 -0.007604864 0.13957246 0.14503674
000220 5a 1f 3f 3e 98 ca 2b be 51 56 08 bd c1 69 0f be
       0.18664303 -0.16776502 -0.033285443 -0.14005186
000230 03 41 c5 bd e9 4c 94 bd c4 a3 e6 bd 6f c3 42 3e
       -0.096315406 -0.07241232 -0.112617046 0.19019864
000240 f0 41 c5 bd d1 49 ec bd c2 e8 f6 3d 7a 4b ce bd
       -0.09631717 -0.11537517 0.12056114 -0.1007299
000250 61 e4 61 be 6f d4 db bd 11 73 11 3d d0 15 7a be
       -0.22059776 -0.10733878 0.035510127 -0.24422383
000260 37 5a d4 3c bf 71 87 bd 70 9a 55 be f3 a4 46 be
       0.025921924 -0.06613492 -0.20859694 -0.1939886
000270 31 f2 53 bd e0 63 34 bd 84 ff bd 3d 90 aa 48 3e
       -0.051744644 -0.04404056 0.09277251 0.19596314
000280 3a 6f e2 bd 9b 56 30 3e 25 0a 3f 3d b7 e8 59 3d
       -0.11056371 0.17220537 0.046640534 0.05320045
000290 2c 9b ad 3d 12 2c f6 bd 02 56 1b be ba c3 19 be
       0.08476862 -0.120201245 -0.15169528 -0.1501607
0002a0 17 b5 0d 3e fb 4c 56 3e 40 ef b3 bb 06 38 4f 3e
       0.13838612 0.20927803 -0.0054911673 0.20236215
0002b0 ac 71 40 3d 87 1c b5 3d 82 7b 09 3e 8e d9 9e bd
       0.046983406 0.08843332 0.1342602 -0.07756339
0002c0 6f 1f 46 be f9 d1 f2 bd 44 e8 84 be 4b 54 83 bd
       -0.19347928 -0.11856455 -0.25958455 -0.06412562
0002d0 23 ce b6 be e7 9e dc 3d 43 fb 6f be 44 25 3f 3e
       -0.35704145 0.10772496 -0.23435692 0.1866656
0002e0 a7 ec a2 3d fc 8f 5f 3e 7a d4 22 be b8 91 1c be
       0.07955294 0.2183227 -0.15901366 -0.15289962
0002f0 6b 77 b7 3d cc 99 39 3e 73 60 11 3e a2 b6 58 be
       0.08958324 0.18125075 0.14196949 -0.21163419
000300 69 bf 11 be 72 d7 7c 3e 72 a5 a1 bd bb 90 cf 3c
       -0.14233173 0.24691561 -0.07892884 0.025337568
000310 3e e1 ee bd dd 4a 48 3e 59 14 b3 3d 9b 39 40 be
       -0.11664055 0.19559808 0.087441154 -0.18771975
000320 78 b8 27 bd 79 5f d1 bd 94 10 41 bd d8 f3 26 be
       -0.040947407 -0.10223288 -0.04713495 -0.16303957
000330 b3 be 8e be cc bf 93 3d a4 56 db bc 6f 28 85 bb
       -0.27879867 0.07214317 -0.026774712 -0.004063658
000340 77 1d aa 3d 4d 95 7b be 25 cc c9 3d 70 7e 57 3d
       0.08306401 -0.24568672 0.098533906 0.052610815
000350 9b 0b 58 3e ab 78 2f 3e cd 4f 57 be 53 9f 0a 3e
       0.21098177 0.17135875 -0.21026535 0.1353734
000360 db 6b 35 3e e1 8a 2e 3e c6 19 61 3d fe 86 ec bd
       0.17716925 0.17045166 0.05495622 -0.11549185
000370 ec 55 af bd 3e 93 2e be 25 3c 5a 3e a7 d7 85 be
       -0.0856131 -0.17048356 0.21312006 -0.26141092
000380 ed 63 76 be 97 b2 1d 3e b9 6f 2c be 45 c7 83 bd
       -0.24061556 0.15400158 -0.16839494 -0.06434492
000390 77 a7 ed bd cd dd 25 3e 52 be d9 bd 0a ca d4 bd
       -0.11604207 0.16197892 -0.10632004 -0.103900984
0003a0 69 57 b9 bd 3b 27 88 be 43 65 df 3d b9 87 42 be
       -0.09049875 -0.2659243 0.10907986 -0.18997087
0003b0 d4 61 84 be 94 fe f5 3d 64 75 71 be 6e df 2c be
       -0.25855887 0.120114475 -0.23579937 -0.16882107
0003c0 c3 45 23 be c1 1c 1d 3e 36 25 15 3e d7 27 30 3e
       -0.1594458 0.15343 0.14564976 0.17202698
0003d0 44 ec d9 3d a9 76 0a 3e 30 d5 ec 3c 7a ac 5c be
       0.10640767 0.13521828 0.02891025 -0.2155017
0003e0 37 77 2c be de df ed 3b
       -0.16842352 0.007259353

weight f4 [1, 250]
000000 bd 3d f9 bd 0b 31 32 bd 7c 6c 27 bd 71 0a c4 3c
       -0.12169979 -0.043503802 -0.040874943 0.02393076
000010 59 eb 20 bd de 81 bb 3d cc a2 62 3c 8d 70 9e bc
       -0.039286945 0.091556296 0.013832759 -0.019340778
000020 ce 9c eb bd 7f 68 21 bd 55 7c 10 be 84 d5 55 3d
       -0.115045175 -0.039406296 -0.14109929 0.052205577
000030 87 15 7a bd 89 13 a5 3d 3f 0f d0 3d f3 bf 31 3e
       -0.061055686 0.08060367 0.10159158 0.17358379
000040 1d 86 8d bd 5b 55 dd bd d9 fd d0 3d 3f 66 5d bd
       -0.06910346 -0.10807296 0.102046676 -0.054052588
000050 94 32 4b bd 83 ab 42 3d 6e bf 88 bc d4 ea 78 3d
       -0.049608782 0.047526848 -0.016692843 0.060770825
000060 de ce c2 3c 1c 1f 85 bb 76 e3 90 bd 2e 55 85 bc
       0.023780283 -0.0040625464 -0.07074635 -0.016275968
000070 8c 9d 05 3c c7 aa ec bd c7 35 d9 3d 67 b5 d6 bd
       0.008155238 -0.11556011 0.1060596 -0.104838185
000080 2a 1b ad bd 93 80 49 3d 61 26 d5 bd c6 ae 96 3c
       -0.08452447 0.049194884 -0.10407711 0.018393885
000090 c5 ff ec 3c 12 0f fa bb bf 21 73 3d 9f 6c ff bc
       0.028930554 -0.007631191 0.059358355 -0.031179724
0000a0 ac b7 5e 3d a7 04 b8 bd c6 32 16 b9 f1 d8 df bd
       0.054374382 -0.08985262 -0.0001432403 -0.1093005
0000b0 b9 ed 9b bd 5f 8f 44 3d f4 65 a5 3d a8 13 87 bc
       -0.076137014 0.04798829 0.08076087 -0.016488865
0000c0 1c 2c 25 bd 2e dd 05 bd 47 c8 08 3e 98 b1 06 3d
       -0.04032527 -0.032681637 0.1335765 0.03288421
0000d0 cc 2c ff 3d bf eb b6 3d 0b 28 81 bd 8a 3d 7d 3d
       0.12459716 0.08931684 -0.06306466 0.061826266
0000e0 d2 f9 43 bd e0 82 c1 3d 25 01 f4 bd c0 9f e2 3d
       -0.04784567 0.094487906 -0.11914281 0.11065626
0000f0 09 a2 bc 3d fb 0a 0c 3d 90 df cf 3d 8a de 8b 3d
       0.09210593 0.03419016 0.10150063 0.06829555
000100 bc 95 a3 bd b0 44 49 3b c2 8e ff 3d 82 47 a8 3d
       -0.07987544 0.0030711107 0.12478401 0.08216764
000110 80 55 29 bd 0f 37 61 bc 3e 59 2f 3d 40 4f 94 3d
       -0.041341305 -0.013746037 0.042809717 0.07241678
000120 58 5c e4 bc a7 5f bb 3d 97 0e 8c 3d e2 5e 97 bc
       -0.027876064 0.091491036 0.0683872 -0.01847786
000130 db 9c a4 bc a1 ef d9 3b 13 c3 a5 3c e0 e3 cb bd
       -0.020094326 0.0066508804 0.02023462 -0.09955573
000140 1c 9f 8d bd 5f a5 4e 3d 2c 9c fc bc 9e ae c5 3c
       -0.06915113 0.05045068 -0.030836187 0.024131116
000150 fd e7 7b 3d 9f f2 67 3d ad 59 8b 3d 42 da 09 3c
       0.06150054 0.056627866 0.06804214 0.008413853
000160 e1 e8 89 3b 39 ea 13 bd 7e 63 1f be 4d 71 bf bd
       0.0042086695 -0.036112044 -0.15565297 -0.09347782
000170 22 4b 1d 3c ef b4 a5 bd 58 ea 2d bd 5e a3 f6 bc
       0.009600433 -0.08091151 -0.042459816 -0.030107196
000180 79 2e 9d bd 4e c9 e3 3d 35 7f 32 3c 74 24 d0 bc
       -0.076748796 0.1112238 0.010894586 -0.025408007
000190 bb 8c 9c bb ad 2e 15 bd 3b 93 d0 3d 7c 5f d7 3d
       -0.0047775186 -0.036421467 0.10184332 0.10516259
0001a0 28 3d b5 3d d4 f2 dc bc 42 3a be ba cb f4 52 3d
       0.08849555 -0.026971258 -0.0014513212 0.051502984
0001b0 ab cb 03 3e 3a e2 a0 bd a5 3e dd 3c 44 27 33 3c
       0.12870662 -0.07855649 0.02700741 0.010934655
0001c0 e9 7b 49 3d 8a e0 12 3b 63 61 5e 3d 55 d5 b8 3d
       0.049190436 0.0022411668 0.054292094 0.09025065
0001d0 51 63 b4 3d 1a d5 b5 3d 1a 24 3a 3d 98 11 13 3c
       0.088080056 0.088785365 0.045444585 0.008976363
0001e0 77 89 31 3b bb 0d 8a 3d 00 9e 21 bc 83 4a b6 bd
       0.0027089992 0.067409 -0.00986433 -0.08900931
0001f0 b1 34 02 be ac 51 6c bd 65 ff 13 be b2 59 da bb
       -0.12715413 -0.057695076 -0.14452894 -0.0066635245
000200 3c b0 02 bc 6e 89 3d 3d bf 35 83 3d 21 e5 c3 bb
       -0.007976588 0.04627364 0.06406736 -0.005978242
000210 9d f4 02 3e 43 55 b5 3d bd 08 c0 3d 85 e2 b8 3d
       0.12788625 0.08854153 0.09376667 0.0902758
000220 f0 9f 0b 3e 1b f1 9d bd a7 cd 94 3d 62 3d 22 bd
       0.1363523 -0.07712003 0.072657876 -0.03960932
000230 4f 99 32 be e0 23 ec 39 0a 78 63 3c c5 0f 70 bd
       -0.17441295 0.00045040157 0.0138836 -0.05860879
000240 66 39 b5 bd 85 c0 fb 3b 6b 7e 9a 3d e5 9d a4 bc
       -0.088488385 0.007682862 0.075436436 -0.020094821
000250 14 f9 95 bd e5 bc fd bd 94 9b ed bc ff 84 1e be
       -0.073228985 -0.123895444 -0.02900485 -0.15480421
000260 4a 6c 08 bd 2b 25 d3 3c cf 0b c1 3c bc b8 bb bd
       -0.033306397 0.025774559 0.023565201 -0.09166095
000270 63 6c 9f bd 6c dc 77 bd 86 3d 0a 3e e4 bf 05 3e
       -0.07784345 -0.060512945 0.13500032 0.13061482
000280 63 b3 4e bd ac 1f e1 3d d5 f5 25 3d 56 bb 5a bc
       -0.050464045 0.10992369 0.040517647 -0.013350328
000290 8f 12 53 3d 62 97 32 3c ef 72 05 bd 67 8d 85 bd
       0.05153137 0.01090035 -0.032580312 -0.06521111
0002a0 2f a6 37 bd 58 93 8c 3d d2 80 68 bb 8f e2 77 3d
       -0.04483622 0.06864041 -0.0035477174 0.060518797
0002b0 60 58 61 3d d1 4c 09 3d 63 ee c8 3d 28 5a 76 bd
       0.05501592 0.033520523 0.09811094 -0.060144573
0002c0 44 4f 2a be 65 ca a3 bd 5d 1a 87 bd f8 fd 92 bc
       -0.166318 -0.07997588 -0.06596825 -0.017943367
0002d0 fe 1f d6 bd 75 85 a6 3d 42 85 96 bd bb 48 83 3d
       -0.10455321 0.08130924 -0.07349636 0.064103566
0002e0 5f dd f4 bc 6f b8 81 3d 5f 0c b4 bd 05 8b 72 bd
       -0.029890714 0.06334006 -0.08791422 -0.05921461
0002f0 b8 5c 11 3e 2b 7a cc bb 38 07 c6 3d c1 29 84 3d
       0.14195526 -0.0062401495 0.096693456 0.064532764
000300 4c 98 cc bd 15 33 e6 3d 5d 5b d7 bd 17 7c 83 bd
       -0.09989986 0.11240212 -0.10515473 -0.06420153
000310 74 33 9f 3c 81 00 73 3d 10 28 93 3d ed 5c df bc
       0.019433714 0.059326652 0.07185376 -0.02726599
000320 fd 5f da bc 58 36 b9 bd 32 44 26 bd c1 a5 97 bd
       -0.026657099 -0.090435684 -0.04059238 -0.07404662
000330 f3 41 ef bd 66 8c de 3c 8b 30 41 bd ec c7 c0 3d
       -0.11682501 0.027166557 -0.047165435 0.09413132
000340 e0 7a 84 3d 6d fa d0 bd 49 ff 23 bd 37 78 c2 bb
       0.06468749 -0.10204015 -0.04003838 -0.005934741
000350 c1 84 b7 3d 3d 1e 16 bd 01 f7 6c 3d f4 f2 4f 3d
       0.08960868 -0.03664993 0.05785275 0.050768808
000360 e7 26 1d 3e 75 1b dc 3d 97 08 d5 3c 2d be d4 bd
       0.15346871 0.107474245 0.026005073 -0.10387836
000370 92 50 8e bd 23 ed 94 bd f8 96 99 3d 21 54 54 3c
       -0.06948961 -0.07271793 0.07499498 0.012959511
000380 77 9e 08 be df 8e b6 3d be ac c9 bd 7c c9 0d bd
       -0.133417 0.08913969 -0.09847401 -0.03461598
000390 fe ba b0 bd 20 c2 e1 3d 49 c5 48 3d 57 2a f0 bd
       -0.08629416 0.110233545 0.04901627 -0.11726826
0003a0 9c 6d f9 3c 09 84 f1 bd f6 91 9e 3d 04 89 3b bb
       0.030447774 -0.11792762 0.077426836 -0.0028615603
0003b0 dc fe a7 bd 70 43 84 bd dd 76 a3 bd 07 46 1d be
       -0.082029074 -0.06458175 -0.07981656 -0.15358745
0003c0 28 73 27 bd 66 f5 12 3e 82 ad ca 3d 29 a2 29 3e
       -0.040881306 0.14351425 0.09896375 0.16565765
0003d0 e0 05 c7 3d 2a 0b 49 3d e1 25 b5 3c 60 13 f2 bd
       0.097179174 0.049082913 0.022112789 -0.11820102
0003e0 86 67 05 bd ac 11 0f bb
       -0.03256943 -0.0021830602
