model/RNN-000680.pth (torch, 265699 bytes, 5 tensors)

weight_ih_l0 f4 [250, 10]
00000000: e2e4 143d 44b4 68be ad48 92be d1a7 7bbe
00000010: aaa8 90be dd6a d53d 8b0b e53c b343 62be
00000020: 15e9 89be 7945 82bd 84db 1f3e db5e 62be
00000030: 7ea8 0bbe b021 58be 8cb1 61be 67b5 0a3e
00000040: 80ef 513e 3e65 4cbe d4a9 5abe af3d 1e3e
00000050: adbf 2bbe b51a de3d c0fd d33d 55ce 153e
00000060: 4f43 8d3d 7b0b f3bd 8273 2ebc 3fe9 4cbc
00000070: ec1c d13d f507 953d 8486 743e bc94 a4bd
00000080: adf5 05bd d0c5 92bd 6e77 c2bd bb19 f0bd
00000090: 0e6b 0dbe 95ac 683e 4745 813e 5c0c 7ebe
000000a0: 5097 b53e 9fff 893e c2ee 573e 4bbe 753e
000000b0: d6cc 773e 7439 d3bb 865f 13be b111 7b3e
000000c0: c6b1 843e aa6e 8dbe e02e 12bf 02c3 d73d
000000d0: d27b df3d fc07 033e f9ea 0a3e a3a8 79bc
000000e0: 6a00 903c a3a7 853a c5b6 393b aa5e 0c3e
000000f0: 45df 003d 3111 00be 690b 68be 34a0 2fbe
00000100: 1b02 3fbe 5e4c a1bc eb25 323d 3963 28be
00000110: 23ca 43be 1a3c 0ebe 79bb 00bf 77a3 cabc
00000120: f54b 533d 20df 3cbd 453c acbc 72b0 283d
00000130: 8226 a43d 65c2 2ebe eec5 16be b8b0 473e
00000140: 2fcd a63e 5386 45bd d930 993c 4294 92bd
00000150: 3a09 d23c a543 cfbd aac6 c1bd 7196 f53d
00000160: 126a a63d d141 bfbe a5e9 d43d e172 4abe
00000170: 4bbd 66be a797 51be 833d 6cbe 0dba c93b
00000180: 8b9d acbd 9528 1ebd 6cf3 39bd 3233 a8bd
00000190: a786 8e3e 93c5 123d 675a 01bd be1e fe3b
000001a0: 7423 86bc e14e 7c3d 0baf 6abd c098 173c
000001b0: 2a5a 203d ead0 10bf 8070 e1be 7990 66be
000001c0: 9811 20be 8ba9 62be 2d01 89be 850a 703e
000001d0: 45a4 943e e0b8 48be 9145 dfbd f254 1b3f
000001e0: 2a23 0f3f 0e03 1e3e 8e87 453d 32d2 c43d
000001f0: 6de3 0b3e 7da1 19be fea8 01be 5907 693e
00000200: 83bf 653e c4a4 a8be 6405 0dbf 0a88 32bd
00000210: a060 5ebc 2949 d2bd c9fb b1bc fcf3 cf3c
00000220: 7b4f 0a3e 7de5 82be 7548 8ebe 2fca bb3e
00000230: 48c5 9fbe 7b4d ca3d 5d7e ad3d 7a49 d33c
00000240: c3e7 e53d aef8 7a3d c96f 143e 87f9 91bd
00000250: b7e7 fbbd 4b04 5e3e 7346 373e bf68 773e
00000260: 3077 9a3e 5d6e 9c3e 3c63 903e 8b98 00bd
00000270: 9889 8dbd 9baa 033e 007d 533e ff6e 6cbe
00000280: 5598 313e c212 673e 5d6c 613e 3cb6 853e
00000290: 6956 523e 574b 99bd 868e 14be 0664 803e
000002a0: 40db 913e 2d23 acbe 79c5 8c3c 9735 30bc
000002b0: 6361 5dbd af7a 6ebc f62e 3fbd 23e8 d33d
000002c0: 8be2 a23d 170b 47bd aa8d f4bd 2b44 443e
000002d0: 475e 1abf c9c6 8dbc 11d3 fa3c 90c9 d4bc
000002e0: 5441 21bd efed 5e3d 2d12 183e 1397 28be
000002f0: 074e 04be 85c8 813e c824 c23e cb47 d03d
00000300: 3c89 ea3d 62e2 e83d 1648 1c3e a65e 5b3d
00000310: ad15 92bc e686 b03d a9a1 933d ae6c 26bf
00000320: 954f 8dbe de58 163e e512 1d3e def1 423e
00000330: 5294 de3d 8529 b23d 02c2 583d 0e0f dc3d
00000340: 9155 303e 2542 513e d12d 08bf a74b 23bd
00000350: 7f04 20bd 01db 1bbb 33e4 9dbd 5df6 583d
00000360: e96c af3d d7db 5ebe 2031 3fbe ba0a bb3e
00000370: 879b 793d 2ab9 85be 7a1f a1be 18e7 54be
00000380: dd2e 89be 7735 893d ccc8 a33d a7d0 60bd
00000390: 1df4 bcbd ccf4 cc3d 492c 4abe dea9 273d
000003a0: e2c3 923d a43c a23d e5b0 923d 0495 d9bb
000003b0: 4ecc 62bb b834 7d3d d1e4 59bc 26f3 e63e
000003c0: de8b 89be 658d 7abd 5006 edbd ee3e f8bc
000003d0: dbba 35bc 2e42 c0bd d5a6 82bd 7100 06be
000003e0: 63cf 14be 8478 a43e 5fcf 8ebd d346 ca3d
000003f0: 3477 963d 2d8b 143e 5480 e13d 1c0c b43d
0.036351092 -0.22725016 -0.28571072 -0.24575736 -0.2825368 0.10420773 0.027959606 -0.22096138
-0.2693564 -0.06360907 0.15611082 -0.22106497 -0.13638493 -0.21106601 -0.22040385 0.13545762
0.20501518 -0.19960496 -0.21353847 0.15453218 -0.16772337 0.10844938 0.10351133 0.1462949
0.06897604 -0.11867424 -0.010647656 -0.012506782 0.102105945 0.07276908 0.23879439 -0.08036181
-0.032704998 -0.07166636 -0.09495436 -0.11723658 -0.1381037 0.22722085 0.25248167 -0.24809402
0.35467005 0.26952836 0.21087173 0.23998372 0.24199232 -0.006446058 -0.14391908 0.24518467
0.2591688 -0.27623492 -0.57102776 0.10535242 0.10912289 0.12796015 0.13566197 -0.01523796
0.017578322 0.0010197054 0.00283377 0.13707986 0.031462926 -0.12506558 -0.22660603 -0.17150956
-0.18653147 -0.019689735 0.043493193 -0.164441 -0.19120078 -0.13890114 -0.5028606 -0.02473615
0.05158611 -0.046111226 -0.021024833 0.041183896 0.08015157 -0.17066343 -0.14723942 0.19501007
0.32578418 -0.048223805 0.01870005 -0.07157184 0.025639165 -0.10120324 -0.0946172 0.11991585
0.081257 -0.373549 0.10396127 -0.19770385 -0.22533147 -0.20468007 -0.2307034 0.006156212
-0.084284864 -0.03861292 -0.04539816 -0.0821289 0.27837107 0.035832953 -0.031580355 0.0077551296
-0.016374327 0.061598662 -0.05729584 0.009252727 0.039148487 -0.5656878 -0.44031143 -0.2251605
-0.15631711 -0.22134988 -0.2675871 0.23441513 0.29031578 -0.19601774 -0.109019406 0.6067649
0.5591303 0.15430853 0.04822498 0.09610404 0.13660975 -0.15003009 -0.12662122 0.22756709
0.22436337 -0.32938206 -0.5508635 -0.04358677 -0.013572842 -0.102678604 -0.021726506 0.025384896
0.13506882 -0.2556571 -0.27789655 0.3667769 -0.312052 0.098780595 0.084713675 0.025791872
0.11225846 0.061272316 0.14495768 -0.07127672 -0.123000555 0.21681325 0.17897968 0.24161051
0.30169058 0.3055295 0.2820071 -0.031395476 -0.069110096 0.1285805 0.20653152 -0.23089217
0.17343266 0.2256575 0.22013994 0.26115596 0.20540775 -0.07485073 -0.14507493 0.25076312
0.28487587 -0.33620587 0.017184006 -0.010754964 -0.054047953 -0.014555617 -0.046675645 0.10347011
0.07953366 -0.04859456 -0.11941083 0.19166629 -0.60300106 -0.017306702 0.030618222 -0.025975019
-0.039368942 0.05442613 0.14850684 -0.1646388 -0.1292039 0.25348297 0.37918687 0.101699434
0.11451957 0.11371304 0.15261874 0.05355706 -0.017832601 0.0861948 0.072085686 -0.6500958
-0.2759978 0.14682338 0.15339239 0.19037578 0.108681336 0.086993255 0.052919395 0.10745059
0.17220141 0.20435388 -0.5319491 -0.03986707 -0.039066788 -0.002378166 -0.07709541 0.052969325
0.08565695 -0.2176355 -0.18671083 0.3653162 0.060939338 -0.2611783 -0.31469327 -0.2079128
-0.26793566 0.06699651 0.07997283 -0.054886486 -0.092262484 0.10007629 -0.19743456 0.040933482
0.07166268 0.079217225 0.07162646 -0.0066400785 -0.0034606638 0.061817855 -0.013299183 0.45107383
-0.26864523 -0.06117 -0.1157347 -0.030303445 -0.011091913 -0.09387623 -0.06379477 -0.13086106
-0.14532237 0.32123196 -0.06973147 0.0987679 0.07346955 0.14506216 0.11010805 0.08791372

weight_hh_l0 f4 [250, 250]
00000000: fabd a2bd 8632 173e 58d6 eabd 445a f13b
00000010: f32e f2bd e953 88bd 0d5b a33d b450 fdbd
00000020: 45b4 0dbd 450f 003e 60ee 1fbd d429 0bbe
00000030: 3318 ce3d 09ad edbd c13e 213e bfcc 6cbd
00000040: 5d5f debd b678 903d eba3 cbbd 4055 16be
00000050: 0676 2ebe 84e2 d9bd e08d f2bd a834 2f3e
00000060: 86c2 963d c761 4dbe 1b69 5b3d 5db5 a03d
00000070: a3e4 63be 14c2 9d3d 24f1 3e3d e2ca d93c
00000080: 5dd5 07be 2a56 3abe bf0e a8bd 16c1 9fbd
00000090: 9ca6 2d3e fe20 ea3c 83ed 2cbe 22a5 2f3c
000000a0: cc70 613d 15b3 e03d 5836 03be 65ef 18be
000000b0: d450 663e 4a6b 06be 9740 343d 2f1e 123d
000000c0: 588d f6bb 15b8 173e 3122 94b9 d6f1 18be
000000d0: b7b0 b43c a954 303e 1cc2 413d 8c09 ebbb
000000e0: 3678 533d c4e5 c23d 2c9b dc3d 1e7c 3a3e
000000f0: 9b0a 68bd e272 10bd 4552 8dbe 5864 f2bc
00000100: 7c20 f0bd 0f48 eebd 819c bb3d 4dac 0c3e
00000110: 3027 28be 5657 27bc 0599 35bd edc0 12be
00000120: 2e94 943e 117f d4bd e8b0 b43c f9a6 943e
00000130: a319 b23d bcf9 c23c a5ce 093e eb18 eabc
00000140: 6a5c 47bc 16fb f6bd 3e77 a83b 038c f4bd
00000150: 16ef 48be b54b c9bd cda6 63bd 9b66 61be
00000160: 4da0 6f3d 339e 583e ab59 5abb 4959 0c3b
00000170: a3cc 313e b4dd 093e 34ba 883d 1a60 333d
00000180: f3f5 bbbd d853 793e 7485 763d 9615 7b3d
00000190: 6fc1 703e 090a d5bc 881a aabd 58c0 783d
000001a0: df1d debd f656 0d3e 4fe8 c43c d811 a13e
000001b0: 1016 393e a410 cb3d 6bfa 59bc 4f70 bfbd
000001c0: 2f53 fa3d 7991 adbd 0eeb 85bd 6a15 24bd
000001d0: 02b1 e33d f8ed 5a3d 281e fd3c 3259 453c
000001e0: 5e72 9cbd cb5a d3bd 7439 f83c 61b8 ed3b
000001f0: b69e dd3c 551f c8bd 6dea 5f3e 2c0c 783e
00000200: e329 0d3d 3b5d 403e 5553 bc3d b24f bb3d
00000210: 3715 fb3d d87c e23c 06fc 93bc c4ec 10be
00000220: f3f7 263e b277 ed3d 7895 563c 8d33 ddbd
00000230: 75a2 d63c 09f5 063d 9cf9 acbd 804f f6bd
00000240: 2bab de3b f8e5 16be 0765 a93d 4e37 afbd
00000250: 1243 ee3c a5be 99bc 4c9d 023e 845b bdbe
00000260: dfa7 7e3d d550 823c d455 413c 6baa df3c
00000270: 9ce4 e73d 7cd9 933d 91d6 bc3d 4fa5 f03d
00000280: 74da aa3d 1072 133e b04d 09be 4d15 823c
00000290: 402c 173e a8b8 2ebb dd9f fbbd 5082 3b3c
000002a0: 9f1b 2bbe 4ef1 91bc 79f8 923c e5ff 583e
000002b0: 18b6 8cbc 7d52 a83d 12d8 953d 48fa dd3d
000002c0: 3a61 84bd 9a7d babd bf78 b8bc 42b6 00be
000002d0: 5863 2cbe 83e3 0fbe e449 07bc af78 34bd
000002e0: 94ef 97bc e259 1d3e 3e4a 30be 09d0 5bbd
000002f0: 7f40 9c3d 535d 2b3e ba71 32bd 5911 683d
00000300: 7980 45be 53e7 d6bc d4af 8dbb f67a 463d
00000310: cf2c 8dbd d47a 913d bfb8 8e3d 9220 acbd
00000320: a66b 9fbd 4913 76bd 7730 d53d 7c07 143e
00000330: 7b7a d0bd 6a04 debc 949f 823d f37c 3dbd
00000340: 2a83 2dbe 5be9 34be 26f3 e8bc 164d 6ebd
00000350: 1520 3b3e 293d b0bd fbf9 91ba c67c 2db9
00000360: bc17 b33d 10b8 7dbd 2bb6 0cbe a9e2 443c
00000370: 4f97 16be a521 02bd 395f a4bd 787f 003d
00000380: 087e 6e3d e4b1 b6bd dc38 4d3e e5d8 18be
00000390: d355 f8bd 0b11 2c3d 55b7 30be 262b 603d
000003a0: d4ce cebd 47d2 0cbe 1ce2 5a3e a538 4ebd
000003b0: 46d7 123e d7fb a7bc a4b2 50bc a793 debc
000003c0: 8b56 10be 14e0 65bd 3a03 413e 316a d9bc
000003d0: 4b80 b53d c60c eb3d 6834 af3c 1312 bdbd
000003e0: 41a9 553c 813b edbd b8c4 0fbd 1438 e03d
000003f0: 2b52 873d 667f 98bc 8212 9fbd 3f48 783d
-0.079463914 0.14765367 -0.11466664 0.007365497 -0.11825361 -0.066566296 0.07976351 -0.123689085
-0.034595747 0.12505825 -0.03904569 -0.13590175 0.100632094 -0.116052695 0.15746595 -0.05781245
-0.10858033 0.07054274 -0.09943374 -0.14680958 -0.1703721 -0.106389076 -0.11843467 0.1710993
0.07361321 -0.2005683 0.053567033 0.07847092 -0.22255187 0.07703033 0.04661669 0.026586
-0.13264985 -0.18196931 -0.082059376 -0.078005 0.16958088 0.028580185 -0.16887479 0.010720523
0.055039212 0.10971657 -0.12813699 -0.14935072 0.22491771 -0.13126865 0.04400691 0.035673317
-0.0075241737 0.14816315 -0.00028254234 -0.14936003 0.02205692 0.17219795 0.047304258 -0.007172769
0.051628314 0.095164806 0.10771784 0.1821141 -0.05665074 -0.03526581 -0.2760183 -0.029588863
-0.11724946 -0.11634838 0.0916071 0.13737603 -0.16421199 -0.010213694 -0.044335384 -0.14331408
0.29019302 -0.103757985 0.022057012 0.2903364 0.08696296 0.023800723 0.13457735 -0.028576335
-0.012168029 -0.120596096 0.005141168 -0.119407676 -0.19622454 -0.09828893 -0.055578995 -0.22011797
0.058502484 0.21154098 -0.0033317606 0.0021415523 0.17363219 0.1346348 0.066761404 0.04379282
-0.091777705 0.2434839 0.060185865 0.061299883 0.23511289 -0.026005762 -0.08305842 0.06073031
-0.10845541 0.13802704 0.024036555 0.31458926 0.18074822 0.09915283 -0.013304333 -0.09347593
0.12222897 -0.08475012 -0.06538974 -0.040059485 0.11117746 0.0534496 0.030898169 0.012045192
-0.07639001 -0.10320052 0.030300833 0.0072546457 0.027053218 -0.09771601 0.2186677 0.24223393
0.034463774 0.18785565 0.09195582 0.0914606 0.12259906 0.02764742 -0.01806451 -0.14152819
0.16305523 0.11595096 0.01309716 -0.10800848 0.026200512 0.032948527 -0.08446047 -0.12026882
0.006795307 -0.14736164 0.082712226 -0.085554704 0.029084716 -0.018767664 0.12755316 -0.36983883
0.062171813 0.015907684 0.011800248 0.027302941 0.11322901 0.07219216 0.09220613 0.1175028
0.08342448 0.1439898 -0.13408542 0.015879298 0.14762974 -0.0026660357 -0.12286351 0.011444643
-0.16709755 -0.017815258 0.017940747 0.21191366 -0.017176673 0.082188584 0.07316603 0.10838753
-0.06463857 -0.09105988 -0.022518514 -0.12569526 -0.16834772 -0.14051633 -0.008257363 -0.044060405
-0.018546857 0.15366319 -0.17215821 -0.053665195 0.07629489 0.16734819 -0.04356549 0.05665717
-0.1928729 -0.02623335 -0.004323939 0.04845711 -0.06893312 0.07103506 0.06968831 -0.0840465
-0.07784204 -0.060076986 0.104096346 0.1445598 -0.10179611 -0.027101714 0.06378093 -0.04626174
-0.16944566 -0.17667143 -0.028436255 -0.058178984 0.18273957 -0.086054154 -0.0011137122 -0.00016545047
0.08744761 -0.061943114 -0.13741367 0.012016931 -0.14706157 -0.031770367 -0.08025975 0.031371564
0.05822566 -0.08920649 0.20041221 -0.14926489 -0.12125745 0.04200844 -0.17257436 0.05472865
-0.10098043 -0.1375209 0.21375316 -0.05034699 0.14339933 -0.020505829 -0.012737904 -0.027170015
-0.14095514 -0.0561219 0.18848887 -0.026539894 0.088623606 0.11477046 0.021387294 -0.09231963
0.013040842 -0.11583615 -0.035099715 0.10948196 0.06607469 -0.018615436 -0.07767202 0.060615774

bias_ih_l0 f4 [250]
00000000: 2068 613e 1789 1b3e b16e 4cbd 1938 70be
00000010: 3007 14be 10a0 e53c 96c3 3c3d 2247 003e
00000020: 565a 0cbe 75a0 5a3d e0b5 c5bd 82ea 483e
00000030: 7058 58be 39fa 783e ea21 363d 390a 23be
00000040: 9853 55be 2dea 263d 8f57 193e c1f5 b2bd
00000050: 63b8 51bd 93d4 493e 89f7 f43c d7d6 b3bd
00000060: e54c bf3d 2e54 28bc e212 65bd 254f 743d
00000070: e375 0e3e 575e bb3d 0750 26be 48cb 38bc
00000080: f9c1 5ebd 3eff 27be c346 edbd aa76 533e
00000090: ce37 5f3e 96fb bb3c 9e33 33be 8d4c 533e
000000a0: 3aaf 81be 9d65 0ebd 2d65 533d 7288 e1bc
000000b0: 9352 8d3d 83d8 ffbd 3666 943d 7a3c 4abe
000000c0: 5efc 7b3d 7dfd ea3d ef9f 5fbe 60fc bc3d
000000d0: 07a9 773e 406b 853c b146 6e3d 3bbb 90bd
000000e0: fb22 9b3e 8c57 2fbe f8d1 a93d 6146 723c
000000f0: 6f6a 1f3d c59b a6ba 6821 cebd b066 6abe
00000100: f3dd 12be 5acd 2dbd 9ebf 09be ce66 7ebd
00000110: 92ff fd3d 9850 433e 4e14 17be f4da 6dbd
00000120: 30ba 213e 7c3f 003e fb42 7f3c ab00 0a3e
00000130: 6c64 8ebb ce7b b9bc 0666 173e 92be b83d
00000140: 5704 d8bb 4116 16bd 8845 09be 930a 0b3e
00000150: d794 323d 4e88 f3bd 4225 843e e35c 923c
00000160: eeb3 1f3d cc95 c73d 1433 b9bd 425e 10bc
00000170: be5e 10be 7d81 5bbd 394a c6bd da85 af3c
00000180: e3b8 9ebb eb13 183e 2af4 1b3d e61c 683c
00000190: 48d4 2d3e 2ebd 4f3e 6e95 57bd b158 cd3b
000001a0: c71e 933d 6552 5ebc 92a2 94bc 5fcb a4bd
000001b0: 9e0a 023d c73d 0cbd cb6e 20bd 308e b1bc
000001c0: 0310 e03d e8bd 483d 5879 55be ad9c 70bd
000001d0: 5a09 063c 388b b5bd 255c 563d 4f32 9bbd
000001e0: 001c d73c 9848 003e f79b 4abe bd7b 563e
000001f0: 5525 dc3d 2902 2ebe 6bf0 193e fcaf c83d
00000200: b7d5 26be cd74 d93d 83b0 cd3d 4ba1 b03c
00000210: 1c9e 32be 8a31 11be b589 3d3d 14b8 cc3b
00000220: 1f56 b6bd bf9f d33d 9d34 ccbe 740d 503e
00000230: 5fa7 ad3d 2ed9 95be da22 933d 773e f8bd
00000240: 2119 983d fba8 ea3d 62f1 2d3c b317 f2bc
00000250: b8d7 41bc 42d6 92bc 8aa6 be3c 41a9 ddbd
00000260: e49e eabd 5251 2cbd de61 b13d df81 083e
00000270: 9a59 f2bd 76ea 803e f775 f5bd 2cac c8bd
00000280: a7dc 3a3c 6285 62bd 21ee 07bd 6a83 5b3b
00000290: 7192 cf3c 2c58 f63a 83fd 1fbd d087 1abe
000002a0: 4c58 da3d 9182 ccbc 6dc7 453e aecb e0bd
000002b0: ee8a 4f3e a7a7 1dbd a15a c9bd bda2 11bc
000002c0: 76f2 2b3e 10af a1bd 5246 bcbd 5100 03be
000002d0: 5993 d33d 9b2b 9cbd 39ef b33d 9eba b23d
000002e0: 6224 56bd 80cf 10bd 0d8f cb3c c2ae 723b
000002f0: 82b7 7cbe 3929 a7bd 0805 c63d c23f 10be
00000300: 65d9 9fbc 0878 3fbd 1318 9bbd d2c7 cebd
00000310: afb3 d0bb fa7a 52be 5377 fa3c 0cb9 49bc
00000320: 58e3 343e 36bd febc 55c9 103e c6a0 abbc
00000330: b3c3 003e 722a d93d 5187 d83d 2075 803c
00000340: 705e 99bd d0bb 73bd 3173 4abd a5ca 0d3e
00000350: 751a 0b3e 7c9d d53d fa0c 3dbe 60d2 27be
00000360: 1ccc d63d 1884 1b3e 3af1 fc3c f12c 0abd
00000370: ae89 8a3d 990b ea3d a4a1 48bc 7cb7 2cbb
00000380: 7fe6 ecbc b659 dc3c 7b4d 813c 8cf4 2bbe
00000390: 89e6 06be 1900 39bd c5f3 4bbe 4095 9f3e
000003a0: f2ff 583e e3df 8d3d 510b d63d 1ae7 713e
000003b0: b8c1 e63c e140 3fbe c602 ff3d 7804 f33c
000003c0: 06d7 e4bd 7305 5abd 96b3 f63d a389 533e
000003d0: 772b 523d b95d a5bd 3f30 47be 1003 10be
000003e0: 5a11 173e c030 623d
0.22012377 0.15189014 -0.04991025 -0.234589 -0.14455867 0.028030425 0.046084963 0.12527135
-0.13706335 0.05337568 -0.096538305 0.19620708 -0.21127486 0.24314202 0.044465937 -0.15921868
-0.2083267 0.04075067 0.14974807 -0.0873828 -0.051201236 0.19709997 0.02990319 -0.08781212
0.09340838 -0.010273976 -0.05592621 0.05964579 0.13912158 0.09148853 -0.16241466 -0.011278935
-0.054384205 -0.16405961 -0.11585762 0.20650735 0.21798632 0.022947114 -0.17500159 0.2063467
-0.25329 -0.034764875 0.05161016 -0.027530883 0.069005154 -0.12492468 0.07246058 -0.19749632
0.061519973 0.1147413 -0.21838354 0.09227824 0.24185573 0.016286492 0.058172885 -0.070669614
0.30300125 -0.1712324 0.082920015 0.014787287 0.038919862 -0.0012711218 -0.100649655 -0.22890735
-0.1434248 -0.042432167 -0.13452002 -0.06210976 0.12402262 0.19073713 -0.1475384 -0.058070138
0.15793681 0.12524217 0.015579934 0.13476817 -0.0043454673 -0.022642042 0.14785013 0.090207234
-0.006592314 -0.036642317 -0.1340543 0.13578252 0.043598976 -0.118912324 0.25809675 0.017866557
0.038989954 0.09745368 -0.090429455 -0.008811535 -0.14098641 -0.053590287 -0.096821256 0.02142613
-0.0048438176 0.14851348 0.03807465 0.014167046 0.1697551 0.2028701 -0.05263274 0.0062666764
0.07183605 -0.013569449 -0.018143926 -0.080466025 0.031748407 -0.034238603 -0.03916816 -0.021674246
0.10940554 0.049009234 -0.2084707 -0.058743168 0.0081809405 -0.088644445 0.05233397 -0.07577955
0.026258469 0.12527692 -0.19786058 0.2094564 0.10749308 -0.16993012 0.15033118 0.09799191
-0.16292463 0.10617981 0.100434326 0.021561285 -0.17443126 -0.14179054 0.046273906 0.0062475298
-0.08903145 0.103332035 -0.3988389 0.20317632 0.08479189 -0.29267257 0.07184382 -0.12121289
0.07426668 0.11458012 0.010616632 -0.029552316 -0.0118312165 -0.017924432 0.023272771 -0.10823298
-0.11456087 -0.04206974 0.08661245 0.13330792 -0.118334964 0.2517888 -0.11985391 -0.09798464
0.011405147 -0.055302985 -0.03318608 0.0033495077 0.025338383 0.0018794588 -0.039060127 -0.15090871
0.106613725 -0.024964603 0.19314356 -0.10976349 0.20267841 -0.038489964 -0.09831739 -0.0088888975
0.1679171 -0.07894719 -0.091931 -0.1279309 0.10330839 -0.076255046 0.087858625 0.08727001
-0.05228079 -0.035354137 0.024848485 0.0037030433 -0.24679378 -0.081621595 0.096689284 -0.14086822
-0.019512841 -0.04674533 -0.07572951 -0.100967064 -0.006369076 -0.20554724 0.030574476 -0.012312185
0.1766485 -0.031096082 0.14139302 -0.020950686 0.12574653 0.10603799 0.105726846 0.01568085
-0.07488716 -0.059505284 -0.04942626 0.13846834 0.13584311 0.104304284 -0.18461981 -0.16388845
0.104881495 0.15187109 0.030876745 -0.033734266 0.067645416 0.11427993 -0.012245569 -0.0026354482
-0.028918503 0.026898246 0.015784016 -0.16792506 -0.1317388 -0.04516611 -0.1991721 0.31168556
0.21191385 0.06927469 0.10451377 0.23623314 0.028168544 -0.18677093 0.12451701 0.029665217
-0.11173825 -0.053227853 0.12045972 0.20657973 0.051310983 -0.08074517 -0.19451998 -0.14063668
0.14752713 0.055222273

bias_hh_l0 f4 [250]
00000000: a0de 243e 7d2f 183e 8100 b8bc ad00 87be
00000010: 14d4 41be 0f8c 0d3b 0477 0d3e 9ad5 db3d
00000020: 7583 2dbe 96eb e73d 6618 68bd 7207 1a3e
00000030: 4ac3 8dbe 6858 3e3e d076 403d 60d9 01be
00000040: 4517 79be 3c6c 1b3e e164 423e cb4f 853c
00000050: 1a6f d2bd b792 2b3e b1f7 593c 71c5 37bd
00000060: a902 6c3d 6a84 9c3d 7975 0ebc f841 7e3d
00000070: af22 c63d d1fa c93d 1114 05be 186a 6bbd
00000080: 6c94 8cbd d620 4bbe 08f2 2bbd ab06 893e
00000090: e3dc 363e 594c f93d f21e 1ebe 15bc 713e
000000a0: e003 5abe e206 793b 3bae 6c3d 47cc 1f3d
000000b0: 5257 843d 5e35 25be 108d 923d a084 3cbe
000000c0: 4798 2b3d 9ccd 423c 5fb4 62be 68a4 ea3d
000000d0: be23 2c3e f895 b1ba 7588 a53d bd67 7fbd
000000e0: dc1b a13e ae54 16be c55f 203e de58 e33d
000000f0: f346 803d bb42 4d3d 74b8 a8bd 1d20 47be
00000100: 1ad1 01be b91c 79bd ad2b c9bd 5064 c2bd
00000110: 2220 553d 2827 273e b488 79bd f87b cdbd
00000120: d27f 2e3e 6d39 003e b8bc ed3c d9c3 373e
00000130: 6670 28bd bef3 aabd ca29 823d 3e4f 913d
00000140: 6c04 b83d 80b0 10bd e115 50be 1d23 363e
00000150: 8d8b 563c fc2a acbd cf8c 6b3e 984a 4d3d
00000160: 647d af3c 21ee 5b3d b28c 50bc 8daf ab3c
00000170: b056 a6bd 97eb bbbc dc56 43bb c856 89bd
00000180: 87bc 643d 6d7e 043e 8fdc 353d 4b01 e43b
00000190: 81aa 503e f293 713e c444 fbbc f86a bc3c
000001a0: 75fb 513d f2af a43d 0b6b 843d 9330 42bd
000001b0: b209 d43d 142d 1abd 3565 38bd 5e29 67bd
000001c0: 5a4d e23d 612c 8cbb bedc 24be bc03 fe3c
000001d0: 86fa 30bc 269b a7bd f887 ff3d 38a0 26bd
000001e0: d706 a93d 194a a33d 1080 82be 4655 443e
000001f0: 2927 e63d 4324 12be 4ef6 453e d565 e03d
00000200: c73a 1ebe 5cfd 493d 0004 a23d 42f8 f5bc
00000210: 108c debd 85f3 0ebe 2445 833b 9de2 31bd
00000220: 9e37 20be 6595 c63d b1c3 91be 74bd 6c3e
00000230: 55b6 063e 9aea 6dbe e7d7 713d a9bd 44be
00000240: 67a1 7b3d 6429 3d3d b80b 0cbc 916b 013d
00000250: 1d44 2a3d 1d94 67bd 1191 583d 8d5a c1bd
00000260: 078a a3bd babd 89bd 530f 1a3e 0efd 363d
00000270: 4571 b0bd 5cb6 293e ae1b 1dbe 1cc1 c9bd
00000280: 56cf 8dbd b301 f6bd 72af a43d 1ec2 69bd
00000290: 22c6 0e3c cad4 ebbb 5ac5 44bd 2ab6 d0bd
000002a0: a52c bd3d 536b 27bd 33b4 2c3e e63f abbd
000002b0: c818 753e 3673 a2bd 0677 38be f874 353b
000002c0: 95f5 5c3e da48 c6bd de79 8dbd 4975 e7bd
000002d0: ab4a 1a3e 0781 1fbe 6035 bd3d a484 b23c
000002e0: 31ea de3c 0d2f 99bd 0fd1 b53c 8439 953c
000002f0: ac8f 4dbe 06f4 94bd bb9f b73d 9e49 22be
00000300: 4d12 9fbc 1530 a0bc 3e99 6bbd 13d3 17be
00000310: b2da 32bd ff30 07be d2dd 1cbd 7b57 bebd
00000320: 51c6 7f3e eab3 a23c 0c69 3a3e f124 6abb
00000330: c0c1 7b3d e0fe 783c 7f6d b73d b36a 3dbd
00000340: eaa3 25bd 5c2e 9abd c210 05be c1ae 0b3e
00000350: e50c a63d a899 ff3d 55e5 59be 520a 0fbe
00000360: d6ac d33d 71bd 463e 5262 1fbd 5b27 9cbd
00000370: b727 e73c 5d1b 0f3e b503 bebd a933 e1bc
00000380: 412d 79bd 0463 853d b766 08bd 115c 02be
00000390: 93c6 00be c09f 51bd b628 5dbe f05f 7c3e
000003a0: 6cab 763e 846d 753d 0e96 dd3d bbe8 3f3e
000003b0: 626e c33d 0f14 52be 68db c93d 357f 36bc
000003c0: d81e 3fbd 731b c2bd 0957 363e c1c6 4e3e
000003d0: 873b 0fbb a402 35bd 96d0 5cbe 9a90 1fbe
000003e0: 7b94 3b3d 3057 1f3c
0.1610055 0.14861865 -0.022461178 -0.26367703 -0.18928558 0.0021598374 0.13814932 0.10734101
-0.16944678 0.11324231 -0.056663893 0.15041903 -0.27688056 0.18588412 0.04698831 -0.12680578
-0.24325283 0.15178007 0.18983795 0.0162734 -0.10275097 0.16755186 0.013303683 -0.04486603
0.057619724 0.076424435 -0.008695 0.06207463 0.09674584 0.098622926 -0.12995936 -0.057474226
-0.06864247 -0.19836745 -0.041978866 0.267629 0.17857699 0.12172765 -0.15441492 0.23606904
-0.2129054 0.0037998487 0.057783347 0.039013173 0.064619675 -0.16133639 0.07155812 -0.18409967
0.04189327 0.011889841 -0.22139119 0.11457139 0.1681051 -0.0013548722 0.08082668 -0.062354792
0.31466568 -0.1468074 0.15661533 0.111009344 0.062635325 0.050112467 -0.08238307 -0.19445844
-0.12677422 -0.060818408 -0.098227836 -0.09491789 0.052032597 0.1632353 -0.060921386 -0.10033411
0.17040947 0.12521906 0.029020652 0.17945804 -0.041122817 -0.083472714 0.06355627 0.070951924
0.089852184 -0.035324574 -0.20320846 0.17786832 0.013094795 -0.08406636 0.23002933 0.050119966
0.021422096 0.053693894 -0.012728857 0.020957733 -0.08122003 -0.022939486 -0.002980641 -0.06706005
0.055843856 0.12938853 0.044399794 0.006958162 0.20377542 0.23591593 -0.030672438 0.023000225
0.0512652 0.080413714 0.06465729 -0.047409605 0.10353412 -0.037640646 -0.045018394 -0.056435935
0.1104991 -0.0042777513 -0.16099831 0.03100764 -0.010801917 -0.08183889 0.12477106 -0.04068014
0.08253258 0.079731174 -0.2548833 0.19173154 0.11237938 -0.14271645 0.19332239 0.10956923
-0.1545211 0.049313888 0.07910919 -0.030025605 -0.108665586 -0.13960083 0.004006045 -0.043429006
-0.15646216 0.096964635 -0.28469613 0.23119146 0.13155492 -0.23234025 0.05904379 -0.19212975
0.061433222 0.04618205 -0.008547716 0.031596724 0.041568864 -0.056537736 0.05287272 -0.09441099
-0.07985311 -0.067256406 0.15044908 0.044674926 -0.086153544 0.16573471 -0.1534259 -0.09851286
-0.06924312 -0.12012043 0.08041276 -0.05706989 0.008714231 -0.0071969973 -0.04803977 -0.10190995
0.09237031 -0.040873837 0.16865616 -0.08361797 0.23935235 -0.07932131 -0.18014154 0.0027688127
0.21578057 -0.09681864 -0.0690801 -0.11301667 0.15067546 -0.15576564 0.09238696 0.021791764
0.02721128 -0.07479677 0.022194413 0.018215902 -0.20074338 -0.07273106 0.08966013 -0.15848395
-0.019417906 -0.019554177 -0.05751919 -0.14826612 -0.043665595 -0.13202284 -0.03829748 -0.09294029
0.24977995 0.01986118 0.18204135 -0.0035727585 0.06146407 0.015197486 0.089564316 -0.046244334
-0.040439524 -0.075283736 -0.12994674 0.13640882 0.08107928 0.124804795 -0.2127889 -0.1396878
0.103357 0.19408204 -0.038912125 -0.07624694 0.02821718 0.13975282 -0.09278051 -0.027490454
-0.060834173 0.06513026 -0.03330108 -0.12730433 -0.1257575 -0.05117774 -0.21597561 0.24645972
0.2408883 0.059918895 0.10819636 0.18741123 0.09542538 -0.20515464 0.098563015 -0.011138727
-0.046660274 -0.09477892 0.17806639 0.20193006 -0.002185555 -0.04419197 -0.21563944 -0.15582505
0.0457959 0.009725377

weight f4 [1, 250]
00000000: 4054 4cbd 7832 193e 5f67 e53d e111 e73c
00000010: 53db 03be df51 c13d ff18 45bd 2d09 e93d
00000020: 8040 3abd 9c00 2f3d 0988 c2bd fd1f 213e
00000030: 37b3 f4bd 4a5a a03d 649d b83d f16e 39bd
00000040: 8ed4 21be 5c9b f53c 4f78 db3d c968 d5bd
00000050: 0caa c93d c448 ac3d 9f7e 87bd c31c 863d
00000060: b171 663d c355 6e3d 3b1f 1ebe a2b2 363e
00000070: ccb7 c6bd e2ff f5bc 5dcb 453d 1994 cfbd
00000080: b58e 0c3e 156b 0bbd 534a d0bd 2e32 3dbd
00000090: f584 b3bd a0b3 383d 0fc2 fe3d cc01 95bd
000000a0: ac03 16be e337 a1bd 2bba 3a3d b38d a23d
000000b0: 0a56 abbd 5bd9 9fbc e127 c9bd ec5d 17bd
000000c0: aa6c 8a3d 512c cf3d 3a0f 61bc 2070 c83d
000000d0: cebd 633d 6796 d1bd 10b7 eb3d 7265 ed3d
000000e0: f766 6cbd 6d3b 27be 6359 b8bc e470 80bd
000000f0: c7ff 863d 7ca3 d93d 2b9a cd3d 8545 e6bd
00000100: ed3a 183c 6e19 c6bd fa7e 793d 6495 cabd
00000110: 6b62 353e 039e 103b 12cb b13c ce86 d1bc
00000120: 048a 4ebd 2909 3e3c 64e7 a83d 2d08 0a3d
00000130: 425c 053e feae a0bd 3029 6cbd e755 9d3d
00000140: dff7 c7bc 1f28 99bc d8ae 58bd 0aaa af3d
00000150: 4ab5 953d e272 093d aa77 5bbd f11c 08be
00000160: 0fa3 5b3d f73e 89bd cced 5e3d 7379 9d3d
00000170: 5c14 80bd df55 82bd f1e5 02be a30b 9b3d
00000180: 2683 9a3d 27f3 96bd b682 e0bd e721 0dbc
00000190: a155 90bd 5d10 493d 4179 3bbd 679e 103e
000001a0: 0103 ca3d 2c7a edbd 2784 f7bd e431 46bd
000001b0: 5b2d 31bd 4ea9 67bd c93c 1fbd 18b4 623c
000001c0: edc1 70bd d0c7 a13d f259 97bd 864b a4bd
000001d0: bdc7 94bd df67 41bd 424b 2e3d 7cd4 d73d
000001e0: a360 2f3e fe5a 743e 930e 31be 48e6 233e
000001f0: ec68 473d 1227 b6bd 9165 c43c fe94 acbb
00000200: 6444 d0bd 32e5 873c 467e 273e 4dd4 8f3d
00000210: e6a3 90bd 828e e6bd f407 cb3d dc8a 873d
00000220: 3ea3 973d 57ac c63b abad 2abe 04b7 90bd
00000230: ad19 a23d de4b 85bd 1b57 983d cbd0 333d
00000240: 0681 9c3d c5f8 803d bedc 93bd a1a8 a2bd
00000250: 2231 33bd 7568 973c fbb9 3e3d 71b4 ad3d
00000260: 5ea2 4d3d 1f09 d0bd d320 213e 8295 d0bd
00000270: 3b4b 90bd 3314 24bd da08 7abd 3ebd b5bd
00000280: 12aa 81bd ccab 57bd ceaa f13d 68a6 073d
00000290: 1dab 043e 9c1a 04be b821 43bc 2f95 833d
000002a0: c93e bb3d e6d9 72bd 2ddd 7f3d 8549 78bd
000002b0: 5209 d03d fb7e 783d e7bf 843d da9d 19be
000002c0: 7140 5dbd 0595 9b3d cd55 3f3d 501b b53d
000002d0: 4f0a ff3d 65de c7bd e199 91bd f85b 95bd
000002e0: f147 77bc 147f fc3c d83b 083e 5fc9 e03c
000002f0: f5c9 03bd 50bd 06be c72d cb3d 5d92 13be
00000300: 1ae1 55bd 60eb dbbd bf13 d2bd 483e cdbd
00000310: b369 4e3d c28d 97bd 6ff5 d3bd b3a7 8e3d
00000320: e30f 4dbd fd7f 9cbd 9372 473d 41f9 c1bd
00000330: 7183 3bbd 84fd 46bd bdc8 c33d 50c3 a63d
00000340: 02f2 ee3c 145a 24bc 2bd9 fc3c af59 e03d
00000350: 1a98 7bbd 7526 31bd 6021 b43d eb25 d4bc
00000360: 9103 82bd c0e9 34bd 0bfd 013e 206e 14bd
00000370: 711f a83d 264e f63c ada0 0f3e 12fa ad3c
00000380: 84b7 43bd a2cf 7cbd 0e26 853d ad43 2abe
00000390: 4a03 2a3d 4e91 663b 51b8 063d 04de a03d
000003a0: 3b32 933d 6253 603d 2fe1 e6bc ed94 f2bc
000003b0: 1db8 bebd 7054 c93d 9e1d 433d bbd3 313d
000003c0: 35a3 663d 3b58 b93d b3a5 8cbd 834d 1a3e
000003d0: 967e cf3d 08d9 033d b962 9c3d 9937 073e
000003e0: ed1c bd3d dbc5 b2bd
-0.049885035 0.14960659 0.11201357 0.028206768 -0.12876634 0.09439444 -0.04811954 0.11378703
-0.04547167 0.04272519 -0.09498603 0.15734859 -0.11948245 0.07829721 0.09014395 -0.045271818
-0.1580374 0.029981308 0.107163064 -0.10420377 0.09846887 0.084123164 -0.06615948 0.065484546
0.05626077 0.058187257 -0.15441601 0.1784158 -0.09703025 -0.030029241 0.048289645 -0.10135669
0.13726313 -0.03403767 -0.10170426 -0.046190433 -0.08765594 0.04509318 0.124393575 -0.07275733
-0.14649838 -0.07871988 0.0455877 0.07937183 -0.0836602 -0.019512823 -0.098220594 -0.036954805
0.06759007 0.101158746 -0.01373654 0.09787011 0.055600934 -0.10233765 0.11509526 0.11591615
-0.057715382 -0.16331263 -0.02250356 -0.06271532 0.065917544 0.10626885 0.10039171 -0.112437285
0.009291393 -0.09672819 0.06091211 -0.09891775 0.17713325 0.0022066839 0.021703277 -0.025576975
-0.05042459 0.011598864 0.08247259 0.033699203 0.13023475 -0.07845877 -0.057656467 0.076824
-0.024410186 -0.018695889 -0.05290112 0.08577354 0.07309969 0.033556826 -0.053580917 -0.1329229
0.0536223 -0.06701463 0.054426 0.0768918 -0.06253883 -0.06364035 -0.12783028 0.07570579
0.07544546 -0.073705964 -0.10962431 -0.00861404 -0.070475824 0.04908787 -0.045769934 0.14122926
0.09863854 -0.11595568 -0.12085753 -0.048387423 -0.043256145 -0.056557946 -0.03887633 0.013836883
-0.058778692 0.07899439 -0.073902026 -0.080222175 -0.072646596 -0.0472182 0.04255224 0.10538575
0.17126708 0.23862836 -0.17290716 0.16005814 0.048684046 -0.08894171 0.023974212 -0.0052667847
-0.101692945 0.016588781 0.16356763 0.07022915 -0.07062511 -0.1125765 0.09913626 0.06618282
0.07404183 0.006063025 -0.16667812 -0.070661575 0.079150535 -0.06508611 0.07438489 0.043900292
0.07641797 0.06297449 -0.072198376 -0.0794232 -0.04374803 0.018482426 0.046564084 0.08481682
0.050203674 -0.1015799 0.15735178 -0.10184766 -0.07045599 -0.040058326 -0.061043598 -0.08873986
-0.063312665 -0.052654073 0.118001565 0.03311768 0.129559 -0.12900776 -0.011909895 0.06424939
0.09142835 -0.059289835 0.06246679 -0.06061699 0.10158028 0.060667973 0.06481915 -0.15001622
-0.054016534 0.075967826 0.046712685 0.088431 0.12453138 -0.09759215 -0.07109428 -0.07292932
-0.015092836 0.030822314 0.13304079 0.027439771 -0.032175023 -0.13158154 0.09920841 -0.14411302
-0.052216627 -0.107382536 -0.102576725 -0.10021645 0.05039377 -0.07400085 -0.10349547 0.0696558
-0.05006398 -0.07641599 0.04869325 -0.094713695 -0.04577965 -0.048581615 0.09559772 0.08142722
0.029168133 -0.010031242 0.030865273 0.10954606 -0.061424352 -0.043249566 0.08795428 -0.025896987
-0.063483365 -0.044168234 0.12694184 -0.036237836 0.08209122 0.030066561 0.14026137 0.021237407
-0.047782436 -0.06172145 0.06501399 -0.16627379 0.041507043 0.0035181823 0.03289062 0.07854846
0.07187315 0.05476702 -0.028183548 -0.029612029 -0.093124606 0.09830558 0.047635667 0.043414813
0.05630799 0.09050032 -0.06867542 0.15068631 0.10131566 0.0321894 0.07636017 0.13204803
0.09234033 -0.08729144
