model/RNN-000663.pth (torch, 266199 bytes, 5 tensors)

weight_ih_l0 f4 [250, 10]
000000 5d 70 a1 bd 97 b3 00 be fb 1b d6 bd 14 8f 12 be
       -0.0788276 -0.12568508 -0.104545556 -0.14312392
000010 8a 19 ff bd 72 1e f4 3d dc 8f f6 3d 27 41 9a bd
       -0.12456043 0.119198695 0.12039158 -0.07531958
000020 33 f6 f9 bd 0f a1 bd 3d 3f 20 82 be c6 9e 9b bd
       -0.12205162 0.09259235 -0.25415227 -0.07598643
000030 07 18 da bd 46 5e 51 bd d0 c6 99 bd 06 e5 33 3e
       -0.10649114 -0.051115297 -0.075086236 0.17567834
000040 52 41 75 3d 81 42 58 bd 09 0c ca bd 0b 38 ef 3d
       0.059876747 -0.052797798 -0.09865577 0.11680611
000050 a8 7f 28 3e 8e 9c 16 3e 99 f8 65 3e c0 d1 12 3e
       0.16454947 0.14708158 0.22458114 0.14337826
000060 0a 9d 45 3e dc 9e a2 be 1c b3 03 bf de b5 fd 3e
       0.19298187 -0.31761825 -0.51445174 0.49552816
000070 5a f6 d1 3e 1c 78 0c bf b4 67 87 3e e1 6a 93 3e
       0.41008264 -0.5487077 0.26446307 0.2879248
000080 88 d3 b3 3e 9d 1a b0 3e d3 40 a2 3e 98 58 33 be
       0.35122323 0.34395304 0.31690082 -0.17514265
000090 e2 e9 9c be ab 87 8f 3e 21 c0 86 3e bd d1 94 be
       -0.30647188 0.28033194 0.26318458 -0.29066268
0000a0 81 e1 d3 bb 04 a3 fe 3d 83 6c ed 3d 82 02 37 3e
       -0.006466091 0.124334365 0.115929626 0.1787205
0000b0 4c df de 3d ed 69 7c bd 1b 93 09 be 21 e0 06 3e
       0.10882434 -0.061624456 -0.13435023 0.13171436
0000c0 6d 76 b7 3d 8d 29 af bd 3e 8b f4 bd 88 36 9a 3d
       0.08958135 -0.08552847 -0.11940621 0.07529932
0000d0 cc e7 bf 3c ad 0d 80 bc f1 5d 8d 3d a9 ee 45 3d
       0.023425959 -0.015631521 0.069026835 0.048323307
0000e0 b1 cf af 3c 1e 3d 9c bd 2b 42 86 bc ee 28 59 3e
       0.02146134 -0.07628845 -0.016388973 0.2120702
0000f0 4d 22 c7 3d be d5 5e 3e 4d 20 a3 3e b5 c2 86 3e
       0.09723339 0.21761224 0.3186058 0.26320425
000100 32 21 92 3e 15 df 34 be e8 69 84 be 9a d7 4e 3e
       0.2854095 -0.17663224 -0.2586205 0.20199433
000110 71 8a 8f 3e ca 3a 67 be 73 49 dc bd 87 00 ef bd
       0.2803531 -0.2258102 -0.10756197 -0.116700225
000120 e4 6d 08 be 57 6f 01 be f8 fa 2e bd 94 7f a0 bd
       -0.1332317 -0.12640129 -0.04271981 -0.078368336
000130 5a 5f 01 3c 6b d8 3c bd 00 25 8d bd 70 ff 6f 3e
       0.007896269 -0.04610483 -0.06891823 0.23437285
000140 bc 5a b8 bd 40 c5 90 bd 9d f7 b3 bd 26 93 36 bd
       -0.09001681 -0.070688725 -0.08787463 -0.044573925
000150 65 c6 b3 bd 33 17 2e 3e 45 d8 4b 3e 79 4b cf bd
       -0.08778075 0.17001037 0.19906719 -0.10121817
000160 74 ef 21 be 68 f4 40 3e 0a c2 bc be a7 a7 aa bd
       -0.15814 0.18843234 -0.3686679 -0.083327584
000170 9f 10 04 be 36 6e 32 be 4f c9 b6 bd 01 11 8c 3d
       -0.12896965 -0.17424855 -0.08925115 0.06839181
000180 7a 9f 9e 3d 60 ad 37 3d be 84 6c bc 67 3b 81 3e
       0.077452615 0.044843078 -0.014435945 0.25240633
000190 3c f2 e2 be 8a 82 bc bd 56 0d fc bd 4a 73 1e be
       -0.44325435 -0.09204586 -0.12307231 -0.15473667
0001a0 85 07 f4 bd c1 f5 4a 3e c8 ce 01 3e f3 cf 2c be
       -0.11915497 0.1982031 0.12676537 -0.16876201
0001b0 c7 d2 4a be c1 99 bc 3e 51 1a 0e 3e af 7e 49 3c
       -0.19806968 0.36836055 0.13877226 0.01229827
0001c0 28 3e 43 bb 0b b2 be 3c 8d 5d 6c 3d 5c 5b 4b 3d
       -0.0029791687 0.023278257 0.057706404 0.049647674
0001d0 2f ea fc 3d dc 92 bc 3c ee 4a 0e bd ce 18 ac bd
       0.123493545 0.023019247 -0.034739427 -0.084031686
0001e0 1a 06 2c 3e f4 aa a5 3d ca 58 87 3d 48 bc 1f 3e
       0.16799203 0.08089247 0.06608732 0.15599167
0001f0 d5 ea d1 3d 70 37 f2 bd a4 15 8e bd 86 b9 f9 3d
       0.10249869 -0.1182698 -0.06937721 0.12193589
000200 cc 74 e7 3c e5 0b b2 bd be 13 87 3e 9d c4 48 be
       0.028253935 -0.08693675 0.2638225 -0.19606252
000210 9d 71 62 be 9d e0 3e be 5c 0a 04 be 3e 72 2a bd
       -0.22113653 -0.1864037 -0.12894577 -0.041612856
000220 35 ec 68 bc 4a 16 22 be e6 6b 10 be 31 fe 0a be
       -0.014216472 -0.15828815 -0.1410366 -0.13573529
000230 05 b6 3d be 99 1d 16 be c9 2c e1 bd 16 53 25 be
       -0.18526466 -0.14659728 -0.1099487 -0.16144976
000240 e1 58 fb bd 0b 69 1e 3d 64 7a 31 3e 7c 87 c4 bd
       -0.12272812 0.038674396 0.17331845 -0.09596154
000250 be ff fc bd dd d3 8e 3e cb 83 c9 be c4 a5 5e bc
       -0.123534665 0.27896014 -0.39358363 -0.013589326
000260 9c 5f ea bd b6 b1 43 bd cc 11 e6 bd 79 38 8f 3e
       -0.11444017 -0.0477769 -0.11233863 0.27972773
000270 7b d1 d7 3d 1e 1d 4c bc f6 03 13 bd f9 de a3 3e
       0.10538002 -0.012458114 -0.03589245 0.32006052
000280 83 b5 de 3d fc 24 65 bd ed d8 b6 bd c6 21 0c be
       0.10874464 -0.055943474 -0.08928094 -0.13684759
000290 21 71 05 be f4 89 38 3d 96 b0 38 3e a1 a1 f3 bd
       -0.13031437 0.045053437 0.18036112 -0.11896063
0002a0 63 05 fd bd fd 32 44 3c 53 59 f0 3e 55 3b 12 3e
       -0.12354543 0.011975047 0.4694315 0.14280446
0002b0 3e 20 0d 3e fa 13 21 3e 86 84 27 3e d2 c9 24 be
       0.1378183 0.15730277 0.16359147 -0.16092613
0002c0 bd 69 56 be 65 ca 6f 3e 7b 41 62 3e 8d 59 20 bf
       -0.20938773 0.23417051 0.22095291 -0.62636644
0002d0 07 af 9e bd 8e f2 3c bb 7d e4 4f 3d 7b ce fb 3c
       -0.077482276 -0.0028831097 0.050755013 0.030738106
0002e0 78 11 03 bd 45 38 0c bd a7 8e 4b 3d f3 32 a3 bd
       -0.03199908 -0.03423335 0.04969659 -0.07968702
0002f0 d6 21 28 3c df 1d d2 3d 72 83 6d be 6c e6 0e be
       0.010261973 0.10259604 -0.23194674 -0.13955086
000300 1c 09 16 be 79 3a 06 be 71 f4 ef bd c9 40 a6 3d
       -0.14651912 -0.13108243 -0.117165454 0.081178255
000310 2e 03 ca 3d 6a 68 89 3c c1 45 a1 bd 3f b3 76 3e
       0.09863888 0.016773421 -0.078746326 0.24091814
000320 30 36 e1 bd 60 61 7b bd ff ee 5f bd 85 d0 10 bd
       -0.109966636 -0.06137216 -0.054671284 -0.03535511
000330 8e 88 12 bd 0f bf 57 3c 27 0a 89 3c 20 4d 79 bd
       -0.03577476 0.0131681105 0.016728474 -0.060864568
000340 a0 0a a0 bd a6 8c ca 3d c6 ce ad be a5 10 a5 be
       -0.078145266 0.09890108 -0.33946818 -0.3223926
000350 a9 b5 a0 be f6 47 bb be ea 2a ac be 30 f6 91 3e
       -0.31388596 -0.3657834 -0.3362649 0.2850814
000360 ab 2f 82 3e 4a 98 58 be 68 86 82 be 83 c5 56 3e
       0.25426993 -0.21151844 -0.2549317 0.20973782
000370 f4 5c 06 be f1 e1 9b bd 09 8f 06 be 8c c8 83 bd
       -0.13121396 -0.07611454 -0.13140501 -0.06434736
000380 50 3a c8 bd e7 e7 c9 bc 41 28 55 3c 7d 77 1f bd
       -0.09776747 -0.024646712 0.013010086 -0.038932312
000390 6d 8a a1 bd fe 7a e5 3d 9b ec c2 be 37 7a 31 be
       -0.07887731 0.112050995 -0.3807114 -0.17331778
0003a0 62 24 2c be 2f 1a 84 be cc 8e 35 be c8 0d 96 3d
       -0.16810754 -0.25801226 -0.17730254 0.07326847
0003b0 c4 14 ae 3d 10 01 10 be 7f 60 23 be 26 a1 d0 3e
       0.085000545 -0.14062905 -0.15954779 0.40747947
0003c0 d6 54 07 bc 08 44 33 3e 9b 71 d6 3d 12 10 c2 3d
       -0.008259973 0.1750642 0.10470887 0.094757214
0003d0 f0 e0 44 3e 20 7e 1d be e0 01 17 be 76 07 c0 3d
       0.19226432 -0.15380144 -0.14746809 0.09376423
0003e0 5f 1c 10 3e 1b d9 b1 bd 68 c0 8b 3e d0 ce a0 bd
       0.14073323 -0.08683988 0.27295232 -0.07851946
0003f0 6f c1 60 bd 88 d9 a1 bd 2f 7c 92 bc 9a 7a 9e 3d
       -0.054871973 -0.07902819 -0.017881481 0.07738228

weight_hh_l0 f4 [250, 250]
000000 67 14 79 bc f4 ab 33 3e a0 fd 08 bd 39 bd 0f 3d
       -0.015202618 0.17546064 -0.033445 0.035092566
000010 57 79 3d 3c f4 37 1c 3e e7 c0 1a bd b8 a8 37 3d
       0.011564574 0.1525572 -0.037781622 0.044838637
000020 de cd 3d 3d 95 0c 8f 3d e2 3d 93 3d 28 70 a0 bd
       0.04633891 0.06984822 0.071895376 -0.07833892
000030 30 35 f1 3d b9 2a a5 bd 98 aa e7 3d e9 fd 3f 3c
       0.11777723 -0.08064789 0.11311835 0.011718252
000040 c0 23 2e be 12 01 04 bd 27 18 8f 3d 5b 66 dd 3c
       -0.17005825 -0.032227583 0.069870286 0.027026346
000050 6b 28 95 bd e3 8e 3b 3d b9 7b 6b 3c 4b ad 1c 3e
       -0.072831 0.045790564 0.0143727595 0.15300481
000060 6b f5 a8 bc 5a 82 31 bd 51 fe 3d bc ee 83 46 3e
       -0.020624837 -0.043337204 -0.011596278 0.19386265
000070 40 f1 85 bd dd 0d 4e 3e ff 53 8a 3d ed d0 cc bc
       -0.065401554 0.20122476 0.06754302 -0.025001967
000080 f5 69 6d 3e 39 e6 17 be 85 44 53 bd 29 0c 12 be
       0.2318495 -0.14833917 -0.051579017 -0.14262451
000090 65 71 20 3c 30 1c 86 3d fc b7 16 3c 8d b7 72 3d
       0.00979266 0.06548345 0.009199139 0.05925708
0000a0 81 97 a1 3d 57 4c a5 3b 1f ad 33 bc ad e2 1e 3e
       0.07890225 0.005044501 -0.010966568 0.15516157
0000b0 d7 b5 cc bd ae b8 3d 3d 53 1c 06 bc 7a 87 02 be
       -0.09995621 0.046318702 -0.008185464 -0.12746993
0000c0 09 51 00 3d 3a d3 02 3e f3 cf 74 3c dd 90 e3 3a
       0.03132728 0.12775889 0.014942157 0.0017361898
0000d0 02 12 9b 3d df 23 dd 3d 49 99 a8 bb 2c 7c da bd
       0.07571794 0.107978575 -0.005145226 -0.10668215
0000e0 9d e5 f7 3c 8f db 21 bd 2e 6c c0 bc 0a fb 12 bd
       0.030260855 -0.039516028 -0.023489084 -0.03588394
0000f0 05 f5 8a 3d 98 9d 02 3e d3 ff 09 bc 00 e1 30 3d
       0.06785015 0.1275543 -0.00842281 0.043183327
000100 01 b9 89 bd d5 7f 09 3d 3c 42 45 be 87 a8 eb bd
       -0.0672474 0.033569176 -0.19263548 -0.115067534
000110 df da df bd 13 fc 68 3d da 62 f6 3d 02 3c ab bd
       -0.10930418 0.05688102 0.12030573 -0.08361055
000120 14 dd 16 be 66 9d 15 3e be 3a 80 bd 23 27 f6 bc
       -0.14732772 0.14610824 -0.06261204 -0.030047959
000130 c5 d5 04 be 8c 6c 3a 3d 20 a8 6c bd 8a ac 9f 3d
       -0.12972172 0.045513675 -0.057777524 0.07796581
000140 03 44 f7 3c ce 67 a9 bd 03 fb c5 bd e1 80 27 3e
       0.030183798 -0.08271752 -0.09667017 0.16357757
000150 ed 81 e9 3a 7b c2 09 be 45 0f bd bc 8f ad 8f 3d
       0.001781521 -0.13453095 -0.02307857 0.070155255
000160 f2 cf 13 3e 7a 93 91 3d b9 e7 da 3b e5 8c 8b bd
       0.14434794 0.07108207 0.0066804555 -0.06813983
000170 23 46 2e bd 94 74 54 3d d5 5f c1 bd 0d bf 89 bd
       -0.042547356 0.05186899 -0.09442107 -0.06725893
000180 e8 18 a3 3d 6e 1b 20 bc fb c1 31 be 20 ac 09 3e
       0.07963735 -0.009772165 -0.17359154 0.13444567
000190 61 d2 25 3c 95 96 a6 3d 60 87 9e 3d 8b 29 9d 3d
       0.010120959 0.0813419 0.077406645 0.07673939
0001a0 c4 00 08 bd cc 66 86 3d d0 22 92 3d 9d 24 a0 3d
       -0.033203855 0.06562576 0.07135546 0.078194834
0001b0 a1 44 32 3d 9b 73 00 3d a4 a0 90 3d a0 b2 c2 3d
       0.04352248 0.03136025 0.0706189 0.09506726
0001c0 16 7a aa bc 27 6c 17 3e 5b 29 48 3e 4d 56 20 3c
       -0.020810168 0.1478735 0.19547026 0.009786201
0001d0 63 c9 35 bd 9d 9f 9a bd 8a a1 2a be e8 15 56 3d
       -0.04438151 -0.07549975 -0.16663185 0.052266985
0001e0 71 63 54 be c0 bd 8a bd 32 18 2e 3e e7 8f 96 bd
       -0.20741059 -0.06774473 0.17001417 -0.07351666
0001f0 0b a7 bd bd 75 d0 7d 3a 38 91 26 be ea ce 67 bd
       -0.092603765 0.00096822466 -0.16266334 -0.056593813
000200 65 8b 94 3d bd 67 1e bd 23 4b 29 bd 49 fc 04 bb
       0.0725315 -0.03867315 -0.04133142 -0.0020291975
000210 c0 3c e9 bd 2c 84 63 bc c1 4f a8 3c 1c d0 89 bd
       -0.1138854 -0.013886493 0.020545842 -0.06729147
000220 d9 a9 bd bd 72 c7 9b bd 0c 2e 76 3c e1 35 87 bd
       -0.092609115 -0.076064005 0.015025627 -0.066020735
000230 19 d9 29 3d 40 e4 bd bc 06 89 da bd 17 cd c7 3d
       0.041466806 -0.023180127 -0.106706664 0.09755915
000240 06 26 40 be f6 1f bf 3d 19 03 f8 3d fb 02 99 bd
       -0.18764505 0.09332268 0.12109966 -0.074712716
000250 6b 78 fe 3c 06 55 4a bc 6f bd e9 3d cb 71 40 bc
       0.03106328 -0.012349373 0.11413085 -0.01174588
000260 c3 a8 74 3d 21 ca 2d bd 37 64 53 bd 74 9a 02 be
       0.059731256 -0.042429093 -0.051609244 -0.12754232
000270 e2 4e a1 3c 8b 9f e8 3d d5 65 92 3a be 56 5e bd
       0.019690935 0.113585554 0.0011169264 -0.054281943
000280 5a 89 b8 bd a2 19 da bd 15 9d 85 bd 81 00 ab 3d
       -0.09010573 -0.1064942 -0.06524102 0.083497055
000290 9c 6e ce bd 2e f2 8b 3d af 5f d8 bc 52 e3 56 ba
       -0.10079691 0.068333015 -0.026412813 -0.00081973255
0002a0 91 e7 fc bc f7 3b e0 bc 7a ff 36 bd 9c 47 89 3c
       -0.030872138 -0.027372343 -0.044677235 0.016757779
0002b0 cf c9 5c 3b 84 6c 57 3e 3d c7 30 3e 55 09 22 bc
       0.0033689623 0.21037489 0.17263503 -0.00988992
0002c0 a9 f3 fb 3a 45 4a 65 3d 44 99 ff 3d 86 95 82 bd
       0.0019222397 0.055979032 0.12480405 -0.063761756
0002d0 92 b9 7c bc f3 bd b6 3c 96 02 d0 3d 7d f5 ef bd
       -0.015425103 0.022307372 0.10156743 -0.11716745
0002e0 65 f7 cc 3d 5c 38 ea bc c2 b4 d0 bd 91 61 36 bb
       0.10008124 -0.028591327 -0.10190727 -0.002782915
0002f0 02 ac ec 3b 00 68 9b bd ab 2e b2 3d 8b a3 0e be
       0.0072226534 -0.07588196 0.087003075 -0.13929574
000300 27 88 84 3c 17 1d 46 bc 05 cb 96 3d ff ed c6 bd
       0.016178204 -0.0120918965 0.07362942 -0.09713363
000310 68 ca 55 3d c3 bc df 3d e9 3a a7 3d 05 25 90 bd
       0.052194983 0.10924675 0.08165533 -0.07038311
000320 11 43 db 3d 21 f4 69 3c 57 d1 21 bc 58 e7 e7 bd
       0.10706151 0.014279396 -0.009876571 -0.11323422
000330 7d 4c de bd f4 59 57 3e fe bd ce bd 75 e1 1d bc
       -0.10854433 0.21030408 -0.10094832 -0.009636273
000340 06 1f c8 bd 2f 82 05 3d 5d 7c 1c be a6 9d 55 bd
       -0.09771542 0.032594856 -0.15281816 -0.0521523
000350 77 eb 71 bd 37 1d 96 bc d5 42 cb bd 64 46 22 be
       -0.059062447 -0.018324478 -0.099248566 -0.15847164
000360 1b eb df 3d c8 78 92 bd cc 7d 37 bd bb 8d f6 bd
       0.10933515 -0.071519434 -0.044797704 -0.12038752
000370 20 55 2b 3e 28 2a 2b 3d 9c 87 69 3d 94 ef 77 3d
       0.16731691 0.04178825 0.057014093 0.060531214
000380 8b 6b 43 3c 49 d3 c5 bc b4 b1 7d bd 7e a8 72 bd
       0.011927496 -0.0241486 -0.06193705 -0.059242718
000390 4e ac 73 bd a9 21 b7 3b b8 4c c5 bc bb 1e 10 3b
       -0.059490494 0.0055887294 -0.024084434 0.0021990973
0003a0 b8 1d f2 bb 2c ac 42 be a6 96 9c 3d d5 34 0d 3d
       -0.0073887967 -0.19010991 0.076459214 0.034474213
0003b0 25 f0 0a 3e ad aa de bd bc 7f c8 bd 2c 19 da bd
       0.1356817 -0.108723976 -0.097899884 -0.106493324
0003c0 db 9f e2 3c 06 69 ca 3c 4c bb f4 3c 76 66 63 be
       0.027664116 0.024708282 0.029874466 -0.22207054
0003d0 60 35 8c bd a4 17 72 bd 5c 4c 62 3e 80 af a4 3d
       -0.06846118 -0.059104577 0.22099441 0.080412865
0003e0 92 0d 0e bc 28 df b5 bd 7c 97 c3 bc 51 1f 04 3c
       -0.008670228 -0.08880454 -0.023875944 0.008064107
0003f0 1d 4b bc bd f5 c0 6b be fb 7b 93 bd 82 99 c9 3d
       -0.09194014 -0.23022826 -0.07201382 0.098437324

bias_ih_l0 f4 [250]
000000 40 f4 f0 3d 96 c0 11 3e a0 25 ed be b6 9d b2 be
       0.11765337 0.14233622 -0.46317768 -0.3488595
000010 d1 94 2c be c9 5e d9 3d c0 71 a9 be b8 67 14 3d
       -0.16853644 0.10613782 -0.33094597 0.036231726
000020 b3 3c 19 3e e5 6c f5 3c ed 83 da 3d 37 95 d5 3d
       0.14964561 0.029959152 0.10669694 0.10428851
000030 7c 7c 4c bd e4 90 b6 3d 95 20 34 3e 31 59 65 3d
       -0.049923405 0.089143544 0.17590554 0.055993263
000040 7f 57 a8 3d 6b de 70 be fd ee e8 3c 82 8e 90 3d
       0.082198136 -0.23522346 0.028434271 0.07058431
000050 3a 9e 1f 3d cc 9f 50 3e 3a 1f 89 3d 21 a3 1e 3d
       0.038969256 0.20373458 0.06695409 0.03872979
000060 37 e0 7f bd 01 f7 e2 3d 55 75 a5 3d 7b 43 4f 3e
       -0.062469687 0.110822685 0.0807902 0.20240586
000070 cb f8 7b 3e ad 74 72 3e 1c 2e 57 3e 60 c9 0b 3e
       0.24606626 0.23677321 0.21013683 0.13651037
000080 66 83 19 3e 36 2d cc 3d 49 0e 86 be 8b d1 a1 be
       0.14991531 0.09969561 -0.26182774 -0.3160518
000090 31 4d 67 bd aa ba ce 3d 32 22 66 3e d8 be 92 3e
       -0.0564701 0.10094197 0.22473982 0.28661227
0000a0 b3 14 20 3b 67 10 54 3e 5c e3 5a be bc b7 b2 3e
       0.00244264 0.20709382 -0.21375793 0.34905803
0000b0 4c f2 32 be 47 35 f1 3b 87 fe 63 be c3 f1 83 be
       -0.17475241 0.0073610875 -0.22265063 -0.25770387
0000c0 bc 9f 03 be 6f 52 82 3e fa 8e 28 3e 2c 83 c6 3e
       -0.12853903 0.25453517 0.16460791 0.3877195
0000d0 09 d2 97 3d 02 db fc 3d b0 ff 00 be cb f1 57 3e
       0.07413108 0.1234646 -0.12597537 0.2108833
0000e0 28 eb b2 bd 5a ce 9d 3e 06 c6 24 be 69 b4 41 3e
       -0.08736259 0.30821496 -0.16091165 0.18916477
0000f0 9e bf 61 3e 6d 60 82 3d 3d 24 34 be aa ce ca bd
       0.22045752 0.06366048 -0.17591949 -0.09902699
000100 88 3d 5c be 67 e0 fb ba a2 89 8e be e7 f3 d4 bc
       -0.21507847 -0.0019216657 -0.2783938 -0.025995208
000110 c3 67 e9 bd fc 19 3b 3e c9 f1 3e 3e 4f 76 56 be
       -0.11396744 0.18271631 0.18646921 -0.20943569
000120 84 3c ea bd 1a 19 3c 3e e2 b6 75 be d8 75 7a be
       -0.11437324 0.1836895 -0.23995546 -0.24459016
000130 79 3b 32 be 48 c8 6f 3e 64 5c 99 be 35 58 8b 3d
       -0.174055 0.23416245 -0.299533 0.068039335
000140 56 68 0d 3e 11 8f 28 3e 14 ed 32 be b6 2c 81 bd
       0.13809332 0.16460826 -0.1747325 -0.06307356
000150 4c f2 f9 3d e1 1a 80 be df cc 51 bd 39 d1 e9 3d
       0.122044176 -0.25020507 -0.05122077 0.11416859
000160 62 d8 23 3e 8d 59 38 be c6 87 5a 3d 99 2c ed 3d
       0.16000512 -0.18002911 0.05335214 0.11580772
000170 59 5d 1a 3e f2 0b 3a 3e 81 8a 94 be ea 3b 77 3d
       0.15074672 0.1816862 -0.2901192 0.060359873
000180 f7 9c fd 3d e2 b1 31 3e 27 16 09 be 4c 04 11 3e
       0.12383454 0.17353013 -0.13387357 0.14161795
000190 48 36 eb bc 7b 2a d2 3d cf 2b 1e be 99 16 07 3d
       -0.028712407 0.10262009 -0.15446399 0.032980535
0001a0 1b ac 9a be f8 bb 7a 3e f0 c0 25 3d 8a eb 6c 3e
       -0.3020943 0.24485767 0.040467203 0.23136726
0001b0 e9 f6 43 be 41 3b 52 3e 15 87 dd bd 82 47 6d 3e
       -0.19137157 0.20530416 -0.108167805 0.2317181
0001c0 c6 af b8 3d 4e 37 18 3d d0 78 5b 3e 58 fe 3a bc
       0.09017901 0.037162118 0.21432805 -0.011413179
0001d0 9e d8 77 bd a8 16 0a bd d6 4e 1f be bd ae 42 3e
       -0.060509317 -0.033713013 -0.15557417 0.1901197
0001e0 9b 97 0a be c2 b2 03 be 6a c8 08 3e c7 af b9 3d
       -0.13534395 -0.1286116 0.13357702 0.0906673
0001f0 b4 04 6b be 68 29 0d be ee 05 bd 3c b8 53 84 bd
       -0.22951013 -0.13785326 0.023074117 -0.064612806
000200 c0 64 84 3d e4 dd 53 be 8c 36 bd bd a4 08 af 3d
       0.06464529 -0.20690113 -0.092389196 0.0854657
000210 d0 82 5e 3e 89 58 d7 3d 11 01 fe 3c 58 82 67 be
       0.21729589 0.105149336 0.031006368 -0.22608316
000220 f3 33 c0 bd 6c b1 9c bd 1c 36 0a 3e 7d c3 36 3d
       -0.093849085 -0.07651028 0.13497204 0.044620026
000230 d0 56 b3 bd ed 19 1d 3e ce a1 ed 3d 81 f0 50 3e
       -0.087567925 0.15341921 0.116031274 0.20404245
000240 36 7b 1c be c2 10 48 3e 23 2c 5e 3e 22 40 25 3e
       -0.15281376 0.19537643 0.21696524 0.16137746
000250 e1 0d 66 3e f4 7e 07 bc 95 dd 30 3e f0 8a 62 3e
       0.22466232 -0.008270014 0.17272027 0.22123313
000260 7f d2 96 bd 44 96 58 be f6 ae 07 be 5d f9 4c 3c
       -0.07364368 -0.21151072 -0.13250336 0.012510625
000270 0a dd 7c 3e 86 ea be bd fa 46 58 3d 3b 15 fe 3b
       0.24693695 -0.093220755 0.052802064 0.0077539957
000280 05 f8 67 be 8a c2 cf bd ba dc 0b 3e 8d bc 06 3e
       -0.22653206 -0.10144527 0.13658419 0.13157864
000290 bd 13 7c bd 2b a7 85 3e 1d f0 90 be 79 a7 37 3c
       -0.06154226 0.26104102 -0.28308192 0.011209362
0002a0 80 6c 66 be 91 fd 6f be 36 d1 ce bd 13 57 8a 3e
       -0.22502327 -0.23436572 -0.100984976 0.27019557
0002b0 b0 50 86 be 02 94 73 3e 80 62 0a 3e 0a c4 86 3e
       -0.26233435 0.23786929 0.13514137 0.2632144
0002c0 a6 47 2e 3d 59 2e 16 be 1b f5 8b 3d d5 48 49 bc
       0.042548798 -0.14666118 0.068338595 -0.012285431
0002d0 a5 4f 9c bd bd 47 a9 3d 5e 12 89 3e 53 2b 6c be
       -0.076323785 0.08265636 0.26771826 -0.23063402
0002e0 60 ee d5 3d a2 0a 40 be 34 79 6a be 17 ac 16 be
       0.10445857 -0.18754056 -0.22897798 -0.14714085
0002f0 b5 6d a8 be 63 1b c1 bd 5a a2 bd bd 3d 97 1f be
       -0.328962 -0.09429052 -0.09259482 -0.15585037
000300 27 fb 7f be 5e 8b 91 3e 1d 9b cb 3c 0b ce 45 be
       -0.24998151 0.2842664 0.024854237 -0.1931688
000310 7a 72 aa 3e 88 2b 96 3d 0f 4f 60 3e 12 a1 50 bd
       0.33290464 0.07332522 0.21905158 -0.05093486
000320 a3 6a ad 3d cb 83 14 3e c5 db 54 be 44 6c e5 bd
       0.08467605 0.145034 -0.2078696 -0.11202291
000330 5a 42 58 be 4f e8 15 3e 32 d9 85 3d 83 0a d8 3d
       -0.21119061 0.146394 0.06535567 0.1054888
000340 2a e7 ca bc b2 0e 82 3d 22 06 52 be 4f f0 e9 bd
       -0.02476843 0.06350459 -0.20510152 -0.11422788
000350 e5 f4 36 be d9 ec 38 be 03 65 ef 3d 7f ca 62 be
       -0.17866857 -0.180591 0.11689188 -0.22147559
000360 40 df 7c 3e 39 07 f1 bc bc b1 ac be 56 40 07 3e
       0.24694538 -0.02942239 -0.3372935 0.13208136
000370 ba d1 ea 3d 01 aa 39 be 62 0f 1b 3e 8a b1 80 bc
       0.114657834 -0.18131258 0.15142587 -0.015709657
000380 78 41 4e 3e 25 6e 01 bd c8 84 e1 bc 15 c3 72 3d
       0.20142162 -0.031599183 -0.027529135 0.059268076
000390 9f 9d 91 bd ef f7 23 3e b2 da 14 3e 93 05 3b be
       -0.07110142 0.16012548 0.1453655 -0.18263845
0003a0 84 8d 42 3e 85 91 7e be 16 f6 87 3d ba 77 9b be
       0.18999296 -0.24860199 0.06638734 -0.30364782
0003b0 88 9e b1 3d f5 9e 02 be 29 e4 01 be d7 3d 87 3e
       0.086728156 -0.1275595 -0.12684692 0.26414368
0003c0 56 fe 9c be 3c 1d 66 be aa d9 cb 3d 65 c6 a5 bd
       -0.30662793 -0.2247209 0.099536255 -0.080944814
0003d0 4e 0a 77 3c fe ee 8a bc 24 bf d6 3d ff 6b bb 3d
       0.01507814 -0.016959663 0.10485676 0.09151458
0003e0 62 1f ca bd 38 05 74 be
       -0.09869267 -0.23830116

bias_hh_l0 f4 [250]
000000 2e b0 18 3e 0c a0 59 3d 03 93 06 bf 79 1a 99 be
       0.14910957 0.05313115 -0.5256807 -0.2990301
000010 97 85 c0 bd f3 0b 7a 3d 2f a2 aa be 99 61 1b 3c
       -0.0940048 0.061046552 -0.3332686 0.009483718
000020 b4 cf a9 3d 9e 07 46 bc 85 3c 00 3e 3d eb de 3d
       0.08291569 -0.012086777 0.12523086 0.10884712
000030 e3 63 b4 bd 6a 5e d3 3d 9a 3f 87 3e 36 4e ad 3d
       -0.088081144 0.103207424 0.26415712 0.08462183
000040 25 bc 38 3e 5c d6 55 be 2a 8d 66 3d 57 4e 35 3d
       0.18040521 -0.20882553 0.05628697 0.044264164
000050 2f 4a 94 3c ca 53 8a 3e 89 4e bd 3c 00 df b3 3d
       0.01810178 0.2701705 0.023108738 0.08782768
000060 8e b6 f9 bd 6c 31 9e 3d 62 c4 d6 3d 9b 76 9f 3e
       -0.12193023 0.0772427 0.10486676 0.31145176
000070 7b 67 70 3e fc fc 94 3e e9 12 75 3e db c3 3f 3e
       0.23476975 0.29099262 0.23932995 0.18727057
000080 67 9c 36 3e 9e c7 ca 3c bf 42 32 be a0 48 58 be
       0.178331 0.024753388 -0.17408274 -0.21121454
000090 4b 6f ee bd 03 de d3 3d 21 b6 76 3e 52 6b 70 3e
       -0.11642321 0.1034508 0.24092914 0.2347844
0000a0 49 56 8d 3b bb 62 5d 3e bc 62 88 be 0f fb ad 3e
       0.0043132645 0.21619694 -0.26637828 0.33980605
0000b0 36 0b 38 be de c2 54 3d f1 56 65 be 92 37 6e be
       -0.17973027 0.051943652 -0.22396447 -0.23263386
0000c0 76 bd 13 be 60 d0 46 3e dd b6 4c 3e 41 c2 9d 3e
       -0.14427742 0.19415426 0.19991632 0.30812266
0000d0 3c 2d d4 3d 7b 14 3c 3e 0e fd b6 bd 45 c9 9a 3e
       0.1036019 0.18367188 -0.08934985 0.3023168
0000e0 b6 f8 42 be 92 1f 91 3e b4 1b 64 be 12 f5 db 3d
       -0.19040188 0.283444 -0.22276193 0.10740103
0000f0 a2 57 17 3e 67 f1 db 3d 2a 43 75 be 9e db 2c be
       0.14779523 0.10739403 -0.23951402 -0.16880652
000100 b6 13 86 be f7 79 5f 3d 9a 36 7b be 09 da b5 bd
       -0.26186913 0.054559674 -0.24532548 -0.088794775
000110 71 53 41 be 3e 8f 46 3e 6d b1 4d 3e af bb 99 be
       -0.18879487 0.1939058 0.20087214 -0.30026004
000120 f3 1c fb bd 5f 94 f8 3d da fa 56 be 26 97 88 be
       -0.12261381 0.121376745 -0.2099413 -0.26677817
000130 1d b4 43 be a2 07 69 3e af af c3 be b3 0e a7 3d
       -0.19111677 0.22756818 -0.38219973 0.081571005
000140 50 6b 40 3e 99 c3 45 3e ee b0 de bd 85 5c 10 be
       0.18790936 0.19312896 -0.108735904 -0.14097793
000150 95 ca 3b 3e 80 e4 38 be 4d 51 48 3c 7f a8 0f 3e
       0.18338998 -0.18055916 0.012226415 0.1402912
000160 89 96 0d 3e b8 cb ba bd c5 c8 56 3d f3 01 0d 3e
       0.13826956 -0.091208875 0.052437562 0.13770275
000170 a6 26 1a 3e 4b db 2e 3e f7 d1 9e be 74 0b a6 3d
       0.15053806 0.17075841 -0.31019565 0.08107653
000180 89 04 cb 3d 25 b4 0f 3e 18 96 08 be 73 31 1e 3e
       0.099129744 0.14033563 -0.13338506 0.15448551
000190 44 f2 e7 bd 0b 67 b6 3b b4 61 2b be 1b ff 77 bd
       -0.113255054 0.005566483 -0.1673649 -0.060546022
0001a0 6a e0 77 be 93 d3 80 3e d1 ca 05 3d 05 d5 73 3e
       -0.24206701 0.25161418 0.032664124 0.23811729
0001b0 dd c5 59 be 98 e9 34 3e 39 ce 08 be 06 d5 5a 3e
       -0.21266885 0.17667234 -0.13359918 0.21370324
0001c0 f7 cc 11 3e b1 cf e7 bc 8b bf 62 3e 1d b7 d8 bd
       0.14238344 -0.028297277 0.2214338 -0.10581801
0001d0 14 43 fc bd d1 4e fb bd 30 62 27 be ea db 38 3e
       -0.12317482 -0.122708924 -0.1634605 0.1805264
0001e0 d7 01 f5 bd 1d 4e 37 be 8d da 64 3e 40 18 0e 3e
       -0.119632415 -0.17900892 0.22348996 0.13876438
0001f0 aa 7e 54 be ac 0b 79 bd ea e0 6a 3d d7 f8 ec bd
       -0.20751444 -0.060802147 0.0573434 -0.115709
000200 07 17 8a 3d f0 98 90 be 80 61 4d be 0f 05 2c 3d
       0.06742673 -0.28241682 -0.20056725 0.04199701
000210 89 5b 5a 3e b3 9c be 3d 77 fb bd 3c 46 28 53 be
       0.2132398 0.09307232 0.023191197 -0.20620832
000220 34 f0 eb bd 9c 35 e9 bd 49 16 7c 3d b3 90 16 3c
       -0.115204245 -0.11387178 0.06154469 0.009189772
000230 fc c5 a7 bd 5d f0 34 3e 39 0e 50 3d de 7b f4 3d
       -0.081920594 0.17669816 0.050794814 0.11937688
000240 06 76 45 be 8e f7 19 3e 51 1a 55 3e a1 99 93 3d
       -0.19283304 0.15035841 0.2081082 0.07207037
000250 37 87 4c 3e c4 6a 9a bb ac 1f 86 3e e8 13 56 3e
       0.19973455 -0.0047124345 0.2619604 0.20906031
000260 ab 29 73 bd cf 2c 26 be 0e ed 73 be b3 b3 0d bc
       -0.05936591 -0.1622803 -0.23820898 -0.008648801
000270 43 f7 19 3e 4f a3 cf bd c1 3d c5 bc 58 22 0f 3c
       0.15035729 -0.101385705 -0.024077298 0.0087362155
000280 1b 51 81 be 9e c2 25 be fe 62 0a 3e 91 de 1f 3e
       -0.2525719 -0.16187522 0.13514325 0.15612246
000290 09 15 31 3c 22 f9 9c 3e 2a 5b a3 be 4e b9 84 3d
       0.010808238 0.30658823 -0.3190549 0.064806566
0002a0 97 06 4d be c8 f0 84 be a7 b1 c4 bd bd d7 2a 3e
       -0.20022045 -0.25964952 -0.09604197 0.1668386
0002b0 a4 a5 8c be f4 6e 9d 3e 25 97 de 3d 12 a7 64 3e
       -0.27470124 0.30748713 0.10868672 0.22329357
0002c0 be 1e 09 3d f0 72 ef bd 26 85 35 3d 2c 39 3b 3d
       0.033476584 -0.116918445 0.044316433 0.04570882
0002d0 7f 3a 27 bd 9b aa 62 3d 23 79 a4 3e cb 9d 6c be
       -0.04082727 0.055338483 0.3212367 -0.23107068
0002e0 65 bb 02 3e 7e 44 ea bd 10 43 11 be 99 b0 ae bd
       0.12766798 -0.11438845 -0.14185739 -0.08529777
0002f0 f0 fa c3 be 5c d4 23 be 01 0e 9e bd 3d 8c 91 bd
       -0.38277388 -0.15998977 -0.07717515 -0.071068265
000300 37 74 3f be ab 9b 4a 3e 3c e4 ee 3d 4a cd ee bd
       -0.18696676 0.19785945 0.11664626 -0.116602495
000310 cf 93 a1 3e b6 bb 8e 3d e8 4b fd 3d 9b 69 5e 3d
       0.31558082 0.06969397 0.123679936 0.054299932
000320 87 40 55 3d bd 91 4b 3e 41 e5 64 be b6 9f 0e be
       0.05206349 0.19879813 -0.22353078 -0.13928112
000330 d2 91 6b be d5 05 62 3e d8 91 8d 3d a5 f2 01 3e
       -0.23004845 0.22072537 0.06912583 0.12690218
000340 26 c6 fa bc 9c a2 74 bc 40 27 87 be bf 8d ed bc
       -0.030612063 -0.014931347 -0.26397133 -0.028998254
000350 3f 2d 31 be 38 94 3a be 80 ee ec 3d ce 73 67 be
       -0.17302416 -0.18220603 0.11568928 -0.2260277
000360 98 9c 26 3e ea ae 9f bc 42 e6 af be 91 06 ba 3d
       0.16270673 -0.019492585 -0.3435536 0.09083284
000370 db d3 0c 3e d1 22 a2 bd 5e 41 56 3e 8c e5 96 bd
       0.13752691 -0.07916797 0.20923373 -0.07368001
000380 22 dd 8e 3e 58 eb 65 bd 6e 9a 5f bd 1b 57 90 3d
       0.27903086 -0.056132644 -0.054590635 0.07047864
000390 af 94 41 bd d4 bb 48 3e 08 33 d5 3d a8 2f 61 be
       -0.047260936 0.196029 0.10410124 -0.21990836
0003a0 d5 f6 67 3e c5 b9 8c be f6 0d 16 3b 3c fe 61 be
       0.22652753 -0.2748548 0.0022896505 -0.22069639
0003b0 2b cf e5 3d 77 79 d2 bd 33 86 a3 bd a7 27 98 3e
       0.11221155 -0.10277074 -0.07984581 0.29717752
0003c0 34 e6 87 be de 6b 58 be 93 34 e2 3d db 30 fc bd
       -0.2654282 -0.21134898 0.11045184 -0.12314006
0003d0 26 6e bf 3d f4 48 dc bb 11 d8 ec 3d eb 18 e4 3d
       0.09347181 -0.006722564 0.11564649 0.11137565
0003e0 54 69 a5 bd ff f5 72 be
       -0.0807673 -0.23726653

weight f4 [1, 250]
000000 aa 8f bc 3b 14 20 33 3d a2 ef 3a bf b6 a5 0e be
       0.005754431 0.043731764 -0.730219 -0.13930401
000010 a3 24 31 3d 2b fd b5 3d 5e cf 40 3d 03 e6 75 3b
       0.04324783 0.088861786 0.04707276 0.003752113
000020 17 c7 36 bd 75 22 c5 3d 7f 18 f8 3d b4 86 4d 3c
       -0.04462346 0.09625713 0.12114047 0.012544323
000030 2a 0f 87 3d 94 92 b0 bd 91 5e 8d 3c c5 4c c0 3d
       0.06594689 -0.086217076 0.017257007 0.093896426
000040 b6 bf a7 bd f9 6d 38 be 20 05 a9 3d 21 20 91 3d
       -0.08190863 -0.18010701 0.08252931 0.07086206
000050 b3 42 48 bd db 10 18 3c e8 7a 89 bd 10 3d 39 3d
       -0.048891734 0.009281362 -0.06712896 0.04522425
000060 a5 86 6f bd 88 91 d1 bb 5b ac 2c bd 7e 2c b6 3d
       -0.058478016 -0.0063955225 -0.04215656 0.08895205
000070 83 e5 c0 3d b0 03 33 bc 1c d1 25 bd 91 2b 54 bc
       0.09418776 -0.010926172 -0.040482625 -0.01294984
000080 34 dd 43 3d b7 b9 75 3d 7a bc 9f bd a0 d1 a6 bd
       0.047818378 0.059991565 -0.07799621 -0.081454515
000090 ec 0f 03 bd 78 67 50 3c 37 69 c2 3d a0 0f b1 3d
       -0.031997606 0.012719981 0.094927244 0.08645558
0000a0 9e d0 6f 3d b0 fc f5 3d e6 58 72 be 74 80 0e 3e
       0.058548562 0.12011087 -0.23666725 0.13916188
0000b0 3e f2 8c be 91 06 af bb c8 31 9f bd 0c c5 92 bd
       -0.27528566 -0.005341359 -0.07773167 -0.0716649
0000c0 ce dc 51 3d 86 14 08 3e f3 c8 10 3d 92 bc 76 3e
       0.051235966 0.13289079 0.03534789 0.24095371
0000d0 c7 1f c7 3d 7e f4 c8 3c d3 6b 42 3d a9 a8 4c 3d
       0.09722858 0.024530645 0.04746611 0.049965534
0000e0 40 75 60 3b d7 74 03 3e dc 52 be bd c2 15 59 3b
       0.0034249574 0.1283754 -0.09293148 0.003312454
0000f0 74 2e e2 3d 0b 17 4b 3d 99 7f 8f bd be b8 66 3b
       0.110440165 0.049582522 -0.07006759 0.003520533
000100 da 80 8b bd 39 c1 37 3b 48 10 b1 bd 8a a7 c5 bc
       -0.06811686 0.0028038754 -0.086456835 -0.02412774
000110 dc 5e 20 bd cc 4c 85 3c 9c 0a aa 3d 73 51 99 bd
       -0.039152965 0.016271971 0.08302805 -0.07486238
000120 22 d7 ad bb 63 3c d4 3d 3c 1d 53 be 3d d2 cb bc
       -0.005305187 0.1036308 -0.20616621 -0.024880523
000130 92 97 37 be b8 a6 49 3d 99 80 06 be fd 55 a2 3d
       -0.17928913 0.04923126 -0.13134994 0.07926557
000140 03 3c c1 3d 94 48 a5 3d ae 69 bf bd f4 77 9d 3d
       0.094352745 0.08070484 -0.09346329 0.07688895
000150 a6 68 97 3d 82 f7 d8 bc 86 60 f6 bc 0f b0 93 3e
       0.07393007 -0.026485208 -0.030075323 0.2884526
000160 8f 78 89 3d 39 5d 96 bd 39 16 52 be 1b 91 e8 bc
       0.06712448 -0.073419996 -0.2051629 -0.028389504
000170 c1 07 ae 3c 4c ca d4 3c 23 30 b2 bd b4 7d a3 3d
       0.021243932 0.025975369 -0.087005876 0.0798296
000180 10 11 9a 3c c6 c2 52 3d 30 eb fd bb fb 9c 61 3d
       0.018806964 0.05145528 -0.007748984 0.05508135
000190 9b 6c a2 bd 78 33 f6 3b c6 1c 9e be c4 b8 8d bc
       -0.07930871 0.00751346 -0.30881327 -0.017300017
0001a0 41 8b 9c bd 59 e0 21 bd 77 31 09 3e 91 e8 5d bd
       -0.07643748 -0.039520595 0.13397776 -0.05417687
0001b0 3a d7 89 be 8d 1a 43 3e 12 4b 09 bd df 02 0e 3d
       -0.26922017 0.19053097 -0.03351886 0.034670707
0001c0 d9 df ed 3d d5 16 dc 3c 52 c1 ea 3d 70 b3 d7 bc
       0.11614961 0.026866356 0.11462654 -0.02633068
0001d0 e0 a9 9f 3d b5 5d 15 3d eb 5a 09 bc fb 87 77 3c
       0.07796073 0.03646632 -0.008383493 0.015108104
0001e0 fc 64 9f bd 2d 76 95 bd f0 ba 72 3d 9b e3 8b bd
       -0.07782933 -0.07297931 0.05926031 -0.06830522
0001f0 68 b7 5f bc 5f 87 44 3d a6 3f 3e bd bc a1 a9 bd
       -0.013654567 0.047980662 -0.04644742 -0.082828015
000200 db 2e 2f bc b0 c9 9f be 22 31 ea 3d 01 1f 42 bd
       -0.010692324 -0.31208563 0.114351526 -0.04739285
000210 63 02 ab bd ec a0 59 bd 5c c8 9b bd ac b0 e0 bc
       -0.083500646 -0.053131983 -0.07606575 -0.027427994
000220 77 86 ec bc ea e4 7e bc 1d a8 55 bd 7d c2 a7 bd
       -0.028872712 -0.015557507 -0.05216228 -0.081913926
000230 10 d1 3c bd d1 0e 0c 3d f5 1a 93 bc 1e e9 dc 3c
       -0.046097815 0.034193818 -0.01795719 0.026966628
000240 d8 90 09 be d5 4d d7 3c 99 8f a1 bc 1a 18 ef 3c
       -0.1343416 0.02628223 -0.019721793 0.029186297
000250 e0 4d 2c 38 9c 0a 78 3c 7a 94 74 3d 9a 6b 15 3d
       4.1080522e-05 0.015139248 0.05971191 0.03647957
000260 8b 67 24 3d 30 7a 02 be a2 58 b5 bd 27 83 f3 bd
       0.04013781 -0.12741923 -0.08854796 -0.1189025
000270 17 96 4c 3d 35 14 85 3d fa 1f 8d 3d 22 a1 85 bd
       0.049947824 0.06497995 0.06890865 -0.06524874
000280 bc 37 a0 bd 80 6c 7c bb 24 25 85 bd 89 19 c8 3c
       -0.078231305 -0.003851682 -0.06501225 0.024426239
000290 c8 12 52 bd 6c 5c 08 3c de da 9d bd 8c 9a 1c bd
       -0.051287442 0.008322816 -0.07707761 -0.038233325
0002a0 f5 7e 88 bd 82 a3 d9 bd e3 90 09 3c 8e d4 4a 3c
       -0.0666484 -0.1062689 0.00839636 0.012379779
0002b0 cf 8e ec bd 43 85 cc 3e ca c0 f3 3d 71 0d 0b 3e
       -0.11550676 0.3994542 0.11902006 0.13579346
0002c0 d8 65 9f 3d 9b 0c f3 bc 47 e2 5c 3c ac cc e1 3d
       0.07783097 -0.029669097 0.013481683 0.11025366
0002d0 9d 69 6d 3d 48 93 2f 3d a2 f7 15 bc 01 24 1d 3a
       0.05796205 0.042865068 -0.009153279 0.00059944397
0002e0 0a 01 f9 ba 18 12 87 bb 9d cf 3c bd dc 37 a9 bd
       -0.0018997502 -0.00412203 -0.046096433 -0.082626075
0002f0 20 9d 61 bd 3d 8b f7 bd 96 f8 35 3d 64 cd ef 3d
       -0.055081487 -0.120871045 0.044426523 0.11709097
000300 18 7c 47 3d f3 68 7f bd 85 bb b9 3c 99 bc ad bc
       0.04870233 -0.062355947 0.022672424 -0.021208094
000310 4b 1f 5a 3c ed 73 19 be 3a 29 c0 3d 7b 4d bf bd
       0.013313125 -0.14985628 0.09382863 -0.0934095
000320 56 d4 a5 3b f4 5b 85 bd 2a 8c bd be e1 48 0a be
       0.005060713 -0.06511679 -0.37021 -0.13504364
000330 5d 3d a1 bd 2a bb 6b 3d 67 e1 96 bd eb bf e2 3c
       -0.07873032 0.05755154 -0.07367211 0.027679404
000340 2b 24 1d 3d 9c 09 20 3d 85 8a ca bd 8c d6 62 bc
       0.03836457 0.039071664 -0.09889702 -0.013845097
000350 a5 e1 a6 bd 69 73 38 3d 06 a7 dc 3c ad ca e5 bd
       -0.08148507 0.04503194 0.026935112 -0.11220298
000360 bc 65 b9 3d 2c 3a 15 bd 15 48 04 be 40 d6 c2 3b
       0.090526074 -0.03643243 -0.12918122 0.0059459507
000370 6a b8 a6 3d d6 92 60 bc 0d 6a fc bb 76 45 ec 3c
       0.08140643 -0.013706883 -0.007703072 0.028841715
000380 4f 62 a3 bc 66 4a 5a bd fb 14 ce bd b9 ec 63 3c
       -0.019944338 -0.053293608 -0.100625955 0.01391142
000390 b5 84 21 bd ce 8c 90 bd 7c 16 93 bb 93 5e 04 3e
       -0.0394332 -0.07058106 -0.0044887643 0.12926702
0003a0 63 ea 35 3c e7 a8 b5 bd ad 15 26 bc b0 8a 90 be
       0.011103245 -0.08870106 -0.010137004 -0.2823081
0003b0 35 99 53 3d 0d 26 78 bc b8 4c 52 bd e9 a8 3f 3c
       0.05165978 -0.015145791 -0.051342696 0.011697986
0003c0 39 27 c9 bd 67 12 cd bc 40 db bc bc ed 05 a9 bd
       -0.09821934 -0.025033189 -0.023053765 -0.082530834
0003d0 8e 55 74 bd 61 85 5c 3b 13 d4 89 3c 44 4e 5b 3d
       -0.059651904 0.0033648836 0.016824758 0.053541437
0003e0 1b a8 13 bd a7 2d 0b be
       -0.03604899 -0.13591634
