model/RNN-000615.pth (torch, 266199 bytes, 5 tensors)

weight_ih_l0 f4 [250, 10]
0	0xbde9b693	-0.114117764
1	0xbe2f061a	-0.17092171
2	0xbe32e13b	-0.17468731
3	0xbe1cef62	-0.15325692
4	0xbe2f0195	-0.17090447
5	0xbd0370a4	-0.032089844
6	0x3e55d3bd	0.20881553
7	0xbe567255	-0.20942052
8	0xbe80d90a	-0.25165588
9	0x3e74afd5	0.238952
10	0x3dc32c53	0.095299385
11	0x3e036a0e	0.12833425
12	0x3d83f4df	0.0644319
13	0x3e178089	0.14795126
14	0x3dce6b02	0.10079004
15	0x3a4bf343	0.0007780084
16	0x3c0caf57	0.008586726
17	0x3d905f9d	0.07049487
18	0x3dd213b0	0.10257661
19	0xbe745c52	-0.23863342
20	0xbdea87ac	-0.114516586
21	0xbdf9dca2	-0.122002855
22	0xbd758ee1	-0.059950713
23	0xbd835f03	-0.064146064
24	0xbd3851ff	-0.045000073
25	0xbd796350	-0.060885727
26	0x3d34a23c	0.04410003
27	0x3d209a6e	0.039209776
28	0xbd326391	-0.043551985
29	0x3e426a76	0.18985924
30	0xbc3d141a	-0.011540437
31	0x3e6dd5f5	0.2322615
32	0x3df3cf3a	0.1190476
33	0x3e10edb5	0.14153178
34	0x3e5b0134	0.21387178
35	0x3d86437c	0.065558404
36	0xbe93325b	-0.28749356
37	0x3e9318f9	0.2872999
38	0x3e861485	0.2618753
39	0xbec77963	-0.38959798
40	0xbe22ca3e	-0.15897462
41	0xbe8139cb	-0.25239405
42	0xbe94f9d4	-0.29096854
43	0xbe9301b3	-0.28712234
44	0xbeb54b78	-0.3540914
45	0xbd45e2cf	-0.048312005
46	0x3e5fbc1a	0.21849099
47	0xbe600a27	-0.21878873
48	0xbe71a2cc	-0.23597258
49	0x3eb8d1cd	0.36097565
50	0xbbbf4350	-0.0058368817
51	0xbd671b2e	-0.056422405
52	0xbd8b0c0b	-0.067894064
53	0xbd84d2bf	-0.06485509
54	0xbdc6c237	-0.09705012
55	0xba40045d	-0.0007324869
56	0x3e3933a5	0.18086107
57	0xbe335d0b	-0.17515962
58	0xbe4dbcc3	-0.20091538
59	0x3e206d69	0.15666737
60	0x3db9c421	0.09070612
61	0x3e7c0c72	0.24614123
62	0x3e7ace15	0.24492677
63	0x3e885a56	0.2663142
64	0x3e6b6ec4	0.22991472
65	0x3dfe0352	0.12402977
66	0xbe0fd5fe	-0.14046475
67	0x3e2b007d	0.16699405
68	0x3de4b014	0.11166397
69	0xbe54c004	-0.20776373
70	0xbda73a7b	-0.08165451
71	0xbea6bb62	-0.32564837
72	0xbebb96ca	-0.3663848
73	0xbea3bfd1	-0.31982282
74	0xbe83fc9d	-0.25778666
75	0xbe2b60df	-0.16736172
76	0x3e72fdb9	0.237296
77	0xbe8982c0	-0.26857567
78	0xbe846466	-0.25857848
79	0x3ebdfe00	0.3710785
80	0xbdb28321	-0.08716417
81	0xbe303fdf	-0.17211865
82	0xbe4bb76f	-0.19894193
83	0xbe258bbb	-0.16166584
84	0xbdb9e3c4	-0.09076646
85	0xbe017ae7	-0.1264454
86	0x3da731e7	0.08163815
87	0xbe37e420	-0.17958117
88	0xbe1673bc	-0.14692587
89	0x3e64822a	0.22315279
90	0xbdcab663	-0.09898069
91	0xbe2f7db6	-0.17137799
92	0xbe70bba8	-0.23509085
93	0xbe421f31	-0.18957211
94	0xbe61c8a7	-0.22049199
95	0x3cd48278	0.025941119
96	0x3e0ca4d2	0.13734749
97	0xbe25c343	-0.16187768
98	0xbe09d320	-0.13459444
99	0x3e37c97a	0.17947951
100	0xbe91100a	-0.2833255
101	0xbe3c3806	-0.18380746
102	0xbe5283f7	-0.20558153
103	0xbe3bb5c6	-0.1833106
104	0xbe5e7841	-0.2172556
105	0xbd855488	-0.06510264
106	0x3e42f34c	0.19038123
107	0xbe67ab4d	-0.2262394
108	0xbe420978	-0.18948925
109	0x3f172874	0.590461
110	0xbe3ba555	-0.18324788
111	0xbe6128b8	-0.21988189
112	0xbe980a67	-0.29695436
113	0xbe90bdfe	-0.28269953
114	0xbe3796c8	-0.17928612
115	0x3d807c5d	0.062737204
116	0x3e43100b	0.19049089
117	0xbe14650b	-0.1449167
118	0xbddb1a2b	-0.106983505
119	0x3e2e8d3e	0.17046067
120	0xbe83d60b	-0.2574924
121	0xbe87d32a	-0.26528293
122	0xbe91807b	-0.28418335
123	0xbe7fb0ba	-0.2496976
124	0xbea86ff4	-0.32897913
125	0xbcb2ac96	-0.021810811
126	0x3e8ae9b4	0.27131426
127	0xbe82ea54	-0.25569403
128	0xbe7feab2	-0.24991873
129	0x3ed61eae	0.41820282
130	0x3e0836e3	0.13302188
131	0x3e1b4cad	0.15165968
132	0x3e44e796	0.19228968
133	0x3e26c37b	0.16285507
134	0x3e5591c5	0.20856388
135	0xbcbcc4d6	-0.023043077
136	0xbdd04bf9	-0.10170741
137	0x3e3bc580	0.18337059
138	0x3e2bd04a	0.16778675
139	0xbd33faca	-0.043940343
140	0xbe42672e	-0.18984672
141	0xbea38c18	-0.3194282
142	0xbe82bb58	-0.25533557
143	0xbe8b748e	-0.27237362
144	0xbe91ecb9	-0.28500918
145	0xbd7fb01b	-0.062423807
146	0x3e09e58e	0.13466474
147	0xbe310678	-0.17287624
148	0xbe4228ae	-0.1896083
149	0x3f008271	0.5019904
150	0xbb37d9be	-0.0028053368
151	0xbd04b5e6	-0.032400034
152	0xbd2dc28f	-0.042421874
153	0x3c022d73	0.007945406
154	0xbca5777e	-0.02019858
155	0x3db54e12	0.08852781
156	0x3dfe9fb6	0.12432806
157	0xbdd57aef	-0.10423838
158	0xbe0392c5	-0.12848957
159	0x3e1c3d69	0.15257801
160	0xbca06f24	-0.019584246
161	0x3d88eed2	0.06686176
162	0x3cb26645	0.021777282
163	0xbb45f9e5	-0.0030208763
164	0x3d98618c	0.074404806
165	0x3bcbafb6	0.0062160147
166	0xbd5d19b1	-0.05397958
167	0xbd3b47a8	-0.045722634
168	0xbd31c316	-0.04339894
169	0x3de9ca9b	0.11415597
170	0xbe18ec26	-0.14933833
171	0xbe3571cb	-0.1771919
172	0xbe0a39fe	-0.13498685
173	0xbe48bc88	-0.19603169
174	0xbe0398f1	-0.12851311
175	0xbdb67b08	-0.08910185
176	0x3e0a422a	0.13501802
177	0xbdd5cf09	-0.104398794
178	0xbd9f3c4c	-0.077751726
179	0x3e638ea8	0.22222388
180	0x3db2a862	0.08723523
181	0x3dfdb387	0.12387758
182	0x3da6ab1c	0.08138105
183	0x3e059ad7	0.13047348
184	0x3da8bdfe	0.08239363
185	0x3e0c87a6	0.13723621
186	0xbe15d321	-0.1463132
187	0x3e032fe5	0.12811239
188	0x3e32f20d	0.17475148
189	0xbe47e9a0	-0.19522715
190	0xbdbcb0f1	-0.092134364
191	0xbb83a3c6	-0.004017326
192	0xbc8b5f80	-0.017013311
193	0xbd0a4392	-0.033755846
194	0xbd6dd03f	-0.058059927
195	0xbdd6a38a	-0.10480411
196	0x3e1b87e6	0.1518856
197	0xbe1f6bab	-0.15568416
198	0xbe23251f	-0.1593213
199	0x3e5cb2fc	0.21552652
200	0xbd45f960	-0.048333526
201	0x3e82df7e	0.25561136
202	0x3e98ecb6	0.29868096
203	0x3e59abfc	0.21257013
204	0x3e93bf71	0.28856996
205	0xbc8de9c9	-0.017323392
206	0xbe4db793	-0.2008956
207	0x3df8b448	0.12143761
208	0x3e01ae58	0.12664163
209	0xbe038bad	-0.12846251
210	0xbdac9845	-0.084274806
211	0xbea029dd	-0.3128194
212	0xbeaf7e58	-0.3427608
213	0xbea8109e	-0.32825178
214	0xbea320a5	-0.31860843
215	0xbd87697f	-0.06611919
216	0x3e612824	0.21987969
217	0xbe93bcc8	-0.28854966
218	0xbe89709d	-0.2684373
219	0x3eb992ac	0.36244714
220	0x3d267e75	0.040647943
221	0x3d9c7965	0.07640342
222	0x3dabf147	0.083956294
223	0x3e0bb8e2	0.13644746
224	0x3e0cb6d5	0.1374162
225	0x3e02314d	0.1271412
226	0xbe08b94c	-0.13351935
227	0x3e552ca2	0.20817807
228	0x3dfbccd9	0.12294931
229	0xbe0c78d2	-0.13717964
230	0xbe28945a	-0.16462842
231	0xbe8cc04f	-0.2749047
232	0xbe9cca4e	-0.30623096
233	0xbea89d4c	-0.32932508
234	0xbeaf4956	-0.34235638
235	0xbc0a39ab	-0.008436601
236	0x3e1ec005	0.15502937
237	0xbe572016	-0.21008334
238	0xbe562ea9	-0.20916237
239	0x3db48b11	0.08815587
240	0x3c269ba7	0.010168946
241	0xbe137ec6	-0.14403829
242	0xbdc207c3	-0.09474137
243	0xbd51cde1	-0.051221732
244	0xbd3c83c3	-0.046024095
245	0xbd7b836e	-0.061404638
246	0x3e1a5b69	0.15073933
247	0xbe0b966e	-0.13631603
248	0xbe31ccb2	-0.17363241
249	0x3e33a316	0.17542681
250	0xbc4c549a	-0.012471342
251	0x3d8c78e1	0.06858993
252	0x3d9e62d1	0.077336915
253	0x3da45600	0.08024216
254	0x3dbffc1e	0.093742594
255	0xbcd105ec	-0.02551552

weight_hh_l0 f4 [250, 250]
0	0xbd652fdd	-0.05595385
1	0x3d85b218	0.06528109
2	0xbe378e53	-0.17925386
3	0x3d876baa	0.06612332
4	0xbd64e8bf	-0.055886026
5	0xbd3612c5	-0.044451494
6	0x3d9e42d5	0.07727591
7	0xbe3e4dd4	-0.18584377
8	0xbe0ccf24	-0.13750893
9	0x3df2fca8	0.118645966
10	0xbe024a88	-0.12723744
11	0xbd27654e	-0.040868096
12	0xbdcb5481	-0.09928227
13	0xbc82e5bf	-0.015978692
14	0x3dd8a265	0.10577849
15	0xbda914d5	-0.082559265
16	0x3c32bb8c	0.0109089725
17	0xbd34f4c5	-0.044178743
18	0xbd816c83	-0.06319525
19	0xbee215ca	-0.4415725
20	0x3b80a126	0.0039254604
21	0xbe6d15d4	-0.23152858
22	0x3d96e6d1	0.073682435
23	0x3e23c76b	0.1599404
24	0xbd9b2dd5	-0.07577101
25	0x3e2494d6	0.16072401
26	0xbdea7618	-0.11448306
27	0xbc9f46a1	-0.019442858
28	0xbca00000	-0.01953125
29	0xbe408db3	-0.18804054
30	0xbd4f7a95	-0.050654013
31	0x3ddcf069	0.10788042
32	0xbdbbce3b	-0.09170195
33	0xbdab0fda	-0.08352633
34	0x3c2201d3	0.00988813
35	0xbe6f76fa	-0.2338523
36	0x3c30deb2	0.010795282
37	0xbdd4f09b	-0.10397454
38	0xbdeb1276	-0.114781305
39	0xbc64bc87	-0.013960964
40	0xbd93807c	-0.07202241
41	0xbe048b8e	-0.12943861
42	0x3e65eeb9	0.22454347
43	0x3dd19cdb	0.10234996
44	0xbda7bcce	-0.081903085
45	0x3df754d1	0.12076724
46	0x3e4efa3b	0.20212643
47	0x3986155e	0.00025574391
48	0x3d375372	0.044757314
49	0x3c746045	0.014915531
50	0xbeac3cbc	-0.33640087
51	0xbdf09d30	-0.11748731
52	0x3e0b554d	0.13606758
53	0x3c4fa16c	0.012672763
54	0x3e205a23	0.15659384
55	0x3bc038d4	0.0058661494
56	0xbd85d4fd	-0.06534765
57	0x3d59bf59	0.053161
58	0xbaaf6b50	-0.0013383422
59	0x3e065d21	0.13121463
60	0x3dbf49cf	0.0934025
61	0xbda574f2	-0.08078946
62	0x3e10c0d5	0.1413606
63	0x3d4b2713	0.04959781
64	0xbd8fdc84	-0.07024482
65	0x3d1015d2	0.03517706
66	0xbc4f6383	-0.012658003
67	0x3d895c6b	0.067070805
68	0x3db0fdf7	0.0864219
69	0xbb9ddcc5	-0.0048175775
70	0xbd9205ea	-0.07130034
71	0x3d151c4d	0.036403943
72	0xbc0f2f2b	-0.008739273
73	0xbd7d60dd	-0.061859954
74	0xbd418f14	-0.04725559
75	0xbe557b26	-0.20847759
76	0xbd836c3a	-0.06417127
77	0x3e315214	0.17316467
78	0xbda9d05f	-0.08291697
79	0xbe6a4b27	-0.22880231
80	0x3b9dd2c6	0.004816386
81	0xbd93b793	-0.072127484
82	0xbe0f75d2	-0.14009789
83	0xbdb7412f	-0.0894798
84	0xbe3f96d8	-0.18709886
85	0xbe7b7942	-0.24557975
86	0x3e30d0d4	0.17267162
87	0x3ec0d48c	0.3766216
88	0xbe23d3f8	-0.15998828
89	0x3d7e0b3b	0.06202243
90	0xbd9ffaf4	-0.078115374
91	0x3aa93077	0.001290812
92	0xbbd6c4e0	-0.006554231
93	0x3d803ead	0.062619545
94	0xbdba11b5	-0.090854086
95	0x3d17c743	0.037055265
96	0x3e26ad6a	0.1627709
97	0x3d9efd47	0.077631526
98	0xbe00abf5	-0.12565596
99	0x3d97bb20	0.07408738
100	0x3d0c4adc	0.03425108
101	0xbe0726ac	-0.13198346
102	0xbd42c754	-0.047553375
103	0x3e85fa87	0.261677
104	0xbdec9eea	-0.11553748
105	0xbcea8a27	-0.02863033
106	0xbe89a177	-0.26881
107	0x3e15f804	0.14645392
108	0xbc432be1	-0.011912317
109	0x3de48eba	0.111600354
110	0x3e508a6b	0.20365302
111	0xbd31a197	-0.043366995
112	0xbdd5aafc	-0.10433003
113	0x3a6d86f9	0.0009060945
114	0xbde7da7b	-0.11320969
115	0x3d4a3de4	0.04937543
116	0x3e98cb3e	0.2984256
117	0xbe04f717	-0.12984882
118	0xbc92b0a1	-0.017906489
119	0x3da13c0e	0.07872783
120	0xbdca4cfe	-0.09877966
121	0xbdfb9bb9	-0.12285561
122	0xbcb863d1	-0.022508534
123	0x3d2b7d7b	0.041867714
124	0x3de3c82a	0.11122163
125	0x3c923f5c	0.017852478
126	0xbe08684d	-0.13321038
127	0x3dd847bd	0.10560558
128	0xbcca88aa	-0.02472337
129	0xbe38b3e7	-0.18037377
130	0x3e261634	0.16219407
131	0xbd1b65b0	-0.037938774
132	0x3ddd7774	0.108137995
133	0xbd6406a5	-0.0556704
134	0xbe73eb92	-0.23820332
135	0xbe391e00	-0.1807785
136	0x3e0c1c55	0.13682683
137	0xbd8b4ce9	-0.06801779
138	0x3e39b9d7	0.18137299
139	0xbe0960c0	-0.13415813
140	0x3b7cf2e1	0.0038596916
141	0x3cf3d9c6	0.029766928
142	0x3df5c25f	0.11999964
143	0x3dbc3a91	0.09190858
144	0xbdcb6dfc	-0.09933087
145	0xbca0717b	-0.019585362
146	0x3da5bb86	0.08092408
147	0x3d1488e8	0.036263376
148	0xbe166a24	-0.14688927
149	0x3db960df	0.0905168
150	0xbd51e0ab	-0.05123965
151	0x3c03efbc	0.008052763
152	0x3e034621	0.12819721
153	0xbe2f732b	-0.17133777
154	0x3eacf75e	0.33782476
155	0x3e0f745a	0.14009228
156	0xbcc91899	-0.024547862
157	0x3de4b189	0.11166675
158	0x3d2280d4	0.03967364
159	0x3e4386ce	0.19094393
160	0xbdb9634f	-0.09052145
161	0x3dc4187e	0.09574984
162	0xbd69886e	-0.057014875
163	0xbd31f10e	-0.04344278
164	0xbe2a21dd	-0.1661448
165	0xbd7d7ebd	-0.061888445
166	0xbd62b389	-0.055347
167	0xbdf0eae9	-0.117635556
168	0xbe2167df	-0.1576228
169	0x3e7371c7	0.23773871
170	0x3e4c9263	0.19977717
171	0x3e8d2f64	0.2757522
172	0x3e50e03e	0.20398042
173	0xbda1bde8	-0.0789755
174	0x3a8fa3f0	0.0010958891
175	0xbdf76151	-0.120791085
176	0xbeacca04	-0.33747876
177	0xbb89d8d6	-0.004206757
178	0xbe0497b1	-0.1294849
179	0x3d8d6433	0.06903877
180	0xbc84721e	-0.016167697
181	0x3dd8b8e3	0.10582139
182	0x3d76f44b	0.06029157
183	0xbe9c2d7a	-0.30503446
184	0x3d11f3c1	0.035632852
185	0x3cbc7ada	0.023007799
186	0x3e802e48	0.2503531
187	0xbdf76dac	-0.12081465
188	0xbd39b130	-0.045334995
189	0xbd9cd8a8	-0.076585114
190	0x3e752803	0.23941045
191	0xbda2da8b	-0.0795184
192	0xbd9bd866	-0.07609634
193	0xbdba9e21	-0.09112192
194	0x3e323bc1	0.17405607
195	0x3e477088	0.19476521
196	0xbdf1dc4d	-0.11809597
197	0x3e1e0c27	0.15434323
198	0xbd97e912	-0.074175015
199	0x3d04aa5f	0.03238904
200	0xbdce8372	-0.10083665
201	0xbd7b6d02	-0.061383255
202	0xbe57ff76	-0.21093544
203	0xbeaea101	-0.3410721
204	0xbe0cdefe	-0.1375694
205	0xbe5d6581	-0.21620752
206	0x3e9da3f3	0.30789146
207	0xbc92ff7a	-0.017944086
208	0xbddf6745	-0.10908369
209	0xbdd5de6a	-0.10442813
210	0xbde3a51d	-0.11115477
211	0x3c57122d	0.013126892
212	0x3dfbc11e	0.122926936
213	0xbe05089e	-0.12991568
214	0x3c0daf71	0.0086477855
215	0x3e37ac46	0.17936811
216	0x3d0f4bba	0.034984328
217	0xbd45ca69	-0.048288736
218	0xbe279303	-0.16364674
219	0xbd63dcff	-0.05563068
220	0x3d8814e9	0.06644613
221	0x3e201e14	0.15636474
222	0x3de84a7b	0.11342331
223	0x3e0f7d6b	0.14012687
224	0xbd262651	-0.040563885
225	0xbe00a04e	-0.12561151
226	0xbdb12919	-0.08650417
227	0x3ce0df28	0.02745016
228	0xbd888385	-0.0666571
229	0x3dbb0d1e	0.09133361
230	0xbdddc1b3	-0.10827961
231	0xbda9d310	-0.0829221
232	0xbd875bdf	-0.0660932
233	0x3e0931e1	0.13397934
234	0xbe061ed6	-0.130977
235	0xbd013bf1	-0.031551305
236	0x3e0b607f	0.13611029
237	0x3daee797	0.08540266
238	0x3e17bfa8	0.14819205
239	0x3db415b3	0.08793201
240	0x3d9f5e74	0.077816874
241	0xbe783ac6	-0.2424117
242	0x3e112734	0.14175111
243	0xbdcb6cd5	-0.099328674
244	0x3e157faf	0.14599489
245	0xbd3302d7	-0.04370388
246	0xbc42e4d0	-0.011895373
247	0x3c9cf720	0.019160807
248	0xbd2af27e	-0.041735165
249	0xbe232abb	-0.15934269
250	0x3d5f5b02	0.05453015
251	0x3cba8e3b	0.022772899
252	0xbdab5729	-0.08366234
253	0xbe11c4d2	-0.14235237
254	0x3e3bd064	0.18341213
255	0x3d977f33	0.07397308

bias_ih_l0 f4 [250]
0	0x3e50b1ea	0.20380369
1	0x3c3f8159	0.011688554
2	0xbd29c891	-0.04145104
3	0xbea328d0	-0.31867075
4	0x3e1f3f85	0.15551575
5	0x3e3f4d80	0.18681908
6	0xbe5170dc	-0.20453209
7	0x3e9f339e	0.31094068
8	0x3df77980	0.12083721
9	0x3e23b2be	0.15986153
10	0x3e55ebf8	0.20890796
11	0x3e41ce19	0.18926276
12	0x3e8fe6d2	0.2810579
13	0xbe330d7d	-0.17485614
14	0x3e0ec380	0.13941765
15	0x3cffef46	0.031242024
16	0x3d112b77	0.035441842
17	0x3e1fdf13	0.1561244
18	0xbe36b214	-0.17841369
19	0x3e369e10	0.17833734
20	0xbdff99c8	-0.12480503
21	0x3eb0c210	0.34523058
22	0xbe3f89d0	-0.18704915
23	0x3e77229a	0.24134293
24	0x3e66c457	0.22535835
25	0xbe6d0f27	-0.23150311
26	0x3c8e5fe8	0.017379716
27	0xbd7f6733	-0.062354278
28	0x3e410898	0.18850935
29	0x3dbba367	0.09162026
30	0xbe776323	-0.24158911
31	0xbe448b31	-0.19193722
32	0x3e85b713	0.26116237
33	0x3e034b9c	0.12821811
34	0xbc22d3a5	-0.009938155
35	0x3bf3900f	0.0074329446
36	0xbeab1ec1	-0.334219
37	0xbdf8ce71	-0.121487506
38	0x3e942a02	0.289383
39	0xbdb32c1a	-0.08748646
40	0x3df71c1d	0.12065909
41	0x3e29dd5f	0.16588353
42	0xbdeb4bca	-0.11489065
43	0xbdcd59dd	-0.10026906
44	0xbe57391b	-0.21017878
45	0xbd545501	-0.05183888
46	0x3d0d2ad1	0.03446466
47	0xbdbdaa1e	-0.09260963
48	0xbe4300f8	-0.19043338
49	0x3deb64e9	0.114938565
50	0xbdf8f6f9	-0.12156481
51	0xbea1ff7d	-0.31640235
52	0xbe8a4c83	-0.270115
53	0xbe42c823	-0.19021659
54	0xbe833295	-0.2562453
55	0x3e46e5b3	0.19423561
56	0xbe63583c	-0.22201627
57	0xbdd0449a	-0.10169335
58	0x3e8fdf14	0.28099883
59	0xbda73951	-0.08165229
60	0x3d5f5a7b	0.05452965
61	0xbe55d3dc	-0.20881599
62	0x3e46d95b	0.19418852
63	0xbddc7620	-0.10764718
64	0xbe1f5a90	-0.1556189
65	0xbe4e5d3f	-0.20152758
66	0x3e43ab35	0.19108279
67	0x3e820579	0.253948
68	0x3ccf296e	0.02528831
69	0x3daa865e	0.0832641
70	0xbdd1d9da	-0.1024663
71	0x3e4ce7f7	0.20010363
72	0x3e406447	0.18788253
73	0x3e3b7533	0.18306427
74	0xbe0ac611	-0.13552119
75	0x3e1b67da	0.15176335
76	0xbe5a79f0	-0.21335578
77	0xbe641485	-0.22273453
78	0x3e2a65d5	0.16640408
79	0xbbefa9d8	-0.007313948
80	0xbd9df6e6	-0.07713108
81	0x3da84be4	0.082176
82	0x3e1c2e5b	0.15252058
83	0x3e0d6f8c	0.13812083
84	0xbd5a1a58	-0.05324778
85	0x3e59af21	0.21258213
86	0xbe17ddf4	-0.14830762
87	0xbe43dee8	-0.19128
88	0x3d755fe2	0.059905894
89	0x3e34b45c	0.17646927
90	0xbe22616b	-0.15857475
91	0xbe9d682b	-0.30743536
92	0xbdd789d5	-0.10524336
93	0x3e67b9f4	0.22629529
94	0xbda990eb	-0.08279594
95	0x3e9b496a	0.30329448
96	0xbe3a7fc2	-0.18212798
97	0xbe4bab2f	-0.1988952
98	0x3ea68141	0.32520488
99	0x3d4f4b45	0.050608892
100	0xbcd1b156	-0.025597256
101	0xbe61fa98	-0.2206825
102	0xbe693822	-0.22775319
103	0xbde21a2b	-0.110401474
104	0xbe9c706f	-0.3055453
105	0xbdf0d34d	-0.117590524
106	0x3e7f4d37	0.24931799
107	0xbe2bb40a	-0.16767898
108	0xbdd9371c	-0.106062144
109	0x3dd50b43	0.104025386
110	0xbda505f9	-0.0805778
111	0x3e7b5c43	0.24546914
112	0x3e047c44	0.12938029
113	0x3e46b258	0.1940397
114	0x3dc5b5b3	0.09653797
115	0x3e10649e	0.14100882
116	0xbe690b07	-0.22758113
117	0x3e21865e	0.15773913
118	0x3e9d747b	0.3075293
119	0xbd785a92	-0.06063325
120	0xbd839d78	-0.06426519
121	0x3eb6f214	0.35731566
122	0x3e612ca4	0.21989685
123	0x3da8fb61	0.08251072
124	0xbdc8670b	-0.09785279
125	0x3d8515fa	0.06498332
126	0x3dd6d96c	0.10490689
127	0x3e1ece81	0.15508462
128	0x3e5b1237	0.21393667
129	0x3e211297	0.15729748
130	0xbe6d00a9	-0.23144783
131	0xbe617957	-0.22018944
132	0xbe982832	-0.29718167
133	0x3ba61e6d	0.005069545
134	0x3e922c79	0.28549555
135	0x3e071caf	0.13194536
136	0xbe5cfa7b	-0.21579926
137	0x3d95f77e	0.07322596
138	0x3d1f7b8d	0.038936187
139	0x3e895191	0.26820043
140	0x3e8a3ee5	0.2700111
141	0xbe2d1042	-0.16900733
142	0x3e20c933	0.15701751
143	0xbc9184e5	-0.017763564
144	0xbd10a5df	-0.035314437
145	0x3e353543	0.17696099
146	0xbe3a189a	-0.18173447
147	0x3da13749	0.07871873
148	0x3e5fc9ce	0.21854326
149	0x3e03c787	0.12869082
150	0xbe5f1bfb	-0.21788017
151	0xbd2a1d72	-0.041531987
152	0x3e0127ac	0.1261279
153	0x3e837850	0.2567773
154	0xbe48150e	-0.19539282
155	0xbe42bb83	-0.19016843
156	0x3e9f9c91	0.31174138
157	0x3e246a01	0.16056062
158	0xbe2837c1	-0.16427518
159	0x3d17f2d9	0.037096832
160	0x3dc38542	0.09546901
161	0x3e34f1bc	0.1767034
162	0x3e61b534	0.2204178
163	0x3e70f1e4	0.23529774
164	0x3da718f8	0.08159059
165	0x3e92e3a3	0.28689298
166	0x3e036090	0.12829804
167	0x3e298529	0.16554703
168	0x3e57d529	0.21077408
169	0xbc642f55	-0.0139273
170	0xbe7d545e	-0.24739215
171	0xbe626a4e	-0.22110865
172	0xbda99e4d	-0.082821466
173	0x3e5b33b1	0.21406437
174	0xbe24c016	-0.160889
175	0x3e8979ee	0.26850837
176	0x3e825cf0	0.2546153
177	0x3db738ec	0.08946404
178	0x3e1814bd	0.14851661
179	0x3cf7f995	0.030270377
180	0xbe67eb0b	-0.22648256
181	0x3e5243cd	0.20533676
182	0xbe6df0fb	-0.23236458
183	0x3e2fe651	0.17177702
184	0x3e0b4c7a	0.13603392
185	0xbd36e5b2	-0.04465265
186	0xbebc2af5	-0.36751524
187	0xbe25db16	-0.16196856
188	0x3e3c46c8	0.18386376
189	0x3e81837c	0.25295627
190	0xbe0bf9f1	-0.13669564
191	0xbdfdedae	-0.123988494
192	0x3e47c167	0.19507371
193	0x3e60f256	0.21967444
194	0xbe5055a1	-0.20345165
195	0x3e11eec6	0.14251241
196	0x3c431402	0.011906626
197	0xbe6b0c16	-0.22953829
198	0xbb8d687f	-0.0043154354
199	0xbdb7003a	-0.0893559
200	0x3dc6f812	0.097152844
201	0x3e28798a	0.16452613
202	0x3e0b2d30	0.13591456
203	0x3e4b350f	0.19844459
204	0x3e2e0a20	0.1699605
205	0x3db1e9f7	0.086872034
206	0xbdafb6b0	-0.08579767
207	0x3e984315	0.2973868
208	0x3e98159f	0.29703996
209	0xbea9bdbc	-0.33152568
210	0x3e4aadf7	0.19792925
211	0x3d4c5d5d	0.049893726
212	0x3e25a1da	0.16175023
213	0x3e5a1291	0.21296145
214	0x3e98c99c	0.29841316
215	0x3c5c24f2	0.013436543
216	0xbd97b85c	-0.07408211
217	0x3d9a68a0	0.07539487
218	0xbde9bb03	-0.11412623
219	0x3e0f81fc	0.14014429
220	0x3d4d6cc4	0.050152555
221	0x3e231490	0.15925813
222	0xbe219bf6	-0.1578215
223	0xbd6be4d1	-0.057591263
224	0x3dc10199	0.09424133
225	0xbd5b7d1b	-0.053586107
226	0x3e0b0d26	0.13579234
227	0xbeb1e490	-0.34744692
228	0xbe401299	-0.18757094
229	0x3bafdb40	0.005366713
230	0xbe29d782	-0.16586116
231	0xbe03ffc2	-0.12890533
232	0x3e64534d	0.22297402
233	0xbe08b8d8	-0.13351762
234	0x3e5ceb31	0.21574093
235	0x3e593935	0.21213229
236	0xbe14a67a	-0.14516631
237	0xbe84a2a6	-0.2590534
238	0xbe858dfb	-0.26084885
239	0xba87d3e9	-0.0010362837
240	0xbe55778e	-0.20846388
241	0x3d976467	0.07392197
242	0xbe5f1454	-0.21785098
243	0x3e296c4e	0.16545221
244	0xbe37b955	-0.17941792
245	0xbd6b3b59	-0.057429645
246	0x3e2eb54d	0.17061348
247	0xbe1ec2ae	-0.15503952
248	0x3e9da815	0.307923
249	0x3dbf13d5	0.093299545

bias_hh_l0 f4 [250]
0	0x3e63c27f	0.22242163
1	0xbdba99a9	-0.091113396
2	0xbd54774d	-0.051871587
3	0xbe8e2a18	-0.2776649
4	0x3e5dd641	0.21663763
5	0x3e77d024	0.24200493
6	0xbe5abf93	-0.21362142
7	0x3e8bd20f	0.273087
8	0x3df6de26	0.1205409
9	0x3df934bb	0.12168261
10	0x3e318940	0.17337513
11	0x3e25a118	0.16174734
12	0x3e691d03	0.22764973
13	0xbe1cf260	-0.15326834
14	0x3e771c69	0.24131931
15	0x3da0c128	0.07849342
16	0xbd8b01de	-0.067874655
17	0x3e20ae95	0.15691598
18	0xbe3804c9	-0.17970575
19	0x3e4fd15e	0.20294711
20	0xbe3c0103	-0.18359761
21	0x3ea8e72a	0.32988864
22	0xbe5a0296	-0.21290049
23	0x3e5c286f	0.21499799
24	0x3e455b8e	0.19273207
25	0xbe43a858	-0.19107187
26	0xbd86942a	-0.06571229
27	0xbddcd8dc	-0.1078355
28	0x3e1be5e5	0.15224417
29	0x3d723c0e	0.059139304
30	0xbe4fba8e	-0.20286009
31	0xbe60294d	-0.21890755
32	0x3e186e44	0.14885813
33	0x3e0cc2b4	0.13746148
34	0x3c6e23ee	0.0145349335
35	0x3da22b8b	0.079184614
36	0xbe7cc035	-0.24682696
37	0xbd8c2ddf	-0.06844687
38	0x3e503489	0.2033254
39	0xbd4df749	-0.050284658
40	0x3e09b3a1	0.13447429
41	0x3de919f1	0.11381901
42	0xbc7f216c	-0.015571933
43	0xbe160549	-0.14650454
44	0xbe83af88	-0.25719857
45	0xbcaca0a3	-0.021072691
46	0xbbaa71e7	-0.0052015665
47	0xbc844fff	-0.016151426
48	0xbe8353ab	-0.2564977
49	0x3d85f987	0.06541734
50	0xbdc44fdb	-0.09585544
51	0xbead9cbe	-0.33908647
52	0xbeaa3c92	-0.33249336
53	0xbdf3694b	-0.118853174
54	0xbe809ee5	-0.25121227
55	0x3e44b0ac	0.1920802
56	0xbe826907	-0.25470755
57	0xbdc1b3d2	-0.09458126
58	0x3ebd2535	0.3694245
59	0xbe1a95c0	-0.15096188
60	0xbb996192	-0.0046808207
61	0xbe24f299	-0.16108169
62	0x3e57c43e	0.21070954
63	0xbd917039	-0.07101483
64	0xbdf301bb	-0.118655644
65	0xbe4a4caa	-0.19755808
66	0x3e2b9d05	0.16759117
67	0x3e23e8e5	0.16006811
68	0x3de111d4	0.109897286
69	0x3d8012bc	0.06253573
70	0x3b8252e7	0.003977168
71	0x3e1335b7	0.1437596
72	0x3e4bc0c7	0.19897757
73	0x3e02b887	0.12765704
74	0xbe3547cf	-0.17703174
75	0x3e095999	0.13413085
76	0xbe2d9840	-0.1695261
77	0xbe7df983	-0.24802212
78	0x3e03f965	0.12888105
79	0x3d85a748	0.06526047
80	0xbd6f8a40	-0.058481455
81	0x3e0581c6	0.13037786
82	0x3e141e35	0.14464648
83	0x3e15b69e	0.14620444
84	0x3bab1899	0.005221438
85	0x3e291355	0.16511281
86	0xbdf378a2	-0.11888243
87	0xbe275d50	-0.1634419
88	0x3d27a2a7	0.0409266
89	0x3de409ff	0.11134719
90	0xbe462d8b	-0.19353311
91	0xbea2971f	-0.3175592
92	0xbe03d08b	-0.12872522
93	0x3e673b10	0.22581124
94	0xbca17a40	-0.019711614
95	0x3ea0f390	0.31435823
96	0xbdeae124	-0.114687234
97	0xbe355f2f	-0.17712091
98	0x3e7e53ca	0.2483665
99	0x3d92cacc	0.07167587
100	0xbd48431a	-0.048892118
101	0xbe88f8c6	-0.267523
102	0xbe66049e	-0.22462699
103	0xbe213dcc	-0.1574623
104	0xbe7848b3	-0.24246483
105	0xbdba5c2e	-0.09099613
106	0x3e8bc5af	0.27299258
107	0xbe2ddc00	-0.16978455
108	0xbe2a4a70	-0.16629958
109	0x3dbb9a57	0.09160297
110	0xbe2687c4	-0.16262728
111	0x3e795dfb	0.24352257
112	0x3e16397a	0.14670363
113	0x3e1cad1c	0.15300411
114	0x3dfdac35	0.123863615
115	0x3e08d76a	0.13363424
116	0xbe928a0e	-0.28620952
117	0x3e305f88	0.17223942
118	0x3e7b2f40	0.24529743
119	0xbe1c20cc	-0.15246886
120	0xbd962908	-0.07332045
121	0x3e784f04	0.24248892
122	0x3e19e5a4	0.15029007
123	0x3e06719a	0.13129273
124	0xbda0a2f9	-0.078435846
125	0x3d296697	0.041357603
126	0x3dbbdbb3	0.09172764
127	0x3e064247	0.1311122
128	0x3e546f0a	0.20745483
129	0x3d9a81c3	0.07544281
130	0xbe4e2b39	-0.20133676
131	0xbe500fb8	-0.20318496
132	0xbe760275	-0.24024375
133	0x3d901b67	0.070364766
134	0x3e7aa518	0.24477041
135	0x3d986d11	0.07442678
136	0xbea2a87c	-0.31769168
137	0x3dd03954	0.101671845
138	0x3e168a79	0.1470126
139	0x3e88c7cd	0.26714936
140	0x3e94f307	0.29091665
141	0xbe05ceb6	-0.13067135
142	0x3dd3dd68	0.10344964
143	0xbba88130	-0.0051423535
144	0xbd0d0a53	-0.034433674
145	0x3e662415	0.22474702
146	0xbe5d68c8	-0.21622002
147	0x3d9c4e7b	0.076321565
148	0x3e808658	0.25102496
149	0x3e435f56	0.19079337
150	0xbe61b277	-0.22040735
151	0xbde61dcc	-0.11236152
152	0x3dd5c56b	0.10438045
153	0x3e9bc148	0.304209
154	0xbe1f9a05	-0.15586098
155	0xbe40a335	-0.18812259
156	0x3e818a5a	0.25300866
157	0x3e05b8c4	0.13058764
158	0xbe7eb290	-0.24872804
159	0xbd0746c2	-0.033026464
160	0x3d7c4b13	0.061595034
161	0x3e5f8783	0.21829037
162	0x3e322eb7	0.17400633
163	0x3e56148c	0.20906276
164	0x3e0ce20d	0.13758107
165	0x3e6926dd	0.22768731
166	0x3e241dec	0.1602704
167	0x3e79f525	0.24409921
168	0x3e4f603b	0.20251553
169	0x3c785b0d	0.015158427
170	0xbe4e65e0	-0.2015605
171	0xbe6d3fc1	-0.23168851
172	0xbcf22e01	-0.029562952
173	0x3e1cdb43	0.15318017
174	0xbe156e09	-0.14592756
175	0x3e6fb3aa	0.2340838
176	0x3e2050da	0.15655842
177	0x3ddea3d6	0.10871093
178	0x3e46e015	0.19421418
179	0x3d87511c	0.06607267
180	0xbe8a9728	-0.27068448
181	0x3e534cea	0.20634809
182	0xbe8fd721	-0.28093818
183	0x3e4b26f5	0.1983908
184	0x3dfbabee	0.12288652
185	0xbb7ffc2b	-0.0039060216
186	0xbeb2c193	-0.3491331
187	0xbe04a6a2	-0.1295419
188	0x3e5ca991	0.2154906
189	0x3e471c6b	0.19444434
190	0xbde7b17a	-0.11313148
191	0xbdfdd84f	-0.12394773
192	0x3e581a6a	0.21103826
193	0x3e385c03	0.1800385
194	0xbde0c931	-0.10975874
195	0x3e5077d5	0.20358212
196	0x3cef415a	0.029205967
197	0xbe9d9315	-0.30776277
198	0xbc8c70a5	-0.017143557
199	0xbdf9e5f8	-0.12202066
200	0x3d2e6d60	0.042584777
201	0x3dac2ba8	0.08406764
202	0x3e55756c	0.20845574
203	0x3e3f0b30	0.18656611
204	0x3e7a336f	0.24433683
205	0x3d51edc5	0.051252145
206	0xbd20f19d	-0.03929292
207	0x3e92a1b8	0.28639007
208	0x3e9caf83	0.30602655
209	0xbebd5d69	-0.3698533
210	0x3e2694ed	0.16267748
211	0x3dd00947	0.101580195
212	0x3e74d190	0.23908067
213	0x3ddac528	0.10682136
214	0x3e85a206	0.26100177
215	0xbdcb9aeb	-0.09941658
216	0xbd8488b2	-0.06471385
217	0x3e2fc4e1	0.17164947
218	0xbde16066	-0.11004715
219	0x3e22763c	0.15865415
220	0x3e1eed93	0.15520315
221	0x3e1dfec0	0.1542921
222	0xbe2bddb7	-0.16783796
223	0xbe27aed7	-0.1637529
224	0x3dcd22ab	0.10016378
225	0xbd71176e	-0.058860235
226	0x3e6a539f	0.22883461
227	0xbe7bed4c	-0.2460224
228	0xbe53ecf3	-0.20695858
229	0x3d82243b	0.06354567
230	0xbdc4afde	-0.096038565
231	0xbe3ef5ac	-0.18648404
232	0x3e79ba2e	0.24387428
233	0xbddaed48	-0.10689789
234	0x3dcd1cde	0.100152716
235	0x3e174d8c	0.14775676
236	0xbe1d7713	-0.15377454
237	0xbe861c07	-0.26193258
238	0xbea122e7	-0.3147194
239	0xbd750400	-0.059818268
240	0xbe916d88	-0.28403878
241	0x3e173c1a	0.1476902
242	0xbe5e0fab	-0.21685664
243	0x3e8c0d6b	0.27353987
244	0xbdca9119	-0.098909564
245	0xbdfadc05	-0.12248997
246	0x3de8ceab	0.11367544
247	0xbe360d45	-0.177785
248	0x3ea5de07	0.32395956
249	0x3daebafc	0.08531758

weight f4 [1, 250]
0	0xbd53a49e	-0.051670663
1	0xbd7a6c6d	-0.06113856
2	0x3da59673	0.080853365
3	0xbdca6a93	-0.09883609
4	0x3c4f1e7e	0.012641547
5	0x3d458a59	0.04822764
6	0xbc5432ee	-0.012951596
7	0x3e1be021	0.15222217
8	0x3da7da36	0.08195917
9	0x3c616b2b	0.013758461
10	0x3e56a562	0.20961526
11	0xbc237a09	-0.009977826
12	0x3de35c49	0.11101586
13	0x3d08f215	0.033433992
14	0x3d9540fe	0.07287787
15	0xbc47b3d2	-0.012188869
16	0x3d5d4394	0.054019526
17	0x3c8af2fb	0.016961565
18	0x3c452e72	0.012034999
19	0x3cfff856	0.031246345
20	0xbbcdf8bb	-0.0062857545
21	0x3da33f75	0.07971088
22	0xbc3a59e4	-0.011373971
23	0xbcfd5799	-0.030925559
24	0x3e0c477c	0.13699144
25	0xbb1901eb	-0.002334709
26	0x3caf8a7c	0.02142834
27	0xbdf20656	-0.11817615
28	0x3d935c29	0.071953125
29	0x3cfad5a9	0.03061946
30	0xbd8985c2	-0.067149654
31	0xbd30c73d	-0.04315876
32	0x3d9b0346	0.07568984
33	0x3d15b480	0.03654909
34	0x3d4e410b	0.050355
35	0x3de78ae4	0.11305788
36	0xbdcaafb7	-0.09896796
37	0x3d09e2da	0.033663608
38	0x3c6ea057	0.014564595
39	0xbd68b78c	-0.05681567
40	0x3ecccb43	0.39998826
41	0x3da944cc	0.08265075
42	0xbce9e6c6	-0.028552424
43	0x3a4368fd	0.0007454304
44	0xbdd2d2b7	-0.10294097
45	0xba90aa8d	-0.0011037156
46	0x3bea9aa1	0.0071595465
47	0xbca3260a	-0.0199156
48	0xbcf93654	-0.030421413
49	0x3d510820	0.05103314
50	0x3d4a3085	0.049362678
51	0xbcc71169	-0.024300294
52	0xbdb29ad5	-0.08720938
53	0x3cecb087	0.028892769
54	0xbe9ff5b1	-0.31242135
55	0x3dc1295a	0.09431715
56	0xbc20e204	-0.009819511
57	0xbbe4da9a	-0.006984067
58	0x3d3e7a17	0.046503153
59	0xbd1e9528	-0.038716465
60	0x3d957592	0.072978154
61	0x3d51ec13	0.05125053
62	0x3d33998e	0.043847613
63	0xbbab4a52	-0.0052273655
64	0xbd808620	-0.06275582
65	0xbd784366	-0.06061115
66	0xbc48cb11	-0.012255446
67	0x3e3417ca	0.175872
68	0xbc860859	-0.016361402
69	0xbc91f7cc	-0.017818354
70	0xbdda68b5	-0.106645025
71	0x3c833821	0.016017975
72	0x3dccdc46	0.10002951
73	0xbd240169	-0.040040407
74	0xbbdfaa29	-0.0068257046
75	0x3ce8607b	0.028366318
76	0xbd614ca3	-0.055004727
77	0xbdc56361	-0.09638096
78	0x3e0b1fc1	0.13586332
79	0x3dc24bed	0.09487138
80	0xbd56d176	-0.05244585
81	0x3daa931a	0.08328839
82	0x3cb360d9	0.021896766
83	0x3de64af1	0.11244763
84	0xbd4f7c0c	-0.05065541
85	0x3c8c0da9	0.017096357
86	0x3b4c7efd	0.003120362
87	0xbdb01f59	-0.08599729
88	0x3da38aea	0.0798548
89	0xbd7e8654	-0.062139824
90	0xbe14cb56	-0.14530692
91	0xbdb55e7f	-0.08855914
92	0x3b5b5061	0.0033464658
93	0xbc3c1cda	-0.011481488
94	0x3c925857	0.01786439
95	0x3da60cf8	0.08107942
96	0xbcca4561	-0.024691286
97	0x3c83fc8a	0.016111631
98	0x3ddb1137	0.10696643
99	0xbb71698e	-0.0036836597
100	0x3c3dca18	0.011583827
101	0xbdfd2c6c	-0.123619884
102	0xbd7e5687	-0.062094238
103	0xbce17752	-0.027522717
104	0xbd6267e4	-0.05527486
105	0xbe0a6b2f	-0.1351745
106	0x3cc0f8e9	0.02355619
107	0x3b611be9	0.003434891
108	0x3c9fe225	0.019517014
109	0x3c45100f	0.012027754
110	0xbd211582	-0.039327152
111	0x3d4996ae	0.049215965
112	0x3dbf065a	0.09327383
113	0x3cd9ad21	0.026571812
114	0x3d646eca	0.05576972
115	0x3d21be25	0.039487977
116	0xbe08eedc	-0.13372368
117	0x3b849f09	0.004047279
118	0x3d8f8e1e	0.070095286
119	0xbdd2967a	-0.102826074
120	0xbda40dde	-0.080104575
121	0x3d8a5c69	0.06755907
122	0x3df6fbcc	0.12059745
123	0xbcac56b2	-0.021037433
124	0xbdbcd3fa	-0.09220119
125	0xbd1fbadd	-0.038996566
126	0xbcc1155e	-0.023569759
127	0x3cc367b8	0.023853168
128	0x3de29521	0.110636
129	0x3c8a547a	0.016885985
130	0xbd2da7a4	-0.042396203
131	0xbd185fa3	-0.03720058
132	0xbd34fbe1	-0.044185523
133	0xbc1edf2b	-0.009696762
134	0x3c328103	0.010895017
135	0x3bf65225	0.0075171166
136	0xbdc0ecde	-0.09420179
137	0x3dfc889f	0.12330746
138	0x3dc1045a	0.09424658
139	0x3c9bf992	0.019039903
140	0x3dba1fe8	0.09088117
141	0xbda83f21	-0.08215166
142	0x3cf1419f	0.029450236
143	0x3bcaa346	0.0061840145
144	0x3d0e8795	0.03479727
145	0x3da057cd	0.07829247
146	0x3c6e9a47	0.01456315
147	0xbc874d99	-0.016516494
148	0x3c8c096a	0.017094333
149	0x3d95864b	0.07301005
150	0xbd49b07a	-0.049240567
151	0x3cf8e579	0.030382859
152	0x3dcbe0c1	0.09954978
153	0x3d9d3777	0.07676595
154	0xbcddf20a	-0.027092952
155	0xbcdb5b88	-0.026777044
156	0x3d87792c	0.066149086
157	0xbb5eaae4	-0.003397637
158	0xbd9a759b	-0.07541963
159	0xbc94117a	-0.01807474
160	0x3e1f9600	0.15584564
161	0x3cd4fdd9	0.02599995
162	0x3d9986b8	0.07496399
163	0x3d52e6f7	0.051489796
164	0x3d5a6e3c	0.053327784
165	0x3e934fc4	0.28771794
166	0x3d14ac91	0.036297385
167	0x3e35f548	0.17769349
168	0x3d65a42f	0.05606478
169	0x3cf1d254	0.029519238
170	0xbdd64d51	-0.10463966
171	0xbd804fc2	-0.062652126
172	0xbc4c4748	-0.012468167
173	0x3c89ebab	0.016836008
174	0xbd9d4c5c	-0.0768058
175	0x3ccca5a5	0.02498133
176	0x3d79d2cb	0.060992043
177	0x3d8bc8b7	0.06825393
178	0x3d935dd5	0.071956314
179	0x3d6a58d0	0.057213604
180	0xbeea067b	-0.4570807
181	0x3d3112e1	0.043230895
182	0xbdd46a3f	-0.10371827
183	0x3cb34b02	0.021886352
184	0xbd2fe5ea	-0.042943873
185	0xbc07cd15	-0.008288641
186	0xbdd217be	-0.10258435
187	0xbe0de5c2	-0.13857177
188	0x3dc49986	0.09599595
189	0x3d467343	0.048449766
190	0xbd42b34e	-0.04753428
191	0xbf1feec8	-0.62473726
192	0x3dac94d5	0.08426825
193	0x3c52d787	0.012868769
194	0xbca28c9a	-0.019842435
195	0x3de4090a	0.111345366
196	0x3c5f6976	0.013635984
197	0xbe04de2c	-0.12975377
198	0xbd20f82d	-0.03929918
199	0xbd096780	-0.03354597
200	0xbccc7c13	-0.024961507
201	0xbabed65f	-0.0014559737
202	0x3ca7d970	0.020489424
203	0x3df30a51	0.11867202
204	0x3e21e378	0.15809429
205	0x3ba11661	0.004915998
206	0xbe069262	-0.13141778
207	0x3d978a5a	0.07399435
208	0x3dfaf1c9	0.12253148
209	0xbdb7ca93	-0.08974185
210	0x3d82340b	0.06357583
211	0x3cd0cf13	0.025489366
212	0xbbf75522	-0.0075479904
213	0x3d745bf3	0.059658002
214	0x3db7f00e	0.08981334
215	0xbd8e0ebc	-0.06936404
216	0xbd51aebe	-0.051192038
217	0x3ca12582	0.019671205
218	0xbe957057	-0.2918727
219	0x3e371423	0.17878775
220	0x3a371b3e	0.00069849554
221	0xbc4ecb6d	-0.012621743
222	0xbda735a8	-0.08164531
223	0xbd8662e4	-0.06561831
224	0x3d54b03f	0.051925894
225	0x3d31393a	0.043267466
226	0x3e0bbe89	0.13646902
227	0xbd7df4d8	-0.06200108
228	0xbdef09c6	-0.11671786
229	0xbc551434	-0.013005305
230	0x3c7cece7	0.015437341
231	0xbd70b9e5	-0.058771033
232	0x3daa5157	0.083162956
233	0xbd1d05a8	-0.038335472
234	0x3da6b57c	0.08140084
235	0x3c1bee03	0.009517196
236	0xbb3f5e16	-0.0029200367
237	0xbe1e50c9	-0.15460505
238	0xbd4a5f7c	-0.049407467
239	0x3d3975d3	0.04527838
240	0xbf89bfda	-1.0761673
241	0x3db77c9e	0.08959316
242	0xbdf86585	-0.12128738
243	0x3cd17813	0.025569951
244	0xbcb81c4a	-0.022474427
245	0x3ca2c5e3	0.01986975
246	0xbc3238b0	-0.010877773
247	0xbd852991	-0.06502069
248	0x3e639551	0.22224928
249	0x3d635a64	0.055506125
