model/RNN-000635.pth (torch, 266199 bytes, 5 tensors)

weight_ih_l0 f4 [250, 10]
0.06638336 -0.059306636 -0.011717543 -0.04312778 -0.054125164 -0.012104315 -0.046871535 -0.040130634
0.022586389 -0.0006723219 0.8088094 0.257665 0.3236994 0.2853653 0.30435857 0.11046451
0.041042224 0.11689033 0.11281761 -0.3709473 0.21666619 -0.0099614635 0.05219464 0.035930347
0.054928143 0.021890992 0.01858755 -0.06284011 -0.018553369 -0.37512055 -0.712067 0.03748024
-0.0030544493 0.02787068 0.023930464 -0.017354833 -0.029994218 -0.037005376 -0.060852747 0.49817997
0.04116791 0.10353697 0.027583886 0.09851793 0.010827288 -0.016458152 -0.060159948 0.018523436
0.05780739 -0.14725426 0.24348097 -0.090911604 -0.10789212 -0.056282036 -0.056094218 -0.120541885
-0.015450344 -0.0412372 0.014297721 -0.17646088 -0.31259382 -0.1328932 -0.12641098 -0.17397277
-0.091734596 0.08358688 0.14904249 -0.13114385 -0.21609679 0.1927001 -0.09655556 -0.3051446
-0.3497985 -0.36530817 -0.34985676 0.39154634 0.28485882 -0.13950516 -0.15057631 0.26924154
-0.7172418 -0.02266125 -0.049302075 -0.064892426 -0.028193323 0.08313351 0.23944895 -0.22787085
-0.21900907 0.5358518 0.5559708 0.10616873 0.12673293 0.16622536 0.069085926 0.061156265
-0.074794024 0.1211068 0.13721386 -0.330617 0.480594 0.20692118 0.20643209 0.20396075
0.105573505 -0.0068334267 -0.14730723 0.2003383 0.1440101 -0.37216026 -0.4131806 0.09183379
0.083859734 0.031945273 0.09597092 0.24036624 0.001634187 0.036731943 0.048627097 0.2720985
0.030355271 -0.053828433 -0.0033172173 0.016780507 -0.084676646 -0.12538566 -0.052271802 0.046255197
-0.008571389 -0.30091992 0.2556114 -0.028197484 -0.06034033 -0.059760228 -0.09975635 0.15818094
-0.13691574 0.14421614 0.21635269 -0.36465156 -0.91377455 0.0069859033 0.007560403 0.027887583
-0.054436803 0.104161374 0.0112802815 -0.0643078 -0.035987116 0.6774372 -0.08310195 -0.3347116
-0.23025134 -0.31223017 -0.24591817 -0.013810355 0.17766237 -0.18410914 -0.26372004 0.30615732
-0.09110611 0.08013512 0.09382876 0.030912522 0.013703816 0.06527122 0.102637365 -0.0034889835
0.0047686286 -0.05700429 0.26371482 0.045854602 0.019282714 -0.014095451 0.026679114 0.01951542
-0.11095347 0.0954318 0.055109806 -0.16052824 0.025403777 0.22336884 0.19046019 0.18287998
0.2311654 -0.015306079 -0.10227099 0.1290047 0.20055817 -0.2261576 -0.402591 -0.09340085
-0.02595634 -0.08014596 -0.027028937 0.26435995 0.26887405 -0.21716568 -0.24962059 0.34606767
0.019098459 -0.10281263 -0.09475454 -0.14504814 -0.077678055 0.09018703 -0.10750568 0.12815338
0.08511399 0.07404572 -0.018195717 -0.12942877 -0.046933692 -0.123855114 -0.13376923 0.21855341
0.2569739 -0.27312383 -0.27147433 0.23888549 0.3785062 -0.0038381652 0.022465495 -0.013814958
-0.0017921183 -0.07026791 -0.13657475 0.1930141 0.20323166 -0.14162667 0.14510891 0.015277144
-0.091629095 -0.0009172667 -0.0828846 -0.008679468 0.056941405 -0.070731744 -0.14391056 -0.03499947
0.16359127 0.100921266 0.11492066 0.13872677 0.1835912 0.028689757 -0.20378575 0.1625521
0.14219955 -0.11959166 -0.06415684 0.08578 0.14924845 0.12937431 0.1252282 0.029434405
00000000: 00f4 873d 84eb 72bd f0fa 3fbc c1a6 30bd
00000010: 59b2 5dbd 2d51 46bc 5efc 3fbd 0560 24bd
00000020: 1707 b93c c23e 30ba 220e 4f3f abec 833e
00000030: eebb a53e 671b 923e e3d4 9b3e 383b e23d
00000040: e41b 283d 3364 ef3d eb0c e73d ceec bdbe
00000050: bedd 5d3e 6835 23bc 0cca 553d b32b 133d
00000060: 55fc 603d bd54 b33c eb44 983c 51b2 80bd
00000070: 3cfd 97bc cd0f c0be 064a 36bf e184 193d
00000080: 282d 48bb 0d51 e43c d209 c43c b92b 8ebc
00000090: 6fb6 f5bc f392 17bd bb40 79bd 7211 ff3e
000000a0: af9f 283d 310b d43d 9af7 e13c c5c3 c93d
000000b0: f064 313c 3fd3 86bc 476a 76bd 76be 973c
000000c0: 71c7 6c3d d2c9 16be 1353 793e dd2f babd
000000d0: 8bf6 dcbd fe87 66bd 0dc3 65bd aade f6bd
000000e0: 7123 7dbc 57e8 28bd fd40 6a3c 29b2 34be
000000f0: 4c0c a0be 2815 08be e171 01be eb25 32be
00000100: 59df bbbd 992f ab3d 989e 183e 934a 06be
00000110: 7a48 5dbe 2d53 453e ecbe c5bd ea3b 9cbe
00000120: ca18 b3be ac09 bbbe 6d20 b3be c378 c83e
00000130: 04d9 913e 71da 0ebe ad30 1abe 07da 893e
00000140: 299d 37bf 16a4 b9bc f9f0 49bd 52e6 84bd
00000150: aff5 e6bc e741 aa3d 1b32 753e fa56 69be
00000160: ea43 60be 952d 093f 1a54 0e3f fe6e d93d
00000170: 47c6 013e fb36 2a3e ec7c 8d3d fe7e 7a3d
00000180: 9c2d 99bd d806 f83d ca81 0c3e a246 a9be
00000190: 6b10 f63e 25e3 533e ef62 533e 16db 503e
000001a0: ec36 d83d f0ea dfbb b5d7 16be 7c25 4d3e
000001b0: 6277 133e ca8b bebe 688c d3be 5b13 bc3d
000001c0: a7be ab3d 0cd9 023d 678c c43d 9122 763e
000001d0: 3732 d63a 3c74 163d 352d 473d 7f50 8b3e
000001e0: 9eab f83c 347b 5cbd ac65 59bb 4677 893c
000001f0: f36a adbd 1965 00be f51a 56bd 1776 3d3d
00000200: 036f 0cbc 2d12 9abe 7fdf 823e 69fe e6bc
00000210: 6c27 77bd 24c7 74bd 0f4d ccbd 2ffa 213e
00000220: a433 0cbe 65ad 133e 8f8b 5d3e 9cb3 babe
00000230: 21ed 69bf 01ea e43b 42bd f73b 8074 e43c
00000240: 20f9 5ebd 8f52 d53d eed0 383c cfb3 83bd
00000250: 3a67 13bd 866c 2d3f 5b31 aabd 525f abbe
00000260: 02c7 6bbe a2dc 9fbe f9d1 7bbe d444 62bc
00000270: 20ed 353e 1b87 3cbe 5006 87be a7c0 9c3e
00000280: d795 babd e21d a43d 4b29 c03d 423c fd3c
00000290: f885 603c ebac 853d 8a33 d23d 6ea7 64bb
000002a0: 2842 9c3b 557d 69bd a105 873e 09d2 3b3d
000002b0: c8f6 9d3c 9bf0 66bc 288e da3c cdde 9f3c
000002c0: 933b e3bd bf71 c33d d2ba 613d 8461 24be
000002d0: 951b d03c cdba 643e ff07 433e e444 3b3e
000002e0: 9fb6 6c3e 59c6 7abc 7473 d1bd cf19 043e
000002f0: 1f5f 4d3e dc95 67be 6820 cebe f248 bfbd
00000300: 64a2 d4bc 9123 a4bd ca6b ddbc 305a 873e
00000310: dca9 893e ae60 5ebe 8a9c 7fbe c82f b13e
00000320: 5f74 9c3c 6e8f d2bd ab0e c2bd 8087 14be
00000330: ac15 9fbd fab3 b83d f02b dcbd a43a 033e
00000340: 3e50 ae3d 48a5 973d 2f0f 95bc fa88 04be
00000350: 8b3d 40bd c0a7 fdbd cdfa 08be 77cc 5f3e
00000360: 1592 833e e3d6 8bbe affe 8abe 669e 743e
00000370: 91cb c13e ba89 7bbb 8f09 b83c 2258 62bc
00000380: 83e5 eaba 9fe8 8fbd 40da 0bbe 7da5 453e
00000390: f61b 503e 9506 11be 6e97 143e fc4c 7a3c
000003a0: 09a8 bbbd ba74 70ba 67bf a9bd 5434 0ebc
000003b0: 643b 693d cedb 90bd 4a5d 13be 9b5b 0fbd
000003c0: 7884 273e cfaf ce3d 865b eb3d 640e 0e3e
000003d0: 55ff 3b3e c806 eb3c 36ad 50be 0f74 263e
000003e0: c29c 113e 79ec f4bd a964 83bd 6dad af3d
000003f0: 96d4 183e b37a 043e d23b 003e 6c20 f13c

weight_hh_l0 f4 [250, 250]
0.036675014 -0.04020806 0.102648 -0.063904725 -0.05417756 -0.1766195 0.11601859 -0.0012816993
0.06689541 0.012509362 -0.06975389 0.13173021 -0.090579145 -0.24251169 -0.0540829 0.17687738
-0.04722323 0.031786498 0.00919305 0.055170503 0.0023716765 0.19529529 -0.017006125 0.0151602095
-0.014597997 0.14270882 -0.22759722 -0.2271713 0.20435657 0.28864616 -0.046446227 0.3155967
0.072523676 -0.018135402 0.07299303 0.19492602 -0.1156874 0.04637238 -0.1589423 -0.011599826
-0.004460363 -0.11091163 0.06242448 0.068800814 -0.10942105 0.08180077 -0.026635814 -0.03521606
-0.048879378 0.3847984 0.12134282 -0.0019385755 -0.04429307 0.08441935 -0.09262353 -0.16618761
-0.16793354 0.121798754 -0.18619047 -0.07811793 0.07651866 0.13844863 0.028802408 -0.24336359
0.032128293 0.17214872 -0.03450688 0.1586406 0.0757649 0.0028466552 -0.04114838 0.115452886
-0.021456739 0.014680864 -0.06959317 0.11569328 -0.40286317 -0.08336272 -0.07853638 -0.081910685
0.2123822 -0.15558791 0.32027557 -0.07975176 0.1118596 0.1468021 -0.20036939 0.16622691
0.19275075 0.19968581 -0.15601096 0.05910049 -0.117687844 -0.19752242 -0.05544609 -0.002017198
-0.23148187 -0.11341211 -0.0054965825 -0.0960513 0.10696648 -0.032097504 -0.093198925 0.10644352
-0.013050767 -0.06568453 0.2043107 -0.10295004 -0.012346009 0.014732939 -0.08897511 -0.23709732
0.17526995 -0.37856588 0.06311892 -0.15156804 -0.008925193 0.03882413 -0.119029984 -0.12679009
0.1377728 -0.18780923 -0.17447123 0.26454666 0.03988068 -0.07607302 0.035601195 -0.044735685
-0.012643744 0.031050008 -0.14840941 0.18233338 -0.08691354 0.024124568 -0.15569681 0.043765645
-0.046858277 0.016354308 0.012307397 -0.21327552 0.17199804 0.21814272 0.13487594 0.075663604
-0.13447349 0.1092739 -0.13867196 0.029376399 -0.11061805 -0.09011947 0.086125 -0.06700932
0.19185396 0.057708725 -0.2080386 0.058731206 0.17800377 0.113982335 -0.0046343864 0.061950598
-0.12847227 -0.25378945 0.13218646 -0.008883304 -0.26420268 -0.19780482 0.1743014 0.0007308009
0.35067353 -0.02386823 -0.21982798 -0.2085035 0.25393713 -0.07993459 0.0034388138 -0.08164373
0.024906699 -0.14505059 -0.1083835 -0.019285811 0.013494051 0.1589308 0.017756486 0.07606918
0.2245482 0.15950951 0.011132009 0.008307119 -0.087840036 -0.08929025 0.1142863 -0.015397454
0.13269354 -0.074238695 -0.19500974 -0.09098026 -0.14623816 0.31601602 0.06753018 -0.11134137
0.031024352 -0.118000336 -0.08109138 -0.15789571 -0.044719167 0.12237034 0.044955995 -0.14902674
0.07733777 0.009681681 0.26190227 -0.11759563 0.19507279 0.047342923 -0.17222163 0.048750438
0.17402466 0.020718122 -0.18517724 -0.1328519 -0.16093566 0.032824736 0.04956686 0.14818417
0.011237454 -0.07006002 -0.110375784 0.18372972 0.1961841 0.4726027 0.029965129 -0.0477651
0.17603518 -0.09173294 -0.010647903 -0.045599904 0.1460904 0.19824396 0.099028856 -0.040450674
-0.23131946 0.033398636 -0.04388877 -0.1690821 -0.06578357 0.105646834 0.30008018 0.06998451
0.069215745 -0.031749435 -0.3517628 -0.09383728 0.19022605 0.04625384 -0.18531539 0.1314669
00000000: 8a38 163d 35b1 24bd 1d39 d23d 7be0 82bd
00000010: 4ae9 5dbd bedb 34be 289b ed3d b1fe a7ba
00000020: 7600 893d 11f4 4c3c 21db 8ebd 49e4 063e
00000030: 8f81 b9bd fc54 78be 0886 5dbd 581f 353e
00000040: 256d 41bd 8f32 023d 729e 163c 77fa 613d
00000050: 216e 1b3b 7dfb 473e 6e50 8bbc 8762 783c
00000060: 702c 6fbc 4322 123e 3f0f 69be 989f 68be
00000070: d942 513e 6ec9 933e 663e 3ebd e495 a13e
00000080: 4b87 943d b290 94bc 5f7d 953d b09a 473e
00000090: 84ed ecbd f7f0 3d3d c5c1 22be 320d 3ebc
000000a0: 3d28 92bb a325 e3bd d0b0 7f3d 71e7 8c3d
000000b0: 2518 e0bd 2987 a73d 5a33 dabc b73e 10bd
000000c0: be35 48bd 4c04 c53e 9682 f83d cd17 feba
000000d0: a66c 35bd 0de4 ac3d 68b1 bdbd 162d 2abe
000000e0: c5f6 2bbe a071 f93d b7a8 3ebe 4bfc 9fbd
000000f0: d1b5 9c3d 7ac5 0d3e 07f3 eb3c 4e34 79be
00000100: f598 033d c147 303e 1657 0dbd ae72 223e
00000110: a12a 9b3d f38e 3a3b 348b 28bd 9072 ec3d
00000120: 0bc6 afbc 0288 703c dd86 8ebd 99f0 ec3d
00000130: 1544 cebe 13ba aabd aed7 a0bd cac0 a7bd
00000140: b87a 593e 7052 1fbe 29fb a33e e454 a3bd
00000150: a516 e53d 4a53 163e a22d 4dbe 6337 2a3e
00000160: 7460 453e 707a 4c3e 56c1 1fbe 5b13 723d
00000170: 5306 f1bd 5143 4abe 701b 63bd f732 04bb
00000180: 9509 6dbe 9c44 e8bd ad1c b4bb 8bb6 c4bd
00000190: 3e11 db3d ac78 03bd 14df bebd 0fff d93d
000001a0: e2d2 55bc 9c85 86bd d336 513e 78d7 d2bd
000001b0: ea46 4abc 6d62 713c 9538 b6bd a4c9 72be
000001c0: f779 333e 63d3 c1be 7e44 813d a734 1bbe
000001d0: f93a 12bc 0d06 1f3d fec5 f3bd 43d5 01be
000001e0: 5014 0d3e 1051 40be 96a8 32be a972 873e
000001f0: ed59 233d 2ccc 9bbd 8fd2 113d c43c 37bd
00000200: b527 4fbc 965c fe3c a3f8 17be 9ab5 3a3e
00000210: baff b1bd e3a0 c53c fc6e 1fbe 9b43 333d
00000220: 77ee 3fbd 78f9 853c f7a4 493c e664 5abe
00000230: 4120 303e ce60 5f3e eb1c 0a3e 85f5 9a3d
00000240: 6bb3 09be ffca df3d 0600 0ebe c6a6 f03c
00000250: b78b e2bd 8f90 b8bd 4e62 b03d 2f3c 89bd
00000260: 5d75 443e fc5f 6c3d 1208 55be 2290 703d
00000270: 9f46 363e 926f e93d 0ddc 97bb e9bf 7d3d
00000280: 3c8e 03be b1f0 81be e35b 073e 478b 11bc
00000290: 9345 87be 598d 4abe 117c 323e 3893 3f3a
000002a0: 7b8b b33e 4e87 c3bc 961a 61be f181 55be
000002b0: 0c04 823e bfb4 a3bd b95d 613b d434 a7bd
000002c0: 2209 cc3c 2488 14be 2bf8 ddbd 47fd 9dbc
000002d0: 2716 5d3c c1be 223e 0d76 913c 29ca 9b3d
000002e0: f7ef 653e 7656 233e 0863 363c 951a 083c
000002f0: 7ae5 b3bd cedd b6bd f00e ea3d 9a45 7cbc
00000300: d1e0 073e 750a 98bd a2b0 47be dc53 babd
00000310: 75bf 15be dacc a13e 434d 8a3d f206 e4bd
00000320: c826 fe3c 29aa f1bd 3d13 a6bd 6aaf 21be
00000330: 722b 37bd 4d9d fa3d c723 383d 779a 18be
00000340: 4463 9e3d ea9f 1e3c 0e18 863e fad5 f0bd
00000350: 29c1 473e a7ea 413d de5a 30be 8aae 473d
00000360: 8533 323e 0db9 a93c 1a9f 3dbe 540a 08be
00000370: 51cc 24be 3b73 063d 9f06 4b3d 97bd 173e
00000380: 4c1d 383c a17b 8fbd b30c e2bd a523 3c3e
00000390: 7ce4 483e fbf8 f13e 6e79 f53c 56a5 43bd
000003a0: 9142 343e 7bde bbbd 8b74 2ebc f7c6 3abd
000003b0: b998 153e 7700 4b3e a4cf ca3d 9baf 25bd
000003c0: 02df 6cbe 02cd 083d b6c4 33bd dc23 2dbe
000003d0: 89b9 86bd 5e5d d83d 1ca4 993e 0a54 8f3d
000003e0: fcc0 8d3d b20b 02bd 411a b4be c32d c0bd
000003f0: 9eca 423e ab74 3d3d 51c3 3dbe 429f 063e

bias_ih_l0 f4 [250]
0.036586247 -0.047460373 0.01083961 0.052831694 -0.0016535481 -0.047980886 0.2077569 0.11011864
0.23667897 -0.0395136 -0.21074402 0.029995209 -0.0855057 -0.17464465 0.07699981 0.23750001
-0.016732633 -0.097219355 -0.15658252 0.22581886 -0.15352684 0.26531726 -0.1289472 0.047863066
-0.17951375 -0.056823354 -0.24570794 -0.3434813 0.40755457 -0.21681397 0.061980337 -0.18630125
0.1553542 0.057556894 0.33394185 -0.2403317 -0.19152398 -0.061957188 -0.10751412 0.039667945
-0.28758144 -0.40935504 0.11824795 -0.29012153 -0.00018446388 -0.2006481 0.029345855 -0.0142779015
0.09259492 0.3099367 -0.09274773 -0.06000435 -0.07374853 -0.12003379 -0.04915556 0.057639606
-0.032481547 0.1593414 -0.19616786 0.2055152 0.0083888685 0.012678035 -0.1766666 -0.16630973
-0.1600542 0.35298684 0.23320162 -0.07769054 0.15315008 -0.19102848 0.016629467 0.093301296
0.05965786 0.008229748 -0.13533121 0.19116785 -0.26759365 -0.17777334 0.30701697 0.06382351
0.009198449 -0.196465 -0.15946306 -0.31025624 0.33619463 -0.0806995 -0.39241472 -0.30828816
0.12756965 0.026278434 0.041141663 -0.044515673 0.20333168 -0.21355674 -0.08112071 0.11570487
-0.15092415 0.11642992 0.10187668 -0.033695586 0.10185614 0.07439621 0.15252116 0.28159794
0.03716116 -0.09439262 0.0647678 -0.15511578 0.022104954 0.008541188 -0.051546626 -0.17834519
0.34751344 -0.22302294 -0.00084205234 0.023147587 0.27523208 -0.18739757 -0.15804528 -0.12955652
0.18311885 -0.026556177 0.2896086 0.06576518 0.16392256 0.003541202 -0.156829 0.06906741
0.09575478 -0.14447483 -0.027565282 0.0014114205 -0.10920429 0.17383984 -0.22973976 0.22333242
-0.1177288 -0.22145502 -0.06420128 -0.27846256 0.19668962 0.2663634 0.24707113 -0.04589831
-0.086694725 0.18276723 0.24863611 0.094762154 -0.007428481 -0.22911759 0.31717098 0.08879358
0.09990105 0.29566753 -0.17504059 0.25172034 0.08192461 0.21808974 -0.133171 0.10442256
0.021927923 -0.12274699 0.04546587 0.2658226 -0.14286451 -0.15397501 0.29674077 -0.37678087
0.14891878 -0.097990714 -0.18504983 -0.02651207 -0.056949157 -0.34241343 -0.024746742 0.13276023
-0.20966808 -0.16732426 -0.12678996 -0.12847167 0.024570202 -0.15570158 -0.23146707 -0.40050936
-0.17086947 0.3341902 0.14514883 -0.0629664 -0.03943753 -0.1264025 0.03443271 -0.015289832
0.12997141 -0.1698718 0.15802073 -0.13514674 -0.14743659 0.30524823 -0.028471144 -0.04424978
-0.09035038 -0.30507937 -0.140459 -0.1523706 -0.16745383 0.28455082 -0.07461547 -0.054272197
-0.17729826 0.025229653 0.111991785 -0.14739202 -0.036066603 0.18027397 -0.06181875 -0.017892968
0.08149376 -0.18212041 -0.15513624 0.055290356 0.093264304 0.39277568 0.09240786 0.108257495
0.20488702 -0.10991519 0.2454028 0.057872172 0.29616392 0.18484011 -0.002294028 -0.0753655
0.11275488 0.17983733 0.3012221 0.034414474 -0.11256148 -0.22633268 0.18685554 0.02826551
-0.1403166 -0.004596966 -0.086605676 -0.22301547 -0.14171252 0.1121459 -0.021382008 -0.019156493
-0.10906394 0.17400664
00000000: 76db 153d cf65 42bd 9f98 313c 0c66 583d
00000010: debb d8ba 9b87 44bd 3abe 543e e285 e13d
00000020: f95b 723e 03d9 21bd 48cd 57be 83b8 f53c
00000030: 9d1d afbd 0cd6 32be 14b2 9d3d 3433 733e
00000040: e012 89bc f11a c7bd 2b57 20be 0f3d 673e
00000050: 2436 1dbe aad7 873e bc0a 04be 100c 443d
00000060: 74d2 37be 9bbf 68bd dd9a 7bbe c8dc afbe
00000070: feaa d03e 7b04 5ebe 18df 7d3d c1c5 3ebe
00000080: 2c15 1f3e c7c0 6b3d 6dfa aa3e 8319 76be
00000090: dd1e 44be d2c6 7dbd 5d30 dcbd db7a 223d
000000a0: e03d 93be fc96 d1be fb2b f23d cf8a 94be
000000b0: a56c 41b9 b276 4dbe b866 f03c dced 69bc
000000c0: 68a2 bd3d 06b0 9e3e 86f2 bdbd 1fc7 75bd
000000d0: 7809 97bd 47d4 f5bd 5757 49bd 8217 6c3d
000000e0: 5f0b 05bd 642a 233e 3ae0 48be 9472 523e
000000f0: 7771 093c 88b7 4f3c 17e8 34be 194d 2abe
00000100: 40e5 23be b1ba b43e 68cc 6e3e 381c 9fbd
00000110: 60d3 1c3e f89c 43be 853a 883c c014 bf3d
00000120: cd5b 743d 11d6 063c 4494 0abe 81c1 433e
00000130: 0902 89be 370a 36be 5431 9d3e e7b5 823d
00000140: 17b5 163c 1f2e 49be 494a 23be e8d9 9ebe
00000150: b421 ac3e c845 a5bd 95ea c8be f2d7 9dbe
00000160: 9ea1 023e df45 d73c 2984 283d 1156 36bd
00000170: 2e36 503e 9eae 5abe 9d22 a6bd adf6 ec3d
00000180: dc8b 1abe cf72 ee3d b9a4 d03d 6204 0abd
00000190: f499 d03d 0a5d 983d 822e 1c3e 9b2d 903e
000001a0: 4d36 183d eb50 c1bd fba4 843d acd6 1ebe
000001b0: 7315 b53c 57f0 0b3c 8e22 53bd 1fa0 36be
000001c0: 48ed b13e 2060 64be 2dbd 5cba 02a0 bd3c
000001d0: 38eb 8c3e 26e5 3fbe 9fd6 21be 77aa 04be
000001e0: 8283 3b3e 578c d9bc 9447 943e e5af 863d
000001f0: 51db 273e 8313 683b c897 20be 3773 8d3d
00000200: 151b c43d 36f1 13be 96d0 e1bc 6aff b83a
00000210: 80a6 dfbd 1203 323e e640 6bbe 41b1 643e
00000220: cc1b f1bd 1bc5 62be f67b 83bd a592 8ebe
00000230: 0169 493e c960 883e 3700 7d3e deff 3bbd
00000240: 018d b1bd 5527 3b3e 779a 7e3e a912 c23d
00000250: 9d6a f3bb cd9d 6abe 3c64 a23e 69d9 b53d
00000260: ec98 cc3d bc61 973e d73d 33be 7de1 803e
00000270: 17c8 a73d eb52 5f3e fb5d 08be 7fdb d53d
00000280: 30a2 b33c c662 fbbd 6c3a 3a3d e619 883e
00000290: 134b 12be a0ab 1dbe 68ee 973e 6ce9 c0be
000002a0: 2a7e 183e 5baf c8bd b47d 3dbe d72f d9bc
000002b0: 8543 69bd d050 afbe aeb9 cabc 4cf2 073e
000002c0: 3bb3 56be 0d57 2bbe 3ad5 01be 148e 03be
000002d0: 7347 c93c 3c70 1fbe b405 6dbe 900f cdbe
000002e0: 68f8 2ebe fa1a ab3e e5a1 143e 87f4 80bd
000002f0: 3f89 21bd a86f 01be 5009 0d3d 3482 7abc
00000300: 3a17 053e e0f2 2dbe 30d0 213e e863 0abe
00000310: 9ef9 16be 7f49 9c3e 513c e9bc 423f 35bd
00000320: 9f09 b9bd 5d33 9cbe 7cd4 0fbe 0a07 1cbe
00000330: 0479 2bbe a5b0 913e ffcf 98bd 864c 5ebd
00000340: ad8d 35be 6bae ce3c f35b e53d efed 16be
00000350: 93ba 13bd bd99 383e a835 7dbd 4694 92bc
00000360: 33e6 a63d c67d 3abe 09dc 1ebe 2478 623d
00000370: 5b01 bf3d e519 c93e 5540 bd3d 1bb6 dd3d
00000380: e7cd 513e 371b e1bd df4a 7b3e 5f0b 6d3d
00000390: cca2 973e ba46 3d3e 6757 16bb 3a59 9abd
000003a0: 08ec e63d 4727 383e c839 9a3e 31f6 0c3d
000003b0: a286 e6bd c1c3 67be 0f57 3f3e 128d e73c
000003c0: 28af 0fbe 25a2 96bb 515e b1bd 2b5e 64be
000003d0: 161d 11be c0ac e53d 5229 afbc 14ee 9cbc
000003e0: ea5c dfbd cc2e 323e

bias_hh_l0 f4 [250]
-0.017770328 0.0014855539 -0.01864781 0.031926543 0.06830367 -0.046783425 0.20483048 0.1274789
0.264777 -0.053038795 -0.22086535 -0.042195253 -0.01831781 -0.26031095 -0.009800058 0.22917794
0.08093917 -0.13379474 -0.15701874 0.23433642 -0.115603775 0.27566484 -0.113014795 0.15572196
-0.1265 -0.10515092 -0.20320693 -0.36429405 0.44966558 -0.14692329 0.0550259 -0.2050348
0.15550806 0.07328072 0.23872407 -0.2976373 -0.21619774 -0.02709554 -0.19873294 -0.04117268
-0.38916126 -0.3379751 0.1279915 -0.28756475 -0.067962095 -0.20598477 0.04844288 -0.053469572
0.028517783 0.25887993 -0.08422809 -0.08805568 -0.017211616 -0.11317768 0.0030663062 0.02611861
-0.0339947 0.12450443 -0.24610633 0.15607652 0.024439238 -0.034635484 -0.17307027 -0.20012729
-0.068447195 0.26110485 0.21347117 -0.069262035 0.18565638 -0.16269834 -0.02021547 0.13119319
0.021723134 0.08276931 -0.18862091 0.16489911 -0.32609388 -0.17528573 0.22948675 0.042257946
0.0929454 -0.19161339 -0.17770286 -0.25815037 0.29708964 -0.14277399 -0.41072655 -0.3074339
0.14811802 0.054355223 0.018274339 -0.10984906 0.19456723 -0.22962889 -0.031006752 0.17548907
-0.18471211 0.07158369 0.052447192 -0.0041509266 0.10010398 0.12813762 0.17026693 0.265628
0.008977094 -0.1468253 0.058874667 -0.11687003 0.12192569 -0.010742659 -0.035203177 -0.17528336
0.29234144 -0.20971657 0.028218064 0.006341538 0.26425853 -0.1435022 -0.16560432 -0.096289106
0.17326365 -0.06822013 0.21105142 0.055026393 0.09292578 -0.034474835 -0.14659253 0.039936587
0.015919752 -0.12770367 -0.07391646 0.022616034 -0.04413229 0.16978703 -0.19032963 0.22024614
-0.076642126 -0.24457465 -0.0581232 -0.29262766 0.24321392 0.26991174 0.29061922 -0.045488764
-0.0034317356 0.15495662 0.27803612 0.05025763 0.044299666 -0.3024065 0.26890424 0.13911612
-0.002784236 0.25131506 -0.26958057 0.203259 0.13180304 0.20207004 -0.12585202 0.1073046
0.057724904 -0.1104348 0.07739134 0.37840998 -0.18579006 -0.111801244 0.2934361 -0.27802765
0.1280233 -0.06283321 -0.19338383 0.008823083 0.012709011 -0.3214007 -0.030576942 0.14935975
-0.20130815 -0.16961259 -0.105857596 -0.23104455 -0.067782365 -0.047922846 -0.20665 -0.33564967
-0.07251982 0.34966582 0.097166955 -0.1083386 -0.048389178 -0.102288 0.028949957 -0.035365205
0.031105522 -0.23473263 0.107086666 -0.08348199 -0.2345128 0.23239101 -0.034939226 -0.0059601557
-0.0638344 -0.25037283 -0.15260957 -0.19175623 -0.15139025 0.36209163 -0.017159592 -0.03525162
-0.122101076 0.08092666 0.11017608 -0.15517655 0.018679181 0.18662523 -0.03201202 -0.049010407
0.002587176 -0.169081 -0.1797685 0.058314607 0.070883006 0.34180832 0.032409836 0.012597803
0.2404333 -0.014987653 0.18116961 0.032324884 0.25311562 0.14779025 0.01727886 -0.14100485
0.15456317 0.21581985 0.39072204 0.003021631 -0.04468136 -0.15060058 0.19240063 -0.052910957
-0.13622646 0.00081720646 -0.15360028 -0.15445384 -0.15378344 0.101805404 0.0018068777 -0.02235826
-0.12580408 0.13845132
00000000: 1493 91bc ebb6 c23a 4bc3 98bc 68c5 023d
00000010: cbe2 8b3d fa9f 3fbd 15bf 513e d489 023e
00000020: da90 873e 353f 59bd 872a 62be eed4 2cbd
00000030: 3b0f 96bc 7a47 85be 6c90 20bc 9fad 6a3e
00000040: 70c3 a53d 7d01 09be 85c9 20be e3f5 6f3e
00000050: acc1 ecbd f123 8d3e 4d74 e7bd 9475 1f3e
00000060: 3789 01be 5e59 d7bd 7a15 50be c084 babe
00000070: 913a e63e 0f73 16be d762 613d a5f4 51be
00000080: 813d 1f3e 3414 963d 1574 743e eb63 98be
00000090: f162 5dbe 77f7 ddbc a680 4bbe afa4 28bd
000000a0: 2540 c7be 130b adbe 3410 033e b03b 93be
000000b0: b62f 8bbd aced 52be 0b6c 463d e902 5bbd
000000c0: 209e e93c e98b 843e c77f acbd 8956 b4bd
000000d0: 60ff 8cbc b3c9 e7bd 15f4 483b b2f6 d53c
000000e0: 073e 0bbd 2efc fe3d 4c03 7cbe 86d2 1f3e
000000f0: cc34 c83c f0dd 0dbd 5539 31be 2bee 4cbe
00000100: 0b2e 8cbd 89af 853e 3098 5a3e 41d9 8dbd
00000110: b51c 3e3e 659a 26be ea9a a5bc 8257 063e
00000120: b7f4 b13c f582 a93d d725 41be 50db 283e
00000130: c7f5 a6be 1a7e 33be 93fe 6a3e ab16 2d3d
00000140: 285a be3d 4d36 44be bdf7 35be 492c 84be
00000150: 221c 983e 5833 12be c04a d2be fa67 9dbe
00000160: 40ac 173e 95a3 5e3d 11b4 953c 8bf8 e0bd
00000170: a23c 473e d623 6bbe df01 febc 68b3 333e
00000180: 2c25 3dbe 789a 923d ded2 563d 7f04 88bb
00000190: 5103 cd3d 8236 033e 745a 2e3e 6500 883e
000001a0: a914 133c 5f59 16be 9026 713d 8e59 efbd
000001b0: 2db4 f93d fa01 30bc 3531 10bd 7b7d 33be
000001c0: c7ad 953e f1bf 56be 9229 e73c adcc cf3b
000001d0: e54c 873e 3ef2 12be 2e94 29be 3933 c5bd
000001e0: 076c 313e ffb6 8bbd dd1d 583e 5b63 613d
000001f0: df4f be3d 7c35 0dbd 5a1c 16be 8c94 233d
00000200: 246a 823c c0c4 02be 8361 97bd 4345 b93c
00000210: 0fc4 34bd a7dc 2d3e c5e5 42be 3488 613e
00000220: 8cf6 9cbd c771 7abe 9812 6ebd 4bd3 95be
00000230: 120d 793e df31 8a3e 0bcc 943e 6d52 3abd
00000240: f8e6 60bb f3ac 1e3e c05a 8e3e f2da 4d3d
00000250: 9173 353d 06d5 9abe d1ad 893e 7574 0e3e
00000260: bb77 36bb 5eac 803e 7706 8abe 2123 503e
00000270: 60f7 063e 73eb 4e3e 5adf 00be 84c2 db3d
00000280: f370 6c3d a42b e2bd 5a7f 9e3d f4be c13e
00000290: c03f 3ebe 0df8 e4bd 423d 963e a459 8ebe
000002a0: 8a18 033e b3ae 80bd 6906 46be b18e 103c
000002b0: 7539 503c a28e a4be 7f7c fabc c3f1 183e
000002c0: b923 4ebe ecae 2dbe decb d8bd f196 6cbe
000002d0: 7bd1 8abd bf4a 44bd 0f9c 53be 46da abbe
000002e0: 4585 94bd 6607 b33e 78ff c63d a1e0 ddbd
000002f0: bb33 46bd 5f7c d1bd 7628 ed3c 1bdb 10bd
00000300: 02d1 fe3c c05d 70be 4150 db3d 9bf8 aabd
00000310: 2024 70be e9f7 6d3e 6f1c 0fbd 694d c3bb
00000320: 9cbb 82bd de30 80be af45 1cbe bf5b 44be
00000330: 0c06 1bbe 1364 b93e 4692 8cbc 0164 10bd
00000340: 2110 fabd e0bc a53d ffa3 e13d 9ae6 1ebe
00000350: 1505 993c af1a 3f3e 091f 03bd 23bf 48bd
00000360: 9c8d 293b 9223 2dbe 3c15 38be 4cdb 6e3d
00000370: 1c2b 913d 8001 af3e 2dc0 043d 0467 4e3c
00000380: 2634 763e c68e 75bc 8784 393e 1967 043d
00000390: 5f98 813e 5456 173e 658c 8d3c 9363 10be
000003a0: cf45 1e3e e1ff 5c3e b80c c83e 8e06 463b
000003b0: cd03 37bd 0a37 1abe ac04 453e 29b9 58bd
000003c0: f37e 0bbe cc39 563a 6449 1dbe 2629 1ebe
000003d0: 6879 1dbe 5a7f d03d c1d4 ec3a ab28 b7bc
000003e0: c9d2 00be 2fc6 0d3e

weight f4 [1, 250]
-0.006581834 -0.029626282 -0.12112122 0.11701481 -0.046944946 -0.030505057 -0.03662021 0.05333932
0.09077511 -0.043251976 -0.06723082 0.01880568 -0.04875657 -0.04418792 0.14201215 0.040206183
-0.011520539 0.0022206653 -0.012027906 -0.038575996 -0.0013081962 -0.022480939 0.010268348 -0.1330944
0.03300238 0.073935695 -0.09272854 -0.040443186 0.7086129 -0.05372335 -0.16185257 0.08029672
0.069626585 0.1892807 0.20879918 0.027191937 -0.075487494 0.00616974 -0.020864747 -0.0006233023
0.023627318 0.022218766 0.061443128 0.061824147 0.049955726 -0.0647499 0.08048089 0.047740143
0.0020243803 0.016923202 0.15251917 -0.10479122 -0.05540724 0.041844912 -0.20662358 0.11912125
-0.047374174 0.0016243024 0.010110542 0.1338217 0.53782564 0.0010716817 0.060214847 -0.058544155
0.13946375 0.20372891 -0.12364967 0.043308184 0.6496582 -0.023867017 -0.0764791 -0.01695265
-0.121497646 0.14994255 0.020928543 -0.09435446 -0.02781623 -0.006659375 0.63189834 -0.014181873
0.11140522 -0.16609904 -0.006365856 0.12762325 0.068104684 0.08344687 -0.64731264 0.059617504
-0.086945765 0.012897366 -0.012475214 0.044095974 0.015591025 -0.6103704 0.0058997315 0.042529196
-0.11076688 -0.020799164 0.12501635 -0.002077497 -0.075983755 0.063628905 0.05678369 0.50483274
0.05695255 0.029691886 0.10545833 -0.0638232 -0.018969636 -0.03561466 -0.036660876 -0.002806178
0.14674672 -0.7789757 0.014588429 -0.01811107 0.14698298 0.06669908 0.015783072 -0.13905492
0.016748188 -0.047338516 0.0527443 -0.10673534 0.5030545 0.20841989 -0.03786966 -0.041927915
-0.04636127 0.0957742 -0.04816675 -0.032332033 -0.0881906 -0.027275966 -0.021221241 0.07065925
-0.080722466 -0.021829149 0.04345378 -0.08381776 -0.09156826 0.57884914 -0.005425931 0.0050507034
-0.7222872 0.055498913 -0.1242924 0.31401727 0.0121545475 0.04031807 0.41885713 0.097588725
0.007126267 0.44634935 -0.0025516246 -0.0062083527 -0.06559278 -0.03394614 0.07712005 0.09651479
-0.090009704 -0.16722964 0.19702327 0.0031233374 -0.06355564 -0.08261279 -0.07739548 -0.21442252
0.11625794 0.01833869 0.010427589 -0.12403249 0.06148356 0.016128533 -0.047890984 0.02508558
0.11930733 -0.053492352 0.023297604 0.024268728 0.17544559 0.09750995 0.03929296 -0.64957106
0.17360117 0.7584246 0.07892858 0.082933486 0.079291925 -0.0817468 0.15202345 0.037993584
-0.032560363 -0.622352 0.098176725 -0.048827954 -0.05958222 0.0032939392 0.09166173 -0.0127288895
-0.02291324 -0.48196426 -0.15751703 -0.008390809 -0.070904315 -0.011629098 -0.035208996 -0.10347055
-0.41159734 -0.14317355 0.306344 0.011100986 -0.012373697 0.053728055 -0.13324243 -0.01982583
-0.06029849 -0.024053583 -0.1061469 0.07264817 0.002739939 -0.053380705 -0.0082030995 0.4386137
-0.034046244 0.0024134 0.5566061 0.020385565 0.008224409 0.07094583 0.100758694 0.103549704
0.052524917 -0.04453868 0.29208496 -0.0040771565 0.10812981 0.06815015 -0.15877005 -0.07771354
-0.08821593 0.1259219 -0.08696204 -0.07730305 -0.22379379 0.039538525 0.010536725 0.13283911
0.13555074 0.10469408
00000000: 6dac d7bb d1b2 f2bc 670e f8bd 76a5 ef3d
00000010: 5849 40bd bee5 f9bc 13ff 15bd 557a 5a3d
00000020: 4de8 b93d fc28 31bd 50b0 89bd 5f0e 9a3c
00000030: f8b4 47bd 64fe 34bd a26b 113e 3daf 243d
00000040: a5c0 3cbc 9588 113b b210 45bc dd01 1ebd
00000050: c877 abba f229 b8bc 933c 283c e649 08be
00000060: 812d 073d 996b 973d 76e8 bdbd c1a7 25bd
00000070: a867 353f 040d 5cbd aebc 25be 9b72 a43d
00000080: 6298 8e3d cdd2 413e 74cf 553e a0c1 de3c
00000090: 3099 9abd 882b ca3b 8cec aabc 1c65 23ba
000000a0: 148e c13c 2104 b63c caab 7b3d 513b 7d3d
000000b0: 609e 4c3d 989b 84bd 2ad3 a43d 2b8b 433d
000000c0: 77ab 043b 87a2 8a3c fc2d 1c3e c79c d6bd
000000d0: b4f2 62bd 9265 2b3d 2295 53be d8f5 f33d
000000e0: 6c0b 42bd 8be6 d43a b0a6 253c 8e08 093e
000000f0: f1ae 093f ac77 8c3a d8a3 763d ffcb 6fbd
00000100: 96cf 0e3e 509e 503e 0a3c fdbd ec63 313d
00000110: 0050 263f c384 c3bc 13a1 9cbd 49e0 8abc
00000120: c2d3 f8bd 8a8a 193e 5672 ab3c e93c c1bd
00000130: ddde e3bc e336 dabb 17c4 213f 165b 68bc
00000140: 6c28 e43d de15 2abe ac98 d0bb abaf 023e
00000150: 787a 8b3d 31e6 aa3d 48b6 25bf 7c31 743d
00000160: 9f10 b2bd 794f 533c d764 4cbc fb9d 343d
00000170: 8071 7f3c 3c41 1cbf 8952 c13b 1833 2e3d
00000180: bfd9 e2bd 0263 aabc 4904 003e 9e26 08bb
00000190: 5f9d 9bbd df4f 823d 0496 683d b83c 013f
000001a0: 1447 693d 663c f33c 89fa d73d bdb5 82bd
000001b0: 3666 9bbc ade0 11bd b729 16bd dbe7 37bb
000001c0: c644 163e f46a 47bf 4e04 6f3c ab5d 94bc
000001d0: b582 163e 8799 883d 804b 813c 6a64 0ebe
000001e0: 7f33 893c 08e6 41bd 680a 583d 0f98 dabd
000001f0: 2ec8 003f 066c 553e 371d 1bbd 9bbc 2bbd
00000200: 51e5 3dbd 4425 c43d 804a 45bd 986e 04bd
00000210: 469d b4bd d971 dfbc 2bd8 adbc ccb5 903d
00000220: d251 a5bd 0bd3 b2bc 97fc 313d a5a8 abbd
00000230: 2488 bbbd 752f 143f 02cc b1bb 5f80 a53b
00000240: d0e7 38bf d452 633d 048d febd dfc6 a03e
00000250: de23 473c 9024 253d 7174 d63e 99dc c73d
00000260: 7683 e93b e787 e43e 2839 27bb 706f cbbb
00000270: 8255 86bd 1c0b 0bbd 1ef1 9d3d 8ca9 c53d
00000280: 0257 b8bd 3f3e 2bbe 78c0 493e e8b0 4c3b
00000290: 7629 82bd e530 a9bd 8581 9ebd 9491 5bbe
000002a0: a518 ee3d 053b 963c 7ad8 2a3c bf04 febd
000002b0: 2fd6 7b3d fc1f 843c 5629 44bd 4680 cd3c
000002c0: 6757 f43d cc1a 5bbd 9eda be3c 36cf c63c
000002d0: 02a8 333e 4cb3 c73d a8f1 203d 4a4a 26bf
000002e0: 81c4 313e 1d28 423f 4fa5 a13d 08d9 a93d
000002f0: ce63 a23d de6a a7bd 09ac 1b3e 299f 1b3d
00000300: 045e 05bd 7652 1fbf e110 c93d d2ff 47bd
00000310: 7c0c 74bd 21df 573b 25b9 bb3d d58c 50bc
00000320: 8cb4 bbbc 05c4 f6be 254c 21be 9b79 09bc
00000330: 4836 91bd f987 3ebc 4f37 10bd 5ee8 d3bd
00000340: e3bc d2be 169c 12be 1fd9 9c3e e9e0 353c
00000350: 0cbb 4abc f311 5c3d b470 08be c769 a2bc
00000360: 8dfb 76bd 050c c5bc 8c63 d9bd 90c8 943d
00000370: 8c90 333b baa5 5abd 4b66 06bc fa91 e03e
00000380: 1374 0bbd 222a 1e3b bd7d 0e3f a1ff a63c
00000390: acbf 063c 0c4c 913d 935a ce3d de11 d43d
000003a0: 5e24 573d 316e 36bd 298c 953e ab99 85bb
000003b0: 2973 dd3d 4e92 8b3d 9e94 22be 4728 9fbd
000003c0: 8eaa b4bd acf1 003e 2719 b2bd 1051 9ebd
000003d0: 332a 65be 26f3 213d 3aa2 2c3c fa06 083e
000003e0: d0cd 0a3e da69 d63d
