model/RNN-000628.pth (torch, 266199 bytes, 5 tensors)

weight_ih_l0 f4 [250, 10]
00000000: dcea e0be f780 953d 39bd c73d 5186 e23d
00000010: 7300 b33d e4ad 77bd 6a52 2abe 7860 143e
00000020: 2d54 1a3e bb14 4c3d eb84 efbe e3cf 263e
00000030: 1885 453e 838f 433e 36f1 443e c623 95bc
00000040: 65de 84bd 862b 333e a6e1 013e 4c65 bd3d
00000050: 6659 8dbd 5342 013e 02ce db3c 1aa2 443d
00000060: 0f05 ab3c 2cc0 923d 3fe8 fdbc cbbe 433d
00000070: 5f5a ac3c c53d 883d f892 6c3e 77ea abbd
00000080: 9faf e2bd 1fb4 f5bd 04b0 3bbd e0e0 c33c
00000090: 5bac 173e 2923 25be 2e44 5ebe fb0b c13d
000000a0: 2714 403e f79f f13d 239e bd3d 47fb db3d
000000b0: e4ab 063e 9653 52be 6397 b4be 2720 ad3e
000000c0: f93c 733e 9f3a ccbe 4d45 d23c db62 46bd
000000d0: b8d3 9ebc 2d18 03bd 298e 803c 4def 753c
000000e0: 57d2 b8bd bb8b c63d 11d7 703d 153e 1abe
000000f0: 126d df3e ec2b 77be 6df6 8fbe 82fd 84be
00000100: cc4e 88be fc7d 863d 3e77 7d3e afac 31be
00000110: 2606 96be 7c1f d03d 5e84 80be 31ca 9dbe
00000120: ac24 8ebe 711f 5abe 855f 97be 1ff3 91bc
00000130: c1fe ef3d d22d 43be 1e17 83be bd9b e53e
00000140: a01f b73e 0e0c 833d 33a8 513d 586d 3f3d
00000150: 9827 b43d 2ef8 35bd 9505 21be b26b 623d
00000160: 3380 a63d 6b3a ddbd bdee d5be 64e7 65bd
00000170: f817 6cbd 5560 66bd f119 cbbd 9804 e4bc
00000180: 3e48 4abd 19bc af3c 1a99 42bb ec9a 393e
00000190: 0ac7 833e b769 8e3e ee4a 5a3e 3211 8e3e
000001a0: d0d1 5a3e f686 0dbe a79c 87be 6f79 e13e
000001b0: 05f7 e33e 7114 28bf d774 a03e 5fc7 f33d
000001c0: 7897 f83d 4124 553e afa4 383e e4ca 9b3d
000001d0: af03 43bd 9b85 bb3d 34f2 d63d 2257 81be
000001e0: 238f fc3e 1308 093e 8038 273e 138d 2c3e
000001f0: de0a c03d b7bd fa3c 3b3a e1bd 01be ab3d
00000200: 41c3 0c3e 3e11 5fbe 9ebd 043f bf25 313e
00000210: 4471 023e 8f12 aa3d 739e 0e3e 9ee1 d2bc
00000220: 9f1a 1a3d f518 263d 2089 183d 6abc 5abe
00000230: dad0 13bf 4f29 08bd 8291 37bd 7d73 25bc
00000240: 90ce 96bc 7ad0 8f3c 0169 803d 31b3 71bd
00000250: a48a b6ba 2cb8 4e3e b575 48be 1fd0 983d
00000260: 6651 ac3d 8cd5 5b3c b32f b23d 16e4 053d
00000270: 9aa9 9e3d 3442 39be 95d3 26be 1457 453e
00000280: 8b0a 25bf 5b8d 29be 0fc9 bbbd b715 14be
00000290: 35b5 1fbe 52a8 993d 4b71 063e 1f3e 23be
000002a0: 56ad 2abe 9963 be3e f650 0d3f 2b96 1e3d
000002b0: 0852 763d c674 603d 27d8 57bc c552 193e
000002c0: 7f48 d23d c75a 6ebd cdd7 b33c a992 9abe
000002d0: cc9d f7be 685b bebd 6e00 91bd fb5c 51bd
000002e0: 21ee 9ebd 9f4b 1c3d dd82 05be 2db4 1a3c
000002f0: 7b49 abbc 3b20 583d 7ab8 113d 2a7e 8dbc
00000300: 6117 f93b d60b 3bbd 8e64 9dbc 7a18 473d
00000310: f6d8 d53d 1ea8 8ebd 1f2e d1bd ca02 863d
00000320: 49ae c93e 94bb e43d 8155 d43d fae0 643d
00000330: c487 853c 37a1 1ebd 2809 043d fdb9 49bb
00000340: 8bc3 203d 30e9 03be d359 9d3e 2a58 8b3c
00000350: 5ea7 f13c 4b15 c03a df41 8b3d 753d 063d
00000360: bc5f 01be 78e8 d63d 3de5 b13d f3d9 78be
00000370: 03cf c73e 36aa 6b3d 6d37 bb3d c113 cb3d
00000380: c2d7 c23d 38e5 8dbd 3511 29be 4ac7 e03d
00000390: b259 043e 0ad3 bdbe 1383 7bbd 02e8 4c3e
000003a0: 4900 583e ea31 4d3e 5dcb 6b3e 4b88 5abe
000003b0: cef0 76be 90c8 553e 24fd 763e 4bfe 91be
000003c0: 1a9f a6bc 0afc 963e 3b2e 473e ef89 4c3e
000003d0: 3016 893e c439 8abc 29b6 9abd ae63 c13d
000003e0: 2cc5 213e 8f1f 0ebd de47 9cbd 8a00 53be
000003f0: e8c8 bfbd 63ad 1dbe 2053 b6bd f9cf b63d
-0.43929183 0.07299989 0.09752888 0.11060775 0.0874032 -0.06046857 -0.16633001 0.14489925
0.15071173 0.049824458 -0.46781096 0.1629024 0.19289052 0.19097714 0.1923264 -0.018205535
-0.06487731 0.17497072 0.12683734 0.092478365 -0.06901817 0.12622957 0.02683163 0.048006155
0.020876436 0.0716556 -0.030994533 0.047789376 0.021039186 0.066524066 0.23102939 -0.0839433
-0.11068653 -0.11997246 -0.04582216 0.02391094 0.14811842 -0.16126694 -0.21705696 0.09426113
0.18757688 0.11798089 0.09258678 0.10741287 0.13151509 -0.20539698 -0.3527175 0.33813593
0.23753728 -0.39888474 0.02566781 -0.04843412 -0.019388065 -0.032005478 0.015692787 0.015010667
-0.09024494 0.0969462 0.058798853 -0.15062745 0.43637902 -0.24137849 -0.28117695 -0.2597466
-0.26622617 0.06566998 0.24752519 -0.1735103 -0.29301566 0.10162255 -0.25100988 -0.30818322
-0.27762353 -0.21301056 -0.29565063 -0.017816124 0.11718512 -0.19060448 -0.25603575 0.4484538
0.35766315 0.063987836 0.051185798 0.046735138 0.087966144 -0.044426136 -0.15724786 0.055278488
0.08129921 -0.10802158 -0.41783705 -0.056128874 -0.057640046 -0.056244213 -0.09917057 -0.027834222
-0.0493853 0.021451997 -0.0029693306 0.18125504 0.25737792 0.2781503 0.21317646 0.27747494
0.213691 -0.13821015 -0.26486704 0.4403796 0.44524398 -0.6565619 0.31339142 0.119032614
0.12138265 0.20814611 0.18031572 0.07607058 -0.047610935 0.091563426 0.10495415 -0.2526179
0.49327955 0.13381986 0.16330147 0.1685069 0.09377073 0.030608041 -0.10997435 0.0838585
0.13746358 -0.21783921 0.5185183 0.17299555 0.1273852 0.08304321 0.13927631 -0.025742348
0.037623044 0.040551145 0.037240148 -0.21360937 -0.5774056 -0.03324252 -0.0448165 -0.010098335
-0.018409044 0.017555464 0.06270028 -0.05900878 -0.0013926816 0.20187443 -0.19576152 0.07461571
0.08413963 0.013417613 0.08700504 0.032688223 0.07747193 -0.1809166 -0.1629165 0.19271499
-0.6446921 -0.16557829 -0.09169208 -0.14461409 -0.15596469 0.07502808 0.13129155 -0.15941666
-0.16667685 0.37185362 0.5520166 0.03871743 0.060136825 0.054798864 -0.013174093 0.1497298
0.10267734 -0.05819204 0.021953488 -0.30190018 -0.48362577 -0.09294778 -0.0708016 -0.051114064
-0.07760263 0.038158055 -0.13038202 0.009442371 -0.020909062 0.052765112 0.03557632 -0.017272074
0.007601664 -0.045665585 -0.019212987 0.048607327 0.10441773 -0.069656596 -0.10213875 0.06543501
0.39390782 0.1116859 0.10367871 0.055878617 0.01630009 -0.038727965 0.032235295 -0.0030781024
0.039248984 -0.12881923 0.30732593 0.017009813 0.029498752 0.0014654783 0.06799673 0.032773454
-0.12634176 0.10493559 0.08686302 -0.24301891 0.39025125 0.057535373 0.09141431 0.09915877
0.09513809 -0.06928486 -0.1651047 0.10975511 0.12924841 -0.37075073 -0.0614043 0.20010379
0.21093859 0.20038572 0.23026796 -0.21341054 -0.24115297 0.2087729 0.24120003 -0.28514323
-0.020339537 0.29489166 0.1945123 0.19974492 0.2677474 -0.016873248 -0.075542755 0.094428405
0.15797871 -0.034698065 -0.07630895 -0.20605674 -0.09364492 -0.15398173 -0.089025736 0.089263864

weight_hh_l0 f4 [250, 250]
00000000: c151 033e d7e0 e33d d951 7f3b e558 29be
00000010: cf2e 7a3d b84c bcbd 9dbd 0fbe cef2 0d3e
00000020: 48b7 e93c 0989 dfbd 6936 ad3c c835 9b3c
00000030: 4063 c4bc 8215 cbbd d869 a8bb a606 04bc
00000040: bc22 7f3d 6347 d1bd 2ee2 603e 6838 9e3d
00000050: 71ab bdbd c84f 853d 9c73 183e a050 b8bd
00000060: 8c67 46be e27e 033e 4ff1 bdbc 8421 36bd
00000070: 3b20 853d 6b2d afba b58f 12bd c9a3 aabd
00000080: 7555 e53b 3dfe 14be bbb2 1a3e fc93 6dbd
00000090: 6e89 9fbd 8b52 523d 6d14 e7bc 7533 5ebe
000000a0: a80c 863e a109 f83c d172 cb3d 43ff 2f3e
000000b0: 0f9e 2d3e c798 2ebe 579b 023e 3355 b83d
000000c0: 5c42 273e eacd 10be 0831 803d b2a1 243e
000000d0: 8942 9e3c 3e3b 11bd 424b 173d 4592 81bd
000000e0: 7311 d1bd a49d 06be 19f3 2c3e 57a9 a03e
000000f0: e391 d23c fe92 723b 1387 e8ba 4d47 bc3d
00000100: 6a78 66be d81a 383e 2f9a be3d dcb8 643e
00000110: 1770 61bd 67da b5bd 104a 9e3d 67a9 eabd
00000120: 779c b4bd 3413 003e 8d9d c43d 1796 1d3e
00000130: 0074 9b3c d0c1 6b3d a599 a13d 1df4 43be
00000140: 6f91 4ebe 4c31 a23d 7314 33be 27e8 72bd
00000150: fb5e 983d d61f 47be f3fa d2bc 520e 2c3e
00000160: fcfd 713e 7b45 80bd 6408 bc3d ad8a 24be
00000170: 26be 2e3e 8bae 3dbb 4f14 ebbd 4883 ed3d
00000180: eb68 f0bc 3dab 88bd eeda 1dbe 2566 783e
00000190: f312 193d efcd 153e 117a ecbd d065 123e
000001a0: 8d3e 3cbd d0bc 12be b886 d9bd e57a c93d
000001b0: 264c b9bb d301 e43d e514 873d fe27 6cbe
000001c0: 9e58 193e e2e9 aabc 6a94 f33d 2675 aabc
000001d0: 194a 243e ceaf 1abe 41fd 123e bed4 23be
000001e0: 1421 3d3d c42b 42bd bf6c 2a3d f2b8 403e
000001f0: 98c9 873c f46e 2dbe ea6f 12bc 672f f83d
00000200: a63d dd3c 32b6 c53c cb18 9ebd 2775 edbd
00000210: a231 983d 745b 5f3e 1a7b 08be e5d3 893d
00000220: 8e43 e3bd cddd 433e 9923 3d3d 63a6 0fbc
00000230: ef81 a6bd d35c 9ebd 02f4 df3c ae90 29bc
00000240: 62e4 0a3e ea06 f1bd cc93 59be df41 153e
00000250: ec6c dbbd 1611 493d 6e2d 9b3d 021c d73c
00000260: c25b 6b3d 18ec 66bc e0c6 153d 1f2a bdbc
00000270: 797b b5bc 23ff 37be fa1c 513d c3f1 d4bd
00000280: ee6e 2cbe 0281 9f3d 4fec 4db9 0206 0d3c
00000290: f49b 3a3e 0fd9 b2bd e874 c6bd 9934 16be
000002a0: a900 893d d1c8 5cbd 3270 47bd 2578 a63d
000002b0: 3c6c 29be 0a54 e33a 2d99 98bd f437 82be
000002c0: 2ee5 ab3c 630f 82be 77ee 97bd 28b9 91bd
000002d0: addf e93d 22d3 c4bd 2558 203e 87de acbe
000002e0: c302 3d3d c011 9dbc 67f7 5cbd 09df efbd
000002f0: a81a a1be 24de 923d 4d60 e93d a76b e63b
00000300: 7cd6 de3c f1a7 21be 2b63 03bc e308 f93d
00000310: ae1c f83d 0a27 74bd ca18 c2bd 9f34 3abe
00000320: 205e c7bc 8072 0fbe 6a8b 9d3d cf6a 513d
00000330: f294 36bc 1f4e 5ebe ab45 cbbc 8eee 24be
00000340: 5508 2abe d3c3 20be 940a 09be 0ba1 49be
00000350: d2e3 4abe c979 9c3d 5ab5 5c3e 7bea 983d
00000360: 9efa fc3d 0523 e0bc 9856 52be a86c 34be
00000370: cf94 06be 7583 a13e b2d2 df3d 419f 80be
00000380: a463 9f3d eaad 803c ab46 ce3d a92a 9cbd
00000390: d32c b43d 312a 3dbe 45cd 1f3e 1524 073e
000003a0: c459 8ebd f788 b9bd 9714 283e 9b2e 82be
000003b0: 5735 5a3e d241 67bd 563f 063e 51b5 513d
000003c0: 8f7a 35bd a650 96bd db63 cfbc e9e8 5ebe
000003d0: 35cf 103e f833 293d 4546 02be b958 77bb
000003e0: 0bfc 32bd ffde d6bc 2187 39bc ae8b ab3b
000003f0: 0dbf a33e e220 c1bd 9934 973d 70d8 4f3d
0.12824155 0.11126869 0.0038958697 -0.16537817 0.061079796 -0.091943204 -0.14037175 0.13862154
0.028529778 -0.10914809 0.021144109 0.018946543 -0.023973107 -0.09916212 -0.0051395707 -0.008058226
0.062288985 -0.10218694 0.2196128 0.077256024 -0.092612155 0.06509358 0.14887851 -0.08999753
-0.19375437 0.1284137 -0.023186354 -0.044465557 0.06500288 -0.0013364976 -0.03578158 -0.08332021
0.0069987127 -0.14550109 0.15107243 -0.058002457 -0.077898845 0.05134825 -0.028207982 -0.21699317
0.2618153 0.030278029 0.09934009 0.17187218 0.16954826 -0.17050467 0.1275457 0.090006255
0.16333908 -0.1414105 0.06259352 0.16077307 0.019318836 -0.03545689 0.036937006 -0.06326727
-0.10208406 -0.13146073 0.1688961 0.31379196 0.02570433 0.0037013884 -0.001774045 0.09193287
-0.22506872 0.1797899 0.09306752 0.22336143 -0.055038538 -0.088795476 0.0772897 -0.11458092
-0.08818906 0.12507325 0.09600363 0.15389286 0.018976212 0.05755788 0.078906335 -0.1913609
-0.20172666 0.07919559 -0.1748827 -0.05930343 0.07439991 -0.19445738 -0.025754428 0.16802338
0.23632044 -0.06263252 0.09181288 -0.16068526 0.17064723 -0.0028943147 -0.11478483 0.115973055
-0.029346904 -0.06673286 -0.15415546 0.24257715 0.037371587 0.14629339 -0.1154672 0.14296651
-0.04595809 -0.14329839 -0.10621399 0.098378934 -0.0056548296 0.111331604 0.06595782 -0.23062131
0.14975211 -0.020863477 0.11893542 -0.020807814 0.16043891 -0.15106127 0.14354421 -0.15999123
0.046174124 -0.04740502 0.041607615 0.18820551 0.01657562 -0.16936857 -0.008937815 0.12118416
0.027006935 0.024134729 -0.07719573 -0.11594611 0.07431342 0.2181223 -0.1332821 0.06729869
-0.110968694 0.19127579 0.046176527 -0.008767697 -0.081302516 -0.077325486 0.027338032 -0.010349436
0.13563684 -0.11768897 -0.21247786 0.14575909 -0.107141346 0.04908856 0.075770244 0.026258472
0.057460554 -0.014094375 0.036566615 -0.023091374 -0.022153603 -0.1796842 0.051053025 -0.10397675
-0.16839191 0.07788278 -0.00019638355 0.008607389 0.18223554 -0.08732807 -0.09690267 -0.14668502
0.06689579 -0.05390245 -0.048690982 0.081283845 -0.16545194 0.0017343771 -0.07451091 -0.25433314
0.020983305 -0.25402364 -0.074185304 -0.07115394 0.11419616 -0.09610583 0.15658624 -0.33763525
0.046145212 -0.019173503 -0.05394688 -0.117124625 -0.3146565 0.07171276 0.11395321 0.007031876
0.027201883 -0.15786721 -0.008019249 0.12159898 0.12114845 -0.059607543 -0.094773844 -0.18184136
-0.024336874 -0.14008522 0.07692607 0.05112725 -0.01114391 -0.21709488 -0.024813494 -0.16106626
-0.16604741 -0.15699701 -0.13382941 -0.1969034 -0.19813469 0.07640416 0.21553555 0.074665986
0.12352489 -0.027360449 -0.20540845 -0.17619574 -0.13142703 0.31545606 0.10928859 -0.251215
0.07782677 0.015707929 0.100720726 -0.07625324 0.08797612 -0.18473126 0.15605648 0.13197358
-0.06950715 -0.09059327 0.16414104 -0.25426182 0.2130941 -0.056459256 0.13110098 0.051198307
-0.044306334 -0.07339601 -0.02531617 -0.21768536 0.14141543 0.041309327 -0.12722118 -0.0037742092
-0.0436974 -0.02622938 -0.011323721 0.005235157 0.31981698 -0.094301 0.07383079 0.05074352

bias_ih_l0 f4 [250]
00000000: 60a5 0ebe 7024 2bbe d6f8 64b9 b0c1 823e
00000010: 179f 9bbe 5907 32be c807 8c3e 0808 593e
00000020: 04a3 503c 7754 08bd 09b9 d0be 0f8c 55bd
00000030: 2166 0ebe 0202 823d 57c0 1f3c 643f 403e
00000040: d930 233e 8f02 a23d 8a40 f2bc ceb0 d13d
00000050: 58ad 783c 089e 6fbd 0d98 26bd daf6 91be
00000060: a675 a7bd ccbb 5b3e 3538 c1bd ccf8 afbd
00000070: 9439 173e b7a8 06be 3f43 843d f416 573e
00000080: 33c2 69bd a4c1 4c3e 7643 19bd a8cc 15bd
00000090: 7382 0b3d 0eaa 09be b045 b6bd 756d 30be
000000a0: e6f3 11be 2530 463d 2ab0 86bd 7921 79bd
000000b0: 17fb cf3d 2905 843e 9622 e83b 4c76 64be
000000c0: b274 36be cf1c c43d b982 f53d a39e 643c
000000d0: fa71 a6be 25ef 5a3e 7ec3 473c 531d ff3a
000000e0: 751f 91be 3fda 113e 9646 2c3e e1f1 09be
000000f0: 72a7 f3bb cf0d 69be 6979 d33c 45f4 81be
00000100: 6638 4b3d ed1d 65bc 65c7 acbd 3d8f 84bd
00000110: fd5a 493e 5222 eb3d 2d2f 1f3d 6682 ab3c
00000120: 2004 2fbe df92 27bd 6341 d53c 68d1 923c
00000130: 454e 8abe 470c dbbd a0f2 343c c2f7 073d
00000140: 65b9 01be 4a3b 133d b4ad 263e 0428 3cbe
00000150: 6cb8 7dbd 9ba8 113e 7566 123c acee c43e
00000160: 7185 ab3d 20de f43d 5dd5 d33c 2f5c 0b3e
00000170: 919d 05be 976e a13c cb68 1ebe 9877 fabd
00000180: fd82 423e 08bf 7f3e 9ee0 0a3d 5a62 8c3d
00000190: 7d01 d53d 828c 48be 0bf4 0b3e 0aad 93be
000001a0: 5f57 c53d f8f8 f8bd 047c f93b 06c5 a33e
000001b0: 7095 983d 577b 17be 02a8 cbbd d8b3 e23c
000001c0: 2f6f 153e d103 3dbe cadd 7abc ed24 20be
000001d0: 3e87 1dbe 2256 cb3d acd0 6ebc 2b40 c83d
000001e0: 356a adbd 5d57 74be 30e4 6b3c f344 173e
000001f0: a7f4 c1bc 6ef3 213e be0e 0ebe a4a1 9fbd
00000200: 23dc bc3d b840 9cbc bcf3 a93d 01d0 3b3e
00000210: 1680 24be 5600 b0bd d7aa 063e fded 1e3e
00000220: fb98 833d 165b 8dbd 3a82 10be 7b93 413d
00000230: 459f 42be 8115 e7bd 85b0 fcbd cdeb 99be
00000240: f248 a2bb 7be2 853d 8db2 603e f8b0 25be
00000250: d066 873d 28f4 94bd e6f1 8abe cf4e fcbd
00000260: af5a abbd f75f a0bd 3606 a1bd f61a dc3d
00000270: 6973 57bd 8b7f f83d b5be afbd 6dde 1cbe
00000280: 6453 0a3e 880b 453d 9125 943e 41e4 eb3d
00000290: e427 8ebe 8b20 053e dff4 28be 8f61 7f3e
000002a0: 6cfb 9c3d 2bd8 143e 605c e9bb 4903 d7bd
000002b0: 1d36 1abe 2692 a23d b14b f63d 8807 d93d
000002c0: deda 253c 1905 bd3d af2d 833e a88c a33d
000002d0: a3f9 003e e5dc adbe 25b2 04be 2f5c 0d3e
000002e0: 3bac 673e 15b7 66bd 5efd 503e 2303 4c3e
000002f0: a023 413e 51f4 11be a9fe 2c3b b72e c73d
00000300: eb13 20be 56cf e1bd 65a1 3cbe 0cf7 98bd
00000310: 64fa 8f3d f33d 1d3e b183 3f3e c68e 85be
00000320: fdc8 a43c b163 413e 4151 5c3e e980 61be
00000330: 6d7b bcbd 12c6 543e 7422 513d 10a5 3a3e
00000340: 1ad6 023e 1d13 893e d5a8 fbbc 3c63 213e
00000350: c968 483e f823 6dbe 3eb9 5dbe 04d4 11be
00000360: e8df 06be 3fa9 513e 5258 943d 3273 003e
00000370: e3b7 3f3d 411d 9ebd 7fa8 87be d616 a63b
00000380: 6217 183d de99 55bd 1395 00bd b286 3bbd
00000390: 1c4b d1bd e00e 05be 0c29 dd3d 5f7e 8ebd
000003a0: b9f2 b33d 805a 203d 238d 2b3e 5c0f 743e
000003b0: 182a 693b 588c 3e3d d904 4cbe f6b9 9dbe
000003c0: 878e fabd 998b 80be f136 aebd c8c4 4b3e
000003d0: 8695 69be 3968 943d ff1b 243e 5e2a 86be
000003e0: d663 36be 75b3 ca3d
-0.13930273 -0.16713119 -0.00021836473 0.25538397 -0.30394813 -0.17385615 0.27349687 0.2119447
0.012734178 -0.033283677 -0.4076617 -0.052135523 -0.13906147 0.06348039 0.009750447 0.18774182
0.15936603 0.07910644 -0.02957179 0.10238801 0.015178047 -0.05850032 -0.04067235 -0.28508645
-0.081767365 0.21458358 -0.09434549 -0.08592376 0.14768058 -0.13150297 0.06458139 0.2100485
-0.05706997 0.19995743 -0.03741785 -0.03657213 0.034059953 -0.13443777 -0.089000106 -0.17229255
-0.14253196 0.048385758 -0.065765694 -0.060822938 0.101553135 0.25785187 0.007084201 -0.22310752
-0.17817953 0.09575807 0.11987824 0.013953838 -0.32508832 0.21380289 0.012192605 0.0019463695
-0.28344312 0.1424341 0.16823801 -0.13471176 -0.0074357325 -0.22759174 0.025814729 -0.25381675
0.049614333 -0.013984186 -0.08436469 -0.06472633 0.19663616 0.114811555 0.03886335 0.020936202
-0.17091417 -0.04091155 0.026032155 0.017922118 -0.2701284 -0.10695701 0.011044174 0.033195265
-0.12668379 0.035945214 0.162772 -0.1837464 -0.061943457 0.14224474 0.0089355605 0.38463342
0.08375061 0.119564295 0.025858575 0.13609384 -0.13048388 0.019706054 -0.15469663 -0.12229842
0.1899528 0.24975216 0.033905618 0.068546966 0.104006745 -0.1958485 0.13667314 -0.28842956
0.09635805 -0.12156862 0.007613661 0.31986254 0.07450378 -0.14793144 -0.09944154 0.027673647
0.14593194 -0.18458487 -0.015311668 -0.15639086 -0.15383622 0.09928538 -0.014576118 0.09777864
-0.08467523 -0.23861451 0.014397666 0.14772396 -0.02367623 0.15815517 -0.13872811 -0.077945024
0.09221675 -0.019073829 0.08298442 0.18341066 -0.16064486 -0.08593814 0.13151108 0.15520473
0.06425663 -0.06902139 -0.14112177 0.04725979 -0.19006069 -0.112833984 -0.12338356 -0.30062714
-0.0049525434 0.06537338 0.21943112 -0.1618079 0.06611407 -0.072731316 -0.2713768 -0.12319719
-0.08366906 -0.07830804 -0.07862513 0.1074733 -0.052600298 0.12133702 -0.08581296 -0.15319224
0.13508373 0.0481067 0.2893491 0.11518145 -0.2776481 0.13000695 -0.16499661 0.2493956
0.076651424 0.14535587 -0.0071216077 -0.104986735 -0.15059705 0.07938032 0.12026156 0.105971396
0.010122983 0.09229488 0.2562079 0.079858124 0.12595229 -0.33957592 -0.12958582 0.13804697
0.22624294 -0.056326944 0.20409152 0.19923072 0.18861246 -0.14253356 0.0026396906 0.09725707
-0.15632598 -0.11025874 -0.18420942 -0.074689955 0.0703018 0.15355663 0.1870258 -0.2608549
0.02011537 0.18885686 0.21515371 -0.22021832 -0.09203229 0.20778683 0.051058248 0.18227029
0.12776986 0.26772395 -0.030720154 0.15760511 0.19571222 -0.23158252 -0.21652696 -0.14241034
-0.13171351 0.20474719 0.07243408 0.12543944 0.046806227 -0.077204235 -0.2649574 0.00506864
0.037131675 -0.052148692 -0.03139217 -0.045782752 -0.10219404 -0.12993956 0.10798845 -0.06957697
0.0878653 0.039148808 0.16753058 0.23833984 0.0035578068 0.04652056 -0.19923724 -0.3080594
-0.12234216 -0.25106505 -0.08506573 0.19899285 -0.22810945 0.072464414 0.16026305 -0.262042
-0.17811522 0.0989751

bias_hh_l0 f4 [250]
00000000: 5f26 1bbe d268 02be f1b7 aabb af61 6d3e
00000010: c8c3 81be c80b d8bd c31c a63e 5c74 183e
00000020: 3be3 003d ac9c e63c dd4f c0be b22a 11bd
00000030: beb5 15be 4f86 e43c fe20 6a3d 0638 5d3e
00000040: ee2a f03d 14d5 ba3d 79ca 06be a5e7 f13d
00000050: 1c47 223d 3dbc adbd ea20 13be c717 91be
00000060: 440e 7abd 7a8e 863e 6349 1cb9 7bb5 0cbe
00000070: 60b3 123e defe 66bd 52bd 073d c185 663e
00000080: d922 82bd 02ab 1f3e d9a3 9dbd daed 10be
00000090: de9f ef3c b44e 9abd a7bd 8fbd 848f 50be
000000a0: 172d 2cbe 40fa 9b3d e3ca 32be 3432 97bd
000000b0: 8b35 073e f1dc 433e 946f c4bc 9365 0dbe
000000c0: 6b45 c8bd 9d9a bb3d 14fc f53d fa87 b7bc
000000d0: dd1f 87be ff63 773e ea86 df3c 33e1 4dbd
000000e0: b9be 55be a301 8c3d b033 343e c027 2cbe
000000f0: 3037 be3d e88c 4abe 8b77 1e3c b3a9 87be
00000100: e40b 7b3d 2bc9 05bd bf33 bcbd a91e 9dbd
00000110: 02a9 313e 195f ef3d 0618 6f3d a0b4 c03c
00000120: f526 bdbd 9582 20bd 8780 2abd 3a83 b7bd
00000130: d197 50be b360 fdbd 8c4b a13d 0018 0f3e
00000140: 1dc4 00be a2ac 3f3c 85d7 353e d286 26be
00000150: d6aa 6fbd 35b4 993d 4486 da3c 9939 a73e
00000160: bf0e 123e 6e0c 923d 492a c73d 1c60 6a3d
00000170: 55ca 96bd f79f 7c3d dc48 0cbe 84d1 c1bd
00000180: ca00 123e 5800 683e 17e1 e33d fc60 b03b
00000190: 04cf ec3d 7674 81be 9b50 4d3e 1b74 b9be
000001a0: 5d5b c83d 5414 09be db2c 7fbd d7eb b23e
000001b0: 60a9 323e c4d6 1fbe e5ac 29be 470b 10bd
000001c0: d0d3 d13d 88b0 acbd 7309 1bbc de81 5abe
000001d0: 9e11 dcbd 6086 02ba 6b0d 94bd cd08 ee3d
000001e0: 51bd d5bc 876a 32be 90ed 69ba 470e 0f3e
000001f0: b7da 9bbd 33d9 073e eb0d 9ebd 4721 a6bc
00000200: 636f 1b3e 1b6f f1bc b0a5 b23d 9eeb d13d
00000210: b0d0 44be faa6 b5bd b8a2 f83d 9dd3 b93d
00000220: b609 903d 8ab4 babd 70d2 29be 7f13 873d
00000230: f224 23be 612d aebd 5656 09be 6dc9 43be
00000240: d9c3 e73c 0e99 a43d 7924 7a3e 1ab7 63be
00000250: 8930 ce3d d621 a7bd 1b3a 8abe 5484 acbd
00000260: 3293 16bb f562 afbd d3a1 0dbe 7a13 0e3e
00000270: b4d1 3bbd c381 f73d 97a9 3c3c a733 73be
00000280: 9760 ad3d b5f6 9a3d 29fb c63e 0ea1 eb3d
00000290: 24d8 78be ebb2 ce3d 85ea 6cbe 62a3 5f3e
000002a0: 149f f73b 161e 573d 321e b8bc f6d2 05be
000002b0: 81ed 2ebe 0652 073e b52d 223e b867 783d
000002c0: 298a 4cbd 8a5c e53d d5da 593e f45f c13d
000002d0: 3cb6 af3d e3ec bdbe 48ea 17bd 0fc9 f03c
000002e0: 7642 793e 3dd1 60bc ebfe 253e f5d3 6c3e
000002f0: 6254 583e 753c 08be 7fa9 323d 193a 083e
00000300: 3f1a 17be 18dc a1bd b284 56be 5fdf 34bd
00000310: 9036 7b3d f900 793d 3e48 763e c0a0 82be
00000320: 887d 9bbd fbba 2e3e 73b2 233e 4734 f4bd
00000330: 7924 19be 38b4 863e 34dd 003e 666b 043e
00000340: 72bf 4a3e ac33 aa3e 9bf4 683c 34e8 573e
00000350: 640e 403e b003 69be 0a48 00be ea4f 0bbe
00000360: 74ad 95bd 5e31 333e d769 a33d 5fa7 243e
00000370: 2c19 e93d 8841 57bd 3ddf 36be d447 1a3d
00000380: 685d 2e3c 2298 27bd 4c34 b0bd ef12 193d
00000390: 2cc0 71bd 212e 61be cb88 a63d 406f 26bd
000003a0: e379 4bbc e44c bc3d db66 893d d108 463e
000003b0: a82e 8dbd e879 f43d efc3 3abe a857 5dbe
000003c0: 2a3c a1bd cdac 70be 6073 7dbd 23d9 453e
000003d0: 4540 7bbe 36f0 6b3d 3d7a 5d3e 3f46 97be
000003e0: ef1c 4abe a3b5 a13d
-0.15151356 -0.12735298 -0.005209916 0.23181795 -0.25344682 -0.10549122 0.32443818 0.14888138
0.031466704 0.028150879 -0.3756093 -0.035441108 -0.1462011 0.027896075 0.05716037 0.21603402
0.11726938 0.09122673 -0.13163175 0.11811761 0.039618596 -0.08483169 -0.14368024 -0.28338453
-0.06104876 0.26280576 -0.00014904658 -0.13741104 0.14326239 -0.056395404 0.033139534 0.2251196
-0.06354303 0.15592578 -0.07697267 -0.14153233 0.029251035 -0.07534543 -0.07018595 -0.20367247
-0.16814075 0.07616091 -0.17460208 -0.07382622 0.13204019 0.19127251 -0.023978986 -0.13808279
-0.097788654 0.091603495 0.12010971 -0.022403706 -0.26391497 0.24159239 0.027286012 -0.050263595
-0.20873536 0.0683625 0.17597842 -0.16812038 0.0928787 -0.19780314 0.009672056 -0.26496658
0.061290637 -0.03266255 -0.09189557 -0.076718636 0.17349628 0.1168806 0.05837252 0.023523629
-0.09235946 -0.039187033 -0.04162648 -0.08960576 -0.20370413 -0.123719595 0.078757375 0.13973999
-0.12574811 0.011698874 0.17757995 -0.16262367 -0.05851253 0.07505075 0.026675351 0.3266113
0.14263438 0.07131277 0.09724862 0.057220563 -0.073628105 0.061675992 -0.13699669 -0.0946379
0.14258114 0.22656381 0.11126917 0.005382655 0.115629226 -0.25284165 0.2005028 -0.36221394
0.09783051 -0.13386661 -0.062298637 0.34945557 0.17447424 -0.1560927 -0.1656986 -0.035167005
0.10245478 -0.08432108 -0.009462702 -0.21338603 -0.10745548 -0.000497913 -0.07229122 0.11622772
-0.02609125 -0.1742345 -0.0008923644 0.1397029 -0.07610076 0.13266449 -0.077174984 -0.02027954
0.1517921 -0.029471925 0.08723009 0.102500185 -0.19220233 -0.08869739 0.12140411 0.09073565
0.07033102 -0.09116466 -0.16584182 0.065955155 -0.15932062 -0.08504749 -0.13411841 -0.19119807
0.02829163 0.08037005 0.24427976 -0.22237816 0.10067851 -0.081607506 -0.26997456 -0.08423677
-0.002297592 -0.085637964 -0.13831262 0.13874617 -0.045854285 0.12085297 0.011515043 -0.23750173
0.08465689 0.07566587 0.38863495 0.11505328 -0.24301201 0.1009272 -0.23136337 0.2183967
0.0075568054 0.052518927 -0.022475336 -0.13068756 -0.17082788 0.13214883 0.15837748 0.06064579
-0.049936447 0.11199291 0.21274884 0.0944213 0.0857968 -0.37094793 -0.037088662 0.029392747
0.24341759 -0.013721761 0.16210525 0.2312773 0.2112594 -0.13304313 0.043618675 0.13303412
-0.14756106 -0.07903308 -0.20949057 -0.044158336 0.06133133 0.060791943 0.24050996 -0.25513268
-0.075923026 0.17063515 0.15986042 -0.119240336 -0.1495532 0.2630937 0.12584382 0.12931594
0.19799593 0.33242548 0.014218475 0.21084672 0.1875549 -0.22755313 -0.1252748 -0.13604704
-0.07308474 0.17499301 0.07979172 0.16079472 0.11381754 -0.05255273 -0.17858596 0.037666157
0.010642387 -0.04091657 -0.08603725 0.037371572 -0.05902116 -0.21990253 0.0813156 -0.04063344
-0.012419197 0.09194353 0.06709071 0.193393 -0.068936646 0.11937314 -0.18238805 -0.2161547
-0.078728035 -0.23503418 -0.06187761 0.19321112 -0.24536236 0.05760213 0.21628661 -0.2954578
-0.197376 0.078959726

weight f4 [1, 250]
00000000: c857 82bc ebf1 953d 263d a83d 20b3 a8bc
00000010: f2e0 9bbd 437f 8c3c 816d 1ebd d15a f43d
00000020: bf3d 44bc ae56 113d 9eec 75be f463 9bbd
00000030: 1543 a9bd baf7 a4bd 863b 73bb 9c18 9cbd
00000040: 3c4d 923d ca4c 18be d168 c93c 8115 a7ba
00000050: a533 c53c 2671 d2bd c8bf a6bd bcd2 b4bd
00000060: b37e 7e3d a10e 99bd f3d5 763d f5cf e4bc
00000070: cd41 ee3d ef9f 5ebd d854 083d a831 523d
00000080: 304d 90bd 0d68 b83d 5698 a2bd efb7 9ebd
00000090: 9364 8d3d 0e03 8ebd 0956 82be 1675 e9bd
000000a0: 87a6 073d d200 a93b 2ca6 00bd 6cb3 5c3d
000000b0: 0272 8c3d d139 ebbc 8e90 e83d a6de 3b3d
000000c0: 710b bfbd 93d0 1b3d 344d 00be 8284 bb3d
000000d0: 7f41 e63c 89f1 583d a40d 4a3d fc41 603d
000000e0: 6b29 9bbd ad36 113c b435 4cbd c8f9 ba3d
000000f0: 0338 a03d 9240 6bbd c6a6 0cbc f60b 063d
00000100: 0b65 97bd 30a1 ac3d f6d0 3cbd e033 8c3d
00000110: 6bea 333b ddae 8b3d 17f1 ff3c 84bd 01bd
00000120: 4c93 d7bd c5e6 41bd 7039 d13d c8be b3bc
00000130: 5751 a2bd 928d 6a3d 69e9 053c c044 91bc
00000140: c64c 92bd 5f87 423c 0434 f53b 4b0b 8f3a
00000150: 707a 703d 8fb2 363d 9194 e9bc 3675 ad3d
00000160: 4636 ec3d 4905 733d 2a43 af3d e95a 79bd
00000170: c584 f9bd 8300 98bd 699b 39ba e140 77bd
00000180: 3b3d d33d 945a 8abb 8764 c939 8263 833d
00000190: ced1 babc 0241 abbd 79b8 0cbd 3b72 afbd
000001a0: f6af 763d 72e5 92bc 07fc 05be 28d5 103e
000001b0: 9182 1a3d 41e9 34bd 73cd 10bd db54 09bd
000001c0: a8de f83d 5a10 6dbd 4d67 e53c a3ca d8bd
000001d0: 9bfd 113d e73a a73d e510 7c3d 66cb 36bd
000001e0: 9310 b5bc f856 b1bd 54b9 b93c dfb2 b43d
000001f0: b4d2 653d ad4b 6cbd 8b8c c7bd eabc 5d3b
00000200: bdf7 703d 8208 5a3d bd1f b7bc 70d4 0ebd
00000210: 5937 cbbc 38b2 6a3c 2184 4f3d 4778 693d
00000220: 76f4 053d f792 10bd 5fef b5bd ab21 c83c
00000230: ab19 5abd f8b7 4bbd a4f9 8bbd 21a6 c3bd
00000240: 0c6a f63d 8277 15bd 061a eebd bf57 5abd
00000250: 3903 1b3d be20 743c f5f3 a33c 1e42 3a3d
00000260: cc19 103d b69b 03bd cfff e83c 6b01 0e3e
00000270: b321 163e a95a 61ba 0ad1 e3bc 45a2 c4bd
00000280: 2142 57bd b477 813d 94d0 5f3e 951e ddbd
00000290: f640 44bc babc 7f3b 576b 18be 2ebf d23d
000002a0: cae2 813d 6213 7e3d 2818 913d 0d7b 313d
000002b0: 7732 d1bd cb94 16bc 5386 8e3d 456a edbc
000002c0: 88fb abbd 703e 163d eb3c 9e3b 5f39 a1bc
000002d0: 78d0 c93d 47a2 8dbe c97c 43bd aa98 d9bc
000002e0: d44d 703d a753 c5bc 2f64 39ba fed9 e33d
000002f0: 7319 cb3d bb85 613d ffb5 923d 9504 df3d
00000300: f20c 9cbd 7d52 0abe 753d f83d e348 aabd
00000310: 4268 3a3d b47c ccbd dac2 da3b 2398 6c3c
00000320: e301 b33d c8cb 993c 4787 e03d d51f b53d
00000330: 8370 90bd d31a af3b 4a61 c33c 0953 463d
00000340: fdf5 d03d ec59 4e3d 09b9 393d 3783 c4bd
00000350: d802 81bd 034a 91bd 6a66 cdbb f1b8 7f3d
00000360: 3fcc a23d 37f5 b83d 4a0f 383c 2aa8 a23c
00000370: ea1f 143d 8e31 61bd 53b3 bdbd bb7f 86bd
00000380: 38ad a43d a2eb 45bd ecc6 aa3c 7c6b 92bb
00000390: 6177 95bd c4eb 72be 014d d33c a8bf bc3d
000003a0: c1f3 25bd ef22 4b3d e105 6a3c 0b60 e2bd
000003b0: ce53 433d 05ef 34bd ad09 ccbd 26e1 2cbe
000003c0: 8279 07bd 31db 28be cb18 cdbd e2af ac3d
000003d0: c0c4 b53c 2ee6 4d3d 5b86 003c 36a9 36be
000003e0: d746 b2bc f286 99bd
-0.015910998 0.07321533 0.08214788 -0.020593226 -0.07611264 0.017150527 -0.03867865 0.11931384
-0.011977612 0.035483055 -0.24016044 -0.07587424 -0.08264748 -0.080550626 -0.0037114336 -0.07621881
0.071436375 -0.14873043 0.024586113 -0.0012747498 0.024072478 -0.102754876 -0.08142048 -0.08829257
0.06213255 -0.07473493 0.06026263 -0.027931193 0.11633644 -0.054351743 0.03328404 0.051316887
-0.07045972 0.09004221 -0.07939212 -0.07749926 0.06903949 -0.069341764 -0.25456265 -0.113992855
0.033117797 0.0051575685 -0.031408474 0.053882048 0.06857683 -0.028714092 0.113556966 0.04586663
-0.09328354 0.03804071 -0.1252945 0.09156133 0.028107403 0.05296472 0.049329415 0.054750428
-0.07576259 0.008863133 -0.049855903 0.09129673 0.078231834 -0.057434626 -0.008584684 0.03272625
-0.07392319 0.084291816 -0.04609772 0.06845832 0.0027452956 0.06820462 0.03124289 -0.031674877
-0.105261415 -0.04733922 0.102160335 -0.021941558 -0.079256706 0.05726392 0.008173325 -0.017732978
-0.071435496 0.011873095 0.0074830074 0.00109134 0.058710515 0.04460388 -0.028513225 0.08469622
0.11533789 0.059331212 0.085577324 -0.060877714 -0.12183527 -0.074219726 -0.0007080348 -0.060364608
0.10314413 -0.0042222235 0.00038412606 0.06415464 -0.02280512 -0.08362009 -0.034355614 -0.085667096
0.060226403 -0.017931674 -0.13084422 0.14143813 0.037722174 -0.04416776 -0.03535218 -0.03352819
0.12151843 -0.057876922 0.02800336 -0.10585525 0.035642248 0.081655316 0.06153955 -0.04462757
-0.02210263 -0.08659166 0.02267138 0.088231795 0.056109145 -0.057689358 -0.09743603 0.0033834525
0.05883001 0.05323077 -0.022354001 -0.034870565 -0.024806665 0.014324717 0.050663117 0.05699947
0.03270384 -0.035296407 -0.08883547 0.024430117 -0.053247135 -0.049735993 -0.068347245 -0.09553171
0.120319456 -0.036490925 -0.11626057 -0.053306337 0.03784487 0.0149003845 0.020013789 0.04547321
0.03518085 -0.03213092 0.028442292 0.13867728 0.14661293 -0.0008596578 -0.027809639 -0.09601263
-0.0525533 0.0632166 0.2185691 -0.10796849 -0.0119783785 0.0039022402 -0.14884697 0.10290371
0.06342085 0.062030204 0.070846856 0.04333024 -0.102147035 -0.009190748 0.06959214 -0.028981337
-0.08397585 0.03668064 0.0048290393 -0.019680677 0.098542154 -0.2766287 -0.047726426 -0.026562054
0.058667973 -0.02408774 -0.00070721185 0.11125563 0.099169634 0.055059176 0.07163619 0.10889546
-0.076196566 -0.1350803 0.12121097 -0.08314683 0.045509584 -0.09984723 0.00667606 0.014440569
0.08740594 0.018773928 0.10963302 0.08843962 -0.0705271 0.005343774 0.023850102 0.048419032
0.102031685 0.050378725 0.04534248 -0.0959534 -0.062993705 -0.07094195 -0.006268312 0.062432233
0.07949113 0.09031146 0.011234114 0.019855577 0.036163248 -0.0549789 -0.09262719 -0.065673314
0.08040851 -0.04832042 0.020846806 -0.0044683795 -0.0729816 -0.2372275 0.025793554 0.09216243
-0.040515665 0.049593862 0.014283628 -0.11053475 0.047687344 -0.04417326 -0.09962783 -0.16882762
-0.033074863 -0.16489865 -0.100144945 0.084319845 0.022188544 0.050268345 0.007844533 -0.17837986
-0.021762295 -0.07496442
