model/RNN-000659.pth (torch, 266199 bytes, 5 tensors)

weight_ih_l0 f4 [250, 10]
0.13133131 -0.08102574 -0.096734226 -0.09839506 -0.003336132 0.018783864 -0.16560814 0.07483114
0.08005056 -0.1875142 0.08995243 -0.061948348 -0.08990039 -0.092345774 -0.029656123 0.034339797
-0.009617002 0.003579328 0.025985003 -0.13799566 0.0671855 0.1942844 0.16409272 0.14899698
0.14225109 0.12889007 0.032617886 0.05208829 0.042922184 0.0671433 -0.19559646 0.004369598
-0.010804725 -0.027788071 -0.037402034 -0.06710626 0.05852656 -0.15311128 -0.09112561 0.1504814
-0.20212956 -0.09489889 -0.116651714 -0.088439316 -0.07267304 -0.1034083 0.23524141 -0.22116254
-0.16708156 0.22844823 0.033819206 0.17314512 0.09003856 0.07188064 0.12070675 -0.16715644
-0.15444201 0.12776195 0.15211268 -0.01757379 0.080052875 -0.10904782 -0.1735604 -0.075381935
-0.10953217 -0.046901513 -0.0037088185 0.024285553 -0.047569197 -0.16579172 0.12697372 0.07013916
0.030044155 0.045035545 0.071732275 0.02489338 -0.13649194 0.08995346 0.14153852 -0.1049843
-0.22411332 -0.09651441 -0.05651002 -0.085653424 -0.063375935 -0.17272653 0.13955994 -0.12109673
-0.09565888 0.40409854 -0.09484029 0.026751665 0.026058882 -0.00540901 0.009901694 -0.13137677
0.04533255 -0.0153156845 -0.056192815 0.29078147 -0.050604455 0.06548433 0.08140369 0.10806847
0.10301259 -0.11539794 -0.111648835 0.0396396 0.09609716 0.08970976 0.1791567 0.1436568
0.09156489 0.06961891 0.07635258 0.07428158 -0.16105483 0.17649132 0.13746232 -0.41924465
0.041541398 -0.07887287 -0.0073738922 0.004712564 -0.0099498965 0.012034563 0.03980526 -0.047312085
-0.06904397 -0.0749498 0.038722087 0.027435033 0.08683184 -0.015273539 0.03848564 0.055262662
-0.04881508 0.0120643405 0.08166271 -0.19307217 -0.16304284 0.027509026 0.06300825 0.067140594
0.015204438 -0.14256307 0.16519466 -0.15258299 -0.14216672 0.4234834 0.33777493 -0.04644756
-0.10923878 -0.11782705 -0.087042086 0.082577914 -0.2650617 0.15906252 0.1484052 -0.4070209
-0.11095883 0.04551241 0.058699377 0.06124918 0.08169236 -0.08499337 0.058965117 -0.10114432
-0.09472852 0.043700583 0.38944724 0.0620159 0.1040022 0.038303353 0.10607024 0.09136033
-0.16415708 0.14706407 0.1569648 -0.41463727 -0.19680315 -0.14012185 -0.19409889 -0.104490444
-0.13170484 -0.006876509 0.05640672 -0.1213167 -0.13769852 0.43149066 0.23446691 -0.016250255
-0.019199822 -0.061565768 -0.07119583 -0.06384336 0.0019279197 0.049660403 0.02773139 -0.17562747
0.107697435 0.03071027 0.04151269 -0.0055203885 0.036568448 0.08037168 -0.09676614 0.07429056
0.05958728 0.020438308 -0.119402215 -0.030485068 0.015443715 -0.03677686 0.057639208 -0.032522615
-0.1005537 0.009100261 0.081214406 -0.08607319 -0.21555768 -0.06087967 -0.06345307 0.016470246
-0.01825581 0.015704013 0.107217744 -0.1387782 -0.123949185 0.27230364 -0.028551858 0.04235955
0.014175147 0.059753656 -0.025156662 -0.014199944 0.048582293 0.026127597 0.034690324 0.3476771
-0.006104504 0.07801165 -0.023005893 -0.013964545 -0.030635508 -0.15825254 0.036137857 0.038988154
0.05853743 0.121359505 -0.14589807 0.0270279 0.09463782 0.058744457 0.015301285 -0.14924131
00000000: b77b 063e d3f0 a5bd 981c c6bd 5983 c9bd
00000010: 02a3 5abb 9ee0 993c 2e95 29be 1241 993d
00000020: 8cf1 a33d b903 40be fb38 b83d 8dbd 7dbd
00000030: b21d b8bd c81f bdbd 66f1 f2bc e3a7 0c3d
00000040: a190 1dbc 2993 6a3b 80de d43c bc4e 0dbe
00000050: 8d98 893d 7df2 463e ec07 283e aa92 183e
00000060: 45aa 113e c2fb 033e 559a 053d 885a 553d
00000070: 2ccf 2f3d 6d82 893d 704a 48be d82e 8f3b
00000080: 4d06 31bc cfa3 e3bc e032 19bd 026f 89bd
00000090: 8cb9 6f3d 34c9 1cbe 10a0 babd cc17 1a3e
000000a0: 0dfb 4ebe 595a c2bd 18e7 eebd ac1f b5bd
000000b0: 9ad5 94bd bbc7 d3bd 20e3 703e 6f78 62be
000000c0: 6e17 2bbe 55ee 693e 0286 0a3d f44c 313e
000000d0: 2366 b83d 2836 933d 1a35 f73d 0f2b 2bbe
000000e0: 0c26 1ebe 07d4 023e 6dc3 1b3e e9f6 8fbc
000000f0: c3f2 a33d 7754 dfbd d1b9 31be d861 9abd
00000100: 6752 e0bd cd1b 40bd a60f 73bb 7ff2 c63c
00000110: ebd7 42bd 4ec5 29be 6605 023e 1fa5 8f3d
00000120: 291f f63c 3177 383d 5fe8 923d 34ed cb3c
00000130: 8bc4 0bbe 8539 b83d 79ef 103e 0202 d7bd
00000140: f67d 65be 59a9 c5bd 0d77 67bd 106b afbd
00000150: 3ecb 81bd 39df 30be cde8 0e3e 9001 f8bd
00000160: cee8 c3bd 01e6 ce3e a03b c2bd 4f26 db3c
00000170: 7079 d53c 113e b1bb b73a 223c a287 06be
00000180: a0ae 393d a3ee 7abc 702a 66bd 4fe1 943e
00000190: 9e46 4fbd a61c 863d fab6 a63d 0153 dd3d
000001a0: 44f8 d23d c155 ecbd 25a8 e4bd 225d 223d
000001b0: 96ce c43d c0b9 b73d db74 373e c51a 133e
000001c0: 6086 bb3d 5c94 8e3d be5e 9c3d f120 983d
000001d0: 8feb 24be 24ba 343e ecc2 0c3e 3ca7 d6be
000001e0: 5027 2a3d 1988 a1bd b1a0 f1bb da6b 9a3b
000001f0: e404 23bc 9e2c 453c d70a 233d 51ca 41bd
00000200: ed66 8dbd 487f 99bd 0d9b 1e3d 6fbf e03c
00000210: e4d4 b13d de3d 7abc 1ea3 1d3d 1a5b 623d
00000220: 52f2 47bd 83a9 453c c73e a73d b6b4 45be
00000230: b4f4 26be 9c5a e13c 780a 813d 0281 893d
00000240: 091c 793c 0efc 11be ca28 293e b73e 1cbe
00000250: 2794 11be d1d2 d83e d6f0 ac3e cc3f 3ebd
00000260: 95b8 dfbd 4f4f f1bd 1f43 b2bd 9c1e a93d
00000270: 2bb6 87be 49e1 223e 88f7 173e 0b65 d0be
00000280: 623e e3bd 396b 3a3d c26e 703d 6ce0 7a3d
00000290: 534e a73d 0111 aebd 6885 713d c124 cfbd
000002a0: 0701 c2bd 62ff 323d a165 c73e 6204 7e3d
000002b0: 1bff d43d fae3 1c3d 5b3b d93d 201b bb3d
000002c0: cb18 28be f797 163e 61bb 203e 564b d4be
000002d0: c486 49be 1a7c 0fbe dcc1 46be 16ff d5bd
000002e0: a2dd 06be 5754 e1bb bc0a 673d e474 f8bd
000002f0: d700 0dbe 58ec dc3e 1818 703e 411f 85bc
00000300: f248 9dbc 632c 7cbd 1fcf 91bd 4fc0 82bd
00000310: 40b2 fc3a b568 4b3d f12c e33c b0d7 33be
00000320: 7990 dc3d 1b94 fb3c 3609 2a3d 60e4 b4bb
00000330: ccc8 153d e899 a43d 532d c6bd a625 983d
00000340: cb11 743d 3d6e a73c 2689 f4bd d2bb f9bc
00000350: a307 7d3c 55a3 16bd 1717 6c3d 6f36 05bd
00000360: 19ef cdbd 4319 153c bd53 a63d 2447 b0bd
00000370: 27bb 5cbe f65c 79bd aff3 81bd 9cec 863c
00000380: 358d 95bc b4a5 803c fa94 db3d df1b 0ebe
00000390: 12d9 fdbd 626b 8b3e 96e5 e9bc 3581 2d3d
000003a0: e03e 683c 40c0 743d 5815 cebc e2a6 68bc
000003b0: 3afe 463d 8b09 d63c 7117 0e3d bc02 b23e
000003c0: 4b08 c8bb 92c4 9f3d db76 bcbc 8ccb 64bc
000003d0: 51f7 fabc f40c 22be 4a05 143d 0bb2 1f3d
000003e0: f2c4 6f3d 558b f83d 4e66 15be 9d69 dd3c
000003f0: 79d1 c13d 079e 703d 3eb2 7a3c b7d2 18be

weight_hh_l0 f4 [250, 250]
0.061950732 0.010085514 -0.16914864 0.053975858 -0.005102119 -0.044559274 0.021276746 0.013442682
-0.08884569 -0.12036211 -0.053252827 -0.04702781 0.09272185 0.046540983 -0.2485703 0.19658506
0.018296326 -0.03089769 0.0246029 0.02686491 0.0053982507 0.07553938 0.06239839 -0.13918275
0.08302501 -0.032202333 -0.019827569 0.035736755 0.06012622 -0.11532203 0.10986642 0.12884305
-0.12404511 -0.10309832 0.031663574 0.17460904 0.04002821 -0.11660152 -0.025527634 0.04098827
-0.022730032 0.15729803 0.042658646 -0.14291021 -0.12760192 0.06303426 -0.07249711 -0.097879216
0.10517278 -0.044676986 0.06138014 0.009784241 -0.05024658 -0.104028374 0.08817785 0.12480938
0.06588347 0.059976712 0.04247409 0.08446192 0.0120004825 0.072223194 -0.18273032 -0.04054542
-0.103443064 -0.07664473 -0.005443275 0.03370795 -0.06059601 0.017846067 -0.07073485 -0.13071759
0.1041905 -0.010975423 -0.013658727 0.06377083 -0.019578122 0.07853958 -0.049550217 0.056908563
-0.16048841 0.093010806 -0.10247234 -0.02089784 -0.016477793 -0.0597995 -0.056100138 -0.005739543
0.016094776 -0.058675863 -0.02175759 0.021853542 -0.010720463 0.0841806 0.068816364 -0.014183521
0.076940976 -0.013821679 -0.038549136 0.030250806 -0.11903308 -0.069735125 0.0073953816 -0.15026739
0.08150755 0.109936915 0.031552386 -0.02452662 0.103371106 -0.029758025 0.06328501 -0.0067673014
-0.1166638 0.10844047 0.030338911 -0.013420256 0.036389396 0.053723007 0.092241175 0.011939177
-0.062015563 -0.038312703 -0.046947975 -0.10543973 -0.00968494 -0.06214571 -0.0008927419 -0.13071658
0.09307363 -0.07549177 -0.044167545 -0.017588988 0.037339445 -0.054319367 0.06922853 0.0456439
0.057282947 0.09502501 -0.11955499 0.049528662 0.047173332 0.114228204 0.0012127543 -0.14441352
-0.07310358 0.047320474 -0.05631859 -0.10588188 -0.08300977 0.1283083 0.010967073 0.0063065793
0.079323314 0.014423956 -0.09881581 -0.031816524 -0.10108855 -0.067699686 -0.06815583 -0.10461396
-0.15970436 0.077111945 -0.11536193 0.1841342 -0.18395881 -0.0889058 -0.09074834 0.009911203
0.037485607 0.016356148 0.035544988 -0.11222719 -0.006343264 0.09335334 0.06057037 0.17324333
-0.01318552 -0.0915181 0.079489864 0.20118782 0.21758412 -0.116347864 0.047761243 0.012432595
0.16683187 -0.091773674 0.1134533 0.07666701 -0.06650138 -0.033664837 -0.07622314 -0.040814225
0.10998994 -0.021613743 -0.08304326 -0.004681667 0.0052847974 -0.13054268 -0.006592929 -0.15509227
0.028007243 0.01044719 -0.19102557 -0.012965234 0.1503234 -0.08863772 0.018785475 0.08598635
0.045024972 -0.1417194 -0.019539481 0.09827538 -0.010016552 -0.056834575 0.06343604 0.11499927
-0.018898686 -0.17383079 0.079506025 -0.01961529 -0.2208945 0.10617943 -0.00077155774 -0.22569817
-0.026429545 -0.19290133 -0.0615932 0.013802455 0.06831042 -0.14455968 -0.08896203 0.09548796
-0.042500865 -0.08098415 -0.086119495 0.103868686 0.0387058 -0.06640797 0.09984156 0.1229969
-0.021315811 -0.044788305 0.039198004 0.030234575 -0.03306612 -0.072843984 -0.083622955 -0.06729807
0.00431271 -0.006765393 -0.050512753 -0.060465347 0.19568203 -0.14819407 -0.16476911 -0.16405068
00000000: 0dc0 7d3d b63d 253c 4d35 2dbe ca15 5d3d
00000010: ad2f a7bb c983 36bd 924c ae3c b23e 5c3c
00000020: bbf4 b5bd 6980 f6bd a31f 5abd 3ca0 40bd
00000030: f4e4 bd3d c2a1 3e3d 3689 7ebe 984d 493e
00000040: 2de2 953c 271d fdbc 058c c93c cd13 dc3c
00000050: cfe3 b03b 64b4 9a3d 7495 7f3d ec85 0ebe
00000060: 0409 aa3d 98e6 03bd 6d6d a2bc b460 123d
00000070: e946 763d f52d ecbd a501 e13d 6fef 033e
00000080: 5d0b febd 3625 d3bd aab1 013d b6cc 323e
00000090: 9ff4 233d c7cc eebd 541f d1bc 51e3 273d
000000a0: 5534 babc bc12 213e d5ba 2e3d 0e57 12be
000000b0: 14aa 02be 1b18 813d 5d79 94bd e674 c8bd
000000c0: d464 d73d 37ff 36bd be69 7b3d 154e 203c
000000d0: 5ccf 4dbd d40c d5bd 9796 b43d 0f9c ff3d
000000e0: eaed 863d 24aa 753d 50f9 2d3d 5ffa ac3d
000000f0: ac9d 443c c1e9 933d a81d 3bbe f412 26bd
00000100: f5d9 d3bd eaf7 9cbd 805d b2bb 5911 0a3d
00000110: 8633 78bd ea31 923c 6fdd 90bd d5da 05be
00000120: d461 d53d 43d2 33bc dac8 5fbc 489a 823d
00000130: 4c62 a0bc 5cd9 a03d 2bf5 4abd f418 693d
00000140: 1357 24be 737c be3d 05dd d1bd f231 abbc
00000150: 70fc 86bc 52f0 74bd 42c9 65bd c712 bcbb
00000160: 31d9 833c 1a56 70bd f93c b2bc 3306 b33c
00000170: e1a4 2fbc e166 ac3d 98ef 8c3d 0062 68bc
00000180: 3b93 9d3d 5374 62bc b3e5 1dbd 8ad0 f73c
00000190: 9ec7 f3bd 4ad1 8ebd f554 f23b b2df 19be
000001a0: 6eed a63d 9b26 e13d 133d 013d 0dec c8bc
000001b0: 3bb4 d33d 1ac7 f3bc 929b 813d 3dc0 ddbb
000001c0: 6eed eebd 0a16 de3d 4f89 f83c a2e0 5bbc
000001d0: 0c0d 153d a80c 5c3d f1e8 bc3d 8a9c 433c
000001e0: 0804 7ebd c8ed 1cbd 854c 40bd c9f0 d7bd
000001f0: 95ad 1ebc 808c 7ebd e506 6aba 91da 05be
00000200: 639d be3d 6e9b 9abd 07e9 34bd c816 90bc
00000210: 3ff1 183d fc7d 5ebd b0c7 8d3d 19f5 3a3d
00000220: 86a1 6a3d 799c c23d 3fd9 f4bd 91de 4a3d
00000230: d338 413d 7af0 e93d 48f5 9e3a 23e1 13be
00000240: 54b7 95bd 1dd3 413d 52ae 66bd 99d8 d8bd
00000250: 0701 aabd 4063 033e 3daf 333c 6ca7 ce3b
00000260: 4374 a23d 7552 6c3c f25f cabd 0b52 02bd
00000270: 8407 cfbd 22a6 8abd 4995 8bbd d83f d6bd
00000280: 8a89 23be deec 9d3d e042 ecbd ad8d 3c3e
00000290: b35f 3cbe 3e14 b6bd 44da b9bd 9962 223c
000002a0: 828a 193d 54fd 853c 9f97 113d 5ed7 e5bd
000002b0: 28db cfbb 0930 bf3d a318 783d b366 313e
000002c0: 1408 58bc d76d bbbd 95cb a23d 2e04 4e3e
000002d0: 5fce 5e3e ca47 eebd 4ba1 433d 15b2 4b3c
000002e0: f9d5 2a3e d6f3 bbbd 345a e83d 9803 9d3d
000002f0: e031 88bd 24e4 09bd e11a 9cbd d12c 27bd
00000300: 6842 e13d 4e0f b1bc 9612 aabd ab68 99bb
00000310: 182c ad3b fbac 05be 7f09 d8bb 82d0 1ebe
00000320: 726f e53c b12a 2b3c 359c 43be 226c 54bc
00000330: 61ee 193e b187 b5bd ffe3 993c 9d19 b03d
00000340: 1b6c 383d e41e 11be 4311 a0bc 9a44 c93d
00000350: 771c 24bc 5fcb 68bd c1ea 813d bd84 eb3d
00000360: 6bd1 9abc b300 32be 0ed4 a23d 3fb0 a0bc
00000370: 2b32 62be 9a74 d93d 5d42 4aba 6c1d 67be
00000380: c682 d8bc ed87 45be 2749 7cbd b123 623c
00000390: 55e6 8b3d 7407 14be ba31 b6bd 318f c33d
000003a0: 6315 2ebd 05db a5bd 6b5f b0bd 1bb9 d43d
000003b0: f989 1e3d e700 88bd bb79 cc3d cce5 fb3d
000003c0: 7f9e aebc f173 37bd 168e 203d 80ae f73c
000003d0: 5770 07bd 3a2f 95bd 8342 abbd 92d3 89bd
000003e0: a251 8d3b 3bb0 ddbb 76e6 4ebd 83aa 77bd
000003f0: df60 483e 30c0 17be 3cb9 28be e7fc 27be

bias_ih_l0 f4 [250]
-0.061116427 -0.0049582017 0.0371097 0.12407723 0.1375841 -0.040370405 0.045268238 -0.19705431
0.18515913 0.08314011 -0.07145452 -0.15123343 0.109887406 0.008032437 0.12981382 -0.19013451
0.120154664 -0.18979064 0.10817131 0.006553068 -0.03794423 -0.07750935 0.17580955 0.06038129
0.056046918 0.121872045 -0.005255386 -0.058531474 -0.17016654 -0.008742361 -0.09037932 0.10988049
0.022509323 -0.021619404 -0.023427207 -0.12067284 -0.0018989326 -0.044520136 0.05510621 0.08662958
-0.0024756894 0.19072358 0.008834703 0.20480876 -0.07079967 -0.1707167 0.12085617 0.0011803588
0.113821045 -0.17645779 -0.23916642 0.06733043 0.14718328 -0.042384695 0.15353507 0.028890701
-0.12112331 -0.07706938 -0.20046413 0.06927045 -0.087055035 0.060920946 0.10808447 -0.075574964
0.15323085 0.039516635 0.053713452 0.0020258871 -0.21183862 0.16043356 -0.004767329 0.2670518
0.12439286 0.0997434 0.085287966 0.1232343 0.08817468 -0.14388724 0.12637846 -0.061795082
-0.019506367 -0.06339822 0.15878138 -0.0069419197 0.0758265 -0.03357079 -0.018087432 -0.048950274
-0.065998435 0.0024555621 -0.032336786 -0.08753271 -0.17059018 -0.028357444 -0.16363432 -0.07081639
0.029481273 0.15146032 -0.1706396 -0.055015612 -0.005156863 -0.044023156 0.09017906 -0.0673847
-0.11274681 -0.013553703 0.057644267 0.1732971 -0.030534144 0.04637061 -0.16179109 0.0672946
0.052196603 0.044637017 0.019875998 -0.0006914298 0.061501756 0.17652282 -0.09285206 0.0013790122
0.0987427 -0.15537627 -0.024588004 0.17219678 0.079659946 0.013297385 0.12633428 -0.15598612
0.21426964 -0.060327183 -0.043204147 0.00078576116 0.04665759 -0.05283554 0.08032564 -0.1685856
-0.09639119 0.2563434 -0.049944166 0.08199695 -0.07827974 0.004962005 -0.027064612 0.10852078
-0.029111063 -0.018622303 -0.08657083 0.051782586 -0.015371803 -0.227483 0.022091335 -0.14677384
0.08041509 -0.101762995 0.033262983 -0.064841494 -0.0008167472 0.10364595 0.11005355 -0.110253215
0.026970744 -0.060531743 -0.11212894 -0.19415341 0.27631813 0.1573815 -0.1034067 -0.23429668
-0.10412067 -0.073138356 -0.123906754 0.13106863 0.19671763 0.025367573 0.12483337 -0.04506711
-0.17058328 -0.094292864 -0.05093774 -0.08435024 -0.14395504 0.101608574 -0.037572026 0.034086883
-0.06460755 0.07098093 0.2381199 -0.14785706 -0.06262982 0.011134905 -0.11939719 0.19612801
0.06530064 -0.10629777 -0.088141635 0.18669295 0.02562492 0.14097509 0.036796194 -0.018819496
-0.08966792 -0.03691931 0.17816778 -0.05811828 -0.28449112 0.08679791 0.11142597 -0.079269685
0.0154517125 0.053763434 0.004625943 -0.14513634 0.050698012 0.13168989 0.044292912 -0.10297529
0.113801934 0.10243109 -0.007017252 -0.2697674 0.22335489 -0.016665732 0.04748471 0.26016283
-0.1384032 0.066460796 0.08232284 0.04122139 -0.06950323 0.16746007 -0.10609307 -0.046817392
-0.04949131 -0.17440024 0.24057642 0.12603255 -0.09540721 -0.17563955 -0.019206088 0.14319313
-0.20369539 0.14209913 -0.1273406 -0.057704 -0.13577965 -0.083615094 -0.019618934 -0.13044786
0.106375694 0.09286907
00000000: 3855 7abd 6978 a2bb 5700 183d 341c fe3d
00000010: d9e2 0c3e 705b 25bd 306b 393d 9bc8 49be
00000020: 5b9a 3d3e 5d45 aa3d bf56 92bd f0dc 1abe
00000030: a60c e13d 7c9a 033c eaed 043e 9fb2 42be
00000040: a613 f63d 7a58 42be eb88 dd3d 1ebb d63b
00000050: 696b 1bbd 39bd 9ebd 6b07 343e 5f52 773d
00000060: 7491 653d 0d98 f93d 5f35 acbb b3be 6fbd
00000070: 2340 2ebe 1f3c 0fbc cb18 b9bd 0609 e13d
00000080: 7965 b83c 2d1b b1bc 6aea bfbc 5223 f7bd
00000090: 9be5 f8ba bf5a 36bd 0db7 613d d96a b13d
000000a0: 2d3f 22bb 0b4d 433e 6ebf 103c 63b9 513e
000000b0: 6bff 90bd 5cd0 2ebe 7183 f73d 45b6 9a3a
000000c0: 021b e93d 5ab1 34be 0be8 74be 89e4 893d
000000d0: 37b7 163e 939b 2dbd 4c38 1d3e 31ac ec3c
000000e0: 7f0f f8bd 8dd6 9dbd 7846 4dbe aadd 8d3d
000000f0: e949 b2bd 3e88 793d 645b dd3d 0cc7 9abd
00000100: 8ce8 1c3e 32dc 213d a302 5c3d bfc4 043b
00000110: 39ec 58be b248 243e 4137 9cbb 03bb 883e
00000120: afc1 fe3d 4546 cc3d 75ab ae3d 4462 fc3d
00000130: ed94 b43d 2d57 13be 5b69 013e d71c 7dbd
00000140: d1cb 9fbc edd6 81bd 9697 223e 0b79 e3bb
00000150: ed4a 9b3d 8681 09bd 182c 94bc 1580 48bd
00000160: 302a 87bd 7fed 203b 9473 04bd 5944 b3bd
00000170: 31af 2ebe df4d e8bc c18f 27be 2f08 91bd
00000180: b682 f13c 6a18 1b3e 26bc 2ebe 0d58 61bd
00000190: e7fa a8bb a051 34bd cdaf b83d fd00 8abd
000001a0: cde7 e6bd 5a10 5ebc 651c 6c3d cc74 313e
000001b0: be22 fabc 1cef 3d3d 90ac 25be c0d1 893d
000001c0: 1bcc 553d 4ed5 363d fdd2 a23c 1241 35ba
000001d0: 44e9 7b3d 66c2 343e 3929 bebd f9bf b43a
000001e0: 9d39 ca3d f51a 1fbe c86c c9bc 5a54 303e
000001f0: c124 a33d 46dd 593c c65d 013e d3ba 1fbe
00000200: 8069 5b3e a319 77bd d5f6 30bd 8afb 4d3a
00000210: 071c 3f3d 146a 58bd c581 a43d b4a1 2cbe
00000220: bf68 c5bd 713f 833e 4192 4cbd 04ee a73d
00000230: 2151 a0bd 5198 a23b 9bb6 ddbc 2540 de3d
00000240: 537a eebc cd8d 98bc 0c4c b1bd fa19 543d
00000250: 04da 7bbc 4ef1 68be e3f8 b43c e24b 16be
00000260: abb0 a43d 1e69 d0bd c43e 083d 9ecb 84bd
00000270: fa1a 56ba 5444 d43d c163 e13d 70cc e1bd
00000280: c0f1 dc3c 22f0 77bd dca3 e5bd 27d0 46be
00000290: 9279 8d3e 9e28 213e e4c6 d3bd 78eb 6fbe
000002a0: 383d d5bd 90c9 95bd d3c2 fdbd db36 063e
000002b0: 5970 493e a8cf cf3c a3a8 ff3d 4a98 38bd
000002c0: 62ad 2ebe 9e1c c1bd 17a4 50bd d2bf acbd
000002d0: f368 13be 2818 d03d 20e5 19bd b09e 0b3d
000002e0: f750 84bd 735e 913d b4d5 733e d767 17be
000002f0: 1044 80bd 2d6f 363c 8486 f4bd c8d5 483e
00000300: 58bc 853d a5b2 d9bd 9a83 b4bd 702c 3f3e
00000310: 5aeb d13c c65b 103e 9bb7 163d 582b 9abc
00000320: d0a3 b7bd b438 17bd 9d71 363e 6f0d 6ebd
00000330: d2a8 91be 1ac3 b13d 4d33 e43d 2558 a2bd
00000340: 2e29 7d3c 0c37 5c3d 3995 973b 9f9e 14be
00000350: b8a8 4f3d b7d9 063e 7c6c 353d b5e4 d2bd
00000360: fd10 e93d 64c7 d13d faf0 e5bb f41e 8abe
00000370: 25b7 643e 9386 88bc 547f 423d 1034 853e
00000380: 92b9 0dbe 991c 883d e198 a83d c3d7 283d
00000390: b657 8ebd a77a 2b3e 5347 d9bd 98c3 3fbd
000003a0: 66b7 4abd fa95 32be aa59 763e ad0e 013e
000003b0: db64 c3bd dbda 33be 1656 9dbc 38a1 123e
000003c0: 8695 50be 6f82 113e 9365 02be 085b 6cbd
000003d0: d209 0bbe 643e abbd e3b7 a0bc 2094 05be
000003e0: 80db d93d 2432 be3d

bias_hh_l0 f4 [250]
-0.12444384 -0.071174905 -0.04872715 0.10758032 0.15265726 -0.119958766 -0.036551405 -0.18161878
0.13493316 0.12264915 -0.10830027 -0.10753942 0.07629576 -0.04762935 0.19131719 -0.23236668
0.13248925 -0.17314489 0.16545792 -0.04143514 -0.078456424 -0.025839534 0.18897521 0.02627832
-0.036597066 0.12512314 0.005098441 -0.038097832 -0.16989899 -0.041037783 -0.0955578 0.05683744
0.024967372 -0.09846477 -0.0055128997 -0.1860612 -0.019426417 -0.09316191 0.04559682 0.036476437
0.030710913 0.096633054 0.07297784 0.24053232 -0.00014534396 -0.19004188 0.10939244 0.054275148
0.007199975 -0.24986592 -0.2674115 0.12699074 0.063226275 -0.075987026 0.2318797 0.020188857
-0.068498194 -0.12989612 -0.22346382 0.1011842 -0.16245376 0.08692244 0.119268075 -0.033296235
0.11058977 0.058809955 0.075158164 0.02937145 -0.16715889 0.13965829 -0.013138964 0.2035918
0.13127424 0.055892248 0.072626844 0.08640767 0.1833266 -0.13375421 0.013270496 -0.14627828
-0.06730251 -0.015257852 0.13692287 -0.017899038 0.09135813 -0.00091582607 -0.014476486 -0.058828183
-0.008043266 -0.06325779 -0.06676159 -0.10275361 -0.18609859 0.040123414 -0.19779465 -0.022783302
0.023294663 0.14744379 -0.10131538 -0.044221796 0.07043934 -0.006447138 0.017815871 -0.04349063
-0.06480873 -0.11526708 0.056223758 0.109663785 -0.052148096 0.0071313647 -0.10384878 0.107429005
0.07584618 -0.015864186 -0.047224797 0.0165221 0.13711078 0.11073281 -0.15625766 0.0014324844
0.10006735 -0.15536742 -0.06622239 0.18764122 0.15606925 0.020369295 0.10448165 -0.14447868
0.13253295 -0.08240655 -0.015345353 -0.06421073 0.092751324 -0.045811843 0.034384735 -0.24671204
-0.086549625 0.21401232 -0.024890315 0.12836061 -0.08468929 -0.024024315 -0.1077679 0.090408094
-0.012309951 0.026695205 -0.10443073 0.116581716 0.015198873 -0.20648211 0.060545016 -0.09575752
-0.013498791 -0.056670915 0.06733687 -0.0521324 0.070407994 0.06445591 0.06865145 -0.060409516
0.07768066 -0.077633664 -0.21033365 -0.14614378 0.19919027 0.18149377 -0.19888912 -0.22591098
-0.13047092 0.0051622554 -0.09137414 0.21165016 0.12317605 0.031031907 0.1473172 -0.0067601134
-0.16243859 -0.08314243 -0.028474912 -0.12121635 -0.18202041 0.043520838 -0.0612366 0.03592151
-0.084083684 0.08972151 0.21430136 -0.069049574 -0.018562555 -0.040930394 -0.13678335 0.13525623
0.110177204 -0.10089528 -0.058690418 0.18310687 -0.010847869 0.15652052 0.12999725 0.05203372
-0.11689651 -0.026282711 0.22153488 0.054493163 -0.2609836 0.09919561 0.09753635 -0.1468229
0.081926085 0.047865 0.048119783 -0.18715973 0.10866284 0.14622137 0.019443838 -0.09689797
0.036760405 0.12306214 -0.027184516 -0.19776213 0.11944825 -0.008064641 0.05625804 0.17062321
-0.13071124 0.07771911 0.060153812 0.07119763 -0.13201907 0.2097455 -0.10161967 -0.061234865
-0.065813184 -0.17397596 0.18072449 0.14833713 -0.11960429 -0.21068536 -0.015883163 0.09894293
-0.21942908 0.12465564 -0.1343163 0.030399736 -0.113011174 -0.07842423 -0.08667165 -0.14095694
0.05434863 0.08950258
00000000: 69dc febd 26c4 91bd 1f96 47bd 1253 dc3d
00000010: 2f52 1c3e f1ac f5bd edb6 15bd 46fa 39be
00000020: eb2b 0a3e 7a2f fb3d 88cc ddbd a13d dcbd
00000030: f440 9c3d fe16 43bd a7e8 433e 88f1 6dbe
00000040: 43ab 073e e54c 31be cd6d 293e e5b7 29bd
00000050: c3ad a0bd 6ead d3bc b882 413e a245 d73c
00000060: cee6 15bd 4820 003e d310 a73b 790c 1cbd
00000070: 00fa 2dbe 3c17 28bd cfb3 c3bd 60ce 683d
00000080: 6088 cc3c e6a7 c9bd 8ea5 b4bb d486 3ebe
00000090: 2624 9fbc accb bebd bbc3 3a3d 5168 153d
000000a0: 7495 fb3c 8de7 c53d 6875 953d 1b4e 763e
000000b0: 7967 18b9 579a 42be 2509 e03d 9e4f 5e3d
000000c0: c5ed eb3b dadc 7fbe 29ea 88be dc09 023e
000000d0: c77c 813d 169f 9bbd df71 6d3e 1a63 a53c
000000e0: c848 8cbd 7d03 05be b3d3 64be a939 cf3d
000000f0: 475a 26be 6404 b23d d242 f43d a261 08bd
00000100: e47c e23d b5e2 703d 86ec 993d 659c f03c
00000110: b32b 2bbe 9502 0f3e cf44 57bc 5e7a 503e
00000120: c16c 063e 45ef 643d 62bd 943d 81f6 b03d
00000130: f8b9 3b3e ddf6 08be 7f6c 593c f9c9 15be
00000140: e6d5 89bd 12fc 79bc 8235 0c3e 01a1 92bc
00000150: f919 bb3d 0c14 70ba c82e 6dbc d2f5 70bd
00000160: e7c7 03bc 4d8d 81bd 4dba 88bd 7c70 d2bd
00000170: a190 3ebe 7358 243d ae8a 4abe 0ca4 babc
00000180: 73d4 be3c 81fb 163e 707e cfbd ea21 35bd
00000190: 8042 903d 8342 d3bb 97f2 913c 3b23 32bd
000001a0: 70ba 84bd 2611 ecbd e24a 663d 6897 e03d
000001b0: 3e99 55bd 39ae e93b abae d4bd bd03 dc3d
000001c0: 3e55 9b3d 9cf5 81bc ca6e 41bd 5b59 873c
000001d0: c566 0c3e e2c7 e23d 0202 20be 33c2 bb3a
000001e0: 1cf0 cc3d a318 1fbe 9b9f 87bd 0525 403e
000001f0: 9ed0 1f3e 82dd a63c 7afa d53d 38f2 13be
00000200: b8b6 073e c4c4 a8bd 136b 7bbc ea80 83bd
00000210: 68f4 bd3d 33a5 3bbd 02d7 0c3d 15a2 7cbe
00000220: ee40 b1bd 0c26 5b3e c6e6 cbbc f770 033e
00000230: 9471 adbd a4ce c4bc 6bb5 dcbd e127 b93d
00000240: adaf 49bc e7af da3c c7df d5bd 65c2 ee3d
00000250: b204 793c 0c70 53be 0dfe 773d 851c c4bd
00000260: 082a 5dbc c31f 68bd eae7 893d c988 55bd
00000270: 1132 903d 7601 843d 2299 8c3d f86f 77bd
00000280: 0a17 9f3d 66fe 9ebd b461 57be b7a6 15be
00000290: 89f8 4b3e 81d9 393e 97a9 4bbe 3555 67be
000002a0: 2b9a 05be 2328 a93b 5d22 bbbd d2ba 583e
000002b0: ba43 fc3d a036 fe3c 52da 163e f183 ddbb
000002c0: 4d56 26be 9446 aabd 3844 e9bc 4740 f8bd
000002d0: 8f63 3abe e842 323d 3bd3 7abd 6f22 133d
000002e0: 1134 acbd e9bf b73d d171 5b3e dd69 8dbd
000002f0: 8010 98bc a1a6 27bd ef10 0cbe 9c80 0a3e
00000300: 96a4 e13d 2fa2 cebd 5d65 70bd 5e80 3b3e
00000310: 43bb 31bc ea46 203e 001e 053e 4f21 553d
00000320: 7067 efbd d74e d7bc 0ada 623e 3934 5f3d
00000330: a49f 85be 1127 cb3d 23c1 c73d be58 16be
00000340: ddc8 a73d 170e 443d 4019 453d cda6 3fbe
00000350: a08a de3d 0ebb 153e af48 9f3c 7172 c6bd
00000360: 1492 163d 0108 fc3d 10b2 debc 2882 4abe
00000370: 49a1 f43d 8e21 04bc d56e 663d dab7 2e3e
00000380: 2bd9 05be 322b 9f3d d863 763d 10d0 913d
00000390: 0230 07be 86c7 563e f91d d0bd 69d1 7abd
000003a0: 10c9 86bd c126 32be d70f 393e b0e5 173e
000003b0: 18f3 f4bd e7bd 57be 681d 82bc 97a2 ca3d
000003c0: 04b2 60be 754b ff3d 368a 09be de08 f93c
000003d0: 6772 e7bd e29c a0bd e880 b1bd 0457 10be
000003e0: ab9c 5e3d 214d b73d

weight f4 [1, 250]
-0.07920974 -0.090126954 0.048159085 0.008621702 0.025940254 0.06300943 -0.010791241 0.021707406
0.03361984 0.047945403 0.09828934 -0.06569367 -0.052906517 -0.03756795 0.11990339 -0.124407835
0.025352366 -0.053585216 0.05234436 -0.012101249 0.017416662 -0.109682456 0.033379763 0.049133524
0.032364745 0.019353475 -0.018517377 -0.027243992 -0.1134482 0.040289868 -0.03403201 -0.06871698
0.069319956 -0.022744639 -0.05958519 -0.11109476 -0.023338541 0.06371862 -0.040354673 -0.013273261
-0.00076489826 0.0052412157 -0.0819328 0.101404294 0.06456794 -0.041969065 0.054877266 0.009642801
-0.030299982 -0.033291116 -0.028117018 0.02501341 0.01246417 0.10200155 0.051658496 -0.035516713
-0.04293809 -0.06833943 -0.0790239 -0.031315055 -0.045543425 -0.0255614 0.059026465 -0.009375834
0.09019231 -0.031825885 0.02135206 -0.018850163 -0.038555622 0.018014634 0.02099674 0.09902182
0.044781145 -0.0027717561 0.024471113 0.013245995 0.018382967 -0.016198624 0.014108634 -0.107796445
-0.022483159 0.019333895 0.09638272 -0.03341215 0.020077828 -0.037789296 0.04233452 -0.03698406
0.022387419 0.047050525 -0.0040168595 -0.019005978 -0.02277449 -0.029824015 -0.04386036 -0.016179733
-0.0027733198 0.14078425 -0.046724167 -0.00390899 0.08147709 0.088724226 -0.023180107 -0.025383491
-0.044811476 -0.031354997 -0.018459782 0.021596137 -0.06114965 -0.013015908 -0.05380776 0.042097304
0.052721504 -0.013458409 0.030674974 0.023908364 -0.04160129 -0.047252696 -0.1310359 0.029539807
0.03485907 -0.048927777 0.050438613 0.059565675 0.04882772 -0.01665351 0.06858974 0.06436743
0.06494294 0.027488891 -0.007297116 0.06181944 0.012064579 -0.007161474 -0.07207072 -0.045120645
-0.04669461 0.0078013786 0.02105191 -0.060385585 -0.0800224 -0.026692951 -0.029460168 0.08180001
0.060359817 0.002859821 -0.029586086 0.084373884 -0.02289227 -0.09745887 0.06405784 -0.04104021
-0.060197216 0.011184387 0.03454856 -0.019385846 0.04337231 0.0526038 0.026402023 0.055048775
0.03251826 -0.035440516 -0.021726076 -0.06689984 0.11919758 0.055909403 -0.014872118 -0.019065851
0.07083102 -0.016203212 -0.012152181 0.092648335 0.09491784 -0.041004945 0.016992027 -0.033628184
-0.03231066 -0.043052316 -0.023885053 -0.07111532 -0.07584007 0.02543075 -0.04922365 -0.035023417
-0.06757518 -0.008293444 -0.012760347 -0.039339177 -0.015255142 -0.06710965 0.07935997 0.09629202
-0.029272215 0.0021614844 -0.0155016165 0.10387659 -0.03286907 0.12010985 0.026748367 0.07119309
-0.013123013 -0.038408965 0.08017271 0.06924471 -0.044718947 0.014683996 0.026968943 -0.05588313
0.075629205 0.074979305 -0.0625949 -0.04364365 0.025668606 0.06475251 -0.07637246 -0.052892003
0.03034374 0.09018012 0.009497385 -0.01309022 0.13198404 -0.039887145 0.06607483 0.12783855
-0.05270091 0.02903275 0.0071824193 0.041725364 -0.033859987 0.114243396 0.076074965 -0.017975189
-0.06758202 0.026660776 0.13768052 -0.093147896 -0.061804082 0.05839101 -0.0489124 -0.067402996
-0.031992003 0.033063605 -0.036772743 -0.045694407 0.07215576 0.06608367 -0.073951714 -0.024291804
0.035875037 0.01902647
00000000: b738 a2bd 7b94 b8bd 7642 453d 0a42 0d3c
00000010: a880 d43c 170b 813d bfcd 30bc bbd3 b13c
00000020: f5b4 093d 6662 443d ec4b c93d 678a 86bd
00000030: 81b4 58bd dae0 19bd e98f f53d 89c9 febd
00000040: c4af cf3c 2c7c 5bbd 0a67 563d 5144 46bc
00000050: 63ad 8e3c 32a1 e0bd 38b9 083d 3c40 493d
00000060: e590 043d 2e8b 9e3c c1b1 97bc cb2e dfbc
00000070: 8857 e8bd fd06 253d 2665 0bbd 7dbb 8cbd
00000080: 9ff7 8d3d f752 babc 9a0f 74bd a685 e3bd
00000090: 7830 bfbc e87e 823d f14a 25bd 1778 59bc
000000a0: 7483 48ba 81be ab3b 62cc a7bd 0ead cf3d
000000b0: 323c 843d c1e7 2bbd fcc6 603d d7fc 1d3c
000000c0: ab37 f8bc 445c 08bd a955 e6bc ece8 cc3c
000000d0: 8536 4c3c 30e6 d03d dc97 533d f979 11bd
000000e0: dadf 2fbd 8bf5 8bbd 48d7 a1bd 3744 00bd
000000f0: be8b 3abd 2466 d1bc bcc5 713d 199d 19bc
00000100: bfb6 b83d dc5b 02bd 84ea ae3c a86b 9abc
00000110: 80ec 1dbd 6d93 933c 5b01 ac3c f4cb ca3d
00000120: 6f6c 373d 5aa6 35bb a577 c83c bb05 593c
00000130: e097 963c fab2 84bc e627 673c 62c4 dcbd
00000140: 9a2e b8bc 1e62 9e3c 4e64 c53d 2edb 08bd
00000150: 427a a43c f3c8 1abd f666 2d3d 997c 17bd
00000160: d265 b73c 0db8 403d dc9f 83bb 6db2 9bbc
00000170: 9191 babc 7e51 f4bc eca6 33bd 5c8b 84bc
00000180: 96c0 35bb bf29 103e d761 3fbd fc16 80bb
00000190: 76dd a63d 0cb5 b53d 35e4 bdbc 0af1 cfbc
000001a0: 3d8c 37bd 196e 00bd f838 97bc 62ea b03c
000001b0: 0e78 7abd ad40 55bc 8765 5cbd 396e 2c3d
000001c0: 81f2 573d a980 5cbc 154a fb3c 79db c33c
000001d0: 1d66 2abd 0b8c 41bd 462e 06be 77fd f13c
000001e0: 62c8 0e3d 7e68 48bd b898 4e3d 23fb 733d
000001f0: 93ff 473d f16c 88bc c778 8c3d 12d3 833d
00000200: ce00 853d 6230 e13c a51c efbb 6236 7d3d
00000210: 83aa 453c ccaa eabb d099 93bd 6dd0 38bd
00000220: d942 3fbd b5a2 ff3b 0e75 ac3c e056 77bd
00000230: c9e2 a3bd 2dab dabc 7356 f1bc c386 a73d
00000240: db3b 773d d66b 3b3b 855e f2bc 37cc ac3d
00000250: 9288 bbbc 8498 c7bd c230 833d c719 28bd
00000260: 5b91 76bd b83e 373c ca82 0d3d 11cf 9ebc
00000270: 2aa7 313d 1577 573d 0e49 d83c d37a 613d
00000280: de31 053d 132a 11bd e2fa b1bc c902 89bd
00000290: dc1d f43d 4201 653d 2faa 73bc fd2f 9cbc
000002a0: db0f 913d 99bc 84bc f119 47bc 69be bd3d
000002b0: 4964 c23d cdf4 27bd dd32 8b3c b5bd 09bd
000002c0: 2f58 04bd a057 30bd 96aa c3bc e9a4 91bd
000002d0: 0a52 9bbd 2654 d03c bd9e 49bd b774 0fbd
000002e0: db64 8abd 3ae1 07bc c610 51bc 1e22 21bd
000002f0: b4f0 79bc c970 89bd 7b87 a23d c034 c53d
00000300: 49cc efbc b1a7 0d3b 7efa 7dbc 40bd d43d
00000310: b8a1 06bd 27fc f53d 641f db3c afcd 913d
00000320: e801 57bc b852 1dbd 9731 a43d 2cd0 8d3d
00000330: 372b 37bd 2595 703c f9ed dc3c b5e5 64bd
00000340: 7ce3 9a3d c08e 993d c131 80bd afc3 32bd
00000350: f846 d23c f79c 843d 2a69 9cbd 49a5 58bd
00000360: 6f93 f83c 5bb0 b83d eb9a 1b3c 5d78 56bc
00000370: d326 073e b460 23bd 3e52 873d 1ce8 023e
00000380: e9dc 57bd 17d6 ed3c 805a eb3b 37e8 2a3d
00000390: c5b0 0abd 71f8 e93d 31cd 9b3d b440 93bc
000003a0: 7168 8abd b367 da3c 1ffc 0c3e 53c4 bebd
000003b0: 4726 7dbd 692b 6f3d 5e58 48bd 950a 8abd
000003c0: 0c0a 03bd b46d 073d 049f 16bd 0f2a 3bbd
000003d0: 66c6 933d e056 873d ff73 97bd 9bff c6bc
000003e0: b4f1 123d 66dd 9b3c
