model/RNN-000665.pth (torch, 266199 bytes, 5 tensors)

weight_ih_l0 f4 [250, 10]
000000 4e 87 82 be 1d 8b 89 be d1 b3 a9 be a0 fa 7b be
       -0.25493854 -0.26863948 -0.33145002 -0.24607325
000010 74 8a 9e be 01 8f 50 bd 5a 62 3f 3d 8b 5a 57 bd
       -0.30965006 -0.05091763 0.046724655 -0.052576583
000020 71 de 15 be a7 cb 59 3e 76 32 90 3b f3 09 19 3e
       -0.14635636 0.21269093 0.0044005467 0.14945202
000030 dd 43 9b 3d 1e 3e 10 3e cc a6 09 3e bd 59 e8 3c
       0.07581303 0.14086196 0.13442534 0.028363103
000040 17 95 4e bd 75 71 e8 3d 6e 41 1c 3d 93 09 f4 3d
       -0.050435152 0.11349765 0.038148336 0.11915889
000050 36 de 7e be 5b a2 8c be 7b 93 53 be df 6a 95 be
       -0.24889454 -0.27467617 -0.20661728 -0.291831
000060 be 2f 6f be 1e a0 9e bd 3b 10 19 3e 3e 3e e8 bd
       -0.23358056 -0.07745384 0.14947598 -0.11339997
000070 a3 fd 06 be 20 0c 5f 3e ea c4 a2 3c 62 6d 4f be
       -0.13182692 0.21781969 0.019869287 -0.2025657
000080 a1 48 93 be 9d 5d 76 be e6 80 84 be c8 6b 84 3e
       -0.2876635 -0.24059148 -0.25879592 0.2586348
000090 c9 92 7a 3e 7c 77 4f be f5 0a 8f be 47 a3 15 3e
       0.24470057 -0.20260423 -0.27938047 0.14613067
0000a0 c4 d1 59 be 3f cc 47 bd e3 a3 8b bd 17 c2 d4 bc
       -0.21271425 -0.04877877 -0.06818368 -0.025971455
0000b0 15 0d d0 bb 96 d2 81 3d 39 31 2c 3d 13 d5 fd bd
       -0.0063492157 0.06338994 0.04203913 -0.12394156
0000c0 28 4d c6 bd ce 3f 53 3e 4d a2 26 be a9 a4 10 be
       -0.09682685 0.20629808 -0.1627285 -0.14125313
0000d0 14 37 cd bd 20 0b 3a be 9b 2a 1d be c5 83 f7 bd
       -0.10020271 -0.18168306 -0.15348284 -0.1208568
0000e0 94 43 a0 3d ba 64 11 be 17 a7 05 be 1b 2b d3 3e
       0.078253895 -0.1419858 -0.13052021 0.41243824
0000f0 73 bf 8e be c2 0e b4 3b 4a bd 64 3c 7a ca f9 3c
       -0.2788044 0.0054949233 0.013961146 0.030492056
000100 97 62 bd 3d 00 7f b7 3c aa 76 05 be 3c b3 47 3e
       0.0924732 0.022399426 -0.13033548 0.19501966
000110 4c a7 53 3e 28 3e 28 be 42 20 4e be 8d fc 67 3e
       0.20669287 -0.1642996 -0.20129493 0.22654934
000120 87 c4 49 3e 11 be 83 3e e8 fd 64 3e ac 74 f3 3d
       0.19703875 0.25730947 0.22362483 0.11887488
000130 77 9f 04 be 5a 3a 2b 3e 65 29 67 3e 79 67 ca bd
       -0.12951456 0.16721478 0.22574385 -0.09883017
000140 d6 aa 4c be 3c 04 5b be 71 0a 5d be 14 c4 7c be
       -0.19987044 -0.21388334 -0.21586014 -0.24684173
000150 7d 43 15 be 22 f0 05 bd 9f ce 30 3e 4e 6a 42 be
       -0.14576526 -0.03269971 0.1726632 -0.18985865
000160 52 5a 11 be f3 0d 85 3e 5a c1 da 3d 3d 53 27 3e
       -0.1419461 0.25987205 0.1068141 0.16340347
000170 11 3e d6 3d cc 9a ef 3d 24 87 08 3e 50 85 83 bc
       0.10461057 0.11699447 0.13332802 -0.01605478
000180 cd 7b 15 be 41 15 45 3e 07 b8 51 3e e7 2f a6 be
       -0.14598008 0.19246389 0.20480357 -0.32458422
000190 d9 25 e9 bd 0b 2a 1b 3e af 8c b2 3d 9c 81 0c 3e
       -0.11384172 0.15152757 0.087182395 0.13721317
0001a0 7d 31 dc 3d 4e 2c 0d 3c 83 62 1d bd 58 39 99 3d
       0.10751627 0.00861652 -0.038424026 0.074816406
0001b0 36 a4 51 3d 42 e1 39 bb 7e 38 2b 3e ae 7a 90 3d
       0.051181994 -0.0028363024 0.16720769 0.07054649
0001c0 4e 3e 05 3e 77 db ab 3d fb 3f 77 3d 7d 8f 80 3d
       0.13012049 0.08391469 0.06036375 0.06277368
0001d0 65 9c 55 bc ad ac 37 3d 46 ca cc 3d 4d 8c cc be
       -0.013037776 0.04484241 0.09999518 -0.3995079
0001e0 2a 16 86 be 0c 33 eb 3d dc 87 e6 3d d2 8c 09 3e
       -0.26188785 0.11484346 0.11256382 0.13432625
0001f0 28 7d e6 3d d4 24 d3 3c 94 e5 a3 bd b0 fb 22 3e
       0.112543404 0.025774397 -0.08002773 0.15916324
000200 e7 87 8c 3d cf c5 43 3e 38 90 be 3e 3f d0 2d 3d
       0.06861859 0.19118427 0.37219405 0.042434927
000210 f3 2e d2 3d 6e 29 be 3d 7a f3 0b 3d 95 dd a1 3d
       0.10262861 0.09285246 0.034167744 0.079035915
000220 9c 23 ef 3d 34 bc e4 bd 93 6d b8 bd c8 d2 69 3d
       0.11676714 -0.111687094 -0.090052746 0.057085782
000230 bf 46 de 3c 86 f1 35 3e 85 8d 28 3e fe 68 3c 3e
       0.027133344 0.17767915 0.16460235 0.18399426
000240 ef 2f d8 3d a3 42 d8 3d 62 d6 c8 3c 57 ea c9 3b
       0.105560176 0.10559585 0.024516288 0.0061619687
000250 0f c9 d8 bc 3f 00 29 3e 57 ee 4b 3e b9 03 1b be
       -0.02646306 0.16504 0.19915138 -0.15138139
000260 45 fb ff bd 27 58 91 bd 1d 58 15 be 2b 4b f0 bd
       -0.12499098 -0.07096892 -0.14584394 -0.11733087
000270 ed 64 e5 3d bb 6c 3b bd 75 dc dc bc 15 b9 39 bd
       0.11200891 -0.04575799 -0.02696059 -0.045342524
000280 01 a2 38 3e 9f 06 70 3e 49 d6 af 3e 0f 9a af 3e
       0.1803055 0.23440026 0.34343174 0.34297225
000290 a8 76 a4 3e 59 e5 a9 3d 11 4b c8 bd 72 21 3c 3d
       0.32121778 0.08295698 -0.09779943 0.045930333
0002a0 33 d7 77 3d b4 e6 52 be 2c 27 d4 3d c3 c5 29 3e
       0.060507964 -0.20595819 0.10359034 0.16579346
0002b0 3b 28 0f 3e 49 01 3c 3e b5 e5 13 3e f5 17 09 3e
       0.1398019 0.18359865 0.14443095 0.13388045
0002c0 2b 05 4b bc 3c 84 be bc 4d 85 1f 3c 18 3b c0 3b
       -0.012391369 -0.023256414 0.009736371 0.0058664195
0002d0 58 43 d1 3d 10 79 4e 3c 8e 01 a5 bc b9 86 1c 3d
       0.10217923 0.012602106 -0.020142343 0.03821442
0002e0 2a 41 60 bd c9 c3 e7 bd c4 e1 bb bd 52 64 8e 3d
       -0.054749645 -0.1131664 -0.09173921 0.06952728
0002f0 c2 80 86 3c e7 c9 04 be fe 03 0d 3e d4 41 3e 3e
       0.016418818 -0.12967645 0.13771054 0.18579799
000300 4f 71 4a 3e 32 28 1a 3e 0e 72 08 3e aa 7f 30 bb
       0.19769786 0.15054396 0.13324758 -0.0026931562
000310 b8 38 0c be c1 fd 3c 3e c8 a8 20 3e 34 5b 5a be
       -0.13693511 0.18456174 0.15689385 -0.21323854
000320 62 6b 55 3b b4 f1 c4 bb 0d 34 39 bd ed 9d 97 bd
       0.0032565226 -0.0060102586 -0.045215655 -0.07403169
000330 56 43 81 bd e4 ba a2 3d cd 7b d5 3d c9 c7 7b bd
       -0.063116714 0.07945803 0.10424004 -0.061469827
000340 c2 5c c0 bd bb 31 cd 3d 29 e6 08 be aa f7 05 be
       -0.09392692 0.10019251 -0.13369049 -0.13082758
000350 8c b2 c5 bd ba 8a d5 bd d4 4f 1b be 1e 4b 84 3e
       -0.09653196 -0.104268506 -0.15167171 0.2583856
000360 ca c4 34 3e 27 5f 30 be e2 7f 3c be f0 5f 98 3e
       0.17653194 -0.17223798 -0.18408158 0.29760695
000370 50 32 82 be cb 7e 14 be 79 1a e0 bd b9 af 0b be
       -0.2542901 -0.14501493 -0.10942549 -0.13641252
000380 6d f7 16 be 64 9d 10 be 7a e4 da 3d c6 c4 af bd
       -0.14742823 -0.1412254 0.1068811 -0.085824534
000390 d1 18 bf bd 64 21 66 3e 3c 53 2d 3e 68 70 66 3e
       -0.09330905 0.22473675 0.16926283 0.22503817
0003a0 4d 1a 8f 3e 00 49 4a 3e 32 72 90 3e 61 28 2e bd
       0.27949753 0.1975441 0.28212124 -0.042518977
0003b0 c1 ea 0f be 62 da 34 3e a4 9f e9 3d b2 90 87 be
       -0.14054395 0.17661431 0.11407402 -0.2647758
0003c0 2f cb 67 3d 63 0e c2 3d 77 04 90 3d 60 cd d0 3d
       0.056590255 0.094754 0.070321016 0.10195422
0003d0 75 05 0a 3e d9 a0 58 be ed 94 b5 bd 70 4d 6a 3d
       0.13478644 -0.21155109 -0.08866296 0.057202756
0003e0 77 39 96 3d d8 88 b8 bd 06 c9 7c be fc 35 07 be
       0.07335179 -0.09010476 -0.2468606 -0.13204187
0003f0 c2 5e 3f be 20 5a 5c be ab 4c 4b be f9 c6 32 3d
       -0.18688491 -0.21518755 -0.19853465 0.043646786

weight_hh_l0 f4 [250, 250]
000000 eb 61 fd bd 5e fe a0 3d 31 36 b5 ba cd bd 20 be
       -0.12372192 0.07861017 -0.0013825354 -0.15697403
000010 82 7b 04 be 7d 1c e0 3d 3e d0 14 3e ee da 0c 3e
       -0.1293774 0.10942934 0.14532563 0.1375539
000020 53 d6 69 3d 93 12 08 3d 70 23 7d bc 03 13 37 3e
       0.05708916 0.03322084 -0.0154503435 0.17878346
000030 ea 7a ef 3d e2 5f 2b 3e 31 12 8b 3d 4f 62 ab bd
       0.11693366 0.16735795 0.06790579 -0.0836836
000040 4e 4b 22 3e 3f 51 f7 bd 65 08 76 bd 69 ae 7b bd
       0.15849039 -0.12076043 -0.0600666 -0.061445627
000050 62 c9 39 3e e4 e2 02 be d0 34 d5 bc 75 96 15 3e
       0.18143228 -0.12781864 -0.02602616 0.14608176
000060 7d 3c 0f bd 12 e7 81 be fe 7b 18 3e c7 eb 17 3e
       -0.034969795 -0.25371605 0.1489105 0.14836036
000070 00 ab 71 be 7f f0 dd 3d dd 56 1d 3d 88 ff 42 bd
       -0.23600388 0.108368866 0.038412917 -0.047606975
000080 d2 0d a2 3b 33 ed 81 bc 8e 08 17 bd b3 f9 e9 3d
       0.004945495 -0.015860176 -0.036873393 0.114245795
000090 65 4d 86 bd 1c e0 c8 3d 21 e8 f5 bd 00 8e 5a 3e
       -0.065577306 0.098083705 -0.12007166 0.21343231
0000a0 55 36 48 3e 71 e7 87 3e a1 ae aa bd ce 74 8e 3b
       0.19551976 0.26543763 -0.08334089 0.0043474203
0000b0 33 21 e7 bd 75 0d 0c 3e 75 4b 90 be ab c9 dc bd
       -0.11285629 0.13677008 -0.2818257 -0.107806526
0000c0 4b c9 5c be b3 a3 8b 3e d4 13 7b be 77 4e 06 3e
       -0.21561162 0.2727333 -0.24519283 0.1311587
0000d0 17 3e 28 be dd 99 29 bd 8f 90 a6 be 28 35 db 3d
       -0.16429935 -0.0414065 -0.32532164 0.10703498
0000e0 1a 62 e6 3d d2 a7 90 3d d8 79 ca 3d 9e bf 1f bd
       0.1124918 0.07063259 0.09886521 -0.0390011
0000f0 e8 40 1e bd 1d d7 c3 3c 8e 84 2b 3e d0 00 76 3e
       -0.03863612 0.023906285 0.16749784 0.24023747
000100 58 12 d0 ba 79 dd 49 bd b2 1b 62 3e cd c8 08 3e
       -0.0015874607 -0.04928348 0.22080877 0.1335785
000110 4a 89 11 3e 8a 78 59 bd 4c 53 e0 bd 20 12 1a be
       0.14212528 -0.05309347 -0.109533876 -0.15045977
000120 6b 9e 28 be 3c c4 01 3e 5d bd a2 3d 07 5d c7 3d
       -0.16466682 0.12672514 0.079462744 0.097345404
000130 16 0c 4d 3e 70 a0 90 3d 31 03 1f be 09 89 25 3e
       0.20024142 0.07061851 -0.15528561 0.16165556
000140 43 1a 7a 3d 5b 40 94 3c 6f 4d 94 3d f6 a2 d0 bd
       0.0610602 0.018097093 0.07241332 -0.10187332
000150 75 ec 9f bb 4b 9e df 3d 1f 43 d6 3b 93 32 f3 bd
       -0.004880483 0.10918864 0.006538763 -0.11874881
000160 e2 b2 20 3e e0 00 65 be 4e 60 b8 bd 5e 81 17 be
       0.15693238 -0.22363615 -0.09002744 -0.14795443
000170 c1 98 63 bd 39 c5 40 3e d0 39 89 3e a4 be 0d 3e
       -0.0555656 0.18825234 0.2680192 0.13842255
000180 73 10 34 be 23 3a e0 3c 65 64 af 3d 02 38 01 3e
       -0.175844 0.027371472 0.085640706 0.12619022
000190 55 b7 85 3d 90 19 d9 bd 43 ee 57 3e d5 64 cd 3d
       0.065291084 -0.10600579 0.21086983 0.10028998
0001a0 1d 45 78 3e 0c 6d 79 3e 8d bc b8 3d ed de 3d 3e
       0.24245115 0.24358004 0.09020338 0.1854207
0001b0 73 41 0a 3d 50 c1 5d 3e 1f c0 8d bc 38 99 11 bd
       0.033753823 0.21655774 -0.017303525 -0.03554651
0001c0 bb 1d 8e bd 43 6f 48 bc f1 c7 33 bc 49 9c 2e 3e
       -0.069392644 -0.012233558 -0.010972963 0.17051806
0001d0 d2 9f d2 bd 9c ae 0e be 53 38 b3 3c 2e eb 04 bd
       -0.102843896 -0.13933796 0.021877443 -0.032450847
0001e0 ff 11 d9 bd ee 19 16 be df a8 f1 3d f9 46 ff 3d
       -0.105991356 -0.14658329 0.11799788 0.12464709
0001f0 64 77 2b be b4 35 00 bd e9 19 0e bd 67 98 13 be
       -0.16744763 -0.031301215 -0.03469268 -0.14413606
000200 b7 74 1e 3e 88 90 c3 3d 4b d5 d8 3d 64 e7 a0 3c
       0.1547421 0.095490515 0.105875574 0.019641586
000210 22 79 fc 3d 61 22 22 3e 10 45 e3 3d 80 7f ee 3d
       0.12327792 0.15833427 0.11097157 0.116454124
000220 6b 38 d3 bd 01 ec ea bd a5 b3 93 3e 51 1d f8 3d
       -0.10313495 -0.114707954 0.28847995 0.12114967
000230 50 e3 81 3c 2e e8 43 be 49 49 cd bd 08 7d a0 3e
       0.015855461 -0.19131538 -0.10023744 0.3134539
000240 6a 8f e5 bc d3 0f 2d 3d 0d f5 2e 3d e7 be fb 3d
       -0.028022487 0.04225142 0.042714167 0.12292271
000250 fc 91 4b be 97 0a 30 3d ac da 66 3d cd 87 c5 3d
       -0.19879907 0.04297885 0.056360886 0.096450426
000260 d6 6a 8e bd 61 f6 d9 3c 6a e7 2f 3e 57 fc 98 3e
       -0.06953971 0.02660674 0.17178121 0.2988002
000270 57 6e 13 be 87 2d a6 3e 58 06 40 3e 17 3b fe bd
       -0.1439756 0.3245661 0.1875242 -0.12413614
000280 3c 78 1a 3e 05 63 1e be d5 55 71 3e 79 0f a1 bd
       0.15084928 -0.1546746 0.23567899 -0.07864279
000290 72 bf 02 be d4 b4 df 3c 91 1f 98 3d b8 f7 9e 3d
       -0.12768343 0.027307905 0.07427896 0.07762092
0002a0 95 9f 8d be d2 ea 98 3d 50 23 49 be 4e 2c 4e 3e
       -0.27660814 0.074666634 -0.19642377 0.20134088
0002b0 ce 49 00 3d e0 c5 34 3d 47 be d3 3d a9 46 2d 3c
       0.031320386 0.04413402 0.10339027 0.010575929
0002c0 81 32 f3 bd a5 e1 81 bd b4 8b 52 3e 5f db d6 bc
       -0.11874867 -0.063418664 0.20561105 -0.026227651
0002d0 b2 2d 19 3e 02 42 d9 3c f1 5b d8 3d df 0a c1 3d
       0.14958838 0.026520733 0.105644114 0.094259016
0002e0 97 1e 8e 3d bd 2b 3a 3e 8b 23 ad bd 59 dd a1 3c
       0.06939428 0.18180747 -0.08454045 0.019758867
0002f0 ea 50 42 3e e1 06 40 be 68 01 45 3e d1 91 80 be
       0.18976179 -0.18752624 0.19238818 -0.2511125
000300 f2 91 11 be ce 2c 0d be b6 65 12 3d e9 91 98 bc
       -0.1421583 -0.13786623 0.03574153 -0.018624263
000310 1a 68 07 bc 48 69 f0 bc 64 53 0b 3d 58 66 7f bd
       -0.008264566 -0.029347077 0.034015074 -0.062353462
000320 b7 df d3 bd 41 71 d7 bd 2e c3 27 3e 85 d4 b1 3e
       -0.103454046 -0.10519648 0.16383049 0.34732452
000330 00 73 8e bd 3c 64 ec 3d 98 31 0a be 1d 69 18 3e
       -0.06955528 0.11542556 -0.13495481 0.14883848
000340 7a 3f 56 be 70 50 f5 bd 75 a5 93 3d b4 33 20 3e
       -0.20922652 -0.11978233 0.07209293 0.15644723
000350 46 97 ae 3d c2 34 6d bd 39 bb 8a bd 03 ee 37 3d
       0.08524947 -0.057911642 -0.06773991 0.04490472
000360 06 9f ed 3d ce 73 81 3d 45 6f 08 be b4 e1 fe bd
       0.11602597 0.06320916 -0.13323696 -0.12445393
000370 63 9e 94 3e c7 f7 f7 3c 1f bb cc 3d 27 92 d5 3b
       0.2902709 0.030269517 0.09996628 0.006517667
000380 00 cf 65 ba 87 cd b3 be 2e e6 a0 3c 45 d5 b5 3d
       -0.0008766502 -0.35117742 0.019641008 0.088785686
000390 65 16 1e be 8f 1f 20 3d 2a bb a1 be d4 a9 0e 3e
       -0.1543823 0.039092597 -0.31588107 0.13931972
0003a0 d3 a7 c5 3d 64 d7 d1 3c 35 d4 40 bd fc 05 ea 3d
       0.096511506 0.025615402 -0.047077376 0.11426923
0003b0 23 63 c9 bd c9 c9 cc 3d f5 4a 6c 3e 33 c9 4d 3d
       -0.09833362 0.09999425 0.23075469 0.050240707
0003c0 6d dd 5d be 8f c7 94 bc 43 78 95 be 36 bc 18 3e
       -0.21666498 -0.018161563 -0.29193315 0.14915547
0003d0 d9 33 c7 3d c0 49 49 3e f3 15 27 3e 02 1b 76 3d
       0.09726686 0.1965704 0.16316967 0.06008435
0003e0 a4 23 b9 3d ae 65 2b be e8 1b 21 3e ff 64 2d 3d
       0.09040001 -0.16738006 0.15733302 0.042332646
0003f0 9d fa ba bc ef 4d 17 bc 73 74 bb bd fd c5 a0 bd
       -0.02282458 -0.009234889 -0.0915307 -0.07850263

bias_ih_l0 f4 [250]
000000 08 a1 fc 3d 9e ab 8d bd 73 78 f9 3d c6 3a 66 3e
       0.12335402 -0.06917499 0.12181177 0.22483358
000010 15 c0 6a 3d 6c 2d 39 3e c1 c5 28 be 34 4a 53 be
       0.05731209 0.18083733 -0.16481687 -0.20633775
000020 b7 a0 51 3e 16 ee 28 be 62 f8 10 3b 8c fa e8 bd
       0.20471464 -0.16497073 0.0022120704 -0.11375913
000030 1e 45 0e be 15 39 ed 3d 75 80 42 bd 18 36 c9 3d
       -0.13893554 0.11583153 -0.047485787 0.09824771
000040 58 9e d5 bd 32 33 5d bc b9 84 f9 bd 6d 72 62 be
       -0.10430592 -0.013500975 -0.12183518 -0.22113962
000050 d6 da 9a 3d d7 cc 6a 3e 75 2a 2c 3e 13 e5 17 be
       0.07561271 0.22929703 0.16813071 -0.14833479
000060 68 06 d9 bd 19 af 31 3e 2e 20 3d be 44 c7 13 be
       -0.10596925 0.1735195 -0.18469307 -0.14431483
000070 67 6f 71 bd d6 af e3 bc c7 50 c2 3d 75 01 92 bd
       -0.058944132 -0.027793806 0.09488063 -0.07129184
000080 04 f9 3a be 1b 37 d5 bd aa ac b0 3d d9 2d 8f bd
       -0.18259054 -0.10410901 0.08626683 -0.069911666
000090 9a 28 50 3c ff f2 ee bd 93 38 a6 3d 97 b3 5e be
       0.012704993 -0.116674416 0.081162594 -0.21748196
0000a0 67 03 70 be b8 38 cc bd 4e 37 a6 3d b7 2a c9 bd
       -0.23438798 -0.09971756 0.08116017 -0.098226
0000b0 05 b6 90 3b a1 f6 d2 bd 13 f6 50 3e 97 7c e8 3d
       0.0044162297 -0.10300947 0.2040637 0.113518886
0000c0 98 a6 ad bd b1 96 18 3e 7a 0f 61 3e 3c e2 8a 3c
       -0.08479041 0.14901234 0.2197856 0.01695358
0000d0 b7 bc 3f 3d f8 03 09 3d 15 1d 71 3e 1b f4 57 3d
       0.046810832 0.03345105 0.2354625 0.05272303
0000e0 3d fa bb bd 86 e7 84 bd df be 82 bd 9a 44 bf bd
       -0.091785885 -0.06489472 -0.06384062 -0.093392566
0000f0 a5 ec e8 3c f8 60 aa 3c 1a b9 81 be 61 92 7b bd
       0.028433153 0.020798191 -0.25336534 -0.061418895
000100 6c 05 1b 3e cf 5f aa bd 13 44 45 be 43 3c 9c 3c
       0.15138787 -0.08319055 -0.1926425 0.019071704
000110 96 b6 92 3d 7e bd da 3c 55 7f 81 3d be ce 21 3d
       0.07163732 0.026701685 0.06323115 0.039503805
000120 fc 77 13 3e 6c 8f 81 be d4 14 40 3d c6 b5 fd bc
       0.14401239 -0.25304735 0.046894863 -0.030970465
000130 c5 e9 31 be ef b7 9d bc 22 c7 13 bd 87 87 e6 bd
       -0.17374332 -0.019252745 -0.03607858 -0.112563185
000140 d1 aa de 3c 7e 8c 38 be 41 4f 16 be 70 56 37 bd
       0.027181061 -0.18022344 -0.1467867 -0.044760168
000150 62 9b 83 3b a8 7f 5e bc bd e4 cf bd 99 cd 4d 3e
       0.004016326 -0.01358024 -0.1015105 0.2009796
000160 cf 25 fb bd 3b 51 8b ba 67 28 d6 3d 47 21 27 3d
       -0.12263071 -0.0010629067 0.10456925 0.04080322
000170 69 a7 c6 3c a8 a6 0d be d6 ca 58 be a4 49 16 be
       0.02424975 -0.13833106 -0.21171126 -0.14676529
000180 b9 6a a8 3d 72 ae 9b bc 86 f1 0a be a2 fd b8 bd
       0.08223481 -0.01900408 -0.13568696 -0.090327516
000190 65 ed 21 3e 03 3d 5d be 2b cd 44 3d c6 6c a7 bc
       0.15813215 -0.21605305 0.048047226 -0.02043761
0001a0 ed 6b fa bd fb bf 62 be 78 d0 67 3e 33 2c f9 bd
       -0.122276165 -0.22143547 0.22638118 -0.121666335
0001b0 4c c0 9a 3c 34 92 dd bd 53 a0 6f bd 8d 71 43 3c
       0.018890522 -0.10818902 -0.058502506 0.011928928
0001c0 cc ed 1d be be 94 d3 3d 8e 22 44 be e0 e1 7c be
       -0.15422744 0.10331105 -0.19153807 -0.2469554
0001d0 7e f4 a8 bd 74 b2 76 3c 5a ec ee bd 39 76 98 bd
       -0.08249758 0.015057195 -0.11666174 -0.07444424
0001e0 72 99 85 3c 43 f4 df 3c 65 60 e5 bd 76 fd 3c be
       0.01630852 0.027338153 -0.112000264 -0.18456063
0001f0 10 36 28 3e cb aa 5d 3d 8a f6 e8 3d dc f7 43 3e
       0.16426873 0.05411796 0.113751486 0.1913752
000200 ac ea 16 be 3c c1 6f bd f7 17 10 be 38 87 e3 bd
       -0.14737958 -0.058533892 -0.14071642 -0.11109775
000210 d1 8a 1d 3c 1b e5 c1 bc b0 68 cb bc 1d d2 7b 3d
       0.009615616 -0.023668816 -0.024830192 0.061479677
000220 68 e4 fe bc a6 40 1f bc 97 e5 91 3d 65 5a 4b be
       -0.031114772 -0.009720003 0.07123869 -0.19858702
000230 b3 21 1d 3e 9f 7a c1 bc cc 30 11 3e e3 98 9c 3d
       0.15344886 -0.02361804 0.14178771 0.07646348
000240 48 31 30 3c a9 1c 65 be 7d 6c 90 3b 86 ef 09 be
       0.010753937 -0.22374214 0.004407464 -0.13470277
000250 15 00 c3 3d 13 6a 6d be e3 54 5a 3d 30 fe d3 bd
       0.095215 -0.23184995 0.05330361 -0.10351217
000260 d0 07 66 bd d5 56 d8 3c 25 33 1d be 65 b5 46 3e
       -0.056159794 0.026408592 -0.15351541 0.19405134
000270 58 25 56 be 60 e3 78 bd ee d2 ab bc 5b 77 08 3e
       -0.20912683 -0.060763717 -0.020974603 0.1332678
000280 9e a7 7e 3d b8 32 fd 3d 72 4e 16 be 37 c9 27 3d
       0.06217157 0.123631895 -0.14678362 0.040963378
000290 1e 6f db 3c dd 52 c3 3d 1b 81 65 bd ff ab 3c be
       0.026786383 0.09537289 -0.056031328 -0.18424986
0002a0 54 6d 6b 3e 7e f7 9e bb 25 20 8f 3d 97 40 84 bd
       0.22990924 -0.0048512807 0.06988553 -0.06457632
0002b0 57 d4 71 bc 2f 54 58 be 80 9d b3 3d 49 0d 2e 3e
       -0.014760098 -0.21125863 0.08770275 0.16997255
0002c0 23 84 26 bd 02 6e 0d 3e d1 f7 5a be fc 3e 35 be
       -0.04065336 0.13811496 -0.21383597 -0.17699808
0002d0 4c f6 bb bc 34 46 46 bd 9d dd c1 bd 80 89 b6 bd
       -0.022944592 -0.048406795 -0.094660975 -0.08912945
0002e0 e2 8c 2a be 42 9b e6 bd 31 19 a6 bd e6 4d a6 3d
       -0.16655305 -0.11260082 -0.08110274 0.08120327
0002f0 cb e8 74 3d 3d 12 8d bc a0 ac 4d be 4f 70 f4 3d
       0.05979232 -0.01722061 -0.20085382 0.11935484
000300 0a cb 41 3e 6d 8a 06 bb 26 0c e4 bd c3 7e 6e bd
       0.1892511 -0.0020529286 -0.1113513 -0.05822636
000310 39 09 03 be 5f 06 59 3e ef b1 c7 3d b6 1a 02 be
       -0.12796487 0.21193837 0.09750735 -0.12705502
000320 64 65 bc bd f9 3d 43 3c 44 a9 24 3c e5 f1 1b be
       -0.09199026 0.011916631 0.010050122 -0.15228994
000330 0c 06 47 3e ab 19 de 3c 9a cd 9a 3d 46 d7 f6 bd
       0.194359 0.027111849 0.07558747 -0.12052779
000340 02 9f 93 3d 91 26 15 3d fb 5e 2f be 8f 36 5c be
       0.07208063 0.036413733 -0.17126076 -0.21505187
000350 2f 7b 84 be bd 03 c2 3d 35 dd f9 3d a2 99 8e be
       -0.25875232 0.09473369 0.12200395 -0.27851588
000360 b8 27 21 be 92 53 13 bd b7 c6 06 bd be 0b 02 3e
       -0.15737808 -0.03596837 -0.032904353 0.12699792
000370 50 99 30 be e2 4f 3a 3e c3 30 25 3e 26 eb 7f 3d
       -0.17245984 0.18194535 0.16131882 0.062480114
000380 80 9c 65 bd ba fe b8 bd b8 75 08 bd dd 4a 0c be
       -0.056057453 -0.0903296 -0.03331539 -0.13700433
000390 bc 6b 70 3d 2a 36 c7 bd 6f ac 38 3d c1 ac 34 bb
       0.058696494 -0.09727128 0.04508632 -0.002756879
0003a0 a0 35 4a 3e 60 e9 2b be 55 41 4c 3d d6 f0 52 3c
       0.19747019 -0.16788244 0.049866993 0.012874803
0003b0 5b 33 42 3e 2b 37 8d bd e2 58 58 bd 9f 0e c7 3d
       0.18964903 -0.06895288 -0.05281914 0.097195856
0003c0 80 67 16 3e e3 69 0d be 78 6c 05 be ab cd 40 be
       0.1468792 -0.13809924 -0.13029659 -0.18828456
0003d0 53 5b 85 bd 1c d6 23 3e 2e 42 d6 3d 5e 85 22 be
       -0.06511559 0.15999645 0.104618415 -0.15871188
0003e0 63 bc 3e bd dc 7d 31 3e
       -0.04656638 0.17333168

bias_hh_l0 f4 [250]
000000 64 23 8d 3d 93 84 7c 3b 5a 4b b6 3d 00 8b a1 3e
       0.06891516 0.0038531169 0.08901091 0.3155136
000010 72 64 50 3d 55 1e bf 3d db 4d 54 be 47 71 41 be
       0.050877042 0.09331957 -0.20732825 -0.18890868
000020 e9 a7 38 3e 94 db 68 be fc 9a 00 bc 19 54 20 bd
       0.18032803 -0.22740012 -0.007849451 -0.0391427
000030 17 27 e3 bd e7 ec e4 3d 4c a7 5e 3d 1e 6d aa 3d
       -0.1109144 0.11177998 0.054358765 0.08321594
000040 3e 70 d9 bc ce b6 b4 bc 13 4d fd bd 38 d9 69 be
       -0.026542779 -0.022059824 -0.12368216 -0.22836769
000050 f0 46 ee 3d 81 99 28 3e 7f 88 19 3e 9b 48 3e be
       0.11634624 0.16464807 0.14993475 -0.18582384
000060 1e 22 81 bd fc 5b bc 3d f9 8d ec bd 6f 03 42 be
       -0.063053355 0.09197232 -0.11550517 -0.18946622
000070 7a a0 d2 bd 9d de d5 bd 5e 85 97 3d 27 07 fe bc
       -0.10284515 -0.10442851 0.07398485 -0.03100927
000080 05 0b 29 be 0b 32 ed bd 76 3e ee 3d ed b1 0a be
       -0.1650811 -0.115818106 0.11633007 -0.13544436
000090 16 23 7b 3d cf 97 1b be d5 b4 a8 3d 4c 73 5b be
       0.061312757 -0.15194629 0.08237616 -0.21430701
0000a0 67 9b 82 be 1e 07 42 be f7 77 c3 3d b9 88 c7 bd
       -0.25509188 -0.18948027 0.09544366 -0.09742875
0000b0 e9 59 26 3c ae 63 c8 bd 96 25 88 3e 27 d1 e0 3d
       0.010153272 -0.097846374 0.26591176 0.10977393
0000c0 fd 95 3d bd 5c 80 d9 3d 82 43 2f 3e 9a 9c 3d bd
       -0.046285618 0.10620186 0.17115596 -0.046291925
0000d0 6a 38 26 3c de da e2 bb 61 21 18 3e 4c 43 6b bc
       0.010145286 -0.0069230637 0.14856483 -0.014359307
0000e0 93 f9 6d bd 46 41 bf bd 6b 56 ab bd f3 2b 87 bd
       -0.05809934 -0.09338622 -0.08366092 -0.066001795
0000f0 a8 27 79 3d f0 90 81 3d f8 dd 53 be 44 ae ef bd
       0.060828835 0.06326473 -0.20690143 -0.117031604
000100 86 70 2a 3e fe 5d 06 bd 40 dd 28 be b3 da 0f 3d
       0.16644487 -0.03280448 -0.1649065 0.035120677
000110 05 e7 36 3d 61 2a 26 bc e6 00 a6 3d f5 3c f2 3c
       0.04465391 -0.01014194 0.0810564 0.029570082
000120 15 d7 74 3d 95 ef 8b be fd 7f a1 3d 33 ab 4b bd
       0.05977543 -0.27331224 0.0788574 -0.049723815
000130 2f 70 45 be 07 fa ca bc 27 97 36 bd ae 0a 44 be
       -0.19281076 -0.024777425 -0.044577744 -0.19144699
000140 39 02 3e bd 99 ae 07 be 05 2d 5a be 6d a3 6a bd
       -0.04638884 -0.13250197 -0.21306236 -0.05728476
000150 ba 23 27 3c de 69 c3 bd 36 1b d0 bd 8c 3d 33 3e
       0.010201389 -0.09541677 -0.1016144 0.17503947
000160 c9 ed 16 be 94 92 43 3c b2 8c e5 3c 52 2d 18 bd
       -0.14739145 0.011936802 0.02802119 -0.037152596
000170 1a 35 f5 3d d5 63 f7 bd 16 eb 63 be 44 8d 2f be
       0.11973019 -0.12079588 -0.22257647 -0.17143732
000180 19 86 bb 3d f5 2b b0 bd e5 e2 e5 bd 37 3e 22 be
       0.091564365 -0.08602134 -0.11224917 -0.15844046
000190 02 cd 48 3e 43 5d f9 bd 63 6e 33 3d 30 de c0 bc
       0.19609454 -0.121759914 0.043806445 -0.023543447
0001a0 5d e1 1c be d9 dd 26 be 92 7a 2a 3e 91 2f 00 be
       -0.15320344 -0.16295566 0.1664832 -0.12518145
0001b0 d5 cc 9c 3d ad 71 16 be ea 2f ed bd 89 c8 99 3d
       0.07656256 -0.14691801 -0.115814045 0.07508952
0001c0 b3 1c 37 be a3 43 0d 3e 3c 79 16 be 9e 19 2e be
       -0.17882042 0.13795333 -0.14694685 -0.1700196
0001d0 cd 3e 02 bc 72 15 8a 3b 1c 3b e7 bd d6 31 cc bc
       -0.007949543 0.0042139823 -0.11290571 -0.024926107
0001e0 5b 45 e7 3d 0a 2a 9e bc 45 88 16 be 99 be 32 be
       0.112925254 -0.019307155 -0.1470042 -0.1745552
0001f0 b7 99 35 3e 45 ee 8d 3d 7a fb 02 3e 21 54 86 3e
       0.17734419 0.06930212 0.12791243 0.2623606
000200 08 9e 51 be 95 07 0c 3c 83 ec 42 be aa 19 f2 bc
       -0.2047044 0.00854673 -0.19035535 -0.029553253
000210 45 42 6f 3a 2c a4 46 bd f7 22 4b 3b 3e a9 fc 3d
       0.00091270014 -0.04849641 0.0030996182 0.12336968
000220 59 9b a0 bc c1 30 93 3d 85 98 2b 3e f9 31 3e be
       -0.019605326 0.071870334 0.167574 -0.1857375
000230 82 28 77 3e 17 37 13 bd 5c e5 68 3d c2 54 4e 3c
       0.24136546 -0.03594121 0.05685936 0.01259345
000240 fc ee 90 bc 45 c4 06 be 93 f0 18 bd 10 96 0c be
       -0.017692082 -0.13160808 -0.037338804 -0.1372912
000250 dc 1b 9d 3d a4 c4 90 be b3 b8 b3 3c 04 d7 ca bd
       0.076713294 -0.28275025 0.021938657 -0.09904292
000260 8d 37 2c 3d 44 79 81 3c a8 93 62 be 3d b8 03 3e
       0.042045165 0.015804894 -0.22126639 0.1286325
000270 08 4b 1c be d2 24 1b be 06 8e 45 bd 3a f4 be 3d
       -0.15262997 -0.15150765 -0.048231147 0.09323926
000280 15 4a b5 3c 44 fa 32 3e de ac d0 bd a3 55 cb 3d
       0.022130052 0.17478281 -0.10189222 0.09928443
000290 f9 91 60 bc 43 f1 d3 3d d9 08 47 bd 92 ec 1f be
       -0.013706678 0.103487514 -0.048592422 -0.15617588
0002a0 fe 8a 94 3e ce ea 32 bc e0 a0 ab 3d 28 83 d8 bd
       0.29012293 -0.01092024 0.08380294 -0.10571891
0002b0 c8 ea 3c bd b6 14 67 be 7c 10 b4 3d 35 e5 4f 3e
       -0.046122342 -0.22566494 0.08792207 0.2030228
0002c0 48 13 8b 3c 14 88 13 3e e3 24 27 be e3 97 0c be
       0.016976967 0.14407378 -0.16322665 -0.13729815
0002d0 c0 4b 11 bd 88 88 db bd ea 63 33 be 55 e1 af bd
       -0.03547263 -0.10719401 -0.17518583 -0.085879005
0002e0 39 43 7c bd e5 fb 14 be f1 a0 a1 bd 35 a0 2f 3d
       -0.061587546 -0.14549215 -0.07892025 0.042877395
0002f0 03 08 0e 3e e2 43 b4 bc 41 33 4f be 6f b4 12 3e
       0.13870244 -0.022005025 -0.20234396 0.14326642
000300 85 35 1e 3e 93 de 24 3d 73 cb cb bd 64 08 8d bd
       0.15450104 0.040251326 -0.09950914 -0.06886366
000310 62 ef 0a be 1a 33 27 3e 3a 82 6c 3d 9e 16 1a be
       -0.1356788 0.16328087 0.05774138 -0.1504769
000320 78 30 93 bd 60 c0 81 3d d4 49 90 bd e9 36 7e be
       -0.07186979 0.06335521 -0.070453316 -0.24825634
000330 ed 34 00 3e c0 59 0b 3e c5 40 8a 3d 5a ea 80 bd
       0.1252019 0.13608456 0.06750635 -0.06294699
000340 56 fb 57 3d 3a ce 35 3d 9e e7 69 be 6c 33 62 be
       0.052729927 0.044386126 -0.22842261 -0.22089928
000350 0e cb 49 be 21 3d b0 3d c8 ee 3e 3e 15 8c a8 be
       -0.19706365 0.086054094 0.18645775 -0.32919374
000360 f1 98 44 be 37 18 c0 bd a3 86 94 3d 4a 1e 27 3e
       -0.19198968 -0.093796186 0.072522424 0.16320148
000370 88 a2 59 be ea ba 2e 3e 02 74 0f 3e 70 aa 9f 3d
       -0.21253407 0.1706349 0.14009097 0.0779618
000380 37 01 9d bc 98 04 94 bd 8d 57 d7 bc 46 60 11 bd
       -0.019165618 -0.07227439 -0.026286865 -0.035492204
000390 db 8c 21 3d ef 8f 62 bd de f0 4f bc 40 e7 8c 3c
       0.03944097 -0.055313047 -0.012691705 0.017200112
0003a0 5c df 55 3e d7 99 5f be 17 70 28 3b 5c 99 85 bb
       0.20885986 -0.21836029 0.0025701576 -0.0040771198
0003b0 20 47 57 3e c0 87 f2 bd ac 3e c1 3b 3f 15 20 3e
       0.21023226 -0.118422985 0.0058973636 0.15633105
0003c0 f8 8b 43 3e 91 70 3d be 95 e4 0b be 6c 6d 1b be
       0.19096363 -0.18499972 -0.13661416 -0.1517846
0003d0 af d6 22 bd 00 e9 0c 3e c0 24 13 3e 2f 33 9f bd
       -0.03975552 0.13760757 0.14369488 -0.07773434
0003e0 0a f0 b6 3c 07 da 88 3e
       0.022331256 0.26728842

weight f4 [1, 250]
000000 a6 5f c6 3d d3 9b f3 3d be 7a be 3c 3b 3d a4 bd
       0.09686212 0.118949555 0.023251887 -0.08019491
000010 11 9d fd 3d b3 62 12 3e 19 f4 01 3e 7d d3 8a 3d
       0.12383474 0.14295463 0.12690772 0.067786194
000020 17 84 13 3e 54 c0 70 bd 67 5b 75 3d c5 b3 3e bd
       0.14405857 -0.05877717 0.05990162 -0.04655816
000030 3b cb af 3d 5c 86 ec bc d6 4b ea bc ec 51 f9 bd
       0.08583685 -0.028872661 -0.028600615 -0.121738285
000040 00 66 f5 bc 1c 2d c0 3c 47 57 08 be e1 c8 a5 bd
       -0.029955864 0.02345901 -0.13314544 -0.08094955
000050 fb 55 1d bd f0 ff 00 3e 5e bf 14 3e 1f c3 00 be
       -0.038412075 0.12597632 0.14526126 -0.12574433
000060 4d 3b c0 3c 23 a2 4a 3c c3 59 c6 3d fc 12 f6 3d
       0.023465777 0.012367758 0.096850894 0.1201534
000070 fe d6 bf bd da db ce bc f5 87 90 3d b4 c3 ee 3d
       -0.093671784 -0.025251318 0.07057182 0.11658421
000080 5a 6e 14 3d b1 44 4c 3d 77 7c 9d 3d a6 2c 00 3e
       0.036238052 0.049870197 0.076897554 0.12517032
000090 3b 04 03 be a9 48 e0 bc 2e 28 86 3d 14 f4 00 be
       -0.12794583 -0.027378397 0.065506324 -0.12593108
0000a0 41 a9 f2 3d 40 d1 00 bc b8 f9 b1 3d 80 c5 05 be
       0.11848689 -0.007862389 0.08690208 -0.13063622
0000b0 5c 6e bf bd 46 c5 08 be 30 97 05 3e 34 ae 46 bd
       -0.09347221 -0.13356504 0.13045955 -0.048505977
0000c0 21 2a 02 be 31 eb a5 3d ba 4d 01 3e 97 84 04 bd
       -0.12711383 0.081015 0.12627307 -0.03235301
0000d0 36 18 e0 3d 3f 46 06 be 97 07 0b 3e 80 09 67 3d
       0.10942118 -0.13112734 0.13577114 0.056405544
0000e0 37 3e ed bd 3d 0b d5 3d 3f 07 b6 3d 56 ac fb bd
       -0.11584132 0.10402534 0.08888101 -0.1228873
0000f0 57 52 b4 3c f9 eb 55 3d b3 a3 e6 bd 41 27 c8 3d
       0.022011919 0.052226994 -0.11261692 0.09773112
000100 dc bc f6 3d 38 6d 85 3b 82 50 c3 3d 0e 72 64 bc
       0.12047741 0.004071858 0.0953684 -0.013943208
000110 b4 66 f3 3d fb e7 97 bd e1 c5 86 3c 33 7f ea 3d
       0.118848234 -0.07417294 0.016451778 0.114500426
000120 ff 94 ec bd d4 e4 50 bd e9 ab 90 bd 11 5a 14 3d
       -0.11551856 -0.050999478 -0.07064039 0.036218707
000130 99 ad bf bd 1e a3 21 3d 5b 2c 5c 3d 7b 11 85 bd
       -0.09359283 0.0394622 0.05375324 -0.06497475
000140 85 84 a5 bc b2 02 cb bd 00 b9 1d 3d 77 9b 1b 3e
       -0.020204792 -0.099126235 0.038506508 0.15196024
000150 16 08 dd bd 5e 66 53 3d 76 0b 51 3d 74 8a a1 3d
       -0.10792558 0.051611297 0.05103632 0.07887736
000160 af 98 67 bd b0 12 70 3d cd f8 1a bd 61 90 d2 3d
       -0.056542095 0.05861157 -0.03783493 0.10281444
000170 62 49 ce 3d 15 7e ef 3c 7a 21 16 3d b4 e2 83 bd
       0.100725904 0.029234925 0.03665302 -0.064397246
000180 27 c6 9f bd 47 cb c9 3d 14 8d fd 3b 32 bb 42 bc
       -0.078014664 0.09853225 0.007737765 -0.011885451
000190 cd ed d5 3d fe 30 25 bd 2c 61 08 3d 5e 3d d5 bc
       0.104457475 -0.040329926 0.033295795 -0.026030239
0001a0 46 d9 2b 3d 0b b8 5e 3d 24 c4 93 3d 5a 1e 72 bd
       0.041955255 0.054374736 0.07215145 -0.059110977
0001b0 3f c6 0e be 70 1d 95 3b 93 2d b4 bd e1 f1 e2 3c
       -0.13942812 0.0045506284 -0.08797755 0.027703227
0001c0 31 76 a6 bd 82 d7 fd 3b f6 7e fa 3d 79 26 b4 bd
       -0.08128012 0.007746638 0.12231247 -0.087964006
0001d0 22 59 e1 bc 5b d2 fd 3d cc 5e e5 bc 73 17 40 3d
       -0.027508322 0.12393638 -0.027999304 0.046897363
0001e0 5d 6b e8 bc bc 90 a5 bd d5 2b d2 bd 55 2a 08 3e
       -0.028371507 -0.080842465 -0.102622665 0.13297398
0001f0 f4 be 27 3d ec 25 f6 bd e5 c8 2a bd 1f 69 08 be
       0.04095359 -0.12018952 -0.041695494 -0.1332135
000200 63 ff 86 3d 06 14 d9 bc ed 65 fb 3b 34 ef ca 3c
       0.0659168 -0.026498806 0.0076720626 0.024772264
000210 59 95 8e bc 66 38 0a 3d 57 95 f3 3d de d0 67 3d
       -0.017405199 0.033745192 0.11893719 0.056595676
000220 c4 49 d9 bd 69 d7 99 3d ee 4f 37 3d 7d 0e c2 bc
       -0.10609773 0.07511789 0.04475396 -0.02368855
000230 74 6b 39 3e f5 87 65 bd a8 db a0 bd 08 e4 e0 bb
       0.18107396 -0.05603786 -0.07854396 -0.006863121
000240 9d 57 c6 3d 96 d4 15 be 71 a6 df bc bb e1 c4 3d
       0.0968468 -0.14631876 -0.027301045 0.09613367
000250 1a 12 d9 3c 1f ed fc 3d 0f 39 0b bd 15 4b a3 bd
       0.02649789 0.12349915 -0.033989962 -0.07973305
000260 a7 13 14 be 44 c8 84 bd 27 38 1d be 78 5b 59 3d
       -0.14460622 -0.0648351 -0.15353452 0.053065747
000270 67 22 04 bc f9 65 76 bd f4 fe b0 3d cd 5e 49 bc
       -0.008064843 -0.060155842 0.086423784 -0.012290669
000280 cc 37 7f 3d 9d 44 59 3d 59 10 d5 bc c0 83 46 3b
       0.06230907 0.05304395 -0.026008772 0.0030290931
000290 07 05 e6 3c f0 04 4e 3d 1a 01 06 bd d9 d7 be bd
       0.02807857 0.050297678 -0.032715894 -0.093185134
0002a0 1b 00 a8 3d 39 b6 e3 bd 6d 91 72 3d a2 5f 21 bd
       0.08203145 -0.111187406 0.05922072 -0.039397843
0002b0 b5 2f 18 3e ee 69 c6 bd e7 4d 0e 3d e0 ec da bd
       0.14861949 -0.09688173 0.034742262 -0.106897116
0002c0 bd 96 7e 3d 94 1d 78 3d 65 32 4d bd 90 2a 43 bd
       0.062155474 0.060575083 -0.050096888 -0.047648013
0002d0 62 da 3e bc ec 32 a4 3d a6 ac cf bd 82 b9 44 3d
       -0.011648746 0.08017525 -0.10140352 0.048028477
0002e0 b7 07 18 be f1 4d d2 bd 63 2f d1 bd 7b db 95 bd
       -0.14846693 -0.102687724 -0.102141164 -0.07317253
0002f0 c8 36 a1 bc 4f 4e 90 bd 0a a1 f4 bd 23 ac 63 bd
       -0.019679442 -0.07046186 -0.11944778 -0.055584084
000300 0f 6e c9 bc 86 b2 e8 3d b2 17 14 bc 16 d6 f8 bd
       -0.024588613 0.11362176 -0.0090388525 -0.12150209
000310 eb 18 b2 bd 7c e0 54 bd 35 ae b6 bd 39 ef 34 be
       -0.08696159 -0.051971897 -0.08919946 -0.17669381
000320 b5 5b cb bd fd 0e 00 be c7 66 be bd e8 44 d0 3d
       -0.09929601 -0.12505718 -0.09296947 0.10169393
000330 c0 d9 17 3e 4d 66 07 be f3 14 89 3d 89 ca e8 bb
       0.14829159 -0.13222618 0.06693449 -0.007104222
000340 49 9c ca 3d ac a0 8c bc f9 1d 19 be 01 03 37 3d
       0.0989309 -0.017166458 -0.1495284 0.0446806
000350 aa cc 12 bd f3 79 02 bd 05 2a b8 3d 92 d2 94 3d
       -0.035839714 -0.03185458 0.089923896 0.072667256
000360 79 5a bf bd 98 cb 02 3e 9c 48 a2 bd 13 dd 14 3e
       -0.09343428 0.12772977 -0.079240054 0.14537458
000370 07 eb d0 bd f9 f7 00 3e 44 10 71 3d 72 7a aa bc
       -0.10201078 0.12594594 0.058853403 -0.02081034
000380 5e 9f 01 3c ea ce d2 bd 6f 15 96 3d d3 c1 06 3c
       0.007911531 -0.10293372 0.07328307 0.008224922
000390 03 95 11 3e c8 4b 13 3e 30 fd 1e 3d 09 03 54 bd
       0.14217 0.14384377 0.038815677 -0.051760707
0003a0 f1 3e 6f bd 47 a7 8f 3d f8 0d 39 bd 3b c1 f9 3c
       -0.058409635 0.070143275 -0.045179337 0.030487647
0003b0 3a 64 95 3d 14 4e 64 3c f2 e6 ca bd 89 fe 67 3d
       0.07294507 0.013934631 -0.099073306 0.056639228
0003c0 2c d1 57 3d d7 71 40 bd 0e c6 a9 bd 50 5c 71 3c
       0.052689716 -0.046983566 -0.08289729 0.014731482
0003d0 84 23 cd 3c 89 5e a9 3c bb 96 9b 3d 82 f3 27 bd
       0.02504135 0.02067496 0.07597109 -0.04100371
0003e0 7d 36 bf 3b ad 5f 11 3d
       0.005835353 0.035491634
